.ipynb_checkpoints/models/cae.pth (torch, 29503 bytes, 10 tensors)

conv1.weight f4 [8, 3, 3, 3]
00000000: 6079 86bd abcf 28be ee16 bbbe 570b 013c
00000010: d220 17bd 67eb 30bd d56c b8bb e9b6 4cbe
00000020: e0bb 5abe 8a25 cdbd 03a1 91ba 470f 623d
00000030: 6f5e 69bd ee71 c1bd 87d4 09be 6d3f abbd
00000040: d928 0f3e d187 c83d 9942 b8bd dafc bcbd
00000050: e96a 07be 1b89 95be 3e06 61be 2a4b ddbd
00000060: 8607 b1be 4a87 78be 3c91 90be 51db b13d
00000070: 36b3 62be 1a67 cb3d c675 acbd b66a f037
00000080: e567 923d 3eb0 3abe fc2e a8bb 6a07 01be
00000090: 508c 4bbe d8d2 10be ad81 ffbc 2f68 13be
000000a0: d7e5 633d 9115 81bd 9c53 6abc cd93 8b3c
000000b0: 4a52 dbbd a36b 1e3d 4b27 a5bd f852 88bd
000000c0: f998 9abd 7204 7ebd bb17 e7bd 7cca 933d
000000d0: 9d49 953d ba05 47be b5ad abbc eab4 dcbd
000000e0: bc35 4e3d 6ac9 f43c 7d1d 013e e3d4 e33a
000000f0: 20a6 f83d d838 23be 569c 1e3e bc75 9abb
00000100: 2eaa 6a3d 54df 693d fed1 24bd 94d0 8c3e
00000110: 2fb6 683d fe6e dbbd 6e5b 19bd f555 a6bd
00000120: 28cd 9a3d c0ea 283e 9595 e33d f994 a9bd
00000130: bb37 8f3e 2b26 b93e 90a9 ecbc 9076 083e
00000140: a9b8 debd 30e4 24be 84e2 033e 37fd 08be
00000150: 0b68 2bbe b20f b43d df9a 2abe 0b7b 7f3d
00000160: 4a78 55be 30ca 173e 6487 e1bd d49a f0bc
00000170: 08c9 08be 49ab f03d 0ae1 6bbd 1991 38be
00000180: fdc7 12be ea85 f73d 6159 c4bd f407 7e3d
00000190: c13b 93bd 8c12 83bd 4cf6 0dbe 6486 083e
000001a0: cc82 963c 8a3c 7fbe e459 26be 457c a1bd
000001b0: 2b0a 35bd 7616 6fba 97f8 043e f64d 2a3d
000001c0: e84a 33be 6fb1 91bd f17b 123c 622b 80bb
000001d0: 82ff 443d 83f0 92bd c03d edbd 9a52 05be
000001e0: 56b2 5abd ce7c 23be 56a5 52be 4a29 9abd
000001f0: f1bf e2bd e8d5 7ebd 7ef7 c43d 207c 593b
00000200: ea26 de3d 279f 2b3e 6637 4cbe 34ba ac3d
00000210: e7c9 79bc a237 603e 64fc 113e 2918 1b3d
00000220: 3a62 5b3e 6b3f 823d 8541 ec3d aa5f b53e
00000230: 0f15 423e f4cf 413d 386d 633d c5a6 83bd
00000240: 2592 1bbc 005d 62bd 273e 13be 9922 a4bd
00000250: 8017 ed3d b696 003d acba 61bd 04dc 1c3d
00000260: 6e24 98bd aa22 3ebd 856e a3bd 1239 48bd
00000270: 6d26 e2bd 0366 5f3e d994 b5bd 5cd7 ab3c
00000280: 22bc 6cbd b332 d23d aea5 a7bc 790f bb3d
00000290: f8ed e2bd 7c48 5fbd 6514 37be 9ebd 07be
000002a0: 8fdb 013e 06ed 3ebe f84d e13d 5972 be3d
000002b0: 418b 44be 8d38 e8bd 0c3f 84bd c2d2 d23d
000002c0: a478 4bbe 7cea 55be 2e3e 8cbd d553 18bd
000002d0: e6c1 abbd c4e1 50be 306f fb3d 71c8 46be
000002e0: 6a93 d03d afb2 b53d 4edb f93d 83d8 19be
000002f0: 84d2 27be 790d bfbc 04b2 8d3d 5f31 3abc
00000300: 25b9 74be 3e81 cfbc d4f8 e0bd 7d3f e7bd
00000310: f2ac 393d db6a 8f3c 3e4e 38be cd5d 10be
00000320: 13fd 82bd e24a c5bd ceac 38be fc99 253d
00000330: 57bb 5dbe 8a98 2dbe 40ab b1bb efd6 0fbe
00000340: 9a54 e73c 7b68 60bb f09f cc3a d6c8 05be
00000350: caf4 92be 3312 d83d df9c 55be 65e3 593d
-0.06566119 -0.16485469 -0.3654093 0.007876239 -0.036896534 -0.043193247 -0.005628208 -0.1999165
-0.21360731 -0.10016926 -0.0011110607 0.05519035 -0.056974825 -0.094455585 -0.13459979 -0.08361707
0.13980426 0.0979153 -0.089970775 -0.09227915 -0.13224377 -0.29206166 -0.21975037 -0.10805352
-0.34576052 -0.24270359 -0.28235805 0.086844094 -0.22138676 0.099317744 -0.08420901 2.865992e-05
0.071487226 -0.18231294 -0.005132554 -0.12600484 -0.19877744 -0.1414293 -0.031189764 -0.14395212
0.055639114 -0.063029416 -0.014302161 0.01703825 -0.10709055 0.03867687 -0.08064135 -0.0665645
-0.075487085 -0.062015958 -0.11283823 0.07216355 0.07289431 -0.19435778 -0.020956853 -0.10776694
0.050344214 0.029881198 0.12608905 0.0017382171 0.12141061 -0.15939653 0.15489325 -0.004713742
0.057291202 0.057097748 -0.040239327 0.27502882 0.05681437 -0.107145295 -0.03744071 -0.08121864
0.07558662 0.164958 0.11112515 -0.082803674 0.27972206 0.36161932 -0.028889447 0.13326478
-0.10875065 -0.16102672 0.12879378 -0.13377844 -0.16738908 0.08792056 -0.16660641 0.062373202
-0.20846668 0.14823222 -0.11012152 -0.029370703 -0.13357937 0.1175142 -0.05758766 -0.180241
-0.14334102 0.12086089 -0.0958736 0.062019303 -0.071891315 -0.06400022 -0.13863486 0.13332516
0.018372916 -0.24925438 -0.16245228 -0.07885031 -0.04419915 -0.00091204734 0.12985454 0.041578256
-0.17509043 -0.07113921 0.008940683 -0.0039114216 0.048095234 -0.0717478 -0.115840435 -0.13019791
-0.05339273 -0.15965578 -0.20570883 -0.075274065 -0.11071766 -0.062215716 0.09617518 0.0033185557
0.10847266 0.1675993 -0.19943008 0.08433953 -0.015245891 0.21896222 0.14256436 0.037864838
0.21424189 0.06359752 0.11535934 0.35424548 0.18953346 0.04731746 0.05552408 -0.06428293
-0.009495293 -0.055264473 -0.14379178 -0.080144115 0.11576748 0.03139373 -0.055109665 0.03829576
-0.074288234 -0.046419777 -0.07980064 -0.04888255 -0.110424854 0.21816258 -0.08866281 0.020976715
-0.057796605 0.10263576 -0.020464744 0.091338105 -0.11080545 -0.054512486 -0.17878874 -0.13255927
0.12681411 -0.18645105 0.110011995 0.09299154 -0.19193746 -0.11338911 -0.06457338 0.10294105
-0.1987024 -0.2089023 -0.06847797 -0.037189323 -0.083865926 -0.20398623 0.12277067 -0.194124
0.10184367 0.08871972 0.12200032 -0.15023999 -0.16388899 -0.023321854 0.069187194 -0.01136431
-0.23898752 -0.025330182 -0.1098496 -0.11291406 0.04533095 0.017507007 -0.17998597 -0.14098282
-0.06395926 -0.096334234 -0.1803467 0.040430054 -0.21653496 -0.1695272 -0.005422026 -0.14046834
0.028238583 -0.0034241963 0.001561163 -0.13064894 -0.28702384 0.10550346 -0.20860623 0.053195376

conv1.bias f4 [8]
00000000: 5c76 c1bd 1234 61bd 6199 58bc 4bb2 55be
00000010: e267 063f 9649 453c 1eeb 1ebe ff1c 88bd
-0.094464034 -0.0549813 -0.013220162 -0.20868795 0.5250226 0.01204147 -0.15519378 -0.066461556

conv2.weight f4 [12, 8, 3, 3]
00000000: fdaf ea3d 2791 893e b626 db3e ea81 57be
00000010: 8796 b2bd 3517 703d d33c adbd 709e 08be
00000020: fb39 51bd 544b c93c 5286 7ebd 6aac 2e3d
00000030: 63ac 1cbd e81f 043e bda9 043e 35b9 86bd
00000040: 7957 423c 7c12 de39 d605 72bc b0ff dc3c
00000050: fa80 91bd 4498 853d f00d 5a3b 4e18 993d
00000060: 4f3a adbc 73a8 0c3d c2b8 90bd 6c3f af3c
00000070: 1999 fabc d93f 523d d80b 8dbd e37a 7a3b
00000080: 06e5 87bc 6511 273d fc7c 1abd 7c53 17bd
00000090: 52bd 983d 1b1f 2a3d 5261 4a3d f33a 5f3d
000000a0: 442f abbf 85f4 db3d 2c24 163d c154 dc3d
000000b0: d774 71bc 1fd9 93bd 18bc 7a3d 54c8 003d
000000c0: c914 103c 09dc b23d c4f6 56bb b577 02bd
000000d0: 01de bf3c b8d4 6b3d 09f2 fc3d 458b 89bd
000000e0: 1995 25bd db5d 033e 248a b8bb 76a7 68bc
000000f0: 7c5f e13c ae89 9f3d 0da5 6a3d a8e4 e43d
00000100: ca8c 26bd 759f 363d 8f45 233e 35c3 15bd
00000110: efd0 083d 752f 353e 3c1e 403d 0d26 e93d
00000120: bef5 11be ef71 87bd 751e 873c f7dd b2bd
00000130: 064f 9dbd 377c 273d 78ee 88bd 46cb 01be
00000140: 51d5 a9bd d524 29bd e43b c5bd c31d b33b
00000150: 08d5 1dbe 088b 3dbc a897 09bd c853 d1bd
00000160: 4d09 5c3d 85e9 d13a bdba f63c 275e d8bd
00000170: 47d4 e4bd cd26 08be 9c01 433d c467 fabd
00000180: c70f 35bd 6ea9 1fbe 6783 30be 9527 5bbd
00000190: 6c0e c53d 1388 7c3d 044f 3bbd 03c8 8dbd
000001a0: 5776 6abc c24f 313d 1e48 533c 66c6 c6bd
000001b0: 74bc bd3c 36ba 2fbe c226 f0bc 633c 6fbd
000001c0: 0a68 e4bc c358 c1bd b1f2 df3b a258 b8bc
000001d0: 2ed9 9bbd ab84 963a 098e 4abd ae6d d0ba
000001e0: 018a f2bd 0c4f 17bc f235 f8bc 8c8e 4c3d
000001f0: a38f 97bb 0dde d9bc 39d1 8f3d 1ed7 643d
00000200: 8d33 dd3b 8feb e4bc 5a73 d33d 8d8f b93d
00000210: 32a0 c53c 4d75 8d3d 7586 ee3d 13cc 283d
00000220: b8bc ccbd 323c f1bd 4199 01be 3234 64bd
00000230: fccf 8dbd 5948 74bd 96f1 1ebc 480f f23c
00000240: 288c 9abd 6939 74bd 12fd 27bd 4a20 9abd
00000250: 2d2e 3dbe 628a bcbd daf6 bebd 6720 bdbd
00000260: 0836 4fbe 9b12 1c3c c13c 91bd 98af edbc
00000270: a3d4 de3c e4a9 22be 48d1 c0bd c9f3 833b
00000280: bdbb bebd bfe8 03be 09f0 3c3e ecb6 f73d
00000290: fa5b bc3d b604 3f3e 7a7c cbbc d185 143e
000002a0: 5691 863e 827c 6a3e 323e 553d 234a 973c
000002b0: 27b5 d3bd c0dd a6bd 78aa 2bbd 8922 04be
000002c0: 5d95 06be 768d 15be 38e6 86bd aba0 553d
000002d0: 5e89 72be 52b3 cdbc 1521 04be 1a43 eebe
000002e0: 281a fbbe dce4 083e 969c 9ebd f89c 01be
000002f0: 1079 0a3d fb30 9dbc 83f0 bbbd f3c0 bb3b
00000300: fd15 25be 78f8 62be 2e3c a23c 82f2 57be
00000310: 7169 33be 3f2e a0bc 1aa5 8d3d 6313 81bd
00000320: c593 7cba 7337 e43d 468b 063e d7a9 6bbd
00000330: 0bb5 e5bd 29eb 88bd d736 0dbd 375d 91bd
00000340: df72 3abe 07ed 83bd 4054 debc cb30 9dbd
00000350: ea2f 00be c9bd 23bd e89c 37be 5216 f6bc
00000360: 058e f83e 1fa8 df3e 6394 d33e efb8 30bd
00000370: 99aa bf3c 2e64 803d 700c 503e c81c d23d
00000380: 51cd f33d bbd6 0cbe 5799 cdbd adae 06be
00000390: 0be3 333c 601c 37be 6163 5abd cdfd 14be
000003a0: 5586 01be a7a3 21bd 6e99 e9bc 89e2 21bd
000003b0: e46e 87bc cb45 f33d 97ca 633e dd8b 143d
000003c0: 884d c3bd bf6d 723d 50c0 89bd 0cbd fa3c
000003d0: 6964 6dbd b5b9 863d b09e f23b 92f8 debd
000003e0: e26a a73c 6cde 7ebd d56b cb3d 4ce8 18bd
000003f0: 967f efbd 497f 933d 4cad a23c 2211 4e3e
0.11459348 0.26868555 0.42802972 -0.21045652 -0.08720117 0.058615882 -0.08458867 -0.13341689
-0.051080685 0.024572052 -0.062139817 0.042644896 -0.03825034 0.12902796 0.12955375 -0.06578294
0.011861675 0.00042356912 -0.014771899 0.02697739 -0.071046785 0.06523183 0.0033272468 0.07475339
-0.021145968 0.034340333 -0.0706649 0.021392547 -0.03059058 0.05133042 -0.06887025 0.003822022
-0.0165887 0.040788073 -0.03771685 -0.03694485 0.07457985 0.04153357 0.049409218 0.054499578
-1.3373799 0.10739998 0.03665559 0.10758353 -0.014737329 -0.07219147 0.061214536 0.031441048
0.008794018 0.087333746 -0.0032800892 -0.031852443 0.02342129 0.05757591 0.12350852 -0.06716017
-0.040425394 0.12828772 -0.005631702 -0.014200082 0.02751135 0.07789932 0.05728631 0.11176425
-0.04066161 0.044585664 0.15944503 -0.036563117 0.03340238 0.17693885 0.046903834 0.11384211
-0.142539 -0.06613528 0.016494015 -0.08733743 -0.07681088 0.040889945 -0.06686109 -0.12675199
-0.0829264 -0.04129489 -0.09630564 0.0054661944 -0.15413296 -0.011568792 -0.033591896 -0.10221058
0.053719807 0.0016015029 0.03011834 -0.10564833 -0.11173301 -0.13296051 0.047608957 -0.12226823
-0.0442045 -0.15591976 -0.17237626 -0.053504545 0.096218914 0.061653208 -0.045729652 -0.06922915
-0.014310441 0.043288954 0.012895612 -0.0970581 0.02316115 -0.17160878 -0.029315356 -0.0584072
-0.027881641 -0.09440758 0.006834351 -0.0225032 -0.07609783 0.001148363 -0.04945186 -0.0015901828
-0.118427284 -0.009235155 -0.03029916 0.04994063 -0.004625277 -0.02659514 0.07022328 0.055869214
0.00675053 -0.027944354 0.10324736 0.09060583 0.024124239 0.06907139 0.116467394 0.041210245
-0.09996933 -0.117790595 -0.12656118 -0.05571384 -0.069244355 -0.05963931 -0.009701153 0.029548302
-0.07546264 -0.059625063 -0.04101283 -0.0752569 -0.18474646 -0.09206082 -0.09324427 -0.09234696
-0.20235455 0.00952592 -0.07091666 -0.029014394 0.027201002 -0.1588512 -0.09414917 0.004026864
-0.09313152 -0.12881754 0.18450941 0.120954365 0.09197231 0.18654141 -0.024839628 0.14504172
0.26282758 0.22899058 0.052061267 0.018467968 -0.103372864 -0.08147764 -0.04191062 -0.12903799
-0.13142915 -0.14604744 -0.065868795 0.052155178 -0.23685214 -0.02510992 -0.12903245 -0.4653557
-0.49043393 0.13368553 -0.0774471 -0.12657535 0.03380686 -0.019188395 -0.09176733 0.0057297884
-0.16121669 -0.22165096 0.019804087 -0.21088603 -0.17520691 -0.019553302 0.06916256 -0.06302526
-0.00096350565 0.111433886 0.13139066 -0.05753502 -0.11216172 -0.06685478 -0.034476127 -0.070978574
-0.18207882 -0.06441694 -0.027139783 -0.07675322 -0.12518278 -0.039975915 -0.17930949 -0.03003994
0.48545852 0.43682954 0.41324148 -0.043145116 0.023396777 0.06269108 0.20317245 0.10259396
0.11904395 -0.13753788 -0.10039013 -0.13152571 0.010979424 -0.17881918 -0.05331743 -0.14549942
-0.126489 -0.03946271 -0.028515544 -0.03952268 -0.016532369 0.11878546 0.2224525 0.036266197
-0.09536272 0.059186693 -0.06726134 0.030607723 -0.057957087 0.065783896 0.007404171 -0.10887255
0.020436708 -0.062223837 0.09932677 -0.03733091 -0.11694257 0.07202012 0.019858025 0.20123723

conv2.bias f4 [12]
00000000: 1c2f e33e 46d6 e4bd 6cc9 93be d876 9d3e
00000010: 8eab bd3e ff2f 06be 459e 383f 7db3 e2bd
00000020: d734 f33e e1e6 8ebb fddc 1e3f 0919 aabd
0.4437188 -0.11173682 -0.2886461 0.30754733 0.37044948 -0.13104247 0.721165 -0.11069391
0.4750125 -0.004361019 0.6205595 -0.08305556

conv3.weight f4 [16, 12, 3, 3]
00000000: f77b 0cbe 190f 553d 427f 52be 9788 3e3d
00000010: eb3a 3f3d 59e2 a7bd eb3e 25be 37f4 fb3d
00000020: f622 44bd d0a8 03be 528d 0ebe 5735 a73b
00000030: be37 ab3d b393 923b c772 56bc ef95 203e
00000040: f0eb b13d 77a2 163e aca0 d4bd 8a09 2a3c
00000050: bb14 e3bd 4303 2a3e 70d0 183e 6894 3c3d
00000060: 7fb2 893b 6b3b 5b3d 5344 c73d 6b66 a9bd
00000070: 114c a8bd d6ce eabd 7d41 a1bc 5ef9 593d
00000080: ddba 66be 4585 67bd 0ceb 363b e014 fcbd
00000090: 01ad 97bd d58e 6bbb 6c0a d1bb 6215 28bd
000000a0: fff6 bd3d bedc b03d 2a90 953d ed00 f7bc
000000b0: 6dc1 1e3b 5c8a 19bd 5f32 0b3d f2fe d63c
000000c0: f032 a83d 61f7 2b3d d040 2a3e 63b5 333e
000000d0: c988 c83b 2a6a 8c3c fe9a e8be 1ad1 49bf
000000e0: 476b f1be f602 cabe 42c0 48bf c37c 22bf
000000f0: 2d17 0abe 44a0 debe 6196 f6bd eda9 a73d
00000100: 0154 ab3d 6ee7 75bc ab29 b3bc 2b0f 883d
00000110: e1c8 903d d50e 4fbd 2f5a 873d d4b5 843d
00000120: 60e0 6e3e 1eba 70be 3bec d7be f545 4bbf
00000130: 471a 4ebf 6957 dcbf 95e9 4abe 20b1 22bf
00000140: 86f1 dcbd 208f eabc 55b3 14be 8235 1abe
00000150: 2b2d 7f3c 2d58 92bc e340 513c 4677 05bd
00000160: 6cd2 983d 77eb 053d 616c b1bd 2ca6 bcbd
00000170: 6018 533b 2171 2dbe 9dff 32be 627b e6bd
00000180: 98a8 093c 0f3d 373d c03e b43e b2b9 a1bc
00000190: 89e2 b7bb 77e4 65bd 364d e7bc 72ed 1f3d
000001a0: b36b e0bc 3d7a 13bc 1e3a 23bc 77fd 8f3d
000001b0: 43dc 883d bc30 99be 3ba7 aebd 5294 16be
000001c0: 5719 99bd a4c9 13be 6138 08bd 2020 efbb
000001d0: 51b5 573d b899 0ebe eb67 b3bc 60e4 c7bd
000001e0: e2f2 c3bd 637c 97bc 4c26 d43c bccf d7bd
000001f0: 479c 6bbd da1e 133c 517c 31bd 6c5f e1bd
00000200: 90be 9fbd b6d6 973b 2921 1a3e 4522 d03d
00000210: 3277 2ebb 0099 6f3c 2af8 803e dd46 97be
00000220: d584 aebd f283 67be 5997 6f3e 83e0 013f
00000230: cd6f 363e a321 57be a49f 6d3e 99ef 97bd
00000240: 5095 353d 412b 9e3d 9fe4 de3d 2de4 473d
00000250: 9605 9bbe d022 f93d b415 60ba f348 0e3d
00000260: 6dfc d83d 6225 15be 6dee cfbd 7914 fabd
00000270: 8c9b 823c 2e9a a93c 170d 85bc 5e4f c13c
00000280: d94d 2bbd c5b1 d5bd a0f6 163e cee0 853d
00000290: 23ab 193e 7508 5e3d 3334 15bf 65d0 05be
000002a0: 31e9 e13b fb03 cabe 66c8 7a3c ed6d 99bd
000002b0: 1188 623c 2f26 c6bd cc45 d9bd 9e72 d3bd
000002c0: 571c 0dbe acd0 01be 79fd 613b e8bb 733b
000002d0: 8345 b93d 4da4 12be 937b 8abd a836 22be
000002e0: 14ab 113e bac1 303e 5174 a1bd 4ca9 7f3e
000002f0: 5af3 363e 4b91 4bbc 414d 16bc 14ec 4dbd
00000300: 24fc 393d a6e0 afbc d487 5e3d d484 d1bd
00000310: 1cb1 413d af30 ee3c b007 be3d 5eda d03d
00000320: 15f8 df3d 342b 19be 0d35 b7be 65ae e7bc
00000330: c4f0 333b 2fad c23d f475 1f3d ec54 af3b
00000340: 1a1e 16be d05a 59bd 1ff2 8abc 8356 2abc
00000350: 5239 163d e0c2 23be 5d6d c9bd d1b5 2abd
00000360: f556 81bd e695 01bd ffcd 07bd 2670 efbd
00000370: b109 283d 1ac6 a9bd 4d23 71bc 8bf9 433d
00000380: 4546 7dbc cbb3 323d 5805 a33b a1d5 dbbd
00000390: 230f 6ebd a79e bcbd bab4 e0bd a1be 2abd
000003a0: 95cc 83bd 3200 163d b38a b7bd 30b2 c0bd
000003b0: 1dcb 843c d0fe 00bd af74 bbbd 45ea d9bd
000003c0: 8d62 9dbd d86c 3b3c daab 51bd eae9 debd
000003d0: bb2c bdbc f01c ea3b 86aa 6cbd b97f 9ebd
000003e0: 5251 4b3d 8019 aabd 1465 4abd b898 16be
000003f0: 6950 a23a db3b d9bd 6f96 093d df15 c0bd
-0.13719164 0.05201635 -0.20556358 0.04651698 0.046687048 -0.08197469 -0.16137283 0.1230244
-0.047884904 -0.12857366 -0.13921097 0.005102794 0.08360241 0.0044731735 -0.0130888885 0.15682195
0.0868758 0.14710413 -0.10382208 0.010378251 -0.110879384 0.16602807 0.14923263 0.04603997
0.0042021866 0.053523462 0.09729829 -0.08271488 -0.082176335 -0.11465232 -0.019684548 0.05321633
-0.2253222 -0.05652358 0.0027911095 -0.12308669 -0.07406045 -0.0035943289 -0.006379416 -0.041036017
0.092756264 0.08635853 0.07302888 -0.030151809 0.0024224177 -0.037485465 0.033983584 0.026244614
0.082128406 0.041983966 0.16626287 0.17549662 0.0061198217 0.017140467 -0.4543075 -0.7883469
-0.4715216 -0.39455384 -0.7841836 -0.6347162 -0.13485403 -0.43481648 -0.12040401 0.08186708
0.08365632 -0.01500879 -0.021870455 0.06643518 0.070695646 -0.050551254 0.06608998 0.064799935
0.2332778 -0.23508498 -0.42172417 -0.7940362 -0.80508846 -1.7214175 -0.19815667 -0.6355152
-0.107882544 -0.0286327 -0.14521535 -0.15059474 0.015574734 -0.017864311 0.012771818 -0.03258445
0.0746201 0.03269526 -0.0866325 -0.09211382 0.0032210574 -0.16937687 -0.17480321 -0.11254002
0.008402012 0.044735964 0.35204124 -0.019741867 -0.005611722 -0.056126084 -0.02823506 0.039044805
-0.027395105 -0.009001312 -0.009962587 0.070307665 0.066826366 -0.29919994 -0.085279904 -0.14705017
-0.07475536 -0.14432389 -0.033256892 -0.007297531 0.05266315 -0.13925827 -0.021900138 -0.09760356
-0.095678106 -0.01849193 0.025897168 -0.10537669 -0.057522085 0.008979524 -0.043331448 -0.110045284
-0.07800019 0.00463375 0.15051712 0.101627864 -0.002662134 0.01462388 0.25189334 -0.29546252
-0.085214294 -0.22608927 0.23397578 0.507332 0.17816086 -0.21008925 0.2320543 -0.074187465
0.04433185 0.07723094 0.1088345 0.04880159 -0.302777 0.12164843 -0.0008548156 0.03473754
0.105950214 -0.14565042 -0.10152898 -0.12210936 0.015943311 0.020703401 -0.016241593 0.023597416
-0.04182229 -0.104342975 0.14742517 0.06537019 0.1500669 0.054207284 -0.58282775 -0.13067777
0.0068942537 -0.39456162 0.015306568 -0.0749167 0.013826386 -0.09675252 -0.10609016 -0.10324596
-0.13780342 -0.12677258 0.0034483357 0.0037190858 0.090464614 -0.14320488 -0.06761851 -0.15841162
0.14225417 0.17261401 -0.07883514 0.24966925 0.17866269 -0.012424777 -0.009173692 -0.05027397
0.045406476 -0.021469425 0.054328755 -0.10230413 0.047288045 0.029075949 0.0927881 0.101979
0.1093599 -0.14957887 -0.35782662 -0.0282814 0.002745674 0.095056884 0.03893085 0.0053506996
-0.1465992 -0.05306512 -0.016961155 -0.010396603 0.03667576 -0.15992308 -0.098353125 -0.0416773
-0.06315414 -0.031637095 -0.033155438 -0.116913125 0.041024867 -0.08289738 -0.014717889 0.047845405
-0.015458648 0.043628495 0.0049750023 -0.10734106 -0.058119904 -0.09209948 -0.10971971 -0.041685704
-0.06435505 0.03662128 -0.08962002 -0.094089866 0.016210133 -0.031493008 -0.09153115 -0.106403865
-0.07684813 0.011439525 -0.05118928 -0.10884459 -0.023092618 0.007144563 -0.05777981 -0.07739205
0.0496381 -0.08305645 -0.0494128 -0.14706695 0.0012383583 -0.1060712 0.03359073 -0.093791716

conv3.bias f4 [16]
00000000: 15d9 bdbe bed5 0f3f a1bc 55bc 2805 13be
00000010: 6f86 d23e 4f98 b3be 4a82 16be dfe6 043f
00000020: 5033 163e ee52 a7bd 4ff6 403e 0046 c5bc
00000030: 177a febc 3fd3 16be c00e 25bc b9f5 043e
-0.37079683 0.5618552 -0.013045461 -0.14357436 0.4111819 -0.3507714 -0.14698139 0.5191478
0.14668012 -0.081701145 0.1884396 -0.02408123 -0.031064076 -0.14729021 -0.010074317 0.12984361

t_conv1.weight f4 [16, 12, 4, 4]
00000000: 31a7 3a3e 1d0b 943d ca12 49bd 6112 743e
00000010: 431a 8a3d 509d 0dbe 41b1 a8be e78b 6bbd
00000020: 875a f83d 6391 35be 4596 59be a421 10bd
00000030: fb22 033e a04e 95bc 647a 6ebe 5dd9 103d
00000040: 74cf 083d 242d 4a3d f8b6 04bd 3c8c f23c
00000050: 6c2b adbc 6cf8 1e3d 4032 c6bb 6afa 4abd
00000060: f6c0 4abd 6e19 583d 7414 a4bc b074 633c
00000070: 4ca7 ce3c 893d ee3c 903f 293c a81a 2fbd
00000080: 28f5 373d 7824 1dbc d073 d03c 40b5 8d3d
00000090: ead9 333d a4c4 2e3d 0011 fd3c 3cc5 c6bc
000000a0: ba2b 89bd 9809 c43c 8848 58bd 66a9 8e3d
000000b0: ccae ba3c 70a4 a23c 182d 553d eef5 abbc
000000c0: acb6 a2bc a215 983d 3c5e 803e 9257 d9bc
000000d0: c158 1e3e 6354 d23e c12d 1b3f ebcc 153e
000000e0: 76b2 dabc fa2c b73e c7f6 e53e 8387 373e
000000f0: 6893 5dbe 23a2 a13b 0767 463e fb33 13bd
00000100: 4d43 69bd e4ba a53c 4074 18bb 802c cd3c
00000110: 9a9f 4bbd af8b 31bd 66f0 523d e03a bd3b
00000120: c002 35bb b068 b5bb a29a 363d 2a2e 8dbc
00000130: 48ba 7b3d 44c1 29bc 009a 153c d402 7bbc
00000140: b30c 43bf 20b9 d0bd 06d0 1c3f 3d66 5dbe
00000150: 3cb5 673e 9bba 123f 3673 823f 7fda 253f
00000160: f690 fb3d 27ba 953e c64e 343e ce67 533d
00000170: 260e 4a3e 938d 593f b50b 973f 9826 8b3f
00000180: 4451 0cbd a532 a93d 7c8c b33e c9b9 7ebe
00000190: ceb9 063e 8122 843e 07e5 253f 8afd 9c3d
000001a0: 30bd a73d 8d54 f73c f7f0 c43e 6a59 96bd
000001b0: 70ee d9bd af41 a4bd c5cd 513e ab5f 1c3b
000001c0: e6b3 41bd 1498 e4bc c096 c0bb 260b 64bd
000001d0: e066 c33b d477 a63c f39c 22bd 7645 1cbd
000001e0: 7171 25bd bc35 2fbd 7e05 17bb b633 19bd
000001f0: f490 0cbd 2c81 253d bdb5 d2bc d8da ab3c
00000200: 74f9 513d 52d0 9dbc a620 3c3d 0083 643c
00000210: 2851 1c3c 0235 e4bc 7e61 c4bc 6b68 2fbd
00000220: 707c dfbb 5d1d 63bd db66 12bd 8a74 023d
00000230: 10e5 5fbc f018 cebb f49a 6e3d 8641 393d
00000240: 5569 383e 92e9 0b3f 982e 363e d412 e13e
00000250: 91fc 15bd 5b68 693e 52f2 23be e57b 41bd
00000260: 76bf 303e 3731 4dbe 5efe c0be 4861 55be
00000270: 7524 c33e ef61 e43d 2ee3 44be ba12 efba
00000280: 46eb 8a3d 0fa7 313e 0745 13bd 9de6 ad3c
00000290: 40ea 69be 6428 a3be c77c fcbe 419c cabe
000002a0: 64e8 36be c388 52be 6bc1 04bf 4b6f 81be
000002b0: 3b15 c53d 5390 cfbc 4250 63be bf9f af3c
000002c0: 4356 5fbc dd62 033c 8b79 6b3d b5bc f53d
000002d0: 83fe dcbd 15f4 78bd 2d71 f0bd f453 bb3b
000002e0: 7806 0bbe a634 e6bd ef9a acbd 3bda bdbc
000002f0: 3552 dcbd 27f6 fabd e8c0 babd e395 cabd
00000300: d750 913d a5b8 d63c 7fc8 f43d f2af 283e
00000310: f86f 0e3e e4ab 083d 8f63 d2bd 65ee eb3d
00000320: 8abf 5c3d d22c bebd 9436 b8be 85aa e43d
00000330: 5483 3a3e 1c41 76bd 80ba 24be 069a 5c3e
00000340: 6d92 b4bc 5189 8abd bcf3 33bc 20f6 a9bd
00000350: d685 60bd 905d a0bd 6e1a d0bd 9bf0 0ebd
00000360: 7cf4 383b 81f9 3abd b88c 28bd 346c 81bc
00000370: 3d7a ccbd 8aff 8abb 2165 4fbc 409c 00bc
00000380: 3eb8 c0be 4bf3 51bf b766 17bf 37e4 efbe
00000390: a56b 673e f7c7 01bf fc84 9c3d 0219 3abf
000003a0: 91a0 2ebe 64a5 c6bd 08aa b93d 953d 93bd
000003b0: c973 85bc ddfe 57be a4aa d23e c2c7 cf3a
000003c0: 86a5 36be 66e4 433c be54 5d3d 4e4c 3ebe
000003d0: 5e32 483d 0bf0 9f3e 140c d33e d19a 9b3d
000003e0: 60ea 46bd 6347 963e fac1 ce3e 2e89 c53d
000003f0: 0ce1 17be bc67 aabc 622d bf3d e99d 29be
0.18227841 0.07228682 -0.049090184 0.23835136 0.0674329 -0.13829541 -0.32947734 -0.05750647
0.12126642 -0.17731242 -0.2124873 -0.035188332 0.12806313 -0.018225968 -0.23288876 0.035363544
0.033400968 0.049359456 -0.032401055 0.029607885 -0.02113887 0.038811132 -0.0060484707 -0.04955522
-0.04950043 0.052758627 -0.020029284 0.013882801 0.025226258 0.029082077 0.010330096 -0.04275003
0.044911534 -0.009591214 0.025445849 0.06919336 0.04390899 0.042668 0.030891895 -0.02426397
-0.06697793 0.023930356 -0.052803546 0.06965904 0.022788428 0.0198538 0.052044958 -0.020991292
-0.019862495 0.07426001 0.25071895 -0.026531015 0.15463544 0.41080007 0.6061669 0.14628951
-0.026696425 0.35776502 0.4491484 0.17922787 -0.21638262 0.0049326583 0.1937524 -0.035938244
-0.05694895 0.020230718 -0.002326265 0.025045633 -0.049712755 -0.043346103 0.051498793 0.0057748407
-0.0027620047 -0.0055361614 0.044581063 -0.017233927 0.06145695 -0.0103610195 0.009130955 -0.0153204985
-0.7619125 -0.1019156 0.6125492 -0.21621032 0.22627729 0.5731599 1.019141 0.64786524
0.122835085 0.29243585 0.17608175 0.051612668 0.1973196 0.8498165 1.1800448 1.0871153
-0.03425719 0.08261613 0.3506812 -0.24875559 0.13156816 0.25807574 0.64802593 0.07665546
0.081903815 0.030191684 0.38465092 -0.07341273 -0.106411815 -0.08020341 0.20488651 0.0023860733
-0.047290705 -0.027904548 -0.005877346 -0.055674694 0.0059631914 0.02032081 -0.03970046 -0.03815218
-0.04039139 -0.042775854 -0.0023044045 -0.03740283 -0.034317926 0.04040639 -0.025721425 0.020978376
0.051263288 -0.019264374 0.045929573 0.013947248 0.0095408335 -0.027857307 -0.02397227 -0.04282419
-0.006820254 -0.055447925 -0.035742622 0.03184942 -0.013665453 -0.006289594 0.058253244 0.045228504
0.18008931 0.54653275 0.17791212 0.43959677 -0.03661782 0.22793715 -0.16010407 -0.047237296
0.17260537 -0.20038305 -0.37694067 -0.20837891 0.38113752 0.11151492 -0.19227287 -0.0018239834
0.06783156 0.17348884 -0.0359545 0.021228129 -0.22843266 -0.31866753 -0.49313948 -0.39572337
-0.17862087 -0.20559983 -0.5185763 -0.25280222 0.0962319 -0.025337374 -0.22198585 0.021438478
-0.013631406 0.008019176 0.05748896 0.11998884 -0.10790732 -0.06077965 -0.117403366 0.005716795
-0.13576686 -0.11240511 -0.08427989 -0.02317535 -0.10757867 -0.12253981 -0.09118825 -0.0989187
0.07095497 0.026211092 0.11952304 0.16473368 0.139099 0.033367053 -0.102728955 0.115200795
0.053893603 -0.092858925 -0.3597914 0.111653365 0.1821416 -0.060120687 -0.16086769 0.2154313
-0.022042478 -0.06764472 -0.010983404 -0.08298898 -0.054815136 -0.07830346 -0.10161291 -0.034897428
0.0028221896 -0.0456481 -0.041149825 -0.015798666 -0.099842526 -0.0042418884 -0.012658388 -0.007849753
-0.37640566 -0.8201186 -0.59141105 -0.46853802 0.22599657 -0.5069575 0.07642552 -0.7269441
-0.17053439 -0.096995145 0.09065634 -0.0718948 -0.016290562 -0.21093316 0.41145813 0.0015852379
-0.1783658 0.01195631 0.054035895 -0.18583795 0.04887616 0.31237826 0.41220152 0.07597888
-0.04856336 0.2935134 0.40382367 0.096453056 -0.14831942 -0.020801418 0.09334828 -0.16564144

t_conv1.bias f4 [12]
00000000: ae38 3fbe 5353 92bd 5124 debd b558 99bc
00000010: 4aa5 98bd fd0a f53e 71c1 12bd 90c6 20bd
00000020: eaf1 87bd 2155 94bd 7188 d33e ecd3 dbbc
-0.18673965 -0.07144799 -0.108467706 -0.018719057 -0.074534014 0.47859946 -0.03582901 -0.039251864
-0.06637938 -0.072427996 0.41315034 -0.02683445

t_conv2.weight f4 [12, 3, 4, 4]
00000000: 1011 5a3d cafb 2c3e 2ce3 ae3b 2fef d33c
00000010: f9c1 a63d d9d2 273c ad0f c5bd 5e6f f73d
00000020: f095 c3bc 2a40 3cbe 6512 a2be ffc6 7ebd
00000030: 8756 b2bc f034 7b3d 411c 723c b4bd b23c
00000040: 7a23 0fba ccac c63d 1724 33be 7c2b 52bd
00000050: 2220 8a3d e657 bbbc 81ae 83be 0200 bb3d
00000060: 0e48 d2bd 525c 9bbe 3409 f1be 3134 13be
00000070: 90d6 d2bb a4a2 8d3d 0759 adbc a2e7 b9bd
00000080: 29a0 8bbc 9375 223e 004d fcbd 32d4 b9bd
00000090: 1727 243e 0d85 303d 78bb 83be 911d fa3d
000000a0: c3aa dc3c 76d5 34be 7cfe ecbe e454 19be
000000b0: 7ef4 9dbc ccea b93d da28 e7bc f8b2 f8bd
000000c0: ed65 463e 3489 203b a3ce 9339 3f1f b43d
000000d0: 96d6 73bd 64fc dd3c 85ec 003e 110c 123e
000000e0: 5db7 6b3c b296 033e 4398 31bd fe14 2f3e
000000f0: 067e 77bd 86e9 84bc 7709 eb3d 3a69 483e
00000100: 5be4 993c ceb1 543e f3ed 0b3e 437b e33b
00000110: c2d6 fa3c c101 fd3d ba8f 653d 37ed cd3d
00000120: 3583 a7bd 9f19 173e db0d 77bb 8345 fd3d
00000130: da8b c03d a7ee 063c 7a50 a73d 7822 b13c
00000140: 60a9 7d3c b93a 303c 6bc3 18be a29e a53d
00000150: e337 04bd 4b9a 0dbe 79c7 56bd 4efc 1abe
00000160: 7cdd 90bd a820 313e 711e 703c 45cd d33d
00000170: 434d f73d 15ea 4b3e 4719 513e a7bf f43d
00000180: 8079 2bbe 7a38 8e3e df3e 27bd c8e9 3cbd
00000190: 74a0 fdbe 886a 803e 3a9e a1bd 06d6 00be
000001a0: b9cf 13bf 5784 143e ab83 4bbe e445 02be
000001b0: c15c 18bf cb72 8c3f 42a7 f13d acc8 4a3e
000001c0: 988c c4bd 8d87 b53e da9e 153d e1d8 5ebb
000001d0: 0c16 b3be f2eb bb3e 20e3 0c3d c3df cd3d
000001e0: b3fd b8be 5b28 ab3e b4a8 943d 62b5 263e
000001f0: b422 bc3c ea7b 8b3f 3bf3 6d3e afc6 9dbd
00000200: 59b0 68bc 446a 803e 22ef 9dbd 6620 2fbd
00000210: 41f6 c8bd 9018 923e 261f fcbd 433e 08bd
00000220: e06d b7bd e940 5f3e bae3 043d bcaf 81bb
00000230: 7c29 c83f 1f11 813f fe67 b63e 21d1 123e
00000240: 9078 8b3b 8afc 243d fbe5 4abc fffb 913c
00000250: 297e 87bd 0eba ae3c 76ec 813d 07ac b33b
00000260: fd00 4e3d cded df3d ee37 3a3e c0d4 bd3d
00000270: 14e7 8b3d 292a 24bd f734 8c3d d84e c83d
00000280: 1d7b 873c b36b f63c 92ae 553d 21d3 e33c
00000290: 57a1 9a3c 8968 c83d a485 883e bbff 893d
000002a0: 8b52 9e3d 1780 5b3e 8364 cc3e 4a93 1a3e
000002b0: 81a3 903d 491d 833b 2d1c 113e 549c bc3d
000002c0: 7ef3 103d 3da9 5abd 986f 8c3d d681 653d
000002d0: 5ac0 01bd 3faf 793d eefe b63e 462a db3d
000002e0: 55eb 9f3b 16a9 333e 6341 043f 3166 793e
000002f0: 029b e03a 5640 423c 7b99 9e3e 96e0 403e
00000300: a652 cabd ff08 803d 80a4 e4bd 7962 40be
00000310: 9928 78bd 7a93 7bbc a07a 923d 995f 25be
00000320: 0b32 08bd 7333 38be ec5d 31be bd70 7c3d
00000330: cfa6 15be 59a5 313d 9abb 4dbe 6acd afba
00000340: b771 f2bd 8fc8 d7bd 36ca 66bc 4893 943d
00000350: ca8c b7bd 85ed 873d 4bfb b3bd d426 d1bc
00000360: f717 50be fec9 193c b82d 043c 7189 6fbd
00000370: 6fe7 c43c cd57 723d 60b2 c6bd 2b06 5cbd
00000380: 94cd 5e3d 20e5 2fbe d761 98bd d721 29be
00000390: e6a7 093d 8525 acbd bc90 123c f143 84bc
000003a0: e5fc 9dbd a7cc 14be 38df 2cbe 197d 91bd
000003b0: 0d04 4d3d c6fd 683d b8ab 71bd 5f0a a2bc
000003c0: aaba 893f efa8 3bbe bc36 10bd c174 ac3d
000003d0: c384 cc3e 34b9 093f fb9b 083f 1388 a73d
000003e0: 6871 1e3e 5b6d 853e ac96 6c3e 5fc8 36bd
000003f0: 1628 0dbd b52c 3bbd ad31 943b c631 ae3c
0.05323893 0.16892925 0.0053371396 0.025870888 0.08142466 0.010243141 -0.096221305 0.120817885
-0.023875207 -0.18383852 -0.3165466 -0.062201496 -0.021769775 0.061329782 0.014777244 0.021818973
-0.00054603035 0.09700927 -0.17494236 -0.051311 0.0674441 -0.022869062 -0.25719073 0.09130861
-0.102676496 -0.30343872 -0.47077334 -0.14375378 -0.0064342692 0.06915787 -0.021160616 -0.090773836
-0.017044144 0.15865164 -0.12319374 -0.09073676 0.16030537 0.043095637 -0.25728965 0.122126706
0.026936894 -0.17659554 -0.46287906 -0.1497379 -0.019281622 0.09077987 -0.028217722 -0.121435106
0.19374819 0.0024495842 0.0002819198 0.08795022 -0.059530817 0.027097888 0.12590225 0.14262415
0.014386979 0.12850454 -0.0433581 0.17097852 -0.06042292 -0.016224634 0.11476415 0.19571391
0.018785646 0.20770952 0.13664989 0.006942184 0.030619983 0.1235385 0.05604527 0.10055011
-0.08179323 0.14755867 -0.0037697467 0.12366774 0.094016746 0.00823561 0.081696466 0.021622881
0.015482277 0.010756188 -0.14918296 0.080868974 -0.03227986 -0.1382839 -0.052436326 -0.15135309
-0.07073495 0.17297614 0.014655695 0.103418864 0.120752834 0.19913514 0.20419799 0.11950617
-0.16745567 0.27777463 -0.040831443 -0.04612139 -0.4953648 0.25081277 -0.078915074 -0.12581643
-0.57738835 0.14503609 -0.19874446 -0.12721974 -0.5951653 1.0972532 0.1179948 0.19803113
-0.09597129 0.3545498 0.036528446 -0.0034003782 -0.34977758 0.3670345 0.03439629 0.10052445
-0.36131057 0.33429226 0.0725874 0.1628013 0.022965766 1.089719 0.23237316 -0.077039115
-0.014202201 0.25081074 -0.077116266 -0.042755507 -0.09812594 0.28534365 -0.123106286 -0.033262502
-0.08956504 0.21802105 0.03244374 -0.0039577167 1.563766 1.008335 0.35626215 0.14337589
0.0042563155 0.040279903 -0.012383933 0.017820356 -0.0661586 0.021328952 0.063439295 0.0054831537
0.05029391 0.10934029 0.18185398 0.092690945 0.06831184 -0.04007927 0.0684604 0.09780663
0.016538197 0.030080652 0.052168436 0.027810635 0.018875761 0.097855635 0.2666446 0.0673823
0.077305876 0.21435581 0.39920434 0.15095249 0.07062436 0.004001294 0.14170904 0.09209505
0.035388462 -0.053384054 0.06857222 0.056032024 -0.03167758 0.060958143 0.3574137 0.107014224
0.0048803487 0.1754497 0.5166227 0.24355389 0.001713604 0.011856159 0.3097647 0.18835673
-0.09879045 0.06251716 -0.111641884 -0.18787564 -0.060585592 -0.015354985 0.07152295 -0.16149749
-0.03325085 -0.17988376 -0.17320985 0.061630953 -0.14614414 0.04337058 -0.20091096 -0.0013412659
-0.11838096 -0.105363004 -0.014086297 0.07254654 -0.089624 0.066371 -0.08788165 -0.02553121
-0.20321642 0.009386538 0.008067541 -0.058480684 0.024036137 0.059165765 -0.09701991 -0.05371682
0.054395273 -0.17177248 -0.074405365 -0.16516815 0.033607386 -0.08405594 0.00894564 -0.016145678
-0.077142514 -0.14531194 -0.16882026 -0.071039386 0.05005269 0.056882642 -0.059001654 -0.019780336
1.076009 -0.18326162 -0.03520845 0.084207065 0.3994504 0.5379822 0.5336301 0.08180251
0.15472949 0.26059994 0.23104352 -0.044624683 -0.034462057 -0.045696933 0.0045225234 0.021263968

t_conv2.bias f4 [3]
00000000: 7ae8 243f 47e6 5e3f 1a7b a1be
0.6441723 0.87070125 -0.31539232
