.ipynb_checkpoints/models/cae.pth (torch, 29503 bytes, 10 tensors)

conv1.weight f4 [8, 3, 3, 3]
0.113067165 -0.084337786 0.11847627 -0.0013356339 -0.2532576 -0.07734445 0.017623667 0.008641025
0.15556319 -0.027372705 -0.24568339 -0.09355431 0.028034821 -0.21643823 -0.13472465 -0.08052462
0.07129097 -0.12504187 0.025666729 0.06913003 -0.11621908 0.26532236 -0.16073398 -0.12902312
0.15582432 0.062098235 0.0912458 -0.1641966 -0.20501174 -0.23919319 -0.18166798 -0.24010247
-0.012874641 0.11263152 -0.0022611578 0.09446624 -0.14256217 -0.10176988 -0.010137016 0.023388807
-0.25816885 0.09701424 -0.05319653 -0.18154916 -0.10291405 -0.0131373275 0.08943823 0.09095314
-0.025037982 0.07837902 -0.055655766 -0.032374285 -0.2620012 -0.21745685 0.151825 -0.03023473
0.05016114 0.09396176 -0.20519984 0.079254135 0.104272895 0.069139406 0.055305798 -0.174435
-0.029718636 -0.11587185 -0.23624317 -0.40924734 0.038489085 -0.032583535 -0.11956536 -0.079951614
0.1488149 0.11224507 0.14878505 -0.104836665 -0.36583546 0.20319524 0.07225169 0.0040518125
0.12435336 0.021641515 -0.06945471 -0.022252468 -0.17010987 -0.27401292 -0.04832734 -0.10476921
-0.1291404 -0.12224604 0.04935321 0.07497526 0.08931075 -0.050480265 -0.09304985 -0.05680193
-0.013739075 -0.064310044 0.0802641 -0.023095004 0.059046295 -0.04201836 -0.1181564 0.091008164
0.19922952 0.051844645 0.19258429 -0.04145462 -0.0055184904 -0.15362398 0.07068463 -0.30435193
-0.37777236 -0.21650462 -0.055336587 0.008125642 -0.018923895 -0.01746576 -0.33364537 -0.07515422
-0.1627659 -0.30414358 0.0812293 0.07906863 0.02053727 0.021097368 -0.25548646 -0.5845861
-0.2614716 0.016974442 0.032274205 0.14899446 -0.046273384 -0.08193581 -0.031803664 0.0014533744
-0.12258539 0.056712057 -0.13234943 0.2283126 0.37504473 -0.009568205 -0.13856608 -0.069329746
-0.04906607 -0.021702388 -0.12728171 -0.22021578 0.027441831 0.24351007 0.017577697 -0.0037508176
-0.16042118 -0.059581514 -0.09403562 -0.067211844 0.0017685328 0.23551027 0.24842633 -0.09012987
-0.0020363252 0.025587328 0.043100655 -0.03356317 0.06701687 0.11517531 0.031746767 -0.04748926
0.18226555 0.21576837 0.11169474 -0.080797546 0.023692567 0.15224649 -0.028972851 0.023047118
0.05846113 0.21115068 0.004187811 -0.008455791 -0.019706436 -0.13181666 -0.09910435 0.29658535
0.33661684 0.04875731 0.018512933 -0.0025004668 0.14716339 0.034144722 -0.039774757 0.0029287818
-0.021601435 0.05386203 0.0682011 -0.052763954 0.049306773 0.12778409 -0.07296515 0.07316144
-0.11590591 0.053036716 -0.03206202 0.052940633 0.10476998 -0.1410617 0.029980984 -0.018591339
0.0900183 -0.035214037 -0.01713612 -0.23174962 -0.14916077 -0.10934879 -0.15677084 -0.17377497
00000000: c28f e73d 4ab9 acbd b0a3 f23d 7010 afba
00000010: fbaa 81be c466 9ebd 825f 903c 1693 0d3c
00000020: f54b 1f3e b93c e0bc 6d94 7bbe 6799 bfbd
00000030: 48a9 e53c fca1 5dbe 42f5 09be 18ea a4bd
00000040: 0001 923d fa0a 00be 0843 d23c 0c94 8d3d
00000050: 4504 eebd 55d8 873e 7397 24be a31e 04be
00000060: 6990 1f3e b85a 7e3d 14df ba3d 2723 28be
00000070: 99ee 51be 0fef 74be 2c07 3abe 6cdd 75be
00000080: 29f0 52bc 5bab e63d ef2f 14bb 8477 c13d
00000090: d1fb 11be ba6c d0bd ba15 26bc e299 bf3c
000000a0: b52e 84be 67af c63d 9be4 59bd 06e8 39be
000000b0: 9ac4 d2bd f23d 57bc 642b b73d a445 ba3d
000000c0: 741c cdbc 2e85 a03d 4df7 63bd e69a 04bd
000000d0: 0525 86be 02ad 5ebe 0378 1b3e d3ae f7bc
000000e0: c475 4d3d 066f c03d e81f 52be fe4f a23d
000000f0: 078d d53d f698 8d3d 5588 623d 179f 32be
00000100: 7f74 f3bc 384e edbd bbe9 71be de88 d1be
00000110: bba6 1d3d 5076 05bd afde f4bd acbd a3bd
00000120: ef62 183e bee0 e53d 1c5b 183e 9bb4 d6bd
00000130: c94e bbbe 6a12 503e b2f8 933d 11c5 843b
00000140: f9ac fe3d 8c49 b13c 453e 8ebd cf4a b6bc
00000150: 4831 2ebe 6c4b 8cbe e4f2 45bd 3d91 d6bd
00000160: 623d 04be 225c fabd 9726 4a3d a18c 993d
00000170: 8ee8 b63d 65c4 4ebd eb90 bebd 24a9 68bd
00000180: db19 61bc fcb4 83bd 8161 a43d bc31 bdbc
00000190: 87da 713d 721b 2cbd fcfb f1bd 7d62 ba3d
000001a0: d302 4c3e 0d5b 543d d134 453e 52cc 29bd
000001b0: 74d4 b4bb 9b4f 1dbe 1ac3 903d 04d4 9bbe
000001c0: 616b c1be 63b3 5dbe 9ea8 62bd 6a21 053c
000001d0: 4906 9bbc 5a14 8fbc 91d3 aabe 75ea 99bd
000001e0: 1bac 26be b5b8 9bbe 8c5b a63d bcee a13d
000001f0: c73d a83c 63d4 ac3c 1fcf 82be 6fa7 15bf
00000200: 9bdf 85be fc0d 8b3c f531 043d 0192 183e
00000210: 2989 3dbd f6cd a7bd 8f44 02bd 277f be3a
00000220: 0d0e fbbd e74a 683d 9c86 07be c7ca 693e
00000230: dd05 c03e f6c3 1cbc 44e4 0dbe c1fc 8dbd
00000240: 81f9 48bd 35c9 b1bc 2356 02be 3f80 61be
00000250: b1cd e03c b45a 793e 1aff 8f3c 47d0 75bb
00000260: 7345 24be bf0b 74bd bf95 c0bd 5da6 89bd
00000270: 1dce e73a 9b29 713e 7963 7e3e 0296 b8bd
00000280: de73 05bb 849c d13c 508a 303d 8979 09bd
00000290: 2440 893d 08e1 eb3d e608 023d 1984 42bd
000002a0: d2a3 3a3e 62f2 5c3e 36c0 e43d 2f79 a5bd
000002b0: ea16 c23c 81e6 1b3e 7958 edbc 4fcd bc3c
000002c0: f074 6f3d e237 583e e839 893b 288a 0abc
000002d0: 646f a1bc f2fa 06be 39f7 cabd 09da 973e
000002e0: 0b59 ac3e bfb5 473d 6fa8 973c dfde 23bb
000002f0: 00b2 163e 56db 0b3d dbea 22bd cef0 3f3b
00000300: 7ef5 b0bc 6f9e 5c3d 05ad 8b3d 041f 58bd
00000310: e6f5 493d d5d9 023e c16e 95bd aad5 953d
00000320: 1460 edbd 073d 593d 7753 03bd 47d8 583d
00000330: a591 d63d 7a72 10be ae9a f53c dd4c 98bc
00000340: 845b b83d 983c 10bd 0c61 8cbc c64f 6dbe
00000350: 9abd 18be 42f2 dfbd 8988 20be 11f2 31be

conv1.bias f4 [8]
0.54343796 -0.25238982 0.4572852 0.6906886 0.3758897 0.00039995555 -0.23007739 0.65730506
00000000: c01e 0b3f 3d39 81be 4921 ea3e f8d0 303f
00000010: 9d74 c03e 20b1 d139 6899 6bbe 2545 283f

conv2.weight f4 [12, 8, 3, 3]
-0.0043684435 -0.14556128 -0.00358437 -0.005107704 0.12686893 -0.055819765 -0.054193534 -0.026296364
0.0038842333 -0.0006696024 0.0021060794 -0.01863248 -0.09900824 0.112892926 -0.051941413 0.005847332
0.011562077 0.06778029 -0.099212 -0.01531448 -0.037751965 0.043309502 -0.07897047 -0.045413855
-0.16192643 -0.025138764 -0.06076729 -0.0711306 0.17503561 -0.066651106 0.17265229 0.24075139
0.100486346 -0.11334449 0.20173459 -0.08446449 0.055712808 -0.12931648 -0.087382734 0.11000577
0.48016557 0.05235291 -0.17424758 0.2585994 -0.12903416 0.10610918 0.060930606 0.006542444
-0.5892587 -0.105306424 0.1391248 0.031550486 0.06996431 -0.009690328 0.085481524 -0.24010605
-0.04392433 0.055801347 -0.48322627 -0.038124315 -0.014210858 0.07756296 0.04180501 0.094903395
0.157656 -0.07948135 0.2779051 0.26224038 0.08934852 -0.11005764 0.05627877 -0.1264173
-0.19997837 0.12195155 0.05771388 0.29024947 0.3171106 0.5052707 -0.49332547 -0.850157
0.12786083 -0.020438049 -0.0936739 -0.12623926 -0.017396504 -0.05045109 -0.15160713 -0.0057809446
-0.18409218 0.0069324886 -0.19931081 0.019864632 -0.066892445 0.0076265 -0.11633422 -0.17978506
-0.008206795 0.1734367 0.1915883 -0.057114605 0.59482455 -0.11222014 0.019974872 0.666624
-0.38912016 -0.13972077 0.43198898 -0.2730516 -0.07080381 0.3856584 0.1380647 0.7236826
0.010085414 1.0300198 0.6915924 0.24500154 0.8948978 -0.29107562 -0.16894577 0.11160399
0.15245174 0.6558279 -0.297562 -0.14856517 0.19246352 -0.38031963 -0.036587026 0.21080017
0.044306573 0.116953984 0.43608704 -0.10223135 0.09132347 -0.07040733 -0.38755256 0.398291
-0.81763047 -0.23622717 -0.3504098 -0.48291537 -0.2973605 0.02021453 0.23733848 -0.2750772
-0.13868113 -0.12930992 -0.12193419 -0.07247557 -0.122628696 -0.09531536 0.048232418 -0.05559686
-0.14558177 -0.15125602 -0.10670934 0.03166168 -0.14029509 -0.14665964 0.045849055 -0.07329391
0.07160791 -0.022075392 -0.113306254 -0.07139905 0.012663177 -0.05044705 -0.10859383 -0.12847851
-0.14512092 0.004443388 0.010790101 -0.035241585 -0.17168537 -0.02579632 -0.16423148 -0.026119517
-0.15042742 -0.045195308 -0.117394656 -0.15258203 0.003357219 0.10435262 -0.0046256003 -0.0797898
-0.13143955 -0.02828919 -0.086601935 -0.06655762 0.040231016 -0.09177899 0.0052331155 0.03178372
-0.1461099 0.031433545 0.02567577 0.0045929416 -0.13866147 0.010490477 -0.004627861 -0.092833534
-0.13641268 0.039569147 -0.028777866 -0.15212074 -0.0047320533 -0.008015341 0.03144495 -0.11746106
0.027449613 -0.07638376 -0.13535842 -0.05873722 0.027419144 -0.056008697 -0.0028968013 -0.0811868
0.0516102 0.07678835 -0.027511673 -0.7120325 0.158569 0.057138827 -0.19282205 0.12732132
-0.051458444 -0.038000382 0.08524507 -0.050363895 -0.039495554 -0.053149663 0.08856775 0.17204821
0.0020092248 -0.06909643 -0.008475512 0.051195893 -0.035854936 0.11653403 -0.8457031 -0.07102558
0.032558523 0.12730347 -0.029839775 0.046786983 0.19883531 -0.12337184 0.27016 0.025024718
0.22630335 0.010448215 0.061353337 -0.05723065 0.10663651 0.21947077 0.047788136 0.10824612
00000000: 2925 8fbb 040e 15be c0e7 6abb 875e a7bb
00000010: eee9 013e 44a3 64bd 0afa 5dbd 796b d7bc
00000020: 9f8e 7e3b 4288 2fba 2606 0a3b 25a3 98bc
00000030: d5c4 cabd 6834 e73d 85c0 54bd fa9a bf3b
00000040: de6e 3d3c 65d0 8a3d a92f cbbd 96e9 7abc
00000050: cea1 1abd 4e65 313d 45bb a1bd e103 3abd
00000060: 0bd0 25be cfef cdbc 1fe7 78bd ecac 91bd
00000070: 893c 333e 6080 88bd c3cb 303e 8887 763e
00000080: c9cb cd3d 2821 e8bd 8393 4e3e b8fb acbd
00000090: 1d33 643d 8a6b 04be b8f5 b2bd b54a e13d
000000a0: 43d8 f53e 0170 563d f56d 32be 2467 843e
000000b0: 8821 04be c54f d93d 5f92 793d 0062 d63b
000000c0: a8d9 16bf e5aa d7bd bb76 0e3e 153b 013d
000000d0: 7349 8f3d 2ec4 1ebc f010 af3d 5cde 75be
000000e0: 00ea 33bd f48f 643d 6f69 f7be 3e28 1cbd
000000f0: a9d4 68bc 54d9 9e3d bb3b 2b3d b65c c23d
00000100: 9370 213e 1ec7 a2bd 9449 8e3e 5f44 863e
00000110: 5bfc b63d e665 e1bd 9184 663d 8973 01be
00000120: 21c7 4cbe bcc1 f93d 6465 6c3d 949b 943e
00000130: 525c a23e 6c59 013f 2895 fcbe e4a3 59bf
00000140: f3ed 023e b26d a7bc 1ad8 bfbd dd44 01be
00000150: 1d83 8ebc cda5 4ebd e63e 1bbe 146e bdbb
00000160: a982 3cbe ee29 e33b 2218 4cbe 27bb a23c
00000170: e8fe 88bd b8e7 f93b a340 eebd 9319 38be
00000180: cb75 06bc 6499 313e b92f 443e 01f1 69bd
00000190: 6c46 183f acd3 e5bd 58a2 a33c dfa7 2a3f
000001a0: c23a c7be f612 0fbe a92d dd3e 6bcd 8bbe
000001b0: 9701 91bd 0575 c53e d560 0d3e 4343 393f
000001c0: 4b3d 253c b0d7 833f 330c 313f afe1 7a3e
000001d0: 0618 653f dd07 95be 1f00 2dbe a290 e43d
000001e0: 4f1c 1c3e 56e4 273f 0c5a 98be 7821 18be
000001f0: 2815 453e 41b9 c2be 47dc 15bd 00dc 573e
00000200: cf7a 353d 9285 ef3d cd46 df3e ac5e d1bd
00000210: cd07 bb3d b831 90bd 4a6d c6be ccec cb3e
00000220: 3b50 51bf 89e5 71be ea68 b3be af40 f7be
00000230: a33f 98be f198 a53c dc08 733e ebd6 8cbe
00000240: 6d02 0ebe d269 04be a2b8 f9bd 126e 94bd
00000250: c124 fbbd b334 c3bd 5b8f 453d 88b9 63bd
00000260: 6313 15be dce2 1abe 6d8a dabd aeaf 013d
00000270: 84a9 0fbe f22d 16be 38cc 3b3d 1e1b 96bd
00000280: 2ba7 923d 74d7 b4bc 1c0d e8bd aa39 92bd
00000290: 3779 4f3c 91a1 4ebd 7166 debd df8f 03be
000002a0: 949a 14be d799 913b f7c8 303c 7b59 10bd
000002b0: 4ace 2fbe ce52 d3bc 4c2c 28be 99f8 d5bc
000002c0: a509 1abe b71e 39bd 9c6c f0bd 773e 1cbe
000002d0: ca04 5c3b d4b6 d53d 5992 97bb d668 a3bd
000002e0: 1798 06be bbbe e7bc 5b5c b1bd 5d4f 88bd
000002f0: 47c9 243d a0f6 bbbd 8e7a ab3b a52f 023d
00000300: d59d 15be 76c0 003d fe55 d23c 6380 963b
00000310: 46fd 0dbe 40e0 2b3c 50a5 97bb 821f bebd
00000320: c4af 0bbe 4213 223d 8fbf ebbc 8ac5 1bbe
00000330: 570f 9bbb c752 03bc 6bcc 003d 6d8f f0bd
00000340: 03de e03c 176f 9cbd 669b 0abe 7096 70bd
00000350: 1d9e e03c 6069 65bd 43d8 3dbb 4445 a6bd
00000360: 3865 533d 3643 9d3d 2960 e1bc c347 36bf
00000370: e95f 223e 670a 6a3d 2573 45be 8560 023e
00000380: 17c6 52bd 4aa6 1bbd f894 ae3d 5f4a 4ebd
00000390: 17c6 21bd 76b3 59bd 0263 b53d 682d 303e
000003a0: 33ad 033b 6e82 8dbd e0dc 0abc c9b2 513d
000003b0: a0dc 12bd 65a9 ee3d 0080 58bf dc75 91bd
000003c0: 165c 053d d75b 023e 8b72 f4bc b5a3 3f3d
000003d0: 7c9b 4b3e 60aa fcbd 6952 8a3e a300 cd3c
000003e0: 11bc 673e fd2e 2b3c a34d 7b3d b06a 6abd
000003f0: 3e64 da3d f2bc 603e 7ebd 433d 24b0 dd3d

conv2.bias f4 [12]
0.5302666 -0.14178166 -0.18131648 0.5699791 -0.11475824 0.42673758 -0.11884061 -0.27180004
-0.17152244 -0.21052095 -0.04013194 -0.24816845
00000000: 8dbf 073f 362f 11be 07ab 39be 26ea 113f
00000010: 5e06 ebbd 597d da3e b562 f3bd 6029 8bbe
00000020: 94a3 2fbe ce92 57be 6461 24bd df1f 7ebe

conv3.weight f4 [16, 12, 3, 3]
-0.20816785 0.26142064 -0.016319908 0.14847311 0.5335189 -0.10274385 -0.13601187 -0.022095809
0.0114235245 0.08898136 0.22879608 0.04566578 -0.19091018 -0.2169444 -0.017239857 0.14319457
0.12879215 0.10569141 -0.0801017 -0.036645398 0.003406438 -0.026933577 0.022119798 0.023459468
0.0033061877 0.029048478 -0.012961248 0.06810429 -0.095873415 -0.019293388 0.08536663 -0.44553375
0.038360704 0.06668722 0.022272283 0.0097359475 -0.09063935 0.09937477 0.0137582 -0.013026487
-0.004318444 0.021896811 -0.024032772 0.048796333 -0.0910314 -0.15887025 0.37918267 0.17689806
-0.07904205 0.095929354 0.35048842 -0.025692485 0.07392114 -0.01598295 -0.017657658 0.09262606
-0.085542776 -0.006855893 0.0625295 -0.033292275 -0.055983122 0.060961008 -0.033896085 -0.12355956
-0.07354103 -0.048788432 -0.20600756 -0.29845536 0.61370766 -0.13601418 -0.111628346 0.2674463
-0.009477083 6.5859625e-05 0.015430263 0.041539192 0.012757586 -0.03326273 0.01863996 0.062465865
-0.045033827 0.043763205 -0.024637636 -0.035176713 -0.05330038 0.007806801 -0.02696057 0.078352325
0.006328832 0.008620335 -0.047027823 -0.15442221 -0.13490826 -0.0709116 -0.052248932 -0.1544755
-0.15672271 -0.13790257 0.021277703 0.07497942 -0.07080385 -0.08241648 0.13460624 -0.2096772
0.39356014 -0.1598754 -0.1954939 0.118038274 -0.08542622 0.2153874 -0.029811185 0.039616957
0.46652615 0.017657885 -0.13879733 -0.04600283 -0.13734865 -0.12863451 0.12095283 -0.040399283
0.24440719 0.4571043 0.2631548 -0.12935875 0.17151813 -0.10202958 0.10821748 0.02188783
-0.03147011 -0.05471088 -0.108746976 -0.15189393 -0.011323257 -0.050901864 -0.047096834 -0.06196402
0.01803794 0.08661072 0.16612658 0.064539395 0.20709576 -0.013750457 0.059871744 0.03830044
0.12714575 0.12395621 0.06843172 -0.015941678 -0.039512433 -0.01945258 0.023699485 0.028849266
-0.01156193 -0.07837614 -0.15774058 -0.13581246 0.12656751 -0.17969601 -0.025108198 0.03336397
-0.029370986 0.104712926 0.08708142 0.025087196 -0.024087159 0.13644531 -0.0068888026 0.096827745
0.025169993 0.10364086 0.0098689655 0.18445985 0.24372616 0.29570508 -0.41802078 -0.72275746
-0.07519688 0.005762483 -0.027730625 0.0041874065 -0.034248002 0.11264037 -0.052538093 0.08804199
0.06604491 0.045808382 0.09334031 0.092457354 0.023728034 0.083940655 0.06939693 0.030676935
0.08091253 0.023976857 0.0065638814 -0.053468477 0.054163825 -0.019862296 -0.11194232 -0.09744718
-0.15079238 0.0138105815 -0.2174699 -0.10522899 -0.09951875 -0.24077958 -0.19785847 0.05374976
0.09785651 0.07511296 0.03849742 -0.4637256 -0.08236111 -0.01824679 -0.081746705 -0.046714287
0.12462739 0.27574673 0.039852556 0.205468 0.36776027 0.19304919 0.040022597 0.26849195
-0.10965016 0.1513344 0.21585368 0.16924918 -0.14188494 0.37236923 -0.2363685 0.08904441
-0.022213882 0.15772508 0.13646743 0.13171563 0.15903975 0.12493953 0.17487995 0.16329159
0.12584382 0.024247827 0.07288217 -0.053384237 -0.0029456122 0.19617757 -0.42008635 -0.43398935
-0.08936309 -0.1773806 0.077109315 -0.010070514 0.017364392 0.069923066 -0.07586101 0.098898135
00000000: f429 55be edd8 853e 54b1 85bc 5609 183e
00000010: b294 083f 5e6b d2bd b246 0bbe 4502 b5bc
00000020: bc29 3b3c dc3b b63d 8549 6a3e 0a0c 3b3d
00000030: f57d 43be ac26 5ebe 9a3a 8dbc 99a1 123e
00000040: 17e2 033e bd74 d83d 5c0c a4bd 7c19 16bd
00000050: 8c3e 5f3b cea3 dcbc 9434 b53c 122e c03c
00000060: a0ac 583b 13f7 ed3c 6a5b 54bc 437a 8b3d
00000070: 4859 c4bd 2b0d 9ebc b3d4 ae3d 001d e4be
00000080: 1d20 1d3d 4f93 883d 5d74 b63c 8683 1f3c
00000090: 20a1 b9bd 0085 cb3d 136a 613c 0c6d 55bc
000000a0: bc81 8dbb f160 b33c 60e0 c4bc aade 473d
000000b0: ac6e babd e2ae 22be 3b24 c23e c424 353e
000000c0: cce0 a1bd 9c76 c43d 3873 b33e 0c79 d2bc
000000d0: f763 973d adee 82bc cba6 90bc bbb2 bd3d
000000e0: 0d31 afbd 66a7 e0bb 770f 803d 7b5d 08bd
000000f0: 8f4e 65bd 40b2 793d 9fd6 0abd cb0c fdbd
00000100: ae9c 96bd 61d6 47bd a5f3 52be 24cf 98be
00000110: f21b 1d3f 4d47 0bbe 679d e4bd b9ee 883e
00000120: c445 1bbc 1e1e 8a38 37cf 7c3c 0025 2a3d
00000130: 3205 513c 803e 08bd d4b2 983c 35dc 7f3d
00000140: 6475 38bd 0c41 333d ded4 c9bc 7515 10bd
00000150: 8051 5abd 31d0 ff3b 6adc dcbc 2f77 a03d
00000160: 1762 cf3b 4e3c 0d3c 3fa0 40bd db20 1ebe
00000170: 6425 0abe 1a3a 91bd fa02 56bd d32e 1ebe
00000180: eb7b 20be 5536 0dbe 944e ae3c cf8e 993d
00000190: 9c01 91bd f9c9 a8bd 38d6 093e 9fb5 56be
000001a0: b780 c93e 60b6 23be 8e2f 48be 0dbe f13d
000001b0: f1f3 aebd 848e 5c3e 9636 f4bc 6445 223d
000001c0: 84dc ee3e 45a7 903c e320 0ebe 776d 3cbd
000001d0: 20a5 0cbe c4b8 03be 1eb6 f73d b879 25bd
000001e0: e145 7a3e 9309 ea3e 3abc 863e 9f76 04be
000001f0: 73a2 2f3e e2f4 d0bd 20a1 dd3d 1b4e b33c
00000200: cde6 00bd 8418 60bd bcb6 debd 158a 1bbe
00000210: 2f85 39bc 797e 50bd 9ce8 40bd fccd 7dbd
00000220: 4dc4 933c f660 b13d 161d 2a3e 3b2d 843d
00000230: e910 543e 9949 61bc 133c 753d ece0 1c3d
00000240: 7f32 023e c1dc fd3d ee25 8c3d 1f98 82bc
00000250: cad7 21bd 045b 9fbc 6c25 c23c 4c55 ec3c
00000260: 406e 3dbc ab83 a0bd bf86 21be 6c12 0bbe
00000270: ea9a 013e 3b02 38be b5af cdbc a9a8 083d
00000280: 6c9b f0bc bb73 d63d be57 b23d aa83 cd3c
00000290: 6f52 c5bc 52b8 0b3e 77bb e1bb a04d c63d
000002a0: 4d31 ce3c a941 d43d 71b1 213c 0be3 3c3e
000002b0: 5a93 793e a866 973e d206 d6be a206 39bf
000002c0: d200 9abd 36d3 bc3b 562b e3bc 8336 893b
000002d0: a247 0cbd ffaf e63d 2f32 57bd 5c4f b43d
000002e0: 8e42 873d 92a1 3b3d 3429 bf3d 485a bd3d
000002f0: 4b61 c23c 14e9 ab3d fa1f 8e3d 324e fb3c
00000300: 78b5 a53d 1d6b c43c d415 d73b c301 5bbd
00000310: e3da 5d3d 41b6 a2bc 0442 e5bd 6392 c7bd
00000320: 5169 1abe c745 623c 6eb0 5ebe 4c82 d7bd
00000330: 7dd0 cbbd ec8e 76be 699b 4abe b528 5c3d
00000340: fe68 c83d d3d4 993d 78af 1d3d 716d edbe
00000350: f1ac a8bd 4b7a 95bc d16a a7bd 7b57 3fbd
00000360: a53c ff3d ad2e 8d3e 6f3c 233d 3466 523e
00000370: 134b bc3e b0ae 453e bcee 233d c777 893e
00000380: 4390 e0bd 68f7 1a3e bf08 5d3e a84f 2d3e
00000390: 494a 11be 2ea7 be3e 960a 72be ea5c b63d
000003a0: e3f9 b5bc af82 213e 1ebe 0b3e 76e0 063e
000003b0: 51db 223e 4ce0 ff3d bb13 333e e935 273e
000003c0: 34dd 003e 61a3 c63c 3f43 953d 6ea9 5abd
000003d0: 2c0b 41bb c6e2 483e 8f15 d7be da33 debe
000003e0: ff03 b7bd 43a3 35be 7deb 9d3d ccfe 24bc
000003f0: c53f 8e3c d333 8f3d 045d 9bbd 1b8b ca3d

conv3.bias f4 [16]
-0.15503524 -0.06492275 -0.1562912 0.02533389 0.32632607 -0.22342283 -0.086296655 -0.03133529
-0.14158098 -0.47071916 0.5898847 -0.1532751 -0.09131193 -0.09287241 -0.12244045 -0.14518274
00000000: 8fc1 1ebe 38f6 84bd cd0a 20be 0589 cf3c
00000010: 3614 a73e f4c8 64be 4dbc b0bd 6f59 00bd
00000020: 9bfa 10be 1a02 f1be af02 173f 26f4 1cbe
00000030: c001 bbbd e433 bebd 0fc2 fabd c9aa 14be

t_conv1.weight f4 [16, 12, 4, 4]
0.056058154 0.055762097 0.04715259 -0.019796904 -0.2353022 -0.010727797 -0.3086307 -0.21600413
-0.19992226 0.16675612 -0.10863493 -0.26258713 0.055815022 -0.07000847 0.11232485 0.050244026
-0.0574638 0.06293634 0.09015965 0.03551112 0.095858134 0.2674952 0.03207123 -0.0685932
-0.0042653065 0.21526758 0.06599461 -0.06548598 -0.028405033 -0.09896717 0.09073681 0.02723844
-0.032800164 -0.10783623 0.26820606 0.07911067 -0.35326824 -0.28044173 0.25762102 0.08873107
0.041860517 0.13075656 0.2102495 0.15776564 0.035249207 0.011320734 0.03245752 0.11449657
0.11011131 -0.12218594 0.028516972 0.058460664 -0.1224903 -0.22200313 -0.083065934 0.12507364
-0.043058917 -0.13634257 -0.037828147 0.072473004 0.100283824 0.06314363 0.03567177 -0.030836424
-0.011265059 0.010071017 -0.15004104 0.08338908 -0.29481676 0.55436075 -0.33186314 -0.016012246
-0.14305998 0.31120926 0.04246699 -0.1958991 0.14361954 -0.22019127 -0.008792861 -0.05930693
-1.5003365 -1.5473217 0.42745185 -0.3612671 -1.3061628 -1.9437479 0.42914432 -0.4639388
0.5846598 0.3735741 0.5307652 0.011293336 -0.2713126 -0.11491259 0.054419555 -0.32518926
-0.061871983 0.026623346 -0.05607716 -0.021943543 -0.07168292 -0.062134065 -0.024568498 -0.024848158
-0.020830642 -0.017874599 -0.051241584 -0.038104344 -0.053625442 -0.016139591 -0.0044411095 -0.046949137
-0.27106014 0.13523197 0.19699113 -0.05161415 -0.11585245 0.3319812 0.21206458 -0.077025324
0.107141286 0.36680275 0.35457757 0.19187523 -0.17477162 -0.114038505 -0.0016488123 -0.07526178
0.37195602 -0.45258301 -0.1407905 0.067956135 0.29638958 -0.59338695 -0.38570085 0.04674433
-0.41843176 -1.5416954 -0.7509433 -0.38781667 0.5112258 -0.77391183 -0.8528077 -0.19715303
-0.0612644 0.34346136 0.2317113 0.15944509 0.28493932 -0.27673674 -0.9678331 0.30002674
-0.030419523 -0.6821145 -1.1159253 -1.7347509 0.24936506 0.27101567 -2.204939 -1.199678
-0.05690791 -0.05256259 0.008873631 -0.024052143 -0.024593683 -0.11681979 -0.02373194 -0.019160347
-0.089709096 -0.0773265 -0.12695035 -0.10023327 -0.11087878 -0.054295182 -0.09663782 -0.091924585
-0.025621044 -0.09557406 -0.3801914 -0.3508584 -0.29241967 -0.36640248 -0.29626912 -0.36018077
-0.28274718 -0.36786413 -0.3547582 -0.24581681 -0.343923 -0.25568122 -0.28343216 -0.31118813
-0.06735426 -0.06929723 0.042336974 0.048820797 -0.15961123 0.26291284 0.32150534 0.12756608
-0.17154326 0.04968388 0.1149418 -0.031875357 -0.069283836 0.017095309 -0.026812736 -0.103249945
-0.021948744 0.0021510257 0.017361715 -0.058769763 -0.05326466 0.3550919 0.33315325 0.19623399
-0.003863448 0.39668253 0.27435458 0.22490841 -0.14831042 0.07472931 -0.18307102 -0.17792025
-0.24523027 -0.23342656 0.08051391 0.062292702 -0.17581129 -0.19098493 -0.018952543 0.03571421
0.016545627 0.04347855 0.15186107 0.07420122 -0.17698981 -0.0964729 -0.026728993 0.08539392
0.056321513 -0.0672138 0.005475848 0.08847498 -0.1846991 -0.1113873 -0.113070585 0.020016277
0.032544967 0.009406628 0.023363786 0.020722575 0.044371307 0.04596842 0.01807102 -0.0057658167
00000000: 3c9d 653d cc66 643d 1323 413d 1e2d a2bc
00000010: 0ff3 70be a4c3 2fbc d804 9ebe 3030 5dbe
00000020: 6cb8 4cbe 1ec2 2a3e fd7b debd d271 86be
00000030: 4b9e 643d 9a60 8fbd 920a e63d aecc 4d3d
00000040: 295f 6bbd c5e4 803d 9fa5 b83d 1c74 113d
00000050: 4551 c43d 21f5 883e 1f5d 033d 977a 8cbd
00000060: fcc3 8bbb 1b6f 5c3e 2f28 873d 831d 86bd
00000070: acb1 e8bc 4daf cabd 38d4 b93d 2623 df3c
00000080: 7759 06bd 3ed9 dcbd 4e52 893e c604 a23d
00000090: 93df b4be 0f96 8fbe e7e6 833e a3b8 b53d
000000a0: ef75 2b3d 0ce5 053e a54b 573e 518d 213e
000000b0: 7961 103d 9a7a 393c 2df2 043d 2d7d ea3d
000000c0: 0a82 e13d 9f3c fabd 6d9c e93c 7374 6f3d
000000d0: 32dc fabd ca54 63be 791e aabd 4e13 003e
000000e0: 8c5e 30bd 639d 0bbe b0f1 1abd ba6c 943d
000000f0: 9b61 cd3d 7351 813d 901c 123d ab9c fcbc
00000100: 1591 38bc e800 253c 5ca4 19be e5c7 aa3d
00000110: 39f2 96be 96ea 0d3f f7e9 a9be 1d2c 83bc
00000120: 517e 12be d256 9f3e def1 2d3d c699 48be
00000130: 0011 133e d279 61be ef0f 10bc d3eb 72bd
00000140: 070b c0bf a30e c6bf f8da da3e 00f8 b8be
00000150: 5830 a7bf bbcc f8bf ceb8 db3e 6389 edbe
00000160: 44ac 153f 1b45 bf3e 3ae0 073f af07 393c
00000170: 7ce9 8abe 4b57 ebbd 0ae7 5e3d 357f a6be
00000180: 7a6d 7dbd 3419 da3c 2ab1 65bd f2c2 b3bc
00000190: 7fce 92bd 4a80 7ebd e043 c9bc 5d8e cbbc
000001a0: 06a5 aabc c06d 92bc b2e2 51bd 4d13 1cbd
000001b0: 5aa6 5bbd 2d37 84bc ba86 91bb bd4d 40bd
000001c0: 65c8 8abe 407a 0a3e 0bb8 493e 5c69 53bd
000001d0: 0d44 edbd 71f9 a93e 7527 593e 74bf 9dbd
000001e0: e46c db3d 92cd bb3e 318b b53e f17a 443e
000001f0: 55f7 32be 058d e9bd f61c d8ba d922 9abd
00000200: 0571 be3e f6b8 e7be 632b 10be 962c 8b3d
00000210: 60c0 973e 35e8 17bf 957a c5be fc76 3f3d
00000220: b03c d6be 4656 c5bf d23d 40bf e88f c6be
00000230: b2df 023f 161f 46bf 9b51 5abf 7ce2 49be
00000240: 61f0 7abd 2bda af3e ba45 6d3e 9345 233e
00000250: 91e3 913e 70b0 8dbe e9c3 77bf 1b9d 993e
00000260: 5d32 f9bc 0e9f 2ebf a4d6 8ebf 510c debf
00000270: 8e59 7f3e 91c2 8a3e b81d 0dc0 0c8f 99bf
00000280: 4518 69bd df4b 57bd b562 113c 0009 c5bc
00000290: b178 c9bc 373f efbd 7c69 c2bc 29f6 9cbc
000002a0: 67b9 b7bd 5b5d 9ebd 46ff 01be 1a47 cdbd
000002b0: 6a14 e3bd a064 5ebd 0dea c5bd f542 bcbd
000002c0: 39e3 d1bc 55bc c3bd 72a8 c2be b6a3 b3be
000002d0: 08b8 95be 1b99 bbbe 96b0 97be 9d69 b8be
000002e0: 3dc4 90be b058 bcbe dea2 b5be 67b7 7bbe
000002f0: ad16 b0be a6e8 82be 051e 91be 0d54 9fbe
00000300: 08f1 89bd b5eb 8dbd 8969 2d3d 51f8 473d
00000310: 2071 23be 839c 863e 599c a43e afa0 023e
00000320: 09a9 2fbe 5381 4b3d 9b66 eb3d bc8f 02bd
00000330: afe4 8dbd 760b 8c3c 62a6 dbbc b574 d3bd
00000340: dacd b3bc 39f8 0c3b 283a 8e3c 90b8 70bd
00000350: 0b2c 5abd 9bce b53e 1093 aa3e 90f1 483e
00000360: e731 7dbb f919 cb3e 3478 8c3e 644e 663e
00000370: b0de 17be ae0b 993d f876 3bbe ba30 36be
00000380: a51d 7bbe 5f07 6fbe 7ae4 a43d a226 7f3d
00000390: e007 34be 8e91 43be 5d42 9bbc 1049 123d
000003a0: b28a 873c 9016 323d 7881 1b3e cff6 973d
000003b0: d13c 35be 9593 c5bd c3f6 dabc 02e3 ae3d
000003c0: 63b1 663d 64a7 89bd be6e b33b 5f32 b53d
000003d0: c321 3dbe 061f e4bd 8d91 e7bd 2df9 a33c
000003e0: df4d 053d 421e 1a3c 6965 bf3c 64c2 a93c
000003f0: b0be 353d 6249 3c3d ad09 943c 2def bcbb

t_conv1.bias f4 [12]
0.41740024 -0.12039882 -0.2470427 0.13579205 0.12534845 0.16626206 -0.13819805 0.1140357
-0.14295414 0.3219302 -0.0315309 -0.39105302
00000000: 7cb5 d53e a893 f6bd c3f8 7cbe 120d 0b3e
00000010: 585b 003e 9a40 2a3e ca83 0dbe 8d8b e93d
00000020: 9262 12be 09d4 a43e 8c26 01bd 1a38 c8be

t_conv2.weight f4 [12, 3, 4, 4]
0.066345796 -0.09604417 0.14433937 0.006838465 -0.09852546 -0.6474209 -0.4017067 -0.05725309
0.1895455 -0.21142104 0.08314621 0.15729252 -0.02741698 0.0015124506 0.15124841 -0.04267896
0.019919626 -0.093221955 0.16528274 -0.019801762 -0.08428408 -0.61523557 -0.29231757 -0.019362215
0.12807296 -0.2385935 0.16826189 0.15862988 -0.09742575 -0.111105315 0.09877924 -0.10033703
0.07921431 0.035679962 0.303351 -0.00511517 0.033068664 -0.44496742 0.027493253 0.14104235
0.22363476 -0.09706399 0.36478594 0.25061816 -0.08644802 -0.059843194 0.13730587 -0.103821486
-0.12729114 -0.008852793 -0.023081234 -0.04240823 0.033484608 0.071950816 -0.23285235 -0.013806193
-0.09865014 -0.42694145 -0.40549234 -0.00549724 0.060619388 -2.836346e-05 0.06479433 -0.03956117
-0.013693372 0.17990243 0.056318864 0.020843722 0.08022139 0.26527882 -0.071933605 0.012954032
0.06692663 -0.14805411 -0.2353367 0.053485554 0.10045154 0.21411799 0.13303642 -0.023795176
-0.13275866 0.11777815 -0.017191937 -0.0054112934 -0.036475714 0.19636144 -0.26164517 -0.014873057
0.017728051 -0.12712298 -0.26242927 -0.024286138 0.09708906 0.1778183 0.08284867 -0.064690225
0.047223244 -0.071166344 -0.12658243 0.044061013 -0.056319285 -0.07588858 0.010725255 -0.095392294
0.056719348 0.02207498 0.27162987 0.12510379 0.033126675 -0.16771303 -0.049931195 -0.018598389
0.10509407 -0.003156043 -0.036678355 0.07269021 0.020175679 0.016095983 0.16325834 -0.05766906
0.07447634 0.061136965 0.30488744 0.0975405 0.06411475 -0.13011405 0.022043178 -0.054325517
0.03683339 -0.04339442 -0.06703894 -0.05226554 -0.03832527 -0.046356432 0.046374504 -0.14306894
-0.08099661 -0.0938805 0.099522166 -0.16519809 0.044569407 -0.15620825 -0.040102948 -0.1443426
-0.049085863 -0.015743993 0.050545856 -0.05298713 -0.044596087 0.009087688 0.22836943 0.1304536
0.060235456 0.23272897 0.34358892 0.1462331 0.019483807 0.10722167 0.16334566 0.005040612
-0.05434848 0.0023717566 0.021654904 -0.04307054 -0.05575261 0.053043447 0.1657771 0.050115228
0.032927286 0.28517088 0.28481373 0.11875516 -0.022948591 0.104597546 0.11991529 -0.02526246
-0.027945196 0.024278456 -0.027723825 -0.043225836 0.029565347 0.034452327 0.1904026 -0.03697225
0.091130175 0.28059965 0.26230273 0.100462675 -0.030378561 0.10246864 0.025696687 -0.0054231426
0.05037962 0.043728735 0.14089517 -0.015463838 0.10636868 -0.27287135 0.025959821 0.09222026
0.25344008 -0.3658359 -0.3244278 0.17510839 0.02290732 0.08044183 0.089051045 0.0100647975
0.062441032 0.054269828 0.098627076 -0.08188401 0.23680311 -0.18493912 -0.03164208 0.06831438
0.2753403 -0.38000527 -0.4577965 0.050769124 0.049771 0.13166292 0.064887345 -0.006056797
0.13008338 0.12653348 0.1259878 -0.10394473 0.37479782 -0.052313868 -0.016245784 -0.032051776
0.37505707 -0.37351042 -0.60748833 -0.14268245 0.13823798 0.096713625 0.0040506865 0.00019550811
0.010653289 -0.0050148414 -0.03400525 0.0060897814 0.032121707 0.031162819 -0.24267252 0.069364935
0.063901186 -0.2815424 -0.8035259 -0.24401541 0.10812396 0.0009944696 -0.51960087 -0.94405335
00000000: 4ee0 873d ceb2 c4bd b3cd 133e 3415 e03b
00000010: b7c7 c9bd 60bd 25bf 80ac cdbe 3782 6abd
00000020: 3718 423e c27e 58be 8f48 aa3d 4a11 213e
00000030: 9399 e0bc 6c3d c63a dde0 1a3e 22d0 2ebd
00000040: 7c2e a33c 27eb bebd e13f 293e 4e37 a2bc
00000050: 229d acbd 1480 1dbf a6aa 95be 829d 9ebc
00000060: 8f25 033e db51 74be d84c 2c3e df6f 223e
00000070: 2787 c7bd 2f8b e3bd c54c ca3d 807d cdbd
00000080: 1d3b a23d 2725 123d d350 9b3e 289d a7bb
00000090: 0273 073d c5d2 e3be 8839 e13c 686d 103e
000000a0: 8300 653e 7cc9 c6bd 39c5 ba3e 0651 803e
000000b0: a90b b1bd 231e 75bd e999 0c3e 5ca0 d4bd
000000c0: 9c58 02be 4e0b 11bc db14 bdbc 41b4 2dbd
000000d0: 2827 093d f35a 933d d970 6ebe 5f33 62bc
000000e0: 1609 cabd 1298 dabe b19c cfbe 3122 b4bb
000000f0: 094c 783d 11ee edb7 e4b2 843d e50a 22bd
00000100: 2a5a 60bc 5838 383e 9cae 663d 74c0 aa3c
00000110: 1d4b a43d a0d2 873e ed51 93bd 263d 543c
00000120: d410 893d 7f9b 17be 1bfc 70be ab13 5b3d
00000130: 89b9 cd3d bf41 5b3e b33a 083e 1aee c2bc
00000140: e3f1 07be ac35 f13d 1bd6 8cbc 3851 b1bb
00000150: 8f67 15bd f912 493e 5bf6 85be 1fae 73bc
00000160: 6b3a 913c 872c 02be 215d 86be b9f3 c6bc
00000170: a1d6 c63d 0016 363e 90ac a93d 4f7c 84bd
00000180: 296d 413d a9bf 91bd d39e 01be 5279 343d
00000190: 0daf 66bd 796b 9bbd fbb8 2f3c 095d c3bd
000001a0: 8c52 683d 97d6 b43c 1213 8b3e 351b 003e
000001b0: d6af 073d f7bc 2bbe a784 4cbd a65b 98bc
000001c0: 8f3b d73d 9dd5 4ebb 0b3c 16bd 9bde 943d
000001d0: 7747 a53c b9db 833c 322d 273e 6436 6cbd
000001e0: 0d87 983d c16a 7a3d 351a 9c3e 50c3 c73d
000001f0: 984e 833d 9e3c 05be e593 b43c 6f84 5ebd
00000200: 9cde 163d 59be 31bd b64b 89bd 6414 56bd
00000210: f5fa 1cbd 3ee0 3dbd 31f3 3d3d aa80 12be
00000220: 8de1 a5bd 6b44 c0bd 47d2 cb3d b029 29be
00000230: 698e 363d 0ef5 1fbe fd42 24bd 8cce 13be
00000240: 420e 49bd 8cf9 80bc 2c09 4f3d 0809 59bd
00000250: 63aa 36bd 87e4 143c add9 693e a195 053e
00000260: 74b9 763d 8150 6e3e e3ea af3e 21be 153e
00000270: 819c 9f3c 0997 db3d 1644 273e b82b a53b
00000280: 839c 5ebd 796f 1b3b a065 b13c bc6a 30bd
00000290: d95c 64bd 1644 593d 79c1 293e a045 4d3d
000002a0: c3de 063d eb01 923e 1bd3 913e e835 f33d
000002b0: affe bbbc 3d37 d63d 2696 f53d 38f3 cebc
000002c0: 53ed e4bc 9de3 c63c 131d e3bc 930d 31bd
000002d0: 0733 f23c e21d 0d3d e6f8 423e 3770 17bd
000002e0: 75a2 ba3d c2aa 8f3e 8b4c 863e 60bf cd3d
000002f0: 76dc f8bc 14db d13d dc81 d23c 9eb4 b1bb
00000300: dc5a 4e3d e71c 333d d346 103e 0a5c 7dbc
00000310: d3d7 d93d cbb5 8bbe b1a9 d43c fadd bc3d
00000320: e6c2 813e d84e bbbe 671b a6be 9d4f 333e
00000330: 22a8 bb3c b0be a43d 6560 b63d d2e6 243c
00000340: 2bc2 7f3d 0a4a 5e3d fefc c93d ceb2 a7bd
00000350: 847c 723e ae60 3dbe 209b 01bd 69e8 8b3d
00000360: 67f9 8c3e 0d90 c2be 4e64 eabe 49f3 4f3d
00000370: addc 4b3d a5d2 063e a8e3 843d 1978 c6bb
00000380: 9434 053e fe91 013e f202 013e f9e0 d4bd
00000390: 80e5 bf3e 1147 56bd e115 85bc b948 03bd
000003a0: 7b07 c03e c23c bfbe 5b84 1bbf 591b 12be
000003b0: 428e 0d3e cb11 c63d 9fbb 843b 4f01 4d39
000003c0: 228b 2e3c 8a53 a4bb 1749 0bbd ca8c c73b
000003d0: 0d92 033d 2b49 ff3c 257f 78be 340f 8e3d
000003e0: a0de 823d 5326 90be e0b3 4dbf 2ddf 79be
000003f0: 1870 dd3d dd58 823a 9004 05bf 7bad 71bf

t_conv2.bias f4 [3]
-0.07978227 -0.043948323 -0.09623134
00000000: e364 a3bd 2803 34bd f014 c5bd
