.ipynb_checkpoints/models/cae.pth (torch, 29503 bytes, 10 tensors)

conv1.weight f4 [8, 3, 3, 3]
0	0x3d9d28fe	0.07673834
1	0x3dd47b67	0.103751
2	0x3d9f6cbc	0.07784411
3	0xbab96f4c	-0.0014147549
4	0xbe8d538c	-0.27602804
5	0xbc46d2cd	-0.01213522
6	0xbcc2c6ec	-0.023776494
7	0xbdca6558	-0.09882611
8	0x3ddb2d19	0.10701961
9	0xbdee1504	-0.11625102
10	0x3d9ab1c4	0.07553437
11	0xbdfe8097	-0.1242687
12	0xbdfa6c61	-0.12227703
13	0x3d344e98	0.044020265
14	0xbc45fd50	-0.01208432
15	0xbe8340f7	-0.25635502
16	0xbe208c40	-0.15678501
17	0x3d0d0166	0.03442516
18	0xbc1cf1fa	-0.009579176
19	0x3beec21d	0.0072863237
20	0x3cafb8e9	0.021450477
21	0xbde62eb5	-0.112393774
22	0xbd35fbaf	-0.044429477
23	0x3dae3e3f	0.08507966
24	0xbf2ce3a6	-0.67534864
25	0xbeecab83	-0.46224603
26	0xbd3276fb	-0.0435705
27	0xbcd67cb5	-0.026182512
28	0xbd0640cf	-0.03277665
29	0xbe2389ff	-0.1597061
30	0xbd98ae52	-0.07455124
31	0xba2585a2	-0.00063141633
32	0x3d194877	0.037422623
33	0x3d1b41a5	0.0379044
34	0x3cb43357	0.021997137
35	0xbda53452	-0.0806662
36	0x3da3be4a	0.07995279
37	0x3e29f033	0.16595535
38	0x3d34d7d9	0.04415116
39	0xbd2afa7f	-0.041742798
40	0x3c4f7e2c	0.012664359
41	0x3d445292	0.047930308
42	0x3e914803	0.28375253
43	0x3d48a2d5	0.048983414
44	0x3d8dae44	0.06918004
45	0xbe97fa6f	-0.29683253
46	0x3d610095	0.054932196
47	0x3b58bba4	0.0033070827
48	0xbe7d2b85	-0.24723633
49	0xba31827d	-0.00067714584
50	0xbdbda8a0	-0.09260678
51	0xbe2c6bf9	-0.16838063
52	0xbdf01ffe	-0.11724852
53	0x3c97e8b1	0.018543573
54	0xbe2e6ab0	-0.17032886
55	0x3dda8cdb	0.10671397
56	0xbeb0006d	-0.34375325
57	0x3b8726e7	0.0041245106
58	0x3e3c66a1	0.18398525
59	0xbcae9c1b	-0.021314671
60	0xbd926144	-0.07147458
61	0x3d1875b1	0.037221614
62	0x3e34a2bf	0.17640208
63	0x3d64141b	0.055683237
64	0x3d967521	0.07346559
65	0x3d47f403	0.048816692
66	0x3e30f590	0.17281175
67	0x3ea53a3b	0.3227099
68	0xbd5868b7	-0.05283424
69	0x3d6c0d96	0.057630144
70	0xbd6db82a	-0.05803696
71	0x3daed4de	0.08536695
72	0x3e056ae0	0.13029051
73	0x3e2d7d73	0.16942386
74	0xbdbb0406	-0.09131627
75	0x3e16d208	0.14728558
76	0xbd572c4b	-0.052532475
77	0xbc606e5a	-0.013698185
78	0xbe1527ce	-0.14565966
79	0xbe9ebe58	-0.31004596
80	0xbecebb94	-0.40377486
81	0x3e6d3e21	0.23168232
82	0x3e1953f9	0.1497344
83	0x3dc1c0aa	0.09460576
84	0x3e5d63ba	0.21620074
85	0x3dfd18f4	0.12358275
86	0x3bd9741e	0.0066361567
87	0x3dbb86b4	0.09156552
88	0x3da912e5	0.08255557
89	0x3bebeccd	0.0071998597
90	0xbe2f7e92	-0.17138126
91	0x3cea0ce3	0.028570598
92	0xbe0717ad	-0.13192625
93	0xbbfce571	-0.0077177812
94	0xbe2f2583	-0.17104153
95	0x3d3f47c1	0.04669929
96	0xbd7d1467	-0.061787035
97	0xbd29019a	-0.041261293
98	0xbdb768d3	-0.089555405
99	0x3d044078	0.032288045
100	0xbd09c25a	-0.033632614
101	0x3da16a7a	0.07881637
102	0xbe0631d9	-0.13104953
103	0x3be35019	0.0069370386
104	0xbc64c007	-0.0139617985
105	0x3ceaa7d0	0.028644472
106	0xbe196081	-0.1497822
107	0xbd60a4d4	-0.054844692
108	0x3e33ed36	0.17570958
109	0xbb9975c7	-0.0046832296
110	0xbd89b75a	-0.06724425
111	0x3ea9cef7	0.33165714
112	0x3e9a3573	0.30118904
113	0x3bf3a379	0.007435259
114	0xbd8f6c2e	-0.070030555
115	0xbe111ebd	-0.14171882
116	0xbd912c9d	-0.070885874
117	0x3e0daee0	0.13836241
118	0x3de388e0	0.11110091
119	0x3d5093de	0.050922267
120	0x3e793dd6	0.24339995
121	0x3eb05b7b	0.34444794
122	0xbd126b73	-0.035747003
123	0x3dd0c180	0.10193157
124	0xbd1a4cd4	-0.037670925
125	0x3d1fd006	0.039016746
126	0x3df495c7	0.1194263
127	0xbda1aaf8	-0.07893938
128	0x3d8a9a49	0.06767709
129	0x3e0f87e6	0.14016685
130	0x3df71656	0.12064807
131	0xbdebf213	-0.11520781
132	0x3b1c006d	0.0023803965
133	0xbe1371d3	-0.14398889
134	0x3ddae14c	0.10687503
135	0xbdfea7c4	-0.124343425
136	0x3d1e53a2	0.038653977
137	0xbdfdca00	-0.12392044
138	0xbd3478ed	-0.044060636
139	0xbd4317be	-0.047630064
140	0xbc5d7a07	-0.013517863
141	0x3c01967c	0.007909413
142	0xbdca75c1	-0.09885741
143	0x3cf35ca9	0.02970727
144	0xbd5a0699	-0.05322895
145	0x3e1f9ee7	0.1558796
146	0x3c0b8db4	0.008517671
147	0xbd0d45c2	-0.034490354
148	0x3d2ae48e	0.041721873
149	0x3de68a27	0.11256819
150	0xbd811603	-0.063030265
151	0x3d0ef34d	0.0349
152	0xbdf80063	-0.12109449
153	0x3dd8d209	0.10586936
154	0x3e54775d	0.20748658
155	0x3e363bd6	0.17796263
156	0x3e688876	0.22708306
157	0xbc878bc4	-0.016546138
158	0xbc88fc75	-0.016721943
159	0x3cf7d735	0.030253986
160	0x3dbaeac1	0.09126807
161	0x3dccfcd7	0.10009163
162	0xbd552516	-0.05203732
163	0xbe66d2de	-0.22541377
164	0xbcf1f5bd	-0.029536122
165	0x3ba158cc	0.0049239155
166	0xbdcd9159	-0.100374885
167	0xbe874393	-0.26418743
168	0x3d8d9c0b	0.069145285
169	0xbd29567d	-0.041342247
170	0x3e1f485b	0.15554945
171	0x3db36df9	0.0876121
172	0xbd16f725	-0.03685679
173	0x3dd1b031	0.10238684
174	0x3dd9794b	0.10618838
175	0xbda5f007	-0.08102422
176	0xbdde64af	-0.108590476
177	0xbc605a04	-0.013693336
178	0x3cc6b410	0.024255782
179	0x3cab9dda	0.020949293
180	0x3d82f4ca	0.06394346
181	0x3d440639	0.047857497
182	0xbdecffc8	-0.11572224
183	0x3e1a4e5a	0.15068951
184	0xbe79e908	-0.244053
185	0xbe4ba223	-0.19886069
186	0xbd853983	-0.0650511
187	0x3ca75438	0.0204259
188	0x3d6044ae	0.054752998
189	0xbe36b159	-0.1784109
190	0xbe044e64	-0.12920529
191	0xbc98cddf	-0.018652854
192	0xbe407f0b	-0.18798463
193	0xbda669da	-0.08125658
194	0xbd83f7c5	-0.06443743
195	0xbcae9bb8	-0.021314487
196	0xbe2beed1	-0.1679032
197	0x3e056433	0.13026504
198	0xbe8b044a	-0.2715171
199	0xbe244a0d	-0.16043873
200	0xbe81953f	-0.25309178
201	0xbe38bb59	-0.18040217
202	0x3d0f9011	0.0350495
203	0xbe20b82e	-0.15695259
204	0xbf131602	-0.57455456
205	0xbd99df12	-0.075132504
206	0xbefb6105	-0.49097458
207	0x3dbdbd75	0.09264652
208	0xbdd2a37f	-0.10285091
209	0x3dea6dbd	0.11446712
210	0xbcc9f63d	-0.024653548
211	0xbe867503	-0.26261148
212	0xbd8df48f	-0.069314115
213	0x3e680cfb	0.22661202
214	0xbe119f8a	-0.14221016
215	0x3e299bd2	0.16563347

conv1.bias f4 [8]
0	0x3eb6d3cf	0.35708472
1	0x3ed2ea09	0.4119418
2	0x3d0b71ce	0.03404408
3	0x3ea93ffb	0.33056626
4	0xbe80b20b	-0.25135836
5	0x3dfa3a15	0.122181095
6	0x3f27c596	0.6553587
7	0x3e8abd41	0.27097514

conv2.weight f4 [12, 8, 3, 3]
0	0x3d18d9aa	0.037316956
1	0x3e265ef2	0.16247156
2	0x3e37101c	0.17877239
3	0xbdea6098	-0.11444205
4	0x3e4f205c	0.20227188
5	0xbdbe9439	-0.09305615
6	0x3d4ef69f	0.050528165
7	0xbd5e06b8	-0.054205626
8	0xbcd799a5	-0.02631838
9	0xbd34c857	-0.04413637
10	0xbe151daa	-0.14562097
11	0x3cac0c51	0.021001967
12	0x3daabf31	0.08337248
13	0x3e3ae3ee	0.18251011
14	0xbe9a8258	-0.3017757
15	0x3c24b80c	0.010053646
16	0xbe50fc5e	-0.2040877
17	0xbda2b17e	-0.0794401
18	0xbd9765b7	-0.073924474
19	0x3d39f50e	0.045399718
20	0x3ea243fc	0.31692493
21	0x3c60a841	0.01371199
22	0xbf175f45	-0.59129745
23	0xbf2ffa2f	-0.68741125
24	0x3dab2e17	0.083584
25	0xbe5b9af4	-0.21445829
26	0x3efcaaf0	0.49349165
27	0xbde4dba0	-0.11174703
28	0x3dc00a1d	0.09376929
29	0xbe3f17a2	-0.18661359
30	0x3df1962f	0.11796223
31	0x3e653d41	0.22386648
32	0xbf305606	-0.6888126
33	0xbd4f75cd	-0.050649453
34	0xbe9ddfdb	-0.3083485
35	0xbf214103	-0.62989825
36	0x3c1975fd	0.0093665095
37	0x3dcab23b	0.09897276
38	0xbd9ed5f1	-0.0775565
39	0x3c4b3de2	0.012404891
40	0xbe9b3bc6	-0.3031904
41	0x3e7ef43e	0.24897859
42	0xbd7affa5	-0.061278958
43	0x3dbd9934	0.09257737
44	0xbf1ad39d	-0.60479146
45	0xbd984cfd	-0.07436559
46	0x3d901f2a	0.07037194
47	0x3d98c480	0.074593544
48	0x3d98c2aa	0.07459004
49	0x3a0e1c77	0.0005421112
50	0xbe91fbe9	-0.28512505
51	0x3e119bb9	0.1421956
52	0xbeb2280d	-0.3479618
53	0xbd57aeb2	-0.052656837
54	0xbe44356a	-0.19161001
55	0x3e8ba230	0.27272177
56	0xbdc0686f	-0.09394919
57	0x3df1a49a	0.117989734
58	0x3f269648	0.6507306
59	0xbe8160a7	-0.25269052
60	0xbdd2e8aa	-0.102982834
61	0x3ec3dad2	0.38252884
62	0x3db39ccb	0.0877014
63	0xbeb33438	-0.35000777
64	0x3ebd5f4f	0.36986777
65	0xbe9e3bed	-0.30905095
66	0xbd11b319	-0.03557119
67	0x3f8bb658	1.0915022
68	0xbebff0b0	-0.37488317
69	0xbd9d9c65	-0.076958455
70	0xbe08c9a2	-0.13358167
71	0x3e20fad3	0.15720682
72	0x3cd00e98	0.025397584
73	0xbd290f28	-0.04127422
74	0xbd017645	-0.03160693
75	0x3dfcf0ac	0.12350592
76	0x3e48e204	0.19617468
77	0x3e331735	0.17489322
78	0x3d11146b	0.035419863
79	0xbbb1e38e	-0.005428738
80	0x3a41b765	0.00073896936
81	0x3ae5fefd	0.0017547306
82	0xbd85a780	-0.06526089
83	0xbd8bcb86	-0.068259284
84	0x3cc0ce26	0.0235358
85	0x3e25597a	0.16147414
86	0x3e2610d5	0.16217358
87	0xbe043d7d	-0.12914081
88	0xbd3f7e18	-0.04675111
89	0xbdb85ba4	-0.09001854
90	0xbc5d95fa	-0.013524527
91	0x3c98e4d5	0.018663803
92	0xbc1ecaae	-0.009691877
93	0xbd4eeea7	-0.050520565
94	0xbda4edf5	-0.08053199
95	0xbc046f7c	-0.008083221
96	0x3d1da357	0.03848585
97	0xbe521b58	-0.20518243
98	0x3d836309	0.06415374
99	0xbdab5a68	-0.08366853
100	0x3daad523	0.08341434
101	0xbd7f27fa	-0.062293984
102	0x3e262d08	0.16228116
103	0x3e857a41	0.26069835
104	0x3db9f75e	0.09080385
105	0x3d7a421d	0.061098207
106	0x3e574213	0.21021299
107	0xbcef464f	-0.02920833
108	0xbd307296	-0.043078028
109	0x3d9f4429	0.077766724
110	0xbd96137b	-0.07327934
111	0x3cf43768	0.029811576
112	0xbf284fb8	-0.6574664
113	0x3c85bda5	0.016325781
114	0x3d116582	0.035497196
115	0xbdc2af49	-0.09506089
116	0x3da1977d	0.07890222
117	0x3d9ae4c2	0.07563163
118	0x3d6a2888	0.05716756
119	0xbbd95625	-0.0066325837
120	0x3dcbb28c	0.099461645
121	0x3e42eda6	0.19035968
122	0xbbf839b5	-0.0075752386
123	0xbed73aab	-0.42036948
124	0xbe58ef89	-0.21185125
125	0x3d291cd3	0.041287255
126	0xbc8fcc4a	-0.017553467
127	0xbbb4fb95	-0.005523155
128	0x3c437258	0.011929117
129	0x3dd2f532	0.103006735
130	0x3df54d6c	0.11977658
131	0x389e6e6b	7.554594e-05
132	0xbdd0904c	-0.101837724
133	0xbd03f516	-0.032216154
134	0xbcb29c0b	-0.021802923
135	0x3e097e13	0.13427
136	0xbcb58c93	-0.022161758
137	0x3d9d2598	0.07673186
138	0x3eb83739	0.35979632
139	0x3f3ebd12	0.7450725
140	0xbe1b7e67	-0.15184937
141	0x3db02312	0.08600439
142	0xbd726329	-0.059176598
143	0xbcf74c93	-0.03018788
144	0xbb102a49	-0.002199786
145	0xbdea1331	-0.11429442
146	0xbdd6a7a5	-0.104811944
147	0x3d871d6c	0.06597409
148	0xbcb17b10	-0.021665126
149	0x3d2cba74	0.042170003
150	0x3d9193e8	0.07108289
151	0x3d9bbc9f	0.07604336
152	0xbe194aff	-0.14970015
153	0xbe04cd59	-0.12968959
154	0xbdd830e0	-0.10556197
155	0xbe2d1952	-0.1690419
156	0xbd4b0e02	-0.049573906
157	0xbd8e5a6a	-0.06950839
158	0xbd8dc9f1	-0.06923283
159	0xbda0bf2e	-0.07848965
160	0xbd2babb3	-0.041911792
161	0xbd6e4610	-0.058172286
162	0xbe1d8df6	-0.15386185
163	0xbdc11491	-0.09427751
164	0x3d8c4f90	0.06851113
165	0xbc699503	-0.014256719
166	0xbd1bb35b	-0.038012844
167	0xbe23663f	-0.15956973
168	0xbe11db3c	-0.14243788
169	0xbdab5723	-0.083662294
170	0xbd395e3e	-0.045255892
171	0xbe165d95	-0.14684136
172	0xb7a50c35	-1.9675217e-05
173	0xbe281edd	-0.16418023
174	0xbe1ce601	-0.15322115
175	0x3d11202f	0.035431083
176	0xbe33c7d0	-0.17556691
177	0xbe0d0e9b	-0.13775103
178	0x3c11fb71	0.008910046
179	0xbd9473df	-0.07248663
180	0xbdeeff2e	-0.116697654
181	0xbe1fbb8b	-0.15598886
182	0xbd5b3967	-0.05352154
183	0xbc82694d	-0.015919352
184	0xbde29c69	-0.11064989
185	0xbe145b68	-0.14487994
186	0xbe37d822	-0.17953542
187	0xbcb58d87	-0.022162212
188	0xbde0c894	-0.10975757
189	0xbc3e175c	-0.011602249
190	0x3b6e31b8	0.0036345553
191	0xbe1e862f	-0.15480874
192	0xbe01ee9e	-0.12688681
193	0x3d04f0f0	0.03245634
194	0xbbefba09	-0.0073158783
195	0x3d1aae01	0.0377636
196	0xbc7f7f9f	-0.015594392
197	0xbe0b2972	-0.13590029
198	0xbd97974a	-0.07401903
199	0xbdfdf185	-0.12399582
200	0x3ba792c7	0.005113933
201	0xbe167ce1	-0.14696075
202	0xbd673fea	-0.056457438
203	0x3d682deb	0.056684416
204	0xbe1e6f6a	-0.15472189
205	0x3c601ed5	0.013679226
206	0x3d48a38e	0.048984103
207	0xbd5bf987	-0.053704765
208	0xbe2090c3	-0.15680222
209	0xbe12d31c	-0.14338344
210	0xbd787092	-0.06065423
211	0xbe25d9ce	-0.16196367
212	0xbd3336f0	-0.043753564
213	0xbe16f4c9	-0.14741816
214	0xbe38d37c	-0.18049425
215	0xbcdc271b	-0.026874116
216	0xbd1a12e1	-0.03761566
217	0xbe1dee0a	-0.15422836
218	0x3b0b5940	0.0021262914
219	0xbd2e991b	-0.04262648
220	0x3d666956	0.0562528
221	0xbd649544	-0.055806413
222	0xbd920ed2	-0.07131733
223	0x3c030c2b	0.007998507
224	0xbe10dbee	-0.14146397
225	0xbe0bb039	-0.13641442
226	0xbdcfd3e4	-0.10147837
227	0xbca65668	-0.020304874
228	0xbba5102c	-0.005037328
229	0xbda1d88a	-0.0790263
230	0xbe01852e	-0.1264846
231	0xbe14b36f	-0.14521573
232	0x3d00deef	0.031462606
233	0x3d6b04e3	0.057377707
234	0xbc91f6ed	-0.017817939
235	0xbd8997ce	-0.067184076
236	0x3d47d906	0.048790954
237	0xbde11c40	-0.109917164
238	0x3c984594	0.018587865
239	0xbdf45131	-0.119295485
240	0xbd7f4122	-0.062317975
241	0xbd0e34f3	-0.034718465
242	0xbda4dc94	-0.080498844
243	0xbd0550d2	-0.03254778
244	0xbdd6dbb0	-0.10491121
245	0xbd96d3b4	-0.07364598
246	0xbccff26f	-0.025384156
247	0xbdc1fe90	-0.09472382
248	0xbd3cee88	-0.04612592
249	0x3d4a0ee6	0.049330615
250	0xbdbfe4bc	-0.093697995
251	0xbe0871b6	-0.13324627
252	0x3b8bf4fd	0.0042711482
253	0xbd18596b	-0.03719465
254	0xbd1e44b8	-0.038639754
255	0x3c61cf39	0.013782316

conv2.bias f4 [12]
0	0x3ec9fa7f	0.39448926
1	0x3f2569d2	0.64614594
2	0xbdb2342b	-0.087013565
3	0xbd8654b3	-0.06559124
4	0x3dfe1ed9	0.124082275
5	0xbe5c422d	-0.21509619
6	0x3cbde862	0.023182098
7	0xbe441012	-0.19146755
8	0x3b462146	0.0030232235
9	0x3f436301	0.7632294
10	0xbf1d81e2	-0.6152631
11	0x3ed7da30	0.4215865

conv3.weight f4 [16, 12, 3, 3]
0	0xbdbaeda3	-0.09127357
1	0xbcbe75ea	-0.023249585
2	0xbe95aabc	-0.29231822
3	0x3ed70d50	0.42002344
4	0xbf491f0c	-0.78563
5	0x3f449fe7	0.7680649
6	0xbda3fc47	-0.080071025
7	0x3dc294a7	0.095010094
8	0xbe2ac072	-0.16674975
9	0xbdf31e6d	-0.11871038
10	0x3da7889a	0.081803516
11	0xbf816e3c	-1.0111766
12	0xbdb7373a	-0.089460805
13	0x3e8898dc	0.26679122
14	0xbec62c53	-0.38705692
15	0x3b94561d	0.004526867
16	0x3d78cd1f	0.060742494
17	0x3e527b8e	0.20554945
18	0xbd3c0267	-0.04590073
19	0xbd259459	-0.04042468
20	0x3d8fc3e1	0.07019783
21	0x3d45a857	0.048256245
22	0x3dad6d93	0.08468165
23	0xbd9bbfac	-0.07604918
24	0xbb62a6a0	-0.003458418
25	0xbcab2cbb	-0.020895353
26	0x3cf45b2c	0.02982863
27	0xbc746390	-0.014916316
28	0x3d080242	0.03320528
29	0x3d7cacda	0.06168828
30	0x3bc06010	0.0058708265
31	0x3d29589a	0.041344263
32	0xbd89269e	-0.06696819
33	0xbc7e10e8	-0.01550696
34	0x3c0e3e68	0.008681871
35	0x3d2654fe	0.0406084
36	0x3ca16d8c	0.019705556
37	0xbcb6cef6	-0.022315484
38	0xbeaa3ea4	-0.33250916
39	0x3e7e47d7	0.24832092
40	0x3b6027db	0.0034203443
41	0xbdaebaed	-0.08531747
42	0xbd808179	-0.06274695
43	0xbda153e0	-0.07877326
44	0xbbcc04ca	-0.006226157
45	0x3e913292	0.28358895
46	0x3e98ca4d	0.29841843
47	0xbce53b57	-0.027982397
48	0x3e37b723	0.17940955
49	0x3dfd7c71	0.12377251
50	0x3e106d0f	0.14104103
51	0x3e964fb1	0.29357675
52	0x3e2994f5	0.16560729
53	0x3e6e9131	0.23297574
54	0xbdbede83	-0.093197845
55	0xbcd99f40	-0.026565194
56	0xbd4755fb	-0.04866598
57	0x3b83e970	0.0040256307
58	0xbdaff4ff	-0.08591651
59	0xbcaca3cc	-0.021074198
60	0x3c5c20f0	0.013435587
61	0xbcd867f4	-0.026416756
62	0xbc3b48e8	-0.011430956
63	0x3c2c2729	0.010507383
64	0x3b8c2a53	0.0042775064
65	0x3caa7214	0.02080635
66	0x3e377b53	0.17918138
67	0x3e682fc9	0.22674479
68	0x3d54ce2d	0.051954437
69	0x3ddd6914	0.10811058
70	0x3e117442	0.14204505
71	0x3ce8d324	0.028420992
72	0xbd2d6552	-0.042332955
73	0xbeb671d8	-0.3563373
74	0xbde071ce	-0.109592065
75	0x3e91cdd0	0.28477335
76	0x3f26af9f	0.65111727
77	0x3ed6a610	0.4192357
78	0xbe38088b	-0.17972009
79	0x3dfb7c6f	0.12279593
80	0xbdc7c122	-0.09753634
81	0x3cdb3b0f	0.02676156
82	0x3e1f098b	0.15530984
83	0xbf87dcb4	-1.0614228
84	0xbd2e9d78	-0.042630643
85	0x3f049e29	0.51803833
86	0x3e330be2	0.17485002
87	0xbe3baa41	-0.18326665
88	0x3dcd332f	0.10019528
89	0xbea9b588	-0.3314631
90	0xbeb50d79	-0.3536184
91	0x3ecc49e3	0.3990012
92	0xbdb8baa5	-0.090199746
93	0x3db90f40	0.09036112
94	0x3f4cd4ce	0.80012214
95	0xbb19391c	-0.0023379987
96	0xbe917b99	-0.2841461
97	0x3e9be0cd	0.30444947
98	0xbe694e42	-0.22783759
99	0xbe683534	-0.22676545
100	0xbd2c151c	-0.04201232
101	0xbf21665c	-0.63046813
102	0x3be60335	0.0070194253
103	0x3f594461	0.8486996
104	0x3cfd803e	0.03094494
105	0xbc9faf72	-0.019492839
106	0x3dfa06b5	0.122083105
107	0xbdab3142	-0.083590046
108	0xbe008d46	-0.12553892
109	0xbf8beabc	-1.093101
110	0x3d2cdaa2	0.042200692
111	0xbe0f641b	-0.14003031
112	0xbf1633ab	-0.5867259
113	0xbc0cf236	-0.008602669
114	0x3cb89208	0.02253057
115	0x3ce44edc	0.027869634
116	0xbe299fd1	-0.16564871
117	0xbe5b68f2	-0.21426752
118	0xbfdde085	-1.7334143
119	0x3f3ba8ce	0.7330445
120	0xbfc0bac5	-1.5056998
121	0xbf98149c	-1.188129
122	0x3db1cb3e	0.086813435
123	0x3e873b16	0.26412266
124	0x3c1c1511	0.009526507
125	0x3d70d501	0.058796886
126	0xbd862f5d	-0.065520026
127	0xbd284017	-0.041076746
128	0x3dae6832	0.085159674
129	0x3db75f91	0.08953775
130	0x3df8ed47	0.12154632
131	0x3dab7749	0.08372361
132	0xbd009781	-0.031394485
133	0x3e0a722e	0.13520119
134	0x3bbc3c19	0.005744469
135	0xbdd20f5b	-0.10256835
136	0x3de1f960	0.11033893
137	0xbd072bd1	-0.03300077
138	0x3ceb35b4	0.028712131
139	0x3df3fac9	0.11913068
140	0x3e071c2d	0.13194342
141	0x3d605b6a	0.05477468
142	0x3e055e68	0.13024294
143	0x3cf1add3	0.029501831
144	0xbda7e488	-0.08197886
145	0x3e228d04	0.15874106
146	0xbdc1e4cf	-0.0946747
147	0x3b86dbc5	0.004115554
148	0x3ef6e114	0.48218596
149	0x3db1ec0c	0.086876005
150	0xbe2dada5	-0.16960771
151	0x3e3e4aea	0.18583265
152	0xbe3e4f6d	-0.18584986
153	0xbed11d79	-0.40842798
154	0xbe6d7f52	-0.231931
155	0xbe9f4271	-0.31105378
156	0xbecf9b3f	-0.4054813
157	0xbeba81d0	-0.36427164
158	0xbebb3ab2	-0.36568218
159	0xbe7400f3	-0.23828487
160	0xbe6711ef	-0.22565435
161	0xbecabfad	-0.39599362
162	0xbd5dda04	-0.054162994
163	0xbcea8905	-0.02862979
164	0xbdf75b54	-0.12077966
165	0xbdeb9bc7	-0.115043215
166	0xbd7c692d	-0.06162374
167	0xbdf26089	-0.11834819
168	0xbd7e351f	-0.06206238
169	0x3c81a565	0.015825937
170	0x3bf11417	0.007357131
171	0x3d30cd37	0.043164458
172	0x3d8c4386	0.068488166
173	0x3c9907e0	0.018680513
174	0x3d136edf	0.035994407
175	0x3cfea743	0.031085616
176	0xbdd8b93d	-0.105822064
177	0xbe3ea8ee	-0.18619129
178	0xbe5e459b	-0.2170624
179	0xbdb704e4	-0.0893648
180	0x3da5de15	0.080989994
181	0x3dbb31c5	0.09140352
182	0xbd057005	-0.032577533
183	0x3c03aacb	0.008036326
184	0xbb063711	-0.00204796
185	0xbd0fa015	-0.035064775
186	0xbbbb69af	-0.0057193856
187	0xbc7e1430	-0.015507743
188	0xbc0e6a6f	-0.008692368
189	0xbf794984	-0.973778
190	0xbef2ba92	-0.47407967
191	0xbdb9bf72	-0.090697184
192	0xbf95cbbe	-1.1702802
193	0xbe324c18	-0.1741184
194	0x3e5ec8e8	0.21756327
195	0xbf31f2bf	-0.69511026
196	0x3d953571	0.07285584
197	0xbd393555	-0.045216877
198	0x3d150ff2	0.03639216
199	0x3d6a055a	0.05713401
200	0xbe03238f	-0.12806533
201	0x3ea13631	0.31486657
202	0x3f04a979	0.51821095
203	0x3dc05c12	0.09392561
204	0x3dd3ff92	0.103514805
205	0x3d792734	0.060828403
206	0xbd60414a	-0.054749765
207	0xbd96b73b	-0.07359167
208	0x3d3d70e1	0.046250228
209	0xbe4eccc8	-0.20195305
210	0x3d297f7a	0.041381337
211	0x3eeff137	0.4686372
212	0x3e46e6b1	0.1942394
213	0xbeb7833d	-0.35842314
214	0xbe23744e	-0.15962335
215	0xbe8ebbff	-0.27877805
216	0x3d36c872	0.044624753
217	0xbf8b451c	-1.0880466
218	0x3e61c651	0.22048308
219	0x3cfc3606	0.03078748
220	0xbf88e970	-1.069624
221	0xbee39c07	-0.44454977
222	0x3d723982	0.059136875
223	0xbef6acc2	-0.4817868
224	0x3edfa5c2	0.4368115
225	0x3e9ee29d	0.31032267
226	0xbe46e62c	-0.19423741
227	0x3f1cb19c	0.6120851
228	0x3cdecb5e	0.027196582
229	0xbf70281e	-0.93811214
230	0x3e692445	0.22767742
231	0xbd65f5ee	-0.05614274
232	0x3e141ec9	0.14464869
233	0xbe2efb06	-0.17087945
234	0x3e037ce0	0.12840605
235	0x3dbd663e	0.09248017
236	0xb7fcb97d	-3.0127116e-05
237	0x3d2d92f1	0.042376462
238	0x3dcfd23c	0.10147521
239	0x3d478be7	0.048717406
240	0x3ddd1681	0.10795308
241	0xbd2bf886	-0.041985057
242	0x3db93903	0.09044077
243	0x3b83dba0	0.004023984
244	0xbdd01b2e	-0.10161434
245	0x3cd344c3	0.025789624
246	0xbae1c9d0	-0.0017226283
247	0xbe1875e6	-0.14888725
248	0xbd0bd3ee	-0.03413766
249	0xbd51ef5c	-0.05125366
250	0x3cd60df7	0.026129706
251	0xbd8eb06d	-0.06967244
252	0xbdd20a44	-0.10255864
253	0x3d80a6ad	0.06281791
254	0x3c2b3a0f	0.010450854
255	0xbba34112	-0.004982122

conv3.bias f4 [16]
0	0xbdc1dd99	-0.094660945
1	0xbdf4ea8c	-0.11958799
2	0xbde51c17	-0.11186998
3	0xbe027d2c	-0.12743062
4	0x3f033c79	0.5126415
5	0xbdbf9c7d	-0.0935602
6	0xbd38ac8c	-0.04508643
7	0xbe27a634	-0.16371995
8	0xbdc30990	-0.09523308
9	0xbdc3b036	-0.09555094
10	0xbd4bd2d0	-0.049761593
11	0xbc848a1b	-0.016179135
12	0xbe1080e0	-0.14111662
13	0x3e59c6b8	0.21267211
14	0xbdb35a82	-0.08757497
15	0xbe31917f	-0.17340659

t_conv1.weight f4 [16, 12, 4, 4]
0	0xbeadc105	-0.33936325
1	0xbc82ca89	-0.015965717
2	0xbe90b3ae	-0.28262085
3	0xbf2605de	-0.648527
4	0x3e6c4c8f	0.2307608
5	0x3f280622	0.6563436
6	0x3f453e5a	0.77048266
7	0x3f86c9ad	1.0530297
8	0x3db0a425	0.08625058
9	0x3ec2038a	0.37893325
10	0xbe0563d7	-0.13026367
11	0x3e38d6e2	0.18050721
12	0xbe4e374c	-0.20138282
13	0x3ced589b	0.028972914
14	0xbe3011f7	-0.17194353
15	0x3d19aaa6	0.03751626
16	0xbe298453	-0.16554384
17	0x3d05d6cc	0.03267555
18	0xbe116814	-0.14199859
19	0xbe738820	-0.23782396
20	0xbbb2098d	-0.0054332674
21	0xbe1ba172	-0.15198305
22	0xbe29867e	-0.16555211
23	0x3ecc0867	0.3985016
24	0x3e3bc711	0.18337657
25	0xbbfcc68e	-0.0077140993
26	0xbe934fc6	-0.287718
27	0x3e1bf66b	0.1523072
28	0xbd6bfacd	-0.05761223
29	0xbd68f8c0	-0.05687785
30	0xbde75fda	-0.11297579
31	0x3e29c23a	0.16577998
32	0x3e4b89ff	0.1987686
33	0xbe200465	-0.15626676
34	0x3f04574e	0.51695716
35	0xbf3f713c	-0.74782157
36	0x3e0c0816	0.1367496
37	0x3fb7997e	1.4343717
38	0xbabae9a2	-0.0014260302
39	0x3f275ebc	0.6537893
40	0xbe2f667d	-0.1712894
41	0x3f4fd9cb	0.811917
42	0x3f1561a7	0.5835213
43	0x3eae97f1	0.34100297
44	0x3c365cf5	0.011130561
45	0xbdb5ba62	-0.0887344
46	0x3e96a487	0.294224
47	0xbdc3cb0c	-0.095602125
48	0xbddc6109	-0.107606955
49	0xbf8ab561	-1.0836602
50	0xbff783cb	-1.9337095
51	0x3df39758	0.11894101
52	0xbf0725fd	-0.5279234
53	0x3fd52604	1.6652226
54	0xbe260f53	-0.16216783
55	0x3f1f392b	0.62196606
56	0x3e869a73	0.2628971
57	0x3f1b81b6	0.607448
58	0x3f963081	1.1733552
59	0xbf25a28c	-0.6470115
60	0xbebaf75b	-0.36516842
61	0xbea78298	-0.32716823
62	0x3f286676	0.65781343
63	0xbf0b8915	-0.54506046
64	0xbf0e5c46	-0.5560955
65	0x3eaa19a7	0.33222696
66	0x3f51b50b	0.81916875
67	0x3f09235f	0.53569597
68	0xbf3f225a	-0.7466179
69	0xbd2b2dca	-0.041791715
70	0x3e917285	0.28407684
71	0xbf99fae0	-1.2029686
72	0xbef2401e	-0.47314543
73	0x3e350e11	0.17681147
74	0x3e2fdff7	0.1717528
75	0xbf23dff4	-0.640136
76	0x3c1325b8	0.008981161
77	0x3ddc4937	0.10756152
78	0x3f2a108f	0.66431516
79	0xbe6adec4	-0.22936541
80	0xbd5ad315	-0.05342396
81	0xbdabebdc	-0.08394596
82	0xbde6ef56	-0.112761185
83	0x3cb7aaa4	0.022420235
84	0xbd129ef2	-0.035796113
85	0xbde51441	-0.11185504
86	0xbdf3862a	-0.11890824
87	0x3d520eee	0.05128377
88	0xbd047b10	-0.032343924
89	0xbd095c46	-0.033535264
90	0xbde6c5b0	-0.11268175
91	0x3c848eb0	0.01618132
92	0xbd2140c3	-0.039368402
93	0x3c0464ad	0.008080644
94	0xbd7def4f	-0.0619958
95	0xbb151ec0	-0.0022753924
96	0xbe52b7ee	-0.20577976
97	0xbe8821a9	-0.2658818
98	0xbd16838d	-0.03674655
99	0x3dafc1d8	0.08581895
100	0x3e4dfc0b	0.20115678
101	0x3f1460af	0.5796003
102	0x3ed9dbe6	0.42550582
103	0xbf06b749	-0.5262342
104	0xbb155ce0	-0.0022790954
105	0xbe66ea6b	-0.22550361
106	0x3eaaf185	0.3338739
107	0xbee05026	-0.43811148
108	0xbd06d63b	-0.03291915
109	0x3c2b6d52	0.010463076
110	0xbd82b166	-0.06381492
111	0xbd46386d	-0.048393656
112	0x3c66f8a2	0.014097365
113	0xbee6540a	-0.44985992
114	0xbf2456e3	-0.6419508
115	0xbf9b7fc7	-1.214837
116	0x3e8a12d9	0.26967505
117	0x3ea31158	0.3184917
118	0x3d2c10d3	0.042008232
119	0x3f74ba85	0.95597106
120	0xbdd08591	-0.10181726
121	0x3dc3a084	0.095521
122	0xbe41d1ca	-0.18927684
123	0xbdc601d3	-0.09668317
124	0x3e1174c2	0.14204696
125	0x3d3b04f6	0.045659028
126	0x3d8c4f78	0.06851095
127	0x3d34f44f	0.044178303
128	0xbd8d1157	-0.06888073
129	0x3ed1cab8	0.40974975
130	0x3d17c497	0.037052717
131	0xbe92a648	-0.28642488
132	0xbe045e9c	-0.12926716
133	0xbdc09c7f	-0.09404849
134	0x3c8c2464	0.017107196
135	0x3c87b9d2	0.016568098
136	0xbe0331d2	-0.12811974
137	0x3dd5c348	0.104376376
138	0xbdaf5527	-0.085611634
139	0x3ea84063	0.32861623
140	0x3d47b006	0.048751853
141	0xbd8fb849	-0.070175715
142	0xbddde4ba	-0.10834642
143	0xbce5fbae	-0.028074112
144	0xbd3a1126	-0.04542651
145	0xbd91b8e3	-0.071153425
146	0xbd159fee	-0.036529474
147	0xbd012e1e	-0.03153812
148	0xbc0b65da	-0.00850817
149	0xbd92cacf	-0.07167589
150	0x3c50e912	0.012750881
151	0x3d899e7c	0.067196816
152	0xbd84319f	-0.06454777
153	0x3caa516c	0.020790778
154	0xbbf3935b	-0.0074333376
155	0xbcf03d96	-0.029326241
156	0x3c75f62a	0.015012303
157	0xbd4214e7	-0.047383215
158	0x3c41ee20	0.011836559
159	0x3d8b7f40	0.068113804
160	0x3d42a6dd	0.047522414
161	0xbd48cd75	-0.049024064
162	0xbd8f3389	-0.069922514
163	0xbd9d87bc	-0.07691905
164	0xbdb20f92	-0.08694376
165	0x3efad579	0.48990992
166	0xbe4efa52	-0.20212677
167	0xbe07d976	-0.13266549
168	0xbc355156	-0.011066755
169	0x3e92ac9e	0.2864732
170	0x3e27a43d	0.16371246
171	0xbebc3dbf	-0.3676586
172	0x3df52a3a	0.11970945
173	0xbe20f2c2	-0.15717605
174	0x3cf793bd	0.030221814
175	0xbcd0e05b	-0.025497606
176	0xbd86aaed	-0.0657557
177	0xbe9e97ae	-0.30975097
178	0xbeb086bf	-0.34477803
179	0x3e134420	0.14381456
180	0xbe010eab	-0.12603252
181	0xbee503e6	-0.44729537
182	0x3fbdbfb1	1.4824125
183	0xbe42a952	-0.19009903
184	0xbe91346d	-0.2836031
185	0xbf9300f9	-1.1484672
186	0x3e28b30a	0.16474548
187	0xbe80c620	-0.25151157
188	0x3df05320	0.11734605
189	0x3e9cf1a3	0.30653104
190	0xbc94b467	-0.018152429
191	0x3d33220a	0.043733634
192	0xbebd18fa	-0.36933118
193	0x3f1bce43	0.60861605
194	0x3e8af2b7	0.27138302
195	0xbe96830c	-0.29396856
196	0xbe48a9a2	-0.1959596
197	0x3f994c06	1.1976326
198	0x3f47d8d3	0.7806522
199	0xbe780251	-0.24219634
200	0xbd9154a7	-0.07096224
201	0x3f2d54c1	0.6770745
202	0x3eed8f14	0.46398222
203	0xbe97a291	-0.29616216
204	0xbec8187e	-0.39081186
205	0x3e6b919c	0.23004764
206	0x3c708206	0.0146794375
207	0xbdca2c6f	-0.09871756
208	0xbdbcfa12	-0.092273846
209	0x3dbd791f	0.09251618
210	0x3dfda740	0.12385416
211	0xbd530a5d	-0.051523555
212	0x3e5a2469	0.21302952
213	0x3e82f9ab	0.25581107
214	0x3ec11270	0.3770938
215	0xbd9522fd	-0.07282064
216	0x3defe255	0.11713091
217	0x3e1140c4	0.14184862
218	0x3e0ab970	0.13547301
219	0xbdc55420	-0.09635186
220	0xbda2e404	-0.07953647
221	0x3d4f51b5	0.05061503
222	0x3d132016	0.03591927
223	0x3d926e44	0.07149938
224	0xbf28cb6c	-0.659354
225	0xbecbe9b6	-0.39826745
226	0x3d65a5bf	0.05606627
227	0x3cb86430	0.02250871
228	0x3edecef4	0.43517268
229	0x3e16bc70	0.1472032
230	0x3c496397	0.0122918105
231	0x3d645eaf	0.05575436
232	0x3ebb81fc	0.36622608
233	0x3f6778ff	0.90419
234	0xbd2bbf70	-0.041930616
235	0x3d2dd869	0.042442713
236	0x3cf49393	0.029855525
237	0xbe092856	-0.13394293
238	0xbeab484e	-0.33453602
239	0x3dbf4eb8	0.09341186
240	0xbdac9489	-0.08426768
241	0xbde008de	-0.10939191
242	0xbebaa006	-0.36450213
243	0xbe8d5276	-0.27601975
244	0xbecbc94b	-0.39802012
245	0x3f3414a0	0.7034397
246	0x3ef6198c	0.48066366
247	0x3ea8d763	0.32976827
248	0x3e26bc64	0.16282803
249	0x3ec078ae	0.3759207
250	0x3f650e4a	0.8947493
251	0x3e91cd70	0.2847705
252	0x3e912369	0.28347328
253	0x3e08bfd5	0.13354428
254	0xbd40a11b	-0.047028642
255	0xbed388d9	-0.41315344

t_conv1.bias f4 [12]
0	0x3e00e650	0.12587857
1	0x3e7b921c	0.24567455
2	0xbe915aee	-0.28389686
3	0x3eed48ea	0.46344692
4	0x3ec63e21	0.38719276
5	0xbdf83888	-0.121201575
6	0xbecd70ae	-0.4012503
7	0xbe65d386	-0.22443971
8	0x3e758081	0.23974802
9	0xbdc857b4	-0.09782353
10	0x3e0e9c45	0.139268
11	0x3f3888e5	0.72083884

t_conv2.weight f4 [12, 3, 4, 4]
0	0x3de3e8d6	0.11128394
1	0xbd4fd972	-0.05074448
2	0xbd0cf628	-0.03441444
3	0xbca3dfb8	-0.020004138
4	0x3e62c79b	0.22146456
5	0x3e70f96d	0.23532648
6	0x3e3a769f	0.18209313
7	0x39b11464	0.00033775263
8	0x3e592e3e	0.21209046
9	0x3d08b16d	0.03337233
10	0xbe283866	-0.16427764
11	0xbbb7c1e5	-0.005607831
12	0x3c6f8614	0.014619369
13	0x3acb1d45	0.0015496394
14	0xbc6e4ba4	-0.014544401
15	0xbcc3995f	-0.023876844
16	0x3d92c0ec	0.07165703
17	0xbd0859d1	-0.03328878
18	0xbd28eb15	-0.041239817
19	0xbd13a7a5	-0.03604855
20	0x3e8e4529	0.2778714
21	0x3ec6aa2f	0.38801715
22	0x3ea5e601	0.32402042
23	0x3dc5af7a	0.0965261
24	0x3e44cc36	0.19218525
25	0x3ca9395d	0.020657236
26	0xbdf4c459	-0.11951513
27	0xbaf8f24a	-0.0018993106
28	0x3bde6498	0.006786894
29	0x3d24c5c6	0.040227674
30	0x3d03a627	0.032140877
31	0x3ce6ef77	0.028190358
32	0x3da7e02d	0.08197055
33	0x3c82d4ec	0.01597067
34	0xbbe765ff	-0.0070617194
35	0xb9df50dc	-0.0004259412
36	0x3ea59cd5	0.32346216
37	0x3ef312e8	0.47475362
38	0x3eb890e3	0.3604804
39	0x3e5d6785	0.21621521
40	0x3e441eef	0.19152425
41	0x3cb12766	0.021625232
42	0xbdb1344b	-0.08652552
43	0xbd170025	-0.036865372
44	0x3b87e4b3	0.004147136
45	0x3dc13e8c	0.09435758
46	0xbcbca194	-0.023026265
47	0x3da68e31	0.081325896
48	0x3d404bfd	0.046947468
49	0x3e107722	0.14107946
50	0xbcdb6852	-0.026783142
51	0xbdc34afe	-0.09535788
52	0x3dcd5e58	0.1002776
53	0x3e2f522b	0.17121188
54	0x3e5f93db	0.21833746
55	0xbd55411e	-0.052064054
56	0xbd8f3f5c	-0.06994507
57	0xbda7c1e3	-0.08191278
58	0xbd23b44d	-0.03996687
59	0xbe586a99	-0.21134414
60	0xbdb97061	-0.09054638
61	0xbaf3ad52	-0.0018591082
62	0xbd38b905	-0.045098323
63	0x3d51539b	0.051105123
64	0x3ddb8ae0	0.10719848
65	0x3cd98317	0.026551766
66	0x3d7782ed	0.060427595
67	0xbcb73fa7	-0.022369219
68	0x3e17951c	0.14802974
69	0x3d563191	0.052293364
70	0x3e3a03b7	0.1816548
71	0xbd6d5bd3	-0.0579489
72	0x3de60bd7	0.11232727
73	0x3d328423	0.043583047
74	0x3d6907e3	0.056892287
75	0xbd9e47e5	-0.077285565
76	0x3d56b71a	0.052420713
77	0x3bf6ad83	0.0075280084
78	0xbcb025c9	-0.021502392
79	0x3d0009ec	0.031259462
80	0x3afbc5be	0.0019208712
81	0x3cc0ddec	0.02354332
82	0xbc9f1620	-0.01941973
83	0xbd59efb3	-0.05320711
84	0x3d56d48c	0.052448794
85	0xbd3778c6	-0.044792913
86	0x3e166a0d	0.14688893
87	0xbe0f3bf3	-0.13987713
88	0x3e077647	0.13228713
89	0x3dcb40e7	0.099244885
90	0x3d6633f9	0.05620191
91	0x3d303119	0.043015573
92	0x3d9b13c9	0.07572133
93	0x3d466171	0.04843277
94	0x3d87ac12	0.06624617
95	0xbd672075	-0.056427438
96	0x3d1dccb2	0.03852529
97	0x3dbb3f01	0.091428764
98	0xbe054956	-0.13016257
99	0x3e1d0ef2	0.15337732
100	0xbe399c5d	-0.18126054
101	0xbedd36bf	-0.4320583
102	0xbf0a3922	-0.5399343
103	0xbe1fcf8b	-0.15606515
104	0x3e2409c4	0.1601935
105	0x3e3afdf0	0.18260932
106	0xbd7872a5	-0.06065621
107	0xbb28f123	-0.0025778494
108	0x3bbf9f90	0.0058478788
109	0x3d6ad1cb	0.05732898
110	0xbd852f83	-0.06503203
111	0xbd14bb30	-0.03631133
112	0x3ce5f858	0.028072521
113	0x3d809bc5	0.06279711
114	0x3d106571	0.035252992
115	0x3db001a4	0.08594063
116	0xbe3c3a66	-0.18381652
117	0xbeb0c930	-0.34528494
118	0xbed0c6fc	-0.40776813
119	0xbda773b7	-0.08176368
120	0x3de9c8eb	0.11415275
121	0x3e0ee3af	0.13954042
122	0x3d0578d3	0.03258593
123	0x3d3e32b0	0.046435058
124	0xbcbc80e5	-0.02301068
125	0xbd6eae18	-0.058271497
126	0xbd52142c	-0.05128877
127	0xbd89d1e6	-0.06729488
128	0xbd257aae	-0.0404002
129	0x3d0f4c45	0.034984846
130	0x3e69ff02	0.22851184
131	0x3e96d31f	0.29457948
132	0xbe2f1eb1	-0.17101552
133	0xbe6090e3	-0.2193027
134	0xbe5cabbd	-0.21549888
135	0x3d8e3632	0.06943931
136	0x3c9fab2a	0.019490797
137	0x3e35cec6	0.17754659
138	0x3e138bbc	0.14408773
139	0x3e2e7616	0.17037234
140	0xbe014345	-0.12623318
141	0xbd38f673	-0.045156907
142	0x3d960d56	0.073267624
143	0xbd5f46e8	-0.05451098
144	0x3cb107de	0.021610197
145	0xbd1c67bb	-0.038184863
146	0x3ceb264e	0.028704789
147	0x3a0e8431	0.0005436568
148	0x3e13ea8e	0.14444944
149	0x3c74bcfd	0.014937636
150	0x3e69477b	0.22781174
151	0x3db1da36	0.086841986
152	0x3e8dbef6	0.27684754
153	0x3ea69d08	0.3254168
154	0x3ee6d569	0.45084694
155	0x3ea6e962	0.32599932
156	0x3e0c6dc3	0.13713746
157	0x3e6bcbc5	0.2302695
158	0x3f089065	0.5334533
159	0x3e5a6a7c	0.21329683
160	0xbcc3c5ee	-0.023898091
161	0xbd868d64	-0.06569937
162	0xba9f359a	-0.0012146712
163	0xbca5afdb	-0.020225456
164	0x3d5580ca	0.052124776
165	0xbd426be7	-0.047466185
166	0x3e456768	0.19277728
167	0x3c231785	0.009954338
168	0x3e5f583b	0.21811001
169	0x3e912ad3	0.28352985
170	0x3efacf5c	0.48986328
171	0x3ead86b4	0.33891833
172	0x3e3befa0	0.18353128
173	0x3e7abf17	0.24486957
174	0x3f0c1928	0.54725885
175	0x3e02a4dd	0.12758203
176	0xbda06e5d	-0.0783355
177	0xbdd1a629	-0.10236771
178	0x3d0bc4b5	0.03412314
179	0xbca07f1b	-0.019591859
180	0x3d75291e	0.059853666
181	0xbc821002	-0.015876774
182	0x3e8c4dc9	0.27403095
183	0xbcb66802	-0.022266392
184	0x3ea19ad5	0.3156344
185	0x3ecaae47	0.39586088
186	0x3f2a237d	0.664604
187	0x3e215229	0.15753998
188	0x3d1a51e3	0.03767575
189	0x3de96ffd	0.11398313
190	0x3eedba92	0.46431404
191	0x3e83a451	0.257113
192	0x3d0fb144	0.035081163
193	0xbe2b22d1	-0.167125
194	0x3de6ce41	0.112698086
195	0xbda4e5a2	-0.080516115
196	0x3e0a15cf	0.13484882
197	0xbd8941fb	-0.06702038
198	0x3e2d4b7d	0.16923328
199	0xbd4bf886	-0.049797557
200	0xbda0e17f	-0.0785551
201	0xbea768e8	-0.32697225
202	0xbd838746	-0.06422286
203	0xbb93e528	-0.0045134015
204	0xbd3c83b6	-0.046024047
205	0xbc445e81	-0.011985422
206	0x3d5be310	0.05368334
207	0x3cdf1a02	0.027234081
208	0x3d37424e	0.044740967
209	0xbd852fcd	-0.06503258
210	0x3e3d7022	0.18499807
211	0xbd4128d9	-0.047158096
212	0x3e9587f8	0.29205298
213	0x3dd6ed25	0.104944505
214	0x3ebcc1b2	0.36866528
215	0x3df318f4	0.11869994
216	0x3d81423d	0.06311462
217	0xbe408e17	-0.18804203
218	0x3d5ad06d	0.053421427
219	0x3deb651b	0.11493894
220	0xbd1a64a0	-0.03769362
221	0x3d6ae38e	0.05734592
222	0x3dec3901	0.1153431
223	0xbc1b0bf6	-0.009463301
224	0x3c9de90d	0.019276166
225	0xbe37a826	-0.17935237
226	0x3caf9d7c	0.0214374
227	0xbd0025da	-0.031286098
228	0x3e641d3d	0.22276779
229	0xbdd112fb	-0.10208698
230	0x3e025c3b	0.12730496
231	0xbd775f39	-0.060393546
232	0xbdce54e7	-0.100747876
233	0xbed2c0b9	-0.4116266
234	0xbe819dcb	-0.253157
235	0xbe51b3c1	-0.20478727
236	0xbcd7326e	-0.026269164
237	0xbd997299	-0.07492561
238	0xbc0416f9	-0.008062118
239	0xbda76efb	-0.08175465
240	0x3cd66083	0.026169067
241	0x3e18a3e3	0.14906268
242	0x3d8b6225	0.06805829
243	0xbc5b9d2b	-0.013404171
244	0x3d295e01	0.041349415
245	0xbcd1aba3	-0.025594538
246	0xbc021f44	-0.007942025
247	0x3c54255d	0.012948361
248	0x3c994f6e	0.018714633
249	0x3e122b9a	0.14274445
250	0x3e018731	0.12649228
251	0xbdc42f34	-0.09579316
252	0x3cd98771	0.026553841
253	0x3d1ad717	0.037802782
254	0x3e1de6d4	0.15420085
255	0x3e49bd93	0.19701223

t_conv2.bias f4 [3]
0	0x3ecb14a5	0.39664188
1	0x3eb45a36	0.35225075
2	0xbec227ae	-0.37920898
