.ipynb_checkpoints/models/cae2.pth (torch, 105023 bytes, 10 tensors)

conv1.weight f4 [5, 3, 3, 3]
-0.15830472 -0.14688358 0.06820373 -0.1548405 -0.1070028 0.082769796 -0.13307735 -0.061884
-0.101320356 -0.090886615 0.049108997 -0.15137473 -0.12815306 -0.11180861 0.02491133 -0.117616065
-0.08590872 0.035540327 -0.03531806 -0.14499657 -0.107809365 -0.051043734 -0.16434668 -0.112347126
0.028669357 0.10627426 -0.023439765 0.07659297 0.09550039 -0.00775388 0.10859151 -0.14124635
0.07436326 0.081589535 -0.06943999 0.20709941 0.09401505 0.033682134 0.11440163 -0.075348854
0.038001552 -0.038080633 0.14377037 0.07995254 0.07318396 0.082426116 -0.06094303 0.169544
0.057305034 0.03310238 0.03757288 0.08437794 0.059342094 0.047051672 -0.05927957 -0.011877812
-0.008628404 -0.05696879 0.07070603 -0.047317058 0.035234913 -0.06451629 -0.054643806 0.03207228
-0.049343556 -0.019464133 -0.0023951556 -0.034801863 3.122116e-05 -0.08617729 0.029625634 -0.0046990854
-0.09155022 0.084370255 -0.032724902 0.056292996 -0.11353686 -0.019936044 0.0454055 -0.06583794
0.019930337 -0.03294532 0.020606134 -0.110226154 -0.13659804 -0.16503003 -0.042795267 -0.13863316
-0.18053547 0.13575575 -0.21954213 -0.054623965 -0.14592788 -0.034594256 -0.043949593 -0.030878823
-0.082920976 -0.0934146 -0.124758646 0.062047027 -0.037760273 0.09015236 -0.15379146 -0.17758003
-0.08748404 -0.008914982 0.004966845 0.08368977 0.064706184 -0.13437073 -0.10983605 0.010724404
0.013718828 -0.12872532 0.111946285 -0.10672242 -0.051420014 0.10582293 0.007452608 0.078811504
-0.02962165 -0.23461851 0.09194016 0.042555 -0.21169885 -0.19575138 -0.23742151 0.07686075
0.007310637 -0.147142 -0.06545887 -0.14590442 -0.1256791 -0.20370446 -0.18749537
00000000: a21a 22be a668 16be 66ae 8b3d 828e 1ebe
00000010: 4924 dbbd 3683 a93d 6e45 08be 147a 7dbd
00000020: 0c81 cfbd c322 babd 8426 493d fa01 1bbe
00000030: 8e3a 03be eafb e4bd d812 cc3c b1e0 f0bd
00000040: e9f0 afbd bc92 113d aca9 10bd fb79 14be
00000050: 28cb dcbd 3c13 51bd 7f4a 28be 4016 e6bd
00000060: 00dc ea3c 52a6 d93d c004 c0bc c6dc 9c3d
00000070: b595 c33d 4314 febb 3a65 de3d e2a2 10be
00000080: c44b 983d 6a18 a73d 8e36 8ebd de11 543e
00000090: f68a c03d 47f6 093d 674b ea3d 8050 9abd
000000a0: 84a7 1b3d 70fa 1bbd 8a38 133e 28be a33d
000000b0: 79e1 953d 06cf a83d 669f 79bd f19c 2d3e
000000c0: afb8 6a3d 5c96 073d 05e6 193d 57ce ac3d
000000d0: b210 733d 41b9 403d 22cf 72bd 289b 42bc
000000e0: 265e 0dbc 1b58 69bd 53ce 903d 88cf 41bd
000000f0: 7c52 103d 1e21 84bd 2fd2 5fbd 395e 033d
00000100: 781c 4abd 3f73 9fbc 0bf8 1cbb 668c 0ebd
00000110: 77f3 0238 b87d b0bd 75b1 f23c c9fa 99bb
00000120: af7e bbbd 50ca ac3d 8c0a 06bd 7c93 663d
00000130: 0386 e8bd ea50 a3bc 1efb 393d 0bd6 86bd
00000140: f244 a33c acf1 06bd 32ce a83c 40be e1bd
00000150: 5be0 0bbe a2fd 28be 174a 2fbd daf5 0dbe
00000160: 4ade 38be 8e03 0b3e a7cf 60be 61bd 5fbd
00000170: 1e6e 15be b5b2 0dbd 7d04 34bd 96f5 fcbc
00000180: 79d2 a9bd 2750 bfbd 7681 ffbd 0625 7e3d
00000190: 84aa 1abd cda1 b83d 827b 1dbe 8ad7 35be
000001a0: d52a b3bd 2510 12bc eac0 a23b 8b65 ab3d
000001b0: ad84 843d 7b98 09be b9f1 e0bd 69b5 2f3c
000001c0: efc4 603c 92d0 03be 1844 e53d 4991 dabd
000001d0: cb9d 52bd b1b9 d83d 0235 f43b ed67 a13d
000001e0: 1aa9 f2bc d63f 70be 1f4b bc3d 274e 2e3d
000001f0: 95c7 58be 0d73 48be a01e 73be 2b69 9d3d
00000200: 118e ef3b 64ac 16be 4d0f 86bd f867 15be
00000210: 06b2 00be e797 50be c9fe 3fbe

conv1.bias f4 [5]
-0.025832161 -0.017668763 0.55189043 -0.09762822 -0.10569923
00000000: f89d d3bc 15be 90bc b148 0d3f 4ef1 c7bd
00000010: d778 d8bd

conv2.weight f4 [8, 5, 3, 3]
-0.12209953 -0.06715734 0.14684434 -0.071435474 -0.13245428 0.03818558 0.13057898 -0.0826716
-0.14710319 -0.086949594 -0.0021592483 0.07171869 -0.028892301 0.08586162 -0.08129152 -0.15628268
0.043239273 -0.22170255 -0.13349478 -0.06983192 0.004256879 -0.020581648 -0.08401805 0.035463337
-0.00349226 -0.09993803 0.116764985 0.18133345 0.070313 -0.16905425 0.048371207 0.17523238
0.09811565 0.06950456 -0.08555477 0.032947853 0.10293073 0.15305392 -0.16166206 0.106239475
0.019918054 -0.067717895 -0.009387513 0.12250886 -0.03358097 -0.09239314 0.05673802 0.098253995
0.015307829 -0.08572412 0.06590687 0.0016133785 -0.10989852 -0.017081156 -0.07330674 0.052756343
-0.033181276 0.05608 -0.07443626 -0.0825951 0.06751815 0.020973984 0.013831631 0.0064416537
0.058121197 -0.10092081 0.06780524 -0.1514648 -0.09318605 0.06888159 -0.16141006 -0.09138872
-0.055652704 0.025534427 0.043101802 -0.06261508 0.043071404 0.01698403 -0.10945701 0.007904485
-0.03890414 -0.093005426 -0.1583508 -0.03180457 0.014883532 0.08722283 0.06470918 -0.031607967
0.038006444 -0.030497704 0.12896754 -0.053579964 0.13427551 0.1392753 0.04863639 -0.0015743375
-0.1032673 0.10150726 0.13533525 0.09586748 -0.10020911 0.029179981 -0.085272714 -0.2494518
-0.069514 0.029449027 -0.073703386 0.0036810867 0.11713741 0.14105673 0.04203785 -0.09602534
0.0026222924 -0.012479856 0.08849468 0.064641975 0.06300198 -0.121915124 0.13584225 -0.04676903
0.082131386 0.0012846111 0.06722926 0.1236689 0.028345218 -0.07081915 -0.02963503 0.0099543
-0.034381703 -0.09990576 -0.03863076 0.10362944 -0.04412143 0.08022428 0.112215154 -0.13564973
-0.086754695 0.12155725 -0.070764646 0.14297645 0.10082868 0.028934568 0.012890726 0.1480534
0.021887554 -0.038933717 -0.017321648 -0.26716068 -0.261789 -0.30428997 0.25176093 -0.31511182
0.22776964 -1.0997063 0.3225449 -1.3671582 -0.13723797 1.126451 0.054286942 -0.3082163
-0.18906093 -0.19088249 0.040800273 0.0061627775 -0.0042081326 -0.011997804 -0.14060396 -0.002714187
0.0826685 -0.07620299 0.09548852 0.1267477 -0.09745899 0.029218674 0.038548503 -0.09104835
-0.045073573 -0.13389231 -0.12212663 0.06607519 -0.0059170425 0.09042519 -0.14693138 0.058100015
0.107705966 0.017836988 -0.06338168 0.04074508 0.11884205 -0.0021110475 0.07824141 -0.08416448
-0.13245882 -0.0941418 0.0553841 0.059440628 0.01685705 -0.11821496 -0.14056952 -0.0094487965
-0.13600262 -0.0355194 0.070454024 -0.032939266 -0.0065104812 -0.10741495 0.009174167 -0.09099431
-0.023935258 -0.10432122 0.14480804 -0.006062925 0.11496852 0.12624364 0.095879346 -0.07181424
-0.017898872 -0.12380038 0.023352042 -0.07376705 -0.096130185 0.007941335 -0.14533314 -0.028269991
-0.0034780353 -0.14175507 -0.03177263 -0.044342183 0.058938563 -0.09528839 -0.09096064 -0.06369972
0.1385672 -0.048657805 -0.06357963 -0.076504014 0.025425604 0.01209517 -0.21232831 -0.14273123
-0.054609768 -0.024408901 -0.026809031 -0.16550371 0.34455162 -0.2893686 0.06628537 0.31642273
0.13300367 -0.39523083 -0.11796496 -0.4905863 -0.07365659 -0.09123055 0.10743243 -0.09106967
00000000: 520f fabd ca89 89bd 5d5e 163e c34c 92bd
00000010: 18a2 07be 7c68 1c3d 7fb6 053e ba4f a9bd
00000020: 38a2 16be a112 b2bd 2d82 0dbb 40e1 923d
00000030: 8caf ecbc 38d8 af3d 2b7c a6bd 9108 20be
00000040: aa1b 313d fe05 63be dbb2 08be 0a04 8fbd
00000050: 4a7d 8b3b d89a a8bc a811 acbd 0142 113d
00000060: 66de 64bb 4fac ccbd 7b22 ef3d 7aaf 393e
00000070: 4300 903d 8f1c 2dbe e320 463d 1e70 333e
00000080: dcf0 c83d 6858 8e3d 5737 afbd 54f4 063d
00000090: 59cd d23d 2bba 1c3e bd8a 25be 1594 d93d
000000a0: 302b a33c aeaf 8abd 15ce 19bc ede5 fa3d
000000b0: 338c 09bd 9d38 bdbd 2066 683d 6439 c93d
000000c0: b0cd 7a3c 2190 afbd 2efa 863d 0078 d33a
000000d0: 7a12 e1bd c8ed 8bbc d821 96bd 0917 583d
000000e0: 17e9 07bd 24b4 653d 0a72 98bd 9f27 a9bd
000000f0: f546 8a3d a2d1 ab3c 119e 623c 8214 d33b
00000100: 7e10 6e3d 92af cebd 79dd 8a3d 9719 1bbe
00000110: 54d8 bebd cb11 8d3d ae48 25be 022a bbbd
00000120: 17f4 63bd 932d d13c 848b 303d 563c 80bd
00000130: a46b 303d 1822 8b3c ff2a e0bd d081 013c
00000140: f359 1fbd a179 bebd b626 22be 8245 02bd
00000150: 0fda 733c e2a1 b23d 3f86 843d 5b77 01bd
00000160: a5ac 1b3d 52d6 f9bc 1110 043e aa76 5bbd
00000170: 857f 093e 2f9e 0e3e f436 473d 005a ceba
00000180: ce7d d3bd 0ae3 cf3d 5395 0a3e 2b56 c43d
00000190: 6f3a cdbd db0a ef3c 76a3 aebd 4b70 7fbe
000001a0: 5b5d 8ebd 163f f13c cdf1 96bd 633e 713b
000001b0: bde5 ef3d 2d71 103e e12f 2c3d efa8 c4bd
000001c0: c4da 2b3b 4f78 4cbc b33c b53d 0363 843d
000001d0: 2f07 813d a3ae f9bd 3b1a 0b3e e290 3fbd
000001e0: 8034 a83d 6560 a83a 7faf 893d 1f46 fd3d
000001f0: 3b34 e83c a109 91bd 2ac5 f2bc 5c17 233c
00000200: d4d3 0cbd 649b ccbd 4a3b 1ebd ac3b d43d
00000210: acb8 34bd a14c a43d 0fd1 e53d c3e7 0abe
00000220: 72ac b1bd 02f3 f83d 0eed 90bd 6b68 123e
00000230: 447f ce3d 3008 ed3c a033 533c 4f9b 173e
00000240: 874d b33c f678 1fbd 21e6 8dbc 49c9 88be
00000250: 3509 86be e5cb 9bbe cfe6 803e 5656 a1be
00000260: 723c 693e 2dc3 8cbf 9b24 a53e 0aff aebf
00000270: 1c88 0cbe 8c2f 903f fc5b 5e3d 87ce 9dbe
00000280: 3099 41be b376 43be 301e 273d 20f1 c93b
00000290: 60e4 89bb 7092 44bc 7cfa 0fbe 80e0 31bb
000002a0: 1a4e a93d 5010 9cbd 7c8f c33d 26ca 013e
000002b0: 9498 c7bd 005c ef3c 09e5 1d3d 8f77 babd
000002c0: 119f 38bd 111b 09be 871d fabd 6e52 873d
000002d0: c0e3 c1bb d830 b93d 2e75 16be 48fa 6d3d
000002e0: f294 dc3d e01e 923c 41ce 81bd 50e4 263d
000002f0: 7663 f33d 8059 0abb 083d a03d 6d5e acbd
00000300: 49a3 07be 6bcd c0bd 70da 623d 0478 733d
00000310: cc17 8a3c af1a f2bd 75f1 0fbe 20cf 1abc
00000320: 4544 0bbe ca7c 11bd 334a 903d 53eb 06bd
00000330: e055 d5bb 5ffc dbbd 3f4f 163c 3a5b babd
00000340: e013 c4bc 5da6 d5bd 8f48 143e 80ab c6bb
00000350: 9e74 eb3d 0346 013e 645c c43d 5813 93bd
00000360: a8a0 92bc 0e8b fdbd c84c bf3c 2e13 97bd
00000370: e7df c4bd 601c 023c 36d2 14be 7896 e7bc
00000380: c0ef 63bb 3e28 11be 0424 02bd 26a0 35bd
00000390: 9069 713d 8f26 c3bd 9249 babd 0075 82bd
000003a0: 8fe4 0d3e 684d 47bd 0936 82bd 23ae 9cbd
000003b0: 5b49 d03c d22a 463c 986c 59be 2328 12be
000003c0: 7eae 5fbd 2df5 c7bc 9d9e dbbc ce79 29be
000003d0: 1269 b03e 1f28 94be a0c0 873d 2902 a23e
000003e0: 1d32 083e b25b cabe 9d97 f1bd 212e fbbe
000003f0: 44d9 96bd 15d7 babd 8905 dc3d bc82 babd

conv2.bias f4 [8]
0.53985846 -0.16921017 0.52567554 0.7455957 -0.13995095 0.567864 -0.10725234 -0.21615615
00000000: 2a34 0a3f 6e45 2dbe ac92 063f 5cdf 3e3f
00000010: 4d4f 0fbe 895f 113f 1da7 dbbd 0a58 5dbe

conv3.weight f4 [10, 8, 3, 3]
-0.093945235 -0.3767052 0.11773586 -0.19450927 -0.34097728 0.019277638 0.40519828 0.5506529
-0.055860046 -0.019105075 -0.067489855 -0.17435803 -0.17342235 -0.016869504 0.0474145 -0.014386791
-0.18209732 0.052399058 -0.018909704 -0.23267841 0.30801547 -0.10220581 -0.3754663 -0.10174842
0.23494741 0.11072637 0.32087925 -0.08023413 0.10304257 -0.057139322 -0.047988497 -0.24297173
0.44412926 -0.042882964 1.5020032 -0.24890785 -0.07189089 -0.0059297956 0.010825746 0.034849327
-0.022821127 -0.035011135 0.03928589 0.04956337 0.025771178 -0.15255596 0.2524172 0.1209573
0.0028756023 -0.47597894 0.09638184 0.28264853 0.36707726 0.35951325 -0.062373474 0.08649962
0.10278361 -0.005972596 0.04290086 0.05813925 0.095043354 0.007907752 0.0833793 -0.00648612
-0.17725024 -0.12384297 -0.08488089 0.023222907 0.050186645 0.100806944 0.14963259 0.11980881
0.3698251 0.24649401 -0.020402731 -0.04094745 0.015981255 -0.050057545 -0.097579904 -0.12222553
0.1282336 0.04416806 -0.09577638 -0.16411035 -0.16281661 0.024153136 -0.14469388 -0.015103329
-0.11896146 -0.17878179 0.053492486 0.29203343 -0.05756071 0.08524013 0.33523184 -0.06799321
-0.22661 -0.082930356 -0.098888546 -0.055802662 0.76635456 -0.14337593 0.4448935 1.7021275
0.2029015 -0.8726164 -0.321697 -0.17669961 -0.037343416 -0.06405451 -0.038617924 0.07195081
0.058966454 -0.00034604222 -0.028242588 0.045799784 -0.0685405 -0.075832166 0.33083117 -0.19255503
0.029003536 0.679276 0.15757291 -0.11210362 0.00081136246 -0.15890409 0.011763267 0.124288805
-0.017488109 -0.11420969 -0.035382226 0.07220496 -0.07662593 0.022376556 0.0908319 0.018759612
0.034731258 0.021363249 0.014950524 0.1546034 0.08566469 0.18186341 0.09123883 0.12876324
-0.06635539 -0.041605636 -0.11073461 0.049984284 -0.08833235 -0.12227219 0.051968396 -0.124289796
-0.1809158 0.025648374 -0.026775086 0.0073345723 -0.0016613225 0.039783984 0.0023385054 0.019098526
-0.01965395 0.03846243 0.019800963 -0.078669444 -0.11886133 -0.040185947 -0.019947406 -0.07146474
-0.07978473 -0.025949609 -0.033967488 0.0056548202 -0.12046049 -0.039314523 -0.15681547 -0.15482049
-0.0010068218 0.0028547714 -0.081751704 -0.03952949 0.07419377 -0.034773555 -0.056708444 -0.07063918
-0.03589227 -0.0960458 -0.08471223 0.013749413 -0.032513805 0.0596471 0.030579505 -0.10481523
-0.026845915 -0.10879946 0.048628528 -0.12641093 -0.028899897 0.046594895 -0.089503706 -0.024251617
-0.02304052 -0.058386162 -0.112019494 -0.031782307 -0.073098734 -0.14578651 -0.15847468 0.073232494
-0.0060221925 0.039584108 0.10564368 0.037577502 -0.057343118 -0.04311198 -0.014843166 0.076987706
0.02753108 0.012126856 -0.024698205 -0.04941041 0.025922993 0.043414745 -0.104887925 -0.04532479
-0.16698174 0.04091584 -0.030583933 -0.11556407 0.025620364 0.027556546 0.0312803 -0.075206205
0.097759135 -0.0757985 0.10626764 -0.09816503 -0.062093437 -0.0992422 -0.037398096 0.049558748
-0.0015554279 0.03660695 0.01766355 -0.09179113 0.07506322 0.078300826 0.09137737 -0.016080389
-0.10758896 0.10059609 0.054810375 -0.12589802 0.10376897 0.0875966 -0.0093575865 -0.029304102
00000000: 5c66 c0bd 81df c0be 801f f13d 702d 47be
00000010: 9394 aebe 23ec 9d3c 2676 cf3e 97f7 0c3f
00000020: 81cd 64bd 3f82 9cbc 1f38 8abd e98a 32be
00000030: a195 31be ea31 8abc b535 423d 93b6 6bbc
00000040: b877 3abe 65a0 563d 86e8 9abc 4043 6ebe
00000050: 34b4 9d3e 4851 d1bd 1e3d c0be 7a61 d0bd
00000060: 0e96 703e 82c4 e23d 494a a43e cb51 a4bd
00000070: fc07 d33d ec0a 6abd 968f 44bd 95cd 78be
00000080: e964 e33e 0ca6 2fbd a441 c03f b3e1 7ebe
00000090: 883b 93bd bb4e c2bb 785e 313c 2bbe 0e3d
000000a0: 5ff3 babc d667 0fbd 3eea 203d f602 4b3d
000000b0: 141e d33c a137 1cbe d43c 813e 76b8 f73d
000000c0: 9a74 3c3b 83b3 f3be d863 c53d 4fb7 903e
000000d0: 8df1 bb3e 1f12 b83e 547b 7fbd b626 b13d
000000e0: 3780 d23d c4b5 c3bb d0b8 2f3d 6c23 6e3d
000000f0: 17a6 c23d 848f 013c c4c2 aa3d 8589 d4bb
00000100: 1681 35be 62a1 fdbd 08d6 adbd f73d be3c
00000110: 8390 4d3d df73 ce3d 4939 193e 525e f53d
00000120: b759 bd3e ed68 7c3e a123 a7bc 83b8 27bd
00000130: 1feb 823c 2409 4dbd f9d7 c7bd 6151 fabd
00000140: ab4f 033e 91e9 343d 6826 c4bd 8b0c 28be
00000150: 66b9 26be ccdc c53c a22a 14be f473 77bc
00000160: 11a2 f3bd 9312 37be f01a 5b3d 6885 953e
00000170: c7c4 6bbd 6192 ae3d 82a3 ab3e 0640 8bbd
00000180: 740c 68be 64d7 a9bd 1486 cabd 5591 64bd
00000190: d02f 443f 24d1 12be 15c9 e33e 50df d93f
000001a0: 69c5 4f3e ca63 5fbf 78b5 a4be bef0 34be
000001b0: 69f5 18bd 032f 83bd d42d 1ebd f25a 933d
000001c0: cf86 713d 006d b5b9 005d e7bc 8e98 3b3d
000001d0: f65e 8cbd e54d 9bbd b462 a93e 252d 45be
000001e0: d398 ed3c 08e5 2d3f cb5a 213e 9596 e5bd
000001f0: 9db1 543a c1b7 22be b8ba 403c 218b fe3d
00000200: 3943 8fbc c5e6 e9bd f4ec 10bd 32e0 933d
00000210: 0eee 9cbd 0a4f b73c 1306 ba3d c2ad 993c
00000220: 5d42 0e3d fb01 af3c 0bf3 743c 5b50 1e3e
00000230: f870 af3d 673a 3a3e 6cdb ba3d 83da 033e
00000240: 56e5 87bd ac6a 2abd d4c8 e2bd 52bc 4c3d
00000250: 97e7 b4bd d869 fabd d0dc 543d a68b febd
00000260: fe41 39be 8a1c d23c 6d57 dbbc da56 f03b
00000270: bcc0 d9ba 88f4 223d 9c41 193b 8374 9c3c
00000280: 5201 a1bc c88a 1d3d a135 a23c 721d a1bd
00000290: 926d f3bd 059a 24bd be68 a3bc 1b5c 92bd
000002a0: 2d66 a3bd 4694 d4bc 7e21 0bbd 124c b93b
000002b0: fdb3 f6bd 4408 21bd 3c94 20be 4389 1ebe
000002c0: 55f7 83ba 1e17 3b3b 706d a7bd ade9 21bd
000002d0: e7f2 973d b76e 0ebd 1d47 68bd 46ab 90bd
000002e0: c603 13bd a9b3 c4bd 9b7d adbd 3845 613c
000002f0: 322d 05bd 8450 743d df81 fa3c 5ea9 d6bd
00000300: f7eb dbbc 40d2 debd b52e 473d de71 01be
00000310: 7abf ecbc 4ada 3e3d b84d b7bd 54ab c6bc
00000320: 79bf bcbc 5426 6fbd 7a6a e5bd 2a2e 02bd
00000330: cab4 95bd 0f49 15be 3047 22be ebfa 953d
00000340: d055 c5bb f222 223d b75b d83d deea 193d
00000350: 9ee0 6abd 3096 30bd c030 73bc bbab 9d3d
00000360: dc88 e13c b8af 463c e453 cabc 9262 4abd
00000370: 755c d43c a9d3 313d 7bcf d6bd 7da6 39bd
00000380: 43fd 2abe 5e97 273d 288b fabc dbac ecbd
00000390: cce1 d13c 44be e13c c61f 003d b605 9abd
000003a0: f135 c83d 3e3c 9bbd d9a2 d93d bf0a c9bd
000003b0: b055 7ebd 7f3f cbbd bf2e 19bd 1dfe 4a3d
000003c0: 80df cbba 2bf1 153d 26b3 903c fdfc bbbd
000003d0: bfba 993d 2f5c a03d 0f24 bb3d 05bb 83bc
000003e0: 9a57 dcbd 5305 ce3d d880 603d 69eb 00be
000003f0: d384 d43d d965 b33d 9050 19bc 280f f0bc

conv3.bias f4 [10]
0.04618517 0.05180429 -0.04185746 -0.14028873 -0.38929695 -0.05579439 0.12971757 -0.20663469
0.3528636 0.43476722
00000000: a92c 3d3d bc30 543d ba72 2bbd d9a7 0fbe
00000010: ee51 c7be a988 64bd afd4 043e 0b98 53be
00000020: 8aaa b43e cf99 de3e

t_conv1.weight f4 [10, 8, 15, 15]
-0.07164942 -0.06820155 -0.06051468 -0.095208555 -0.08871765 -0.06894139 -0.09760259 -0.10125121
-0.07991543 -0.08111015 -0.06640683 -0.087687545 -0.05532067 -0.06759226 -0.08759521 -0.07013952
-0.09481386 -0.056693975 -0.09742728 -0.06819235 -0.07164462 -0.07555866 -0.053366885 -0.059739355
-0.07385796 -0.07053181 -0.071118094 -0.06303247 -0.07605329 -0.04862379 -0.06610045 -0.08811387
-0.09188519 -0.07910189 -0.063936144 -0.07544597 -0.06906914 -0.05741068 -0.059422217 -0.06890682
-0.062612034 -0.054450948 -0.08321992 -0.08375864 -0.025444103 -0.07235352 -0.08488266 -0.0732731
-0.045724053 -0.07509235 -0.07806952 -0.049640987 -0.07337773 -0.047707044 -0.07214987 -0.074410915
-0.046861332 -0.025130942 -0.06551051 -0.04820987 -0.053950094 -0.06550941 -0.059026435 -0.052935902
-0.044945095 -0.042936236 -0.066204585 -0.043521535 -0.030652575 -0.05168082 -0.06596329 -0.020822437
-0.04205232 -0.059790965 -0.056478247 -0.06111489 -0.064316794 -0.032356523 -0.038482852 -0.062308617
-0.06298232 -0.042166825 -0.03375233 -0.050621122 -0.043631643 -0.049931493 -0.03779319 -0.054879528
-0.026650414 -0.04116597 -0.07831914 -0.05976184 -0.067895256 -0.032472514 -0.036883347 -0.05814566
-0.038816713 -0.02098132 -0.058087535 -0.04754224 -0.04685475 -0.029400706 -0.064957336 -0.03850766
-0.020297023 -0.071035914 -0.07302828 -0.062325537 -0.049633976 -0.029249944 -0.059065964 -0.057941157
-0.055063806 -0.036359962 -0.038921814 -0.06420738 -0.045688763 -0.06402858 -0.04116475 -0.047254343
-0.03683127 -0.06949888 -0.020910451 -0.060059447 -0.054716464 -0.048075143 -0.040833645 -0.04554539
-0.06585847 -0.040111225 -0.030207966 -0.064388216 -0.044160523 -0.0465789 -0.064441815 -0.027968325
-0.039769698 -0.03923738 -0.054252543 -0.042509485 -0.02647752 -0.02572074 -0.029912284 -0.06187782
-0.05848479 -0.02900904 -0.035494078 -0.04090556 -0.027171338 -0.032884423 -0.0209749 -0.052192617
-0.059770826 -0.06009182 -0.035603236 -0.05338157 -0.055925265 -0.039691105 -0.039083496 -0.020184794
-0.026824858 -0.057512514 -0.024150124 -0.058842216 -0.02466628 -0.059950203 -0.026991634 -0.03762984
-0.051348038 -0.052216988 -0.03153691 -0.044986255 -0.05411674 -0.06085494 -0.06524751 -0.03239491
-0.045174908 -0.029712165 -0.032910023 -0.06508501 -0.028509865 -0.05472831 -0.052866053 -0.023123087
-0.022081211 -0.048397534 -0.053359758 -0.025811195 -0.047793712 -0.050316952 -0.045344554 -0.065207906
-0.042394068 -0.024929406 -0.062894836 -0.03901482 -0.035940498 -0.05890756 -0.027196422 -0.041057847
-0.03928927 -0.034109257 -0.03515787 -0.05875677 -0.06386997 -0.057142142 -0.056333683 -0.029630322
-0.043389965 -0.061310932 -0.034272045 -0.055376086 -0.034003668 -0.030799894 -0.03157537 -0.052287802
-0.04579167 -0.051330324 -0.06673677 -0.03175522 -0.043947082 -0.031385973 -0.06461048 -0.023314664
-0.046398196 -0.055575505 -0.03881355 -0.070162944 -0.043610543 -0.041224904 -0.059258703 -0.021305673
-0.03794977 -0.015917484 -0.020299684 -0.04869495 -0.022474887 -0.025344813 -0.053351637 -0.017612355
-0.062385418 -0.037939556 -0.03964745 -0.03566692 -0.044970054 -0.04848265 -0.06568542 -0.039308283
-0.047691777 -0.017922405 -0.040858466 -0.03137527 -0.0102101015 -0.052049764 -0.05063821 -0.06458651
00000000: eebc 92bd 41ad 8bbd 3ede 77bd b4fc c2bd
00000010: 99b1 b5bd 2531 8dbd dee3 c7bd cb5c cfbd
00000020: b3aa a3bd 141d a6bd 4e00 88bd 8795 b3bd
00000030: ed97 62bd d06d 8abd 1e65 b3bd 4fa5 8fbd
00000040: c52d c2bd f137 68bd f487 c7bd 6ea8 8bbd
00000050: 6aba 92bd 80be 9abd 3c97 5abd 41b1 74bd
00000060: d842 97bd fb72 90bd 5da6 91bd 2b17 81bd
00000070: d4c1 9bbd bd29 47bd ac5f 87bd 0b75 b4bd
00000080: 4d2e bcbd 2c00 a2bd f4f0 82bd 6b83 9abd
00000090: 1f74 8dbd 7627 6bbd b664 73bd 051f 8dbd
000000a0: bd3a 80bd f507 5fbd 356f aabd a689 abbd
000000b0: 2770 d0bc 152e 94bd f6d6 adbd 3510 96bd
000000c0: 2549 3bbd 05ca 99bd eae2 9fbd 5954 4bbd
000000d0: 1047 96bd 7668 43bd 50c3 93bd c064 98bd
000000e0: abf1 3fbd 68df cdbc 602a 86bd b677 45bd
000000f0: c6fa 5cbd cc29 86bd b4c5 71bd 51d3 58bd
00000100: 5918 38bd e8dd 2fbd 4596 87bd a343 32bd
00000110: 1c1b fbbc 44af 53bd c317 87bd d193 aabc
00000120: 0e3f 2cbd 5fe7 74bd bc55 67bd 9b53 7abd
00000130: 86b8 83bd 4688 04bd 32a0 1dbd 5237 7fbd
00000140: e0fc 80bd 1fb7 2cbd e23f 0abd 1858 4fbd
00000150: 18b7 32bd f784 4cbd 08cd 1abd 5bc9 60bd
00000160: f851 dabc a69d 28bd c965 a0bd d5c8 74bd
00000170: ab0c 8bbd e601 05bd fe12 17bd 252a 6ebd
00000180: 46fe 1ebd 04e1 abbc 32ed 6dbd a7bb 42bd
00000190: c4ea 3fbd c0d9 f0bc 5a08 85bd 35ba 1dbd
000001a0: f145 a6bc 477b 91bd da8f 95bd 1049 7fbd
000001b0: ff4c 4bbd 949d efbc 27ef 71bd b553 6dbd
000001c0: 968a 61bd 2fee 14bd 7b6c 1fbd 297f 83bd
000001d0: 2424 3bbd 6b21 83bd 5e9c 28bd c58d 41bd
000001e0: 63dc 16bd 6e55 8ebd 654c abbc e500 76bd
000001f0: 5f1e 60bd 71ea 44bd 2e41 27bd ce8d 3abd
00000200: cee0 86bd ab4b 24bd b276 f7bc f8dd 83bd
00000210: aae1 34bd 84c9 3ebd 12fa 83bd d41d e5bc
00000220: 8de5 22bd 60b7 20bd ea37 5ebd 6d1e 2ebd
00000230: 62e7 d8bc 4db4 d2bc 9b0a f5bc 9973 7dbd
00000240: bf8d 6fbd 5ea4 edbc 3d62 11bd 978c 27bd
00000250: 6d96 debc d1b1 06bd 8ed3 abbc edc7 55bd
00000260: 41d2 74bd d722 76bd b3d4 11bd a2a6 5abd
00000270: e411 65bd 2493 22bd 0416 20bd 955a a5bc
00000280: cebf dbbc 3e92 6bbd 7bd6 c5bc 8904 71bd
00000290: f010 cabc 588e 75bd 8f1d ddbc bf21 1abd
000002a0: 5252 52bd 7be1 55bd d92c 01bd 8243 38bd
000002b0: 84a9 5dbd 0843 79bd 7da0 85bd 86b0 04bd
000002c0: 5309 39bd ed66 f3bc a9cc 06bd 4a4b 85bd
000002d0: 858d e9bc cb2a 60bd 138a 58bd a16c bdbc
000002e0: a8e3 b4bc 7e3c 46bd c38f 5abd 0072 d3bc
000002f0: 57c3 43bd 2619 4ebd 36bb 39bd b98b 85bd
00000300: 67a5 2dbd c138 ccbc 02cf 80bd 01ce 1fbd
00000310: 5836 13bd 0e49 71bd 08cb debc 462c 28bd
00000320: c9ed 20bd 26b6 0bbd b301 10bd f0aa 70bd
00000330: 42ce 82bd e10d 6abd 26be 66bd 4abb f2bc
00000340: adb9 31bd 2c21 7bbd d860 0cbd 09d2 62bd
00000350: 6e47 0bbd 0f50 fcbc 2d55 01bd bc2b 56bd
00000360: 0c90 3bbd bf3f 52bd 4aad 88bd c311 02bd
00000370: db01 34bd 948e 00bd 8052 84bd 65fe bebc
00000380: 090c 3ebd 24a3 63bd f5fa 1ebd 97b1 8fbd
00000390: f8a0 32bd 72db 28bd 41b9 72bd 3c89 aebc
000003a0: 3871 1bbd 6265 82bc 864b a6bc 5b74 47bd
000003b0: 411d b8bc ed9f cfbc 3f87 5abd c947 90bc
000003c0: da87 7fbd 8266 1bbd 5d65 22bd 7a17 12bd
000003d0: 8532 38bd be95 46bd 1486 86bd b901 21bd
000003e0: 7458 43bd 02d2 92bc 355b 27bd 5b83 00bd
000003f0: 4548 27bc 2232 55bd 036a 4fbd ef45 84bd

t_conv1.bias f4 [8]
-0.054063726 -0.055960942 0.03464192 -0.044318687 -0.03391767 -0.059680723 -0.077599 0.04740448
00000000: ed71 5dbd 4d37 65bd b0e4 0d3d 8387 35bd
00000010: 41ed 0abd c673 74bd 39ec 9ebd 332b 423d

t_conv2.weight f4 [8, 3, 16, 16]
-0.006158807 -0.06282477 -0.022869585 -0.023605347 -0.04341206 -0.032179307 -0.07321347 -0.023912836
-0.06978477 -0.033546552 -0.05320119 -0.016828997 -0.078919694 -0.009669017 -0.02354288 -0.06893183
-0.07246286 -0.07025503 -0.07332521 -0.026679568 -0.0387971 -0.011000046 -0.027344733 -0.020915555
-0.06475141 -0.042731162 -0.048980467 -0.061972894 -0.029704643 -0.020303953 -0.015600671 -0.018874299
-0.011906549 -0.030812364 -0.031596318 -0.025890538 -0.040157434 -0.06430364 -0.04705254 -0.034806024
-0.014873486 -0.049786285 -0.03441117 -0.057389162 -0.053308103 -0.05597651 -0.06978338 -0.076668926
-0.0757098 -0.04487978 -0.055748034 -0.053949814 -0.055527076 -0.01446693 -0.039972007 -0.06690959
-0.0122465165 -0.03592627 -0.011665672 -0.033504643 -0.040265795 -0.038263116 -0.009145138 -0.016157262
-0.01160773 -0.022280289 -0.036020443 -0.07173351 -0.039685946 -0.040223558 -0.038431693 -0.07987549
-0.02139134 -0.026987348 -0.037306804 -0.012503458 -0.06579533 -0.074966446 -0.052799188 -0.06519475
-0.062790394 -0.038384557 -0.049515188 -0.07332365 -0.012293392 -0.05499865 -0.048944764 -0.05923178
-0.021105008 -0.026359534 -0.017383084 -0.014047766 -0.045029655 -0.054111745 -0.036086172 -0.07661212
-0.017819274 -0.0119398525 -0.06541343 -0.03382332 -0.040227924 -0.053973306 -0.010952349 -0.022585755
-0.046081424 -0.08040048 -0.023741437 -0.076353155 -0.073367625 -0.036630716 -0.038070932 -0.05815059
-0.055700682 -0.029060094 -0.009558615 -0.008994889 -0.053822637 -0.029800048 -0.079654366 -0.022886226
-0.056886483 -0.08026112 -0.028154377 -0.041589476 -0.022739053 -0.060474914 -0.030999878 -0.07125099
-0.017320318 -0.07831848 -0.023518005 -0.049333017 -0.050626934 -0.04353108 -0.06356379 -0.018153755
-0.074752934 -0.025834117 -0.019152338 -0.06532259 -0.045768917 -0.03391409 -0.017301312 -0.059317496
-0.009708814 -0.03107329 -0.0625286 -0.048989747 -0.011290111 -0.051910684 -0.047090944 -0.025943933
-0.018434862 -0.07113407 -0.057758763 -0.033351928 -0.050134826 -0.020099508 -0.066395365 -0.030744048
-0.06791599 -0.07442531 -0.05956354 -0.02462178 -0.030966708 -0.079633035 -0.032946434 -0.042990196
-0.036630023 -0.015227297 -0.02988803 -0.028067868 -0.035345796 -0.07148426 -0.07381518 -0.046205387
-0.05530235 -0.07863358 -0.06492255 -0.07817153 -0.021817451 -0.07859225 -0.014332418 -0.06293793
-0.027508369 -0.012735846 -0.05278348 -0.03441749 -0.015577674 -0.015352417 -0.025355965 -0.052982397
-0.028591527 -0.07389746 -0.05934226 -0.029028842 -0.03511202 -0.044705354 -0.05580903 -0.06945968
-0.05426834 -0.04576345 -0.039315637 -0.036675755 -0.011117601 -0.027203593 -0.053894207 -0.0626951
-0.07026748 -0.03190235 -0.06170182 -0.06368277 -0.054882314 -0.03539182 -0.049555663 -0.057053298
-0.015987247 -0.01866239 -0.05704711 -0.075627506 -0.055153046 -0.022778485 -0.01402233 -0.036047786
-0.047950644 -0.041255496 -0.03877728 -0.03858883 -0.06854537 -0.050807394 -0.07524792 -0.07194823
-0.061152875 -0.01546644 -0.031854678 -0.05814339 -0.019717144 -0.026396058 -0.05976751 -0.073262386
-0.033153903 -0.044303246 -0.04440008 -0.01875003 -0.022104513 -0.059430208 -0.013759072 -0.050290342
-0.025555724 -0.018890759 -0.05003372 -0.072401 -0.033840124 -0.06709202 -0.029778626 -0.030418739
00000000: d1cf c9bb 46aa 80bd ff58 bbbc 0060 c1bc
00000010: d8d0 31bd 73ce 03bd f2f0 95bd dae4 c3bc
00000020: 51eb 8ebd 1c68 09bd 7ee9 59bd f7dc 89bc
00000030: a6a0 a1bd cc6a 1ebc ffdc c0bc 222c 8dbd
00000040: 6867 94bd dfe1 8fbd 872b 96bd 1c8f dabc
00000050: b5e9 1ebd 8939 34bc 1002 e0bc 1957 abbc
00000060: 639c 84bd df06 2fbd be9f 48bd 4ad7 7dbd
00000070: 2757 f3bc 7a54 a6bc f599 7fbc 469e 9abc
00000080: b013 43bc 366a fcbc 246b 01bd 6518 d4bc
00000090: 1f7c 24bd a0b1 83bd 2aba 40bd c390 0ebd
000000a0: ecaf 73bc b4ec 4bbd baf2 0cbd e610 6bbd
000000b0: 9959 5abd a047 65bd 97ea 8ebd 9904 9dbd
000000c0: bd0d 9bbd dcd3 37bd 0d58 64bd 7bfa 5cbd
000000d0: 5c70 63bd b406 6dbc b0b9 23bd e507 89bd
000000e0: 9da5 48bc 6d27 13bd 6021 3fbc 2a3c 09bd
000000f0: bfed 24bd c9b9 1cbd 7dd5 15bc 3c5c 84bc
00000100: 592e 3ebc 2785 b6bc 2c8a 13bd 05e9 92bd
00000110: bb8d 22bd 75c1 24bd 8d6a 1dbd c395 a3bd
00000120: e43c afbc 9214 ddbc 05cf 18bd 4edb 4cbc
00000130: b4bf 86bd 0288 99bd f643 58bd d384 85bd
00000140: 4098 80bd 2039 1dbd 70d0 4abd b62a 96bd
00000150: 396a 49bc 4446 61bd 4e7a 48bd 069d 72bd
00000160: 69e4 acbc f3ef d7bc f866 8ebc 9a28 66bc
00000170: 0471 38bd 47a4 5dbd 18cf 13bd d1e6 9cbd
00000180: baf9 91bc 5f9f 43bc 7af7 85bd 528a 0abd
00000190: 09c6 24bd 1d13 5dbd 7b71 33bc c305 b9bc
000001a0: e0bf 3cbd 02a9 a4bd 677d c2bc 0b5f 9cbd
000001b0: c441 96bd 170a 16bd 44f0 1bbd 502f 6ebd
000001c0: 6626 64bd 6f0f eebc bd9b 1cbc 4d5f 13bc
000001d0: 2075 5cbd 3b1f f4bc d421 a3bd e57b bbbc
000001e0: cd01 69bd f15f a4bd 02a4 e6bc ba59 2abd
000001f0: 4047 babc 8bb4 77bd 75f3 fdbc 0aec 91bd
00000200: 57e3 8dbc 7065 a0bd d5a8 c0bc 6b11 4abd
00000210: 305e 4fbd a54d 32bd bb2d 82bd 2fb7 94bc
00000220: 1118 99bd 12a2 d3bc 5de5 9cbc dac7 85bd
00000230: 3078 3bbd 80e9 0abd 7bbb 8dbc e7f6 72bd
00000240: b811 1fbc 6a8d febc ff0e 80bd 79a9 48bd
00000250: 28fa 38bc 4ca0 54bd 6fe2 40bd 5f88 d4bc
00000260: b504 97bc bdae 91bd 7494 6cbd 089c 08bd
00000270: 2d5a 4dbd b9a7 a4bc 4bfa 87bd f1da fbbc
00000280: 8a17 8bbd 4c6c 98bd e6f8 73bd 9db3 c9bc
00000290: e5ad fdbc a516 a3bd d7f2 06bd 7d16 30bd
000002a0: 5d09 16bd ea7b 79bc bed7 f4bc 96ee e5bc
000002b0: c1c6 10bd 5766 92bd 6a2c 97bd dc41 3dbd
000002c0: b884 62bd a40a a1bd 1df6 84bd 6518 a0bd
000002d0: 83ba b2bc f9f4 a0bd 85d2 6abc 9ae5 80bd
000002e0: 3b59 e1bc 03aa 50bc 7e33 58bd 5bf9 0cbd
000002f0: 8039 7fbc b488 7bbc 50b7 cfbc 1204 59bd
00000300: c738 eabc 8d57 97bd df10 73bd e5cd edbc
00000310: 9fd1 0fbd f61c 37bd 0298 64bd e040 8ebd
00000320: 7b48 5ebd 7572 3bbd 6f09 21bd 5139 16bd
00000330: 9926 36bc 12da debc 2cc0 5cbd 4a66 80bd
00000340: 66e8 8fbd 0aac 02bd 0cbb 7cbd 1d6c 82bd
00000350: 47cc 60bd 03f7 10bd e1fa 4abd b8b0 69bd
00000360: b0f7 82bc dee1 98bc 3baa 69bd 98e2 9abd
00000370: 29e8 61bd f299 babc eabd 65bc d8a6 13bd
00000380: e567 44bd 86fb 28bd edd4 1ebd 520f 1ebd
00000390: 8461 8cbd 6a1b 50bd 951b 9abd 9859 93bd
000003a0: 707b 7abd f366 7dbc 0d7a 02bd c327 6ebd
000003b0: d985 a1bc 8c3c d8bc c7ce 74bd 970a 96bd
000003c0: 63cc 07bd 5277 35bd dcdc 35bd aa99 99bc
000003d0: 8614 b5bc 176d 73bd bb6d 61bc 3ffd 4dbd
000003e0: 3d5a d1bc cbc0 9abc 28f0 4cbd fa46 94bd
000003f0: f19b 0abd 8a67 89bd 4ef2 f3bc b830 f9bc

t_conv2.bias f4 [3]
2.114743 2.298627 2.4742336
00000000: f357 0740 b41c 1340 d859 1e40
