.ipynb_checkpoints/models/cae2.pth (torch, 105023 bytes, 10 tensors)

conv1.weight f4 [5, 3, 3, 3]
000000 73 8d 14 be e6 f8 6d bd 5e f6 d5 bd 7d 88 2c be
       -0.14507084 -0.058098696 -0.104473814 -0.16848941
000010 90 5a 86 3d 01 4d 17 3d a0 8f 5d bb 7f b2 81 be
       0.06560242 0.03693867 -0.003380753 -0.25331494
000020 0c 93 03 3d af 8e 69 3c 50 c7 b5 3b 06 4f 65 be
       0.032122657 0.01425521 0.0055474415 -0.22393426
000030 55 ed 3d bd 36 0f 8a bd 67 e8 12 bd 4e 3b 42 3b
       -0.046368916 -0.067411825 -0.035866167 0.00296374
000040 36 10 71 3c e6 e4 0f bc 57 d2 2d be 6c ae 8b 3d
       0.014713338 -0.008782601 -0.1697477 0.06820378
000050 5c 66 f7 bd ec 44 33 be 68 08 62 bd f7 8e 38 be
       -0.120800704 -0.1750676 -0.055183798 -0.18023287
000060 1e 0d 10 3d cb 0d 08 be 23 d7 9f bd c8 f3 18 bd
       0.03516876 -0.13286512 -0.07804706 -0.037341863
000070 ae 35 f3 3c bd 7c b3 3d 20 3f 69 3c 0d a1 13 3e
       0.029688682 0.08764026 0.014236242 0.14416905
000080 a3 fa 99 bc 08 10 a7 3d 17 f2 5e 3c cc e9 24 3d
       -0.01879627 0.081573546 0.013607523 0.04026203
000090 8d 7f e0 3d b1 ac 47 bd 78 a8 f5 3d 9d fa a6 3c
       0.109618284 -0.048748676 0.119950235 0.020383174
0000a0 48 cb 02 be 48 71 e8 3d 34 18 24 3e cb d6 13 bd
       -0.12772858 0.11349732 0.16024858 -0.036093514
0000b0 8f fa 90 3d 8f 2e 7d 3d 6b cd d1 3d 9d 0d 1b 3d
       0.0707904 0.06181198 0.102442585 0.03785478
0000c0 c0 c8 78 3d 62 85 83 bd 89 f5 56 bc 02 df 77 bb
       0.060738325 -0.06421925 -0.013120064 -0.0037822132
0000d0 2e 5c ae 3d b5 76 32 3e 8b 55 68 bc b0 e9 86 3b
       0.08513676 0.17428096 -0.014180551 0.004117213
0000e0 17 38 6d bd 4c 3a 1f bd 30 9e 5b bd 4b ef c1 39
       -0.05791482 -0.038873956 -0.053617656 0.00036990116
0000f0 2e cf 9a bc 00 4e cb bc b1 e1 88 bd f2 79 1b bc
       -0.01889762 -0.024817467 -0.06683672 -0.009489523
000100 a9 a9 39 3d df ff 74 bd e4 61 a4 b9 22 b1 b0 bd
       0.045327816 -0.05981433 -0.00031353452 -0.086275354
000110 eb 81 aa bd a7 35 54 bd 63 da 86 bd 2d 1f b1 bc
       -0.08325561 -0.05180898 -0.06584623 -0.021621311
000120 e3 85 01 3e 3f 1a 2a be a0 12 2a 3c bf a1 eb bd
       0.1264873 -0.16611575 0.010380417 -0.1150546
000130 d2 e1 6d 3c 69 15 f1 bc 63 5f 15 3d ed fc 01 bd
       0.014519172 -0.029429154 0.03646792 -0.03173535
000140 41 1d 1e be 90 01 1d be fe f4 42 be 05 40 54 be
       -0.15440847 -0.15332627 -0.1903877 -0.20727547
000150 a8 d1 cc 3d 38 39 6f be 02 9d d6 bd 20 4d ae bd
       0.10000926 -0.23361671 -0.104791656 -0.08510804
000160 0c 2f 4e 3d ff ed 25 be 4b 6e 42 be 6a b0 97 bd
       0.050337836 -0.1620407 -0.18987386 -0.07406695
000170 b0 cc 26 be 6e 25 de bd 06 26 66 bd 75 32 9b be
       -0.1628902 -0.10846983 -0.056188606 -0.30311933
000180 de 2a 81 be aa bc 96 be 4b e5 56 be cf 93 36 be
       -0.25228018 -0.29440814 -0.20985906 -0.17829822
000190 2b 9c cf 3d 17 e4 fe 3d a3 79 49 be 47 9e 41 be
       0.101372086 0.124458484 -0.19675307 -0.18908034
0001a0 0d 21 11 be 56 d2 d5 bd b0 40 a7 3d 5f 50 2e be
       -0.14172764 -0.10440509 0.08166635 -0.17022847
0001b0 56 f5 24 bc 1f dc 86 3d d4 56 31 3e 3d f7 0b 3e
       -0.010068258 0.065849535 0.17318279 0.13668533
0001c0 5c c1 d8 bd 95 3e 8c bc 8d 83 56 3d e3 de 35 3c
       -0.105837554 -0.017119685 0.05237155 0.011100504
0001d0 d3 68 e0 3d d8 06 fa 3d 78 e1 a7 bd c8 1e a7 3d
       0.10957494 0.122083366 -0.081973016 0.08160168
0001e0 d0 1b 1e bd 49 6d af 3d 1a c8 f2 bd 9d 0b 81 3d
       -0.038600743 0.08565766 -0.118545726 0.06301043
0001f0 8e e5 b7 3d 5f d0 1d 3e ea 87 26 3e 0b 6f 39 3c
       0.08979331 0.15411519 0.16262785 0.011317979
000200 80 05 67 3d 8b e7 5d bc a3 e5 47 be ad fb 1e 3e
       0.05640173 -0.013543974 -0.19521193 0.15525694
000210 35 91 5d 3e 0c 35 0e bd 91 a7 1f 3e
       0.21637423 -0.03471856 0.15591265

conv1.bias f4 [5]
000000 e7 6d 2b be b6 30 50 ba 3a 18 9d 3e fa e6 b4 be
       -0.16741143 -0.0007941829 0.30682546 -0.3533247
000010 a7 18 85 bf
       -1.0398148

conv2.weight f4 [8, 5, 3, 3]
000000 73 78 82 3d 2f ac 96 bd fd 16 1f bd 93 39 2c 3d
       0.0637063 -0.0735706 -0.038840283 0.042047095
000010 c6 45 9f bb 07 f9 62 bd e5 11 11 bd 87 a5 05 3e
       -0.0048606126 -0.055413272 -0.035417456 0.13051425
000020 d0 7e 83 3c 96 7e 47 bb ae 46 58 3d 2d 46 6e 3d
       0.01605168 -0.0030440441 0.05280178 0.058172394
000030 5e a8 73 3d 5b 64 c4 bd cf 68 39 3d d5 50 21 be
       0.05948674 -0.09589454 0.04526597 -0.15753491
000040 ef 55 7a be 91 7d 11 be af 3c 29 bd f4 2a 84 3d
       -0.24446844 -0.14208056 -0.041317638 0.06453505
000050 f8 4a 31 3d f7 c3 26 be 51 5f 86 bc f3 0c 92 bd
       0.043284386 -0.16285692 -0.016402872 -0.07131376
000060 2c fb 87 3b 22 88 e0 3d d1 41 e6 3d 02 15 12 be
       0.004149815 0.10963465 0.11243022 -0.14265826
000070 d5 6e 69 bd 56 d4 76 be 96 b2 2e bd 9f 74 77 be
       -0.056990463 -0.24104437 -0.04265078 -0.24165581
000080 71 58 bd be a9 ac ae 3b 2a e6 3d 3d 49 50 4a bd
       -0.36981538 0.0053306413 0.04636208 -0.049392972
000090 66 3a 71 3c 28 fd 25 bb 98 5f 7d 3d 50 32 31 3e
       0.014723396 -0.0025327895 0.061858743 0.17304349
0000a0 4f b4 2c be 9a b3 29 3d 6a 04 e1 bd 0b 4e fd be
       -0.16865657 0.041431047 -0.1098717 -0.49473605
0000b0 fa 1e 17 be 97 45 4f bd 04 f9 8b bd 51 b9 0c bc
       -0.1475791 -0.050603475 -0.06834605 -0.008589105
0000c0 0a 46 6e bd fc 33 c4 3c 46 59 ca 3d 6e 4a 58 3c
       -0.058172263 0.02395057 0.09880309 0.013201339
0000d0 42 49 d7 bd 9f 40 2b be 5c 5b 84 be d5 21 a8 bc
       -0.1051202 -0.1672387 -0.25850952 -0.020523945
0000e0 e0 79 87 be 4d 3b 03 bd 94 88 9c 3e 33 4a 27 3e
       -0.2646017 -0.032038976 0.3057295 0.16336899
0000f0 dd d4 26 be e3 90 4f 3e 09 1e c1 3d ce 26 85 bd
       -0.16292138 0.20270114 0.09429557 -0.06501542
000100 7f fe 2f be 86 41 18 3e 55 0e ca bd 11 98 63 bc
       -0.17186926 0.14868745 -0.09866015 -0.013891236
000110 04 56 83 bd 04 95 76 bd cd c5 31 be 52 a3 af be
       -0.064128906 -0.060200706 -0.17360611 -0.3430429
000120 13 09 e8 3d f9 4e 6d bd 7e 68 aa 3d a8 01 23 3e
       0.11329856 -0.057936642 0.083207116 0.159186
000130 3b e2 e4 bc 58 6b 3f bd 67 39 b7 bd 23 5a 3d 3d
       -0.027939906 -0.04673323 -0.089464955 0.04622854
000140 70 4f 26 3e 69 d3 b1 bd 7b e6 5a 3d 7b d4 b4 be
       0.1624124 -0.086829014 0.05344246 -0.3531836
000150 e8 bc 3a bc f6 07 5c 3e 7e e6 5d 3e 62 cc 5f 3b
       -0.011397578 0.21487412 0.21669957 0.0034148921
000160 06 84 3f 3e d3 e0 2a 3e d8 b0 85 bd ce 1b 9d 3d
       0.18702707 0.16687326 -0.06527871 0.07671319
000170 03 47 ae 3d 95 8c 72 bd ef 5f 05 be bd 8b 32 be
       0.08509638 -0.0592161 -0.13024877 -0.17436118
000180 b1 00 bb 3d 0d 4a da bd 84 f3 64 bd 9f 25 e3 bd
       0.09130991 -0.10658655 -0.055896297 -0.1109116
000190 1b 6e ad 3d 2a cc bd bd 5c f5 03 be ee 70 26 be
       0.084682666 -0.09267457 -0.12886566 -0.16254017
0001a0 78 5b de 3d 66 dd 76 3d 47 b2 cf bd 6e 26 3c be
       0.1085729 0.060269736 -0.101414256 -0.18374035
0001b0 9b d3 48 bd 19 78 2c bb c7 b5 80 3d 2a 25 52 bd
       -0.049029928 -0.00263167 0.06284671 -0.051304974
0001c0 16 42 1d 3b fd d4 9d 3d cc 86 1d bd 85 6f be bc
       0.002399569 0.0770664 -0.03845863 -0.023246536
0001d0 f5 e2 cb bc fb 22 a9 bd d3 c3 f0 3c 2e c0 71 bd
       -0.024888495 -0.08258625 0.029390251 -0.059021167
0001e0 79 1c a8 bd b6 e6 bc 3d c9 ba 0a bd c9 3b b1 3d
       -0.08208556 0.09223692 -0.03386954 0.08653981
0001f0 b0 27 fa ba 13 f3 58 bd 2e 18 03 be 75 5d c2 bb
       -0.0019085314 -0.05296619 -0.12802193 -0.005931551
000200 6b b7 a4 3b 26 5d f1 bc e8 3f 0c 3d e9 e8 48 be
       0.005026748 -0.029463362 0.034240633 -0.19620098
000210 a9 54 cd 3a 42 7f 51 bd ec b7 70 bd 46 28 df bd
       0.001566549 -0.051146753 -0.05876915 -0.108963534
000220 e5 63 3d be 08 ce 34 ba 24 01 2e be 5d d9 3d be
       -0.18495138 -0.0006897156 -0.16992623 -0.18539949
000230 ae 51 a7 bd c2 8a ca 3d f9 b1 8b 3c b9 2a 0e bd
       -0.08169876 0.09889747 0.017052637 -0.034708712
000240 d8 df 13 3e 2a ba 3e 3d d8 af d3 3c c9 57 d3 3d
       0.14440858 0.04656426 0.025840685 0.10319478
000250 d5 2b 37 3c 2d 4d 96 3d 03 4a ee bc e0 32 09 3d
       0.011179884 0.07338939 -0.029088026 0.033495784
000260 12 a0 9e bc fc 41 3f be 19 48 e7 bd 39 4f a1 bb
       -0.019363437 -0.18677515 -0.112930484 -0.004922774
000270 b9 96 3a be 11 17 59 be 10 98 38 be 18 84 05 bc
       -0.18221559 -0.21200205 -0.18026757 -0.008149169
000280 4d 44 84 3c 31 26 cc 3c ef 84 4c 3e 82 8b 15 3c
       0.01614585 0.024920555 0.19972585 0.0091275
000290 b5 94 ea 3d 04 02 53 3c f3 0d 22 3e c7 3a 61 bc
       0.11454145 0.0128788985 0.15825634 -0.013746924
0002a0 fc d8 1d 3d 3e 85 0d 3e 7c 62 e1 3d 6b 02 00 3e
       0.03853701 0.13820359 0.110051125 0.12500922
0002b0 57 97 eb bc 71 76 95 3d 3d 12 a1 3d 12 a7 4b 3d
       -0.028758688 0.072979815 0.07864807 0.049719878
0002c0 fa 24 2e 3e 39 12 d2 3d 91 39 45 bd df 4d cc 3c
       0.17006293 0.10257382 -0.048150603 0.024939476
0002d0 79 18 7e 3d bf c8 2d be bf 88 6f bd 14 53 3c bd
       0.062035058 -0.1697111 -0.05848002 -0.045977667
0002e0 2a 2c de bd 30 c1 28 be db f0 15 be f2 0c 3e 3d
       -0.108482674 -0.16479945 -0.1464266 0.046399064
0002f0 87 8d 1b bd e7 2f 25 3d f6 f9 69 bd 98 0b cf 3d
       -0.037976768 0.040328886 -0.057123147 0.10109633
000300 e3 1d 09 be ba f0 e9 3d 2a 06 2f be 3e 32 18 3d
       -0.13390307 0.11422868 -0.17092195 0.03715729
000310 46 eb 96 bd be c9 aa 3d 92 c4 ec bd 8e d6 ee bd
       -0.073690936 0.083392605 -0.1156093 -0.11662017
000320 36 a4 d5 3c 76 4b 77 bd 46 21 b0 bb 00 67 06 be
       0.026079278 -0.0603747 -0.0053750603 -0.13125229
000330 79 47 b5 3d 0a 25 d9 3d 38 56 a3 3d 4d 60 7f 3d
       0.08851523 0.10602768 0.07975429 0.0623477
000340 f6 f5 b1 3d 76 ee a2 3d dd b2 8c 3d d4 cb 05 bd
       0.086894915 0.07955639 0.06870053 -0.03266509
000350 f5 f9 c5 bd 6e 21 0b be a0 78 5b bd b2 8c 0e be
       -0.09666816 -0.13586971 -0.053581834 -0.13920859
000360 92 a2 9c bc 26 cf 0a be e2 70 e5 bc 88 1c ec 3c
       -0.019120488 -0.13555583 -0.028007928 0.028822199
000370 83 10 0a bd 80 0b 85 bd 46 be 3d be 9a e9 46 be
       -0.033707153 -0.06496334 -0.18529615 -0.1942505
000380 a8 70 a7 bd 40 d7 f2 3c 37 c7 16 be 7b 18 90 be
       -0.08175784 0.029643655 -0.14724432 -0.28143677
000390 b9 60 fa bd 79 dc bf bd 58 88 30 be 71 60 0b 3e
       -0.1222548 -0.09368224 -0.17239511 0.13611008
0003a0 ec bb 3d 3d 72 54 22 be 25 bb e0 3c 02 2f 4f 3d
       0.046321794 -0.15852526 0.027432987 0.05058194
0003b0 9d aa 08 be f9 64 a0 3c 81 97 fc bd 28 54 8c be
       -0.13346334 0.019579398 -0.123335846 -0.27407956
0003c0 93 ff 44 3d 46 f9 0d 3d d5 c6 d1 bc 0c 2a 2e 3d
       0.048095297 0.034661554 -0.025607506 0.042520568
0003d0 ca 68 20 be 28 da 26 3c 98 09 12 3d cd 8e 71 bd
       -0.15664974 0.010183848 0.03565368 -0.058974076
0003e0 c9 69 17 3e 99 52 1d bd 48 12 86 bd 1b 79 c8 3c
       0.14786448 -0.03840885 -0.065464556 0.02447181
0003f0 e7 d8 7c be 36 46 55 be 57 d4 7f be a4 be 8f be
       -0.24692117 -0.20827565 -0.24983345 -0.28075135

conv2.bias f4 [8]
000000 5a b3 28 3f 61 2a 87 3e 9b 8e 3c bd 06 55 72 3e
       0.6589867 0.2639952 -0.046034437 0.23665246
000010 ae 73 ec bd c8 cd 1f 3f d0 cd 28 be d9 b1 26 be
       -0.11545502 0.6242337 -0.16484761 -0.16278781

conv3.weight f4 [10, 8, 3, 3]
000000 a4 8a 0d 3d 0a 18 10 be e3 d2 16 be 2d b8 40 bc
       0.034556046 -0.1407167 -0.14728884 -0.011762661
000010 eb 40 43 3c 8d 58 f9 bd 97 6a be bc 5d 03 29 bd
       0.011917333 -0.12175093 -0.023244185 -0.041262973
000020 1e d1 39 be 97 78 4a 3b fb a3 e8 bd 26 01 d8 bc
       -0.18146178 0.003089463 -0.11359402 -0.026367735
000030 a5 b2 00 be 50 34 14 bd 9a f8 2f be 62 e9 21 3d
       -0.12568147 -0.0361827 -0.17184678 0.03952921
000040 69 d9 33 be 3e c5 30 be fd 36 3c bd 86 ec 08 3d
       -0.17563404 -0.17262742 -0.04595088 0.03342869
000050 ab b4 17 3d 29 55 5e 3d b8 19 32 3e 13 29 a4 3d
       0.037037533 0.054280434 0.17392623 0.08015647
000060 4b c5 b6 3d 0c 90 4d 3e 3e a3 1c 3e 24 8c 13 3c
       0.089243494 0.20074481 0.15296647 0.00900558
000070 b9 51 dc 3c 99 39 4b 3b 3a 70 04 bd 79 ac a0 bd
       0.026894437 0.0031009673 -0.03233359 -0.078453965
000080 3f cd 56 bd 24 08 98 bd af e5 ea 3c 63 2f be bd
       -0.05244183 -0.07423428 0.028673975 -0.09286382
000090 75 d1 21 be c7 73 a7 3d de 55 07 bd 99 23 0d be
       -0.15802558 0.0817638 -0.033040874 -0.1378311
0000a0 0f c1 09 be 80 d1 85 bd 81 a9 e7 bd 70 b6 74 bd
       -0.13452552 -0.065340996 -0.11311627 -0.0597443
0000b0 a7 5b 67 bc 30 1b ec 3b fa ba 38 bd 8b 33 95 3d
       -0.014120973 0.0072053894 -0.04510019 0.07285222
0000c0 47 a0 dd 3d ae 35 0d 3d d7 67 bf bd d7 c2 ea bd
       0.10821586 0.03447502 -0.09345978 -0.11462944
0000d0 cd 0e de 3d 82 33 10 bd af ec ba 3d 0a d0 94 bd
       0.10842667 -0.03520537 0.09127175 -0.07266243
0000e0 40 74 e9 3a 2d 53 df 3d 90 be 96 bc d3 af d7 bd
       0.0017811134 0.109045364 -0.018401414 -0.10531583
0000f0 e3 96 85 3d 92 63 24 3d f2 c2 83 bd 48 52 ad bd
       0.0652292 0.04013402 -0.06433667 -0.084629595
000100 93 e6 57 bb 1d 72 b6 3c 49 86 8f bd ae e2 d1 bc
       -0.003294383 0.02227121 -0.07008035 -0.025620785
000110 79 a9 80 bd 3e 1f 37 bb 16 cf 27 be 77 f9 7f 3c
       -0.06282324 -0.0027942206 -0.16387591 0.015623442
000120 dc 2e b9 bd 03 79 82 bd 59 66 59 3d 38 a5 8a bd
       -0.09042141 -0.063707374 0.053076122 -0.06769794
000130 e2 1b d7 bd 7e f0 ef 3c ce 05 6c bd ad d8 08 be
       -0.10503365 0.02928948 -0.057622723 -0.13363905
000140 28 79 63 bd cd e1 66 bd 6b cf 2d 3d 3f fd 28 be
       -0.055535465 -0.056367684 0.042434137 -0.16502856
000150 74 fe 03 be 5c 36 bb bd 81 34 01 be 04 aa 01 be
       -0.12890035 -0.091412276 -0.12617685 -0.12662512
000160 a3 13 d1 bc a0 ca 43 3d 5c 57 a1 3c 94 99 a6 3d
       -0.025522059 0.04780066 0.019694977 0.081347615
000170 c2 d8 90 3d be ee 20 3d 33 8b e3 bd 02 92 88 bd
       0.07072593 0.039290182 -0.111105345 -0.06668474
000180 d8 ec 02 3c 3c eb b7 bd a7 81 b9 3d 7b 80 ab bd
       0.007991038 -0.08980414 0.09057932 -0.08374115
000190 d1 73 84 bd e0 16 ab bc 69 1c 36 be 95 61 16 bd
       -0.06467403 -0.020884931 -0.17784275 -0.036714155
0001a0 bc 27 18 bd ab 6c a0 bb b5 51 a4 bd 50 51 00 be
       -0.03714727 -0.0048957667 -0.08023397 -0.12531018
0001b0 49 62 be 3d fa 20 89 bd 0b e6 05 3d c6 12 0e 3d
       0.0929609 -0.06695743 0.03269009 0.034685872
0001c0 21 41 00 3e 2a 77 85 bd 43 6c c0 3d 9f 29 18 bd
       0.12524845 -0.06516869 0.09395649 -0.037149068
0001d0 4a 24 03 3d 9a b7 17 bd b2 48 fc bd 94 79 a8 3c
       0.03201703 -0.03704033 -0.12318553 0.020565785
0001e0 c9 db c7 bb e2 e3 e3 3c 2a 1f 88 bd 52 e8 44 3d
       -0.0060991985 0.027818624 -0.06646569 0.04807312
0001f0 f9 a2 4b 3d 71 bb db bd 3c 43 e7 3c 63 53 d1 bd
       0.04971597 -0.10729111 0.028230302 -0.10220983
000200 62 8d 3e 3d 78 ae 86 bd 45 cd b3 bd 84 56 c6 3c
       0.046521552 -0.06576246 -0.087793864 0.024211176
000210 a9 5a e1 3d 11 40 c9 bd 42 10 1a 3d e0 d9 ec bd
       0.1100362 -0.09826673 0.03761316 -0.11564994
000220 74 42 74 3d 7d d6 ca 3d 26 be 23 bd 67 44 27 3d
       0.059633687 0.09904192 -0.03997626 0.040836718
000230 52 b7 d3 bd 06 1f 0c bd a7 3f 4f bd b0 78 f8 3c
       -0.103377 -0.034209274 -0.050597813 0.030330986
000240 30 bf 60 bd 52 f6 32 bd 00 d9 55 ba 34 2e fc 3c
       -0.05486983 -0.04369194 -0.00081576407 0.03078375
000250 af 5c 85 bd c6 32 fe bb c8 22 7b 3c 26 54 55 3d
       -0.065118186 -0.0077575175 0.015328117 0.052082203
000260 f9 f5 15 bd 8d 3c ce bc aa 16 10 be b3 2e 09 3b
       -0.03661153 -0.025175357 -0.14071146 0.0020932376
000270 35 b8 6f bd f7 0b 03 bb e3 34 22 bd 70 55 b6 bd
       -0.058525283 -0.0019996145 -0.039601218 -0.08903015
000280 51 01 8d 3b ef 08 6d 3d b0 8a 2a bd 4c b7 84 bc
       0.0043031354 0.057869848 -0.04163617 -0.016200684
000290 98 9b 47 3c 37 c5 68 bd 6b 9f e3 bd 9b e1 d7 3d
       0.012183093 -0.056828704 -0.11114391 0.10541078
0002a0 fd 2e c1 3d 74 94 95 bc ac 00 7e bd 10 33 48 bd
       0.094327904 -0.018259265 -0.06201236 -0.048876822
0002b0 02 fd 0b bc 37 04 6a bd d0 36 52 bd 30 d5 66 bc
       -0.0085442085 -0.057132926 -0.051321805 -0.014088914
0002c0 2a 62 b1 bc ae e3 cb bc 67 23 95 bd 44 ca 28 be
       -0.021653254 -0.02488884 -0.07282143 -0.16483408
0002d0 c2 e9 93 bd 10 c9 c9 bc f6 68 e2 bd 55 4f b3 bd
       -0.0722232 -0.024632007 -0.11055176 -0.08755366
0002e0 97 a9 b5 3d 39 9a eb 3d 98 ab 46 bc ae 16 4d 3d
       0.08870237 0.11504025 -0.012125872 0.050070457
0002f0 ef 9d e2 bd 2f 86 c8 bd 88 d7 90 bd b8 26 9f bd
       -0.1106528 -0.097912185 -0.07072359 -0.07771057
000300 02 be a7 bd 87 ca b5 3d fc c2 e1 3c f2 19 0a 3d
       -0.08190538 0.0887652 0.027558796 0.03371615
000310 ac 13 e9 3c fa fd ae bd 1a 8b 04 3d 80 e8 86 bd
       0.028451763 -0.08544536 0.03235922 -0.065873146
000320 2f f3 b6 3d 5e 83 3e 3d a6 07 67 3d d4 54 ec 3c
       0.08933102 0.046512 0.05640378 0.028849043
000330 05 f5 d0 3d d6 c6 02 bd 28 8a 0c 3c 06 24 a5 bd
       0.10202984 -0.031927906 0.008577861 -0.080635116
000340 c0 aa b9 3a 68 64 26 3c 26 ca 69 3d d6 82 17 3d
       0.0014165267 0.010155775 0.05707755 0.03699001
000350 8c a8 a6 bd dc 8e 8c 3c 6e 75 3b 3d 57 db c3 3d
       -0.081376165 0.017157964 0.045766287 0.0956332
000360 2e 94 af bb dd e4 6c bc 40 94 12 bf 06 c7 e3 3d
       -0.0053582406 -0.014458862 -0.5725746 0.11121945
000370 70 b8 73 3f 14 9a 5c 3e 65 29 05 c0 9f 9f 07 3e
       0.95203304 0.21543151 -2.0806515 0.13244484
000380 3d 1f c1 bc bd 45 64 3e 3b 75 5d 3d 21 ab 74 3e
       -0.023574466 0.22292228 0.054066878 0.23893405
000390 1c ef 43 be a0 9b 0e bf 34 81 3f be 28 a2 47 bf
       -0.19134182 -0.55706215 -0.18701631 -0.77981806
0003a0 9d c5 5c bc 6d c8 46 3d 74 5e 52 3e ad 56 83 bb
       -0.013474849 0.048530985 0.20543844 -0.0040081353
0003b0 0e 4e 3a 3e 91 1d 16 3e 36 61 0e 3e a4 41 c3 3d
       0.18193838 0.14659716 0.1390427 0.09534004
0003c0 e5 23 26 3d d8 01 20 be b8 a4 94 3d cc 9e 5d bd
       0.040561575 -0.15625703 0.0725798 -0.05410652
0003d0 bd ae 4d be a2 e0 06 be e2 30 94 bb 8d 8b 1a bd
       -0.20086189 -0.13171628 -0.004522429 -0.037730742
0003e0 11 ed 0c 3e 0f a9 8e bf 27 32 ab bd 40 b7 82 bd
       0.13762309 -1.1145343 -0.08359175 -0.063826084
0003f0 65 62 8c 3d 82 ed 6d 3d 19 52 cf 3d 04 4a 82 3d
       0.06854705 0.058087833 0.10123081 0.063617736

conv3.bias f4 [10]
000000 49 9f aa bd 97 a8 00 be a9 15 26 be d6 3b 62 3f
       -0.083311625 -0.12564312 -0.162192 0.8837255
000010 51 4a 50 3f cc b6 2e bd 64 b8 41 be 69 ed cf 3e
       0.813634 -0.042654797 -0.18917996 0.40610817
000020 58 ad 78 3e 0b 94 1f be
       0.24284875 -0.15583818

t_conv1.weight f4 [10, 8, 15, 15]
000000 5c f1 5c bd c6 37 98 bd 3d 10 b2 bd 76 99 b1 bd
       -0.053941116 -0.07432513 -0.086945035 -0.086718485
000010 3b 57 8e bd ad ed 86 bd 1b 10 84 bd fb 3f aa bd
       -0.06950232 -0.06588302 -0.064483844 -0.083129846
000020 1d f5 7d bd 14 70 92 bd 31 08 9c bd e4 02 5b bd
       -0.062001336 -0.071502835 -0.0761875 -0.053469554
000030 f0 7f b8 bd e7 a8 96 bd 32 15 90 3d 3f 7f 89 bd
       -0.09008777 -0.07356434 0.07035293 -0.067137234
000040 54 98 86 bd 03 15 c9 bd 50 ad 9c bd ec 72 43 bd
       -0.06572023 -0.09818461 -0.07650244 -0.04771702
000050 0b 6a 3f bd 5e d1 82 bd 04 0f 87 bd 0e ad 92 bd
       -0.04673199 -0.0638759 -0.06594661 -0.07161914
000060 9b 1b 91 bd b2 e9 b8 bd 4e 9c 9b bd fc 02 b3 bd
       -0.070853435 -0.09028949 -0.07598172 -0.087408036
000070 1e 26 89 bd b2 db 01 3d fb f4 c1 bd 15 dc 74 bd
       -0.066967234 0.03170366 -0.094705544 -0.0597802
000080 5c c6 c7 bd c3 a4 a2 bd 4f 2f 6b bd e0 c0 a3 bd
       -0.09754631 -0.07941582 -0.057418164 -0.07995772
000090 0c 01 8b bd f0 5b a1 bd fb d3 94 bd e2 0f d1 bd
       -0.06787309 -0.07878864 -0.072669946 -0.102081075
0000a0 a4 79 d1 bd 5d 79 be bd 05 02 68 bd 88 29 8e bd
       -0.10228279 -0.09300492 -0.05664255 -0.06941515
0000b0 bf 03 1c 3d 97 52 95 bd 60 5c 87 bd 05 89 9b bd
       0.03808951 -0.072911434 -0.06609416 -0.07594494
0000c0 33 9d db bd 13 b1 be bd 24 fb 95 bd 7e a2 b6 bd
       -0.10723343 -0.09311118 -0.07323292 -0.08917712
0000d0 fd 7e ab bd 0e 8e c1 bd a8 e6 75 bd e9 3e a2 bd
       -0.083738305 -0.09450923 -0.060034424 -0.079221554
0000e0 2c 00 91 bd 13 fd 84 bd a9 83 9a bd 56 04 56 3c
       -0.07080111 -0.064935826 -0.075446434 0.013062557
0000f0 61 2c aa bd 1e ab ca bd 19 fb 6f bd 46 83 a4 bd
       -0.08309246 -0.09895919 -0.058589075 -0.08032851
000100 9c 45 c1 bd b5 58 b7 bd 79 92 ca bd ce aa 91 bd
       -0.09437105 -0.089524664 -0.09891219 -0.071126565
000110 5d 75 9d bd 48 e6 bd bd 9b 98 ac bd 25 ff a4 bd
       -0.07688401 -0.09272438 -0.08427545 -0.080564775
000120 05 24 8e bd f9 ac 55 bd 54 c7 2a 3c fa da 87 bd
       -0.06940464 -0.052166913 0.0104235 -0.06633563
000130 39 56 5c bd 71 8d 4f bd 3a a1 72 bd 44 43 42 bd
       -0.053793166 -0.050672 -0.05923579 -0.04742743
000140 b0 46 5e bd 33 fa 5e bd 11 94 53 bd 17 cf b3 bd
       -0.05426663 -0.054437827 -0.05165488 -0.08779734
000150 e1 8e 83 bd ca 1d 19 bd 7d 22 34 bd db 65 ab bd
       -0.06423736 -0.037381925 -0.043978203 -0.08369037
000160 3d fd 81 bd 3d 9b 01 3d 7f 8e 80 bd 3e 16 62 bc
       -0.063471295 0.031642187 -0.06277179 -0.013799248
000170 8d 20 1a bd 22 5e 87 bc 28 19 38 3b 4e 48 2a bc
       -0.0376287 -0.016524378 0.0028091166 -0.010393215
000180 d7 10 c1 bc ee 2f 32 bd ad 1d b9 bd 88 f3 52 bd
       -0.0235676 -0.04350274 -0.09038863 -0.05150178
000190 b0 04 32 bd 2e 15 5e bd 0b f5 b3 bd b4 54 40 bc
       -0.0434615 -0.054219417 -0.087869726 -0.011738945
0001a0 6b fa 47 3d 9e 50 cd ba 9b 0f b4 3c eb 02 ce 3c
       0.0488228 -0.0015664285 0.021980098 0.025147876
0001b0 4f d9 1b 3c 81 22 0d 3d e6 de db bb d6 0e 3f 3c
       0.00951226 0.034456734 -0.006709921 0.011661252
0001c0 69 55 8d bc 13 aa 61 bd fd cc 2e bd 37 26 1e bd
       -0.01725264 -0.055093836 -0.04267596 -0.038610663
0001d0 74 a7 d4 bc a6 d4 a9 bd d8 44 9a bb 56 42 64 3d
       -0.025958754 -0.082925126 -0.004707914 0.055727325
0001e0 2e 55 48 3c c7 42 17 3d c9 e3 ac 3c 4f 9c d2 3c
       0.01222734 0.03692892 0.02110471 0.0257093
0001f0 e3 2a a7 3c 68 46 05 3d 42 23 28 3d 4a fe ab bc
       0.020406192 0.032537848 0.04104925 -0.020995278
000200 9f 34 40 bd 48 67 3c bd 7e a5 16 bd d6 cf 87 bc
       -0.046925183 -0.045996934 -0.03677892 -0.016578596
000210 06 57 5d bd 25 e6 ad 3c a5 bf c9 3c 28 7f f4 3c
       -0.05403807 0.021227906 0.024627516 0.02984579
000220 b9 e1 e1 3c 5a 12 c2 3c 06 07 8a 3c e0 53 73 3c
       0.027573453 0.023690391 0.016849052 0.01485154
000230 98 6c 0f 3d 14 6e 40 3d be 16 f6 bc ed 76 78 bc
       0.035015672 0.04697998 -0.030040141 -0.015165073
000240 20 8b 28 bd dd 88 42 bd fd 7f fc bc af 4d 65 bd
       -0.041148305 -0.047493804 -0.030822748 -0.055982288
000250 e8 44 c6 3c 52 81 25 3d 78 f4 30 3d 92 f3 7d 3d
       0.024202779 0.040406533 0.043201894 0.061999865
000260 c1 37 8d 3c 7f 33 e0 3c ab c2 43 3d 0b 83 53 3d
       0.0172385 0.027368305 0.04779307 0.051638644
000270 a1 0a 7c 3c 16 ab 99 bc d4 47 29 bb eb 27 bc bc
       0.0153833935 -0.018758338 -0.0025830166 -0.022968253
000280 09 23 e0 bc 1c e4 a5 bc 8b 96 2e bc 25 3b 65 3d
       -0.027360456 -0.020250373 -0.010656009 0.055964608
000290 cf 07 8f 3d b1 37 84 3d dc f3 46 3d 69 18 36 3d
       0.06983911 0.06455935 0.048572406 0.044456873
0002a0 10 a7 a7 3c 5e 3e 43 3d a9 6b dd 3b 2a f9 e9 3c
       0.020465404 0.0476669 0.006757219 0.028561193
0002b0 8b ae 9b bc 42 c4 c0 bb 08 b4 8f bb 16 33 96 bc
       -0.019004127 -0.0058827708 -0.004385475 -0.018334907
0002c0 1a f5 5e b9 eb e8 e6 bb 74 7c 5a 3d 17 88 9a 3d
       -0.00021262877 -0.007046809 0.053341344 0.07545488
0002d0 12 11 6c 3d a1 f6 29 3d db 2a f5 3c 6e 1b 27 3d
       0.057633467 0.04149497 0.029927662 0.040797643
0002e0 79 4c 3d 3d 0b 51 18 3c 51 c4 21 3d 06 46 90 3b
       0.046215508 0.009296666 0.039493863 0.0044028787
0002f0 c3 d4 33 bd 90 fb d5 3c ca da 55 bd 05 fb 0c bc
       -0.043904077 0.02612093 -0.052210607 -0.00860477
000300 06 ca 2c 3d e7 7e 97 3d 74 de 55 3d 00 04 4a 3d
       0.042184852 0.073972516 0.0522141 0.04932022
000310 73 57 87 3d 1d 74 a9 3c 75 93 d8 3c d9 0b be 3c
       0.066084765 0.02068525 0.0264375 0.023199009
000320 82 58 0a 3c 60 1d b3 3a f9 53 e3 bc 7d d9 0f bd
       0.0084439535 0.0013665371 -0.027750002 -0.035119522
000330 3f 84 82 3c c9 8b 52 bd 28 a1 26 3a 4e ae bc 3c
       0.0159322 -0.05140284 0.00063564116 0.023032334
000340 f0 a8 89 3d 89 93 a9 3d f5 b5 41 3d 81 d5 6d 3d
       0.067216754 0.08280093 0.04729267 0.05806494
000350 5c 62 00 3d 38 2c 00 3d 40 88 03 3d 62 87 d1 3b
       0.031343803 0.03129217 0.03211236 0.0063943127
000360 92 47 8f bc 16 85 2b bd 18 ec 7b bd 1a e2 33 3d
       -0.017490182 -0.041874968 -0.061504453 0.0439168
000370 ea 71 05 bd eb 91 22 3c bd 1d 57 3d e9 a4 9e 3d
       -0.03257934 0.009922485 0.052518595 0.07746298
000380 b0 17 54 3d 87 cc 96 bd 3f 17 a1 bd 61 32 88 bd
       0.051780403 -0.07363229 -0.07865762 -0.06650234
000390 76 f4 92 bd 38 f2 96 bd 66 eb 93 bd 27 3d 59 bd
       -0.071755335 -0.07370418 -0.07222633 -0.053036835
0003a0 70 b5 77 bd f5 7d 9c bd 2e 79 43 bd ed 27 db bc
       -0.060475767 -0.07641212 -0.047722988 -0.026752437
0003b0 e2 53 f7 bc 18 95 5d bd 21 36 4c bd 55 9c 48 3d
       -0.030191366 -0.054097265 -0.04985631 0.048977215
0003c0 d4 0e 15 bd 32 6e 9b bd e7 97 9a bd 45 4a 95 bd
       -0.036391094 -0.075893775 -0.07548504 -0.072895564
0003d0 fe 9f 91 bd 65 dc 5d bd b0 fc 2a bd 14 d6 27 bd
       -0.07110594 -0.054165263 -0.041744888 -0.040975645
0003e0 2e bb 15 bd bd b9 1c bd f9 cd 1f bd a1 d4 97 bd
       -0.03655546 -0.03826307 -0.03901479 -0.074136026
0003f0 fd 20 3e bd 63 68 3a bd 79 72 6b bd 7f e5 8b bd
       -0.04641818 -0.045509707 -0.057482217 -0.06830882

t_conv1.bias f4 [8]
000000 b3 8d 86 3e c5 05 b9 bd 92 ae 85 bd 6a 34 3c be
       0.26279983 -0.090343036 -0.06527437 -0.1837937
000010 58 44 e0 3e 4c bf 04 be c7 ae d5 bd f8 66 b7 bd
       0.43802142 -0.12963599 -0.10433727 -0.089551866

t_conv2.weight f4 [8, 3, 16, 16]
000000 e1 aa 19 be 85 68 96 be 6e aa 9d be 40 1f 8c be
       -0.15006591 -0.29376617 -0.3079409 -0.27367592
000010 d4 39 05 be f6 16 ef bc ac d6 f6 3c f0 bc 88 3d
       -0.13010341 -0.029185753 0.03013166 0.06676662
000020 69 8f a7 3d 41 ff 81 3d 67 4e 9b 3d 36 83 df 3d
       0.0818165 0.06347514 0.075833134 0.109136984
000030 56 18 c9 3d 9e 6f 8d 3d 98 50 1a 3d 15 18 a1 3d
       0.09819095 0.06906055 0.037674516 0.078659214
000040 cd e6 c7 3d 45 d7 89 be 6f 15 81 be 5c ae 1e be
       0.09760819 -0.2692205 -0.25211665 -0.154962
000050 dd b3 9c 3c 8b b7 28 3e c6 f3 82 3e 76 1e 9b 3e
       0.019128734 0.16476266 0.2557661 0.30296677
000060 e9 64 ad 3e e2 bd af 3e bb 93 b3 3e 52 bf ca 3e
       0.3386605 0.34324557 0.35073647 0.3959909
000070 77 5e cc 3e d0 5b b6 3e 18 d0 a9 3e f3 b8 a8 3e
       0.3991582 0.35616922 0.33166575 0.32953605
000080 be 84 d2 3e a3 fd 96 bd d2 e5 35 3d 56 ee 18 3e
       0.411169 -0.07372596 0.044408627 0.14934668
000090 7c 1d 90 3e 07 fa dc 3e d4 47 08 3f a8 91 19 3f
       0.28147495 0.43159506 0.532346 0.5998788
0000a0 3e b6 22 3f f2 2e 23 3f af 24 26 3f a3 45 2b 3f
       0.6355933 0.6374351 0.64899725 0.6690313
0000b0 ae 00 28 3f f7 b2 12 3f af de f2 3e e1 a9 d1 3e
       0.6562604 0.5730433 0.4743552 0.4094992
0000c0 bd b1 ab 3e d5 c3 53 be ad 99 df bd 0c 5f 75 3d
       0.3353404 -0.20680173 -0.10917983 0.059905097
0000d0 23 f6 5f 3e d4 73 c5 3e c6 5b 03 3f 34 80 19 3f
       0.21871237 0.38564932 0.5131191 0.5996125
0000e0 2a bc 28 3f 95 6e 30 3f 0d c5 33 3f 86 ec 3d 3f
       0.65912116 0.68918735 0.7022255 0.7418903
0000f0 37 b3 38 3f 91 52 20 3f ce 60 09 3f af 06 cb 3e
       0.7214846 0.62625986 0.5366334 0.39653537
000100 63 49 a4 3e 88 bc 65 be 7c 9b 06 be ce 5d f6 3b
       0.3208724 -0.224352 -0.1314525 0.0075185066
000110 2a 39 20 3e 0f f1 ad 3e 8a 6d e8 3e 42 b2 10 3f
       0.15646806 0.33972976 0.45396072 0.56522
000120 4f 60 2a 3f 0c 53 33 3f a7 e1 3c 3f f7 2b 49 3f
       0.66553205 0.70048594 0.7378182 0.7858271
000130 8c a5 3e 3f f4 66 26 3f 3d 9b 07 3f cd 2b cc 3e
       0.74471354 0.65000844 0.5297125 0.39877167
000140 75 f8 9a 3e 14 e8 b4 be d2 a8 9c be 50 c7 1a be
       0.30267683 -0.35333312 -0.3059755 -0.15115094
000150 a3 60 98 bc 5e 04 2a 3e b9 9e 95 3e 8c c5 d2 3e
       -0.018600767 0.16603228 0.29222658 0.4116634
000160 8e d3 00 3f 05 29 17 3f c7 34 27 3f 20 2c 37 3f
       0.50322807 0.59046966 0.65314907 0.71551704
000170 08 75 31 3f 77 fe 18 3f a1 d4 00 3f 18 cc c6 3e
       0.693192 0.5976328 0.50324446 0.38827586
000180 34 cf 45 3e 69 ed d1 be 91 fd e3 be d5 15 b5 be
       0.19317323 -0.41001442 -0.44529393 -0.3536822
000190 3b 75 6a be b3 8d 43 bd 97 87 9a 3d 25 05 50 3e
       -0.22896282 -0.047742557 0.07545393 0.20314462
0001a0 5e 51 a1 3e f3 8c d2 3e 61 4b 00 3f 6b 8c 17 3f
       0.3150739 0.4112316 0.5011502 0.59198636
0001b0 d2 90 14 3f 66 ba 01 3f a8 56 d8 3e 8f c8 ac 3e
       0.5803348 0.50675046 0.42253613 0.33746764
0001c0 67 b6 80 3d 3a 11 1e bf b3 c5 24 bf 0c 5a 15 bf
       0.062847905 -0.61745036 -0.64364165 -0.58340526
0001d0 9c 19 fe be 82 16 a4 be 97 76 4d be 59 b2 84 bd
       -0.49628913 -0.32048422 -0.2006477 -0.064793296
0001e0 72 7b 7b 3d 40 0d 35 3e 4d 8b 96 3e 73 f4 c9 3e
       0.061397023 0.17680836 0.29403153 0.39444312
0001f0 3c 1c d8 3e 91 e6 c4 3e a1 b7 ac 3e 82 8d 79 3e
       0.4220904 0.38457158 0.33733848 0.24370387
000200 0c d9 97 bd 6a 76 33 bf ee d0 4b bf 86 eb 44 bf
       -0.07414445 -0.7010256 -0.79615676 -0.7692188
000210 07 4d 30 bf 1c d7 08 bf c1 27 d5 be 43 69 92 be
       -0.68867534 -0.5345323 -0.41631892 -0.28595933
000220 2b 9f 27 be 67 ad 0a bd 25 ff d0 3d de bd 67 3e
       -0.16369312 -0.033856776 0.10204915 0.22631022
000230 6b 8a 87 3e 9c ef 7e 3e 84 69 70 3e f5 7c 35 3e
       0.26472792 0.24896091 0.23477751 0.17723449
000240 dc d0 72 be b8 a8 4b bf 49 de 66 bf 47 cf 67 bf
       -0.23712486 -0.7955432 -0.9018293 -0.90550655
000250 01 39 57 bf 0c 08 34 bf 87 75 17 bf 60 0a f0 be
       -0.84071356 -0.7032478 -0.5916371 -0.46882915
000260 d6 59 b4 be d1 f0 59 be a9 32 85 bd 7d 34 65 3d
       -0.3522479 -0.2128327 -0.06503803 0.05595826
000270 da 0f 00 3e 42 00 11 3e b6 15 02 3e b5 1d a2 3d
       0.12506047 0.14160255 0.12703595 0.079158224
000280 05 6b a9 be 66 b9 4e bf 76 5a 73 bf 00 3d 7f bf
       -0.33089462 -0.80751646 -0.9505991 -0.99702454
000290 71 bf 6a bf 28 c3 48 bf 8d a0 2d bf 1a 15 10 bf
       -0.91698366 -0.78422785 -0.67823106 -0.562822
0002a0 bd 69 ee be 3d aa a8 be 73 65 36 be 76 84 57 bd
       -0.46565047 -0.32942382 -0.17812137 -0.05261656
0002b0 85 65 d9 3b 98 d8 76 3c c9 64 40 3d e1 12 b7 3c
       0.0066344165 0.015066288 0.046971116 0.02234787
0002c0 8d 2f d5 be f7 a8 4f bf e3 49 6c bf 1e 9d 74 bf
       -0.4163784 -0.81117195 -0.9230024 -0.9555224
0002d0 52 0b 63 bf d4 d3 44 bf 56 ff 27 bf 44 b4 10 bf
       -0.8868915 -0.76885724 -0.65623987 -0.56525064
0002e0 0e bb ef be ad 3f b2 be 57 32 6a be 6a e5 f4 bd
       -0.468224 -0.34814206 -0.22870766 -0.1195782
0002f0 34 15 4e bd 9f 5f 12 bd 31 9b 04 bc 09 f9 c2 bc
       -0.05031319 -0.035735723 -0.008093641 -0.02380039
000300 e1 39 d1 be 5b 46 49 bf dd e4 63 bf a5 b4 65 bf
       -0.4086447 -0.7862298 -0.8902109 -0.89728767
000310 e8 29 52 bf 98 e0 33 bf 9e 36 19 bf dd 86 07 bf
       -0.82095194 -0.7026458 -0.59848964 -0.5294016
000320 9f 1d e5 be af 0f b7 be 5c ff 73 be 3b 5a 05 be
       -0.44749162 -0.35754153 -0.2382788 -0.13022701
000330 60 3f c9 bd 7f d4 af bd 9c c2 0a bd 6b 18 2a bd
       -0.09826541 -0.08585452 -0.033877 -0.041527193
000340 a0 88 d3 be 7f 73 43 bf b4 43 4c bf dc 3a 4c bf
       -0.41315174 -0.7634811 -0.79790807 -0.7977731
000350 e3 6d 37 bf 83 6e 1f bf dd 6c 0a bf e3 71 f5 be
       -0.7165205 -0.62278 -0.5407236 -0.4793845
000360 18 59 d7 be f1 38 b5 be c9 e7 81 be df 3c 32 be
       -0.4206016 -0.35395005 -0.2537215 -0.17406033
000370 4b 74 0f be 28 37 0c be 17 01 f5 bd 1a 8b 80 bd
       -0.14009206 -0.13692915 -0.119630985 -0.062765315
000380 b0 61 d5 be be 3b 37 bf 88 a1 3d bf d5 2a 2f bf
       -0.41676092 -0.71575534 -0.740746 -0.6842473
000390 7b d1 19 bf 75 9c 08 bf 07 ab ec be 0a 6e d6 be
       -0.60085267 -0.53363734 -0.46224234 -0.41880828
0003a0 71 03 bf be c0 56 a4 be 74 78 7b be 25 3c 49 be
       -0.37307313 -0.32097435 -0.24557668 -0.1965185
0003b0 d9 4e 3a be d3 33 4f be 3d 2f 1c be 12 68 5a bd
       -0.1819414 -0.20234613 -0.15252395 -0.053321905
0003c0 f4 2b 9f be f1 3e 0d bf 7c ff 06 bf bb 7b f8 be
       -0.3108822 -0.55174166 -0.5273359 -0.485319
0003d0 aa 5a d2 be 26 20 b6 be ec 71 a2 be 5e 4b 8b be
       -0.41084796 -0.35571402 -0.3172754 -0.27205938
0003e0 09 69 88 be 95 60 80 be 28 74 44 be bd d6 3c be
       -0.26642635 -0.25073686 -0.19184935 -0.18441291
0003f0 b0 95 32 be d8 a1 3b be 9e 85 36 be 4c 14 fa bd
       -0.17439914 -0.18323457 -0.17824408 -0.122109026

t_conv2.bias f4 [3]
000000 50 f1 36 40 58 3f 46 40 06 d4 52 40
       2.8584785 3.0976162 3.294191
