.ipynb_checkpoints/models/cae2.pth (torch, 29503 bytes, 10 tensors)

conv1.weight f4 [8, 3, 3, 3]
0	0x3df210ba	0.118195966
1	0xbe09e96d	-0.13467951
2	0xbe609ec0	-0.21935558
3	0x3de0f5e9	0.10984404
4	0xbd11afde	-0.03556811
5	0x3db546e0	0.08851409
6	0x3d9026c7	0.07038646
7	0xbe415dda	-0.18883458
8	0xbd386b5b	-0.045024257
9	0xbd9958df	-0.07487654
10	0x3d023a8a	0.03179411
11	0x3dcc0c4c	0.09963283
12	0xbdfd08df	-0.12355208
13	0xbe06131c	-0.13093227
14	0xbe001d1c	-0.12511104
15	0xbe4fcb5a	-0.20292416
16	0x3d8db3e4	0.06919077
17	0x3da23b08	0.079214156
18	0x3cfea44a	0.031084199
19	0x3c3e21a8	0.011604704
20	0xbcfb5637	-0.030680759
21	0xbe10467c	-0.14089388
22	0xbd8ef45f	-0.06980204
23	0x3d81377d	0.06309412
24	0xbe675bc0	-0.22593594
25	0xbddfc8aa	-0.109269455
26	0xbdfcd442	-0.123451725
27	0x3db1db51	0.086844094
28	0xbe62b336	-0.22138676
29	0x3dcb671a	0.099317744
30	0xbdac75c6	-0.08420901
31	0x37f06ab6	2.865992e-05
32	0x3d9267e5	0.071487226
33	0xbe3ab03e	-0.18231294
34	0xbba82efc	-0.005132554
35	0xbe01076a	-0.12600484
36	0xbe4b8c50	-0.19877744
37	0xbe10d2d8	-0.1414293
38	0xbcff81ad	-0.031189764
39	0xbe13682f	-0.14395212
40	0x3d63e5d7	0.055639114
41	0xbd811591	-0.063029416
42	0xbc6a539c	-0.014302161
43	0x3c8b93cd	0.01703825
44	0xbddb524a	-0.10709055
45	0x3d1e6ba3	0.03867687
46	0xbda5274b	-0.08064135
47	0xbd8852f8	-0.0665645
48	0xbd9a98f9	-0.075487085
49	0xbd7e0472	-0.062015958
50	0xbde717bb	-0.11283823
51	0x3d93ca7c	0.07216355
52	0x3d95499d	0.07289431
53	0xbe4705ba	-0.19435778
54	0xbdbfe152	-0.09369148
55	0xbdea196c	-0.1143063
56	0x3d1ff76c	0.03905432
57	0x3e051984	0.12998015
58	0x3e5cad3e	0.21550462
59	0xbc240243	-0.010010305
60	0x3d090e2e	0.03346079
61	0xbe395d3a	-0.1810197
62	0x3da92c65	0.08260421
63	0xbc496dfc	-0.012294289
64	0x3daaa6fc	0.08332631
65	0x3d4de944	0.050271288
66	0x3d0245b2	0.031804748
67	0x3eb4f5c9	0.3534377
68	0x3c90cda4	0.017676182
69	0xbdf6e0c5	-0.1205459
70	0x3d74c725	0.05976023
71	0xbd986012	-0.07440199
72	0x3d69a5c0	0.057042837
73	0x3e2e08ae	0.16995499
74	0x3e0f7b16	0.14011797
75	0xbe025ec2	-0.1273146
76	0x3e83fe0b	0.25779757
77	0x3e9a1452	0.30093628
78	0xbd988595	-0.07447354
79	0x3e477404	0.1947785
80	0xbdc5e8c8	-0.0966354
81	0xbe24e430	-0.16102672
82	0x3e03e284	0.12879378
83	0xbe08fd37	-0.13377844
84	0xbe2b680b	-0.16738908
85	0x3db40fb2	0.08792056
86	0xbe2a9adf	-0.16660641
87	0x3d7f7b0b	0.062373202
88	0xbe55784a	-0.20846668
89	0x3e17ca30	0.14823222
90	0xbde18764	-0.11012152
91	0xbcf09ad4	-0.029370703
92	0xbe08c908	-0.13357937
93	0x3df0ab49	0.1175142
94	0xbd6be10a	-0.05758766
95	0xbe389119	-0.180241
96	0xbe12c7fd	-0.14334102
97	0x3df785ea	0.12086089
98	0xbdc45961	-0.0958736
99	0x3d7e07f4	0.062019303
100	0xbd933bc1	-0.071891315
101	0xbd83128c	-0.06400022
102	0xbe0df64c	-0.13863486
103	0x3e088664	0.13332516
104	0x3c9682cc	0.018372916
105	0xbe7f3c8a	-0.24925438
106	0xbe2659e4	-0.16245228
107	0xbda17c45	-0.07885031
108	0xbe048c7e	-0.12944219
109	0xbd4f2513	-0.050572466
110	0x3e29ac16	0.16569552
111	0xbda220d1	-0.079164155
112	0xbe2b6588	-0.1673795
113	0xbdfec488	-0.12439829
114	0xbd04ec28	-0.03245178
115	0xbd95d6e7	-0.0731638
116	0x3d9e998d	0.07744131
117	0xbc25f883	-0.010130051
118	0xbd5dd74d	-0.054160405
119	0xbd03ceb9	-0.032179568
120	0x3c6ecedc	0.014575686
121	0xbc955bbf	-0.018232225
122	0xbe20e953	-0.15714006
123	0xbc4f41f4	-0.012650002
124	0xbdb6b4b2	-0.08921184
125	0x3d92441b	0.07141896
126	0x3dccab4a	0.09993608
127	0xbda41c5d	-0.08013222
128	0xbbb06e27	-0.005384225
129	0x3e293d6d	0.16527338
130	0xbe4229cc	-0.18961257
131	0xbd8554e6	-0.06510334
132	0xbd3f306d	-0.04667704
133	0x3e3c7f97	0.18408047
134	0x3e31f642	0.17379096
135	0xbc819479	-0.015817868
136	0x3e271600	0.16316986
137	0x3cd7e925	0.02635629
138	0x3e4b7227	0.19867764
139	0x3eac6f40	0.33678627
140	0x3e1fa3ec	0.15589875
141	0x3d367025	0.044540543
142	0x3d3ac843	0.04560114
143	0xbdc8eb9c	-0.09810564
144	0x3c957fcb	0.018249413
145	0xbc168615	-0.009187241
146	0xbe392336	-0.18079838
147	0xbcaeb871	-0.021328183
148	0x3e303080	0.17206001
149	0x3ce0b5e5	0.027430484
150	0xbd8ecbc3	-0.06972458
151	0x3e0cc4f8	0.13747013
152	0xbcfdc09e	-0.030975636
153	0xbd4eeb22	-0.05051721
154	0xbda9dde9	-0.08294279
155	0xbe59e260	-0.21277761
156	0xbdc1f8ce	-0.09471284
157	0x3e69afab	0.22820918
158	0xbe18e357	-0.14930473
159	0xbc32b56c	-0.010907512
160	0xbda65707	-0.08122068
161	0x3d1da252	0.03848488
162	0xbca7a5ae	-0.020464744
163	0x3dbb0f79	0.091338105
164	0xbde2edf8	-0.11080545
165	0xbd5f487c	-0.054512486
166	0xbe371465	-0.17878874
167	0xbe07bd9e	-0.13255927
168	0x3e01db8f	0.12681411
169	0xbe3eed06	-0.18645105
170	0x3de14df8	0.110011995
171	0x3dbe7259	0.09299154
172	0xbe448b41	-0.19193746
173	0xbde8388d	-0.11338911
174	0xbd843f0c	-0.06457338
175	0x3dd2d2c2	0.10294105
176	0xbe4b78a4	-0.1987024
177	0xbe55ea7c	-0.2089023
178	0xbd8c3e2e	-0.06847797
179	0xbd1853d5	-0.037189323
180	0xbdabc1e6	-0.083865926
181	0xbe50e1c4	-0.20398623
182	0x3dfb6f30	0.12277067
183	0xbe46c871	-0.194124
184	0x3dd0936a	0.10184367
185	0x3db5b2af	0.08871972
186	0x3df9db4e	0.12200032
187	0xbe19d883	-0.15023999
188	0xbe27d284	-0.16388899
189	0xbcbf0d79	-0.023321854
190	0x3d8db204	0.069187194
191	0xbc3a315f	-0.01136431
192	0xbe74b925	-0.23898752
193	0xbccf813e	-0.025330182
194	0xbde0f8d4	-0.1098496
195	0xbde73f7d	-0.11291406
196	0x3d39acf2	0.04533095
197	0x3c8f6adb	0.017507007
198	0xbe384e3e	-0.17998597
199	0xbe105dcd	-0.14098282
200	0xbd82fd13	-0.06395926
201	0xbdc54ae2	-0.096334234
202	0xbe38acce	-0.1803467
203	0x3d2599fc	0.040430054
204	0xbe5dbb57	-0.21653496
205	0xbe2d988a	-0.1695272
206	0xbbb1ab40	-0.005422026
207	0xbe0fd6ef	-0.14046834
208	0x3ce7549a	0.028238583
209	0xbb60687b	-0.0034241963
210	0x3acc9ff0	0.001561163
211	0xbe05c8d6	-0.13064894
212	0xbe92f4ca	-0.28702384
213	0x3dd81233	0.10550346
214	0xbe559cdf	-0.20860623
215	0x3d59e365	0.053195376

conv1.bias f4 [8]
0	0xbc44e553	-0.012017566
1	0xbd613412	-0.0549813
2	0xbc9da061	-0.019241514
3	0xbe55b24b	-0.20868795
4	0x3efae9ff	0.4900665
5	0x3dc07121	0.093965776
6	0xbe1eeb1e	-0.15519378
7	0xbd881cff	-0.066461556

conv2.weight f4 [12, 8, 3, 3]
0	0xbd83f792	-0.06443705
1	0x3c51c40c	0.012803089
2	0x3d9cdb77	0.07659047
3	0xbcdd8c91	-0.027044566
4	0x3de0e446	0.1098104
5	0x3ddfb803	0.10923769
6	0x3d9b0645	0.07569555
7	0x3dc201a9	0.09472973
8	0x3bede587	0.007260028
9	0x3cc94b54	0.024572052
10	0xbd7e8652	-0.062139817
11	0x3d2eac6a	0.042644896
12	0xbd1cac63	-0.03825034
13	0x3e041fe8	0.12902796
14	0x3e04a9bd	0.12955375
15	0xbd86b935	-0.06578294
16	0x3c425779	0.011861675
17	0x39de127c	0.00042356912
18	0x3bbc8ec4	0.0057543237
19	0x3cbf7e04	0.023375519
20	0x3d726f23	0.05918802
21	0xbd30bce6	-0.043148898
22	0xbcc0aa08	-0.023518577
23	0x3dd13e81	0.10217
24	0x3d29afca	0.04142741
25	0x3da79316	0.08182351
26	0xbd2b1828	-0.041771084
27	0x3caf3f6c	0.021392547
28	0xbcfa9919	-0.03059058
29	0x3d523fd9	0.05133042
30	0xbd8d0bd8	-0.06887025
31	0x3b7a7ae3	0.003822022
32	0xbc87e506	-0.0165887
33	0x3d271165	0.040788073
34	0xbd1a7cfc	-0.03771685
35	0xbd17537c	-0.03694485
36	0x3dc7463e	0.097301945
37	0x3d77aa0f	0.060464915
38	0x3dceb578	0.10093206
39	0xbdb90b3a	-0.090353444
40	0xbf88f6d9	-1.0700332
41	0xbdc6cb73	-0.097067736
42	0x3e884343	0.26613817
43	0x3e427dda	0.18993321
44	0xbda692cb	-0.08133467
45	0xbcc08cfd	-0.023504728
46	0x3d1b6d2a	0.037945904
47	0x3e481e4d	0.19542809
48	0x3e25c3c3	0.16187958
49	0x3e2dcecc	0.16973418
50	0x3e16a28c	0.14710444
51	0x3dcbfaef	0.09959971
52	0xbd8079f3	-0.0627326
53	0x3e3e2d15	0.18571885
54	0x3dfcf209	0.12350852
55	0xbd898b45	-0.06716017
56	0xbd259519	-0.040425394
57	0x3e035ddb	0.12828772
58	0xbbb88a24	-0.005631702
59	0xbc68a776	-0.014200082
60	0x3ce15f7c	0.02751135
61	0x3d9f89ae	0.07789932
62	0x3d6aa50d	0.05728631
63	0x3de4e4a8	0.11176425
64	0xbd268cca	-0.04066161
65	0x3d369f75	0.044585664
66	0x3e23458f	0.15944503
67	0xbd15c335	-0.036563117
68	0x3d08d0ef	0.03340238
69	0x3e352f75	0.17693885
70	0x3d401e3c	0.046903834
71	0x3de9260d	0.11384211
72	0xbe11f5be	-0.142539
73	0xbd8771ef	-0.06613528
74	0x3c871e75	0.016494015
75	0xbdb2ddf7	-0.08733743
76	0xbd9d4f06	-0.07681088
77	0x3d277c37	0.040889945
78	0xbd88ee78	-0.06686109
79	0xbe01cb46	-0.12675199
80	0xbda9d551	-0.0829264
81	0xbd2924d5	-0.04129489
82	0xbdc53be4	-0.09630564
83	0x3bb31dc3	0.0054661944
84	0xbe1dd508	-0.15413296
85	0xbc3d8b08	-0.011568792
86	0xbd0997a8	-0.033591896
87	0xbdd153c8	-0.10221058
88	0x3d5c094d	0.053719807
89	0x3ad1e985	0.0016015029
90	0x3cf6babd	0.03011834
91	0xbdd85e27	-0.10564833
92	0xbde4d447	-0.11173301
93	0xbe0826cd	-0.13296051
94	0x3d43019c	0.047608957
95	0xbdfa67c4	-0.12226823
96	0xbd350fc7	-0.0442045
97	0xbe1fa96e	-0.15591976
98	0xbe308367	-0.17237626
99	0xbd5b2795	-0.053504545
100	0x3dc50e6c	0.096218914
101	0x3d7c8813	0.061653208
102	0xbd3b4f04	-0.045729652
103	0xbd8dc803	-0.06922915
104	0xbc6a7657	-0.014310441
105	0x3d314fc2	0.043288954
106	0x3c53481e	0.012895612
107	0xbdc6c666	-0.0970581
108	0x3cbdbc74	0.02316115
109	0xbe2fba36	-0.17160878
110	0xbcf026c2	-0.029315356
111	0xbd6f3c63	-0.0584072
112	0xbce4680a	-0.027881641
113	0xbdc158c3	-0.09440758
114	0x3bdff2b1	0.006834351
115	0xbcb858a2	-0.0225032
116	0xbd9bd92e	-0.07609783
117	0x3a9684ab	0.001148363
118	0xbd4a8e09	-0.04945186
119	0xbad06dae	-0.0015901828
120	0xbdf28a01	-0.118427284
121	0xbc174f0c	-0.009235155
122	0xbcf835f2	-0.03029916
123	0x3d4c8e8c	0.04994063
124	0xbb978fa3	-0.004625277
125	0xbcd9de0d	-0.02659514
126	0x3d8fd139	0.07022328
127	0x3d64d71e	0.055869214
128	0x3bdd338d	0.00675053
129	0xbce4eb8f	-0.027944354
130	0x3dd3735a	0.10324736
131	0x3db98f8d	0.09060583
132	0x3cc5a032	0.024124239
133	0x3d8d754d	0.06907139
134	0x3dee8675	0.116467394
135	0x3d28cc13	0.041210245
136	0xbdccbcb8	-0.09996933
137	0xbdf13c32	-0.117790595
138	0xbe019941	-0.12656118
139	0xbd643432	-0.05571384
140	0xbd8dcffc	-0.069244355
141	0xbd744859	-0.05963931
142	0xbc1ef196	-0.009701153
143	0x3cf20f48	0.029548302
144	0xbdc1d784	-0.094649345
145	0xbd92d361	-0.071692236
146	0xbd785d94	-0.060636118
147	0xbdac6986	-0.084185645
148	0xbe3d6d71	-0.1849878
149	0xbdbccd1e	-0.092188105
150	0xbe06ca06	-0.13163003
151	0xbdd774bc	-0.10520312
152	0xbe6b0d69	-0.22954334
153	0x3c1c129b	0.00952592
154	0xbd913cc1	-0.07091666
155	0xbcedaf98	-0.029014394
156	0x3cded4a3	0.027201002
157	0xbe22a9e4	-0.1588512
158	0xbdc0d148	-0.09414917
159	0x3b83f3c9	0.004026864
160	0xbdbebbbd	-0.09313152
161	0xbe03e8bf	-0.12881754
162	0x3deee936	0.11665575
163	0x3da8c4cc	0.08240661
164	0x3da7059c	0.08155367
165	0x3e1b8b0e	0.15189764
166	0xbd2808e1	-0.041024093
167	0x3e073549	0.1320392
168	0x3e405a93	0.18784551
169	0x3e232b6b	0.15934531
170	0x3bf034f0	0.0073305294
171	0x3c974a23	0.018467968
172	0xbdd3b527	-0.103372864
173	0xbda6ddc0	-0.08147764
174	0xbd2baa78	-0.04191062
175	0xbe042289	-0.12903799
176	0xbe06955d	-0.13142915
177	0xbe158d76	-0.14604744
178	0xbd86e638	-0.065868795
179	0x3d55a0ab	0.052155178
180	0x3d3baae2	0.045817263
181	0x3cc2a5e9	0.023760753
182	0x3c0469e6	0.008081889
183	0xbeed5ade	-0.4635839
184	0xbf18cfe6	-0.5969223
185	0x3db01083	0.08596899
186	0x3dc58806	0.09645085
187	0xbce01ffc	-0.027359001
188	0x3e26deae	0.16295883
189	0xbc886ab3	-0.01665244
190	0xbd8e282a	-0.069412544
191	0x3c5ba23b	0.013405378
192	0xbdcd798c	-0.10032949
193	0xbe1e35f7	-0.15450273
194	0x3d5a91f3	0.053361844
195	0xbdbc8f01	-0.09206963
196	0xbda0201e	-0.07818626
197	0x3d035260	0.03206098
198	0x3d8da51a	0.06916256
199	0xbd811363	-0.06302526
200	0xba7c93c5	-0.00096350565
201	0x3de43773	0.111433886
202	0x3e068b46	0.13139066
203	0xbd6ba9d7	-0.05753502
204	0xbde5b50b	-0.11216172
205	0xbd88eb29	-0.06685478
206	0xbd0d36d7	-0.034476127
207	0xbd915d37	-0.070978574
208	0xbe3a72df	-0.18207882
209	0xbd83ed07	-0.06441694
210	0xbcde5440	-0.027139783
211	0xbd9d30cb	-0.07675322
212	0xbe002fea	-0.12518278
213	0xbd23bdc9	-0.039975915
214	0xbe379ce8	-0.17930949
215	0xbcf61652	-0.03003994
216	0x3d930250	0.071781754
217	0x3ddb9ca8	0.10723239
218	0x3da0e0c8	0.078553736
219	0x3d0adf0c	0.03390412
220	0x3e221d1b	0.15831415
221	0x3e1689c6	0.14700994
222	0x3e0d95ee	0.13826725
223	0x3cff13b9	0.031137334
224	0x3da2810e	0.079347715
225	0xbe0cd6bb	-0.13753788
226	0xbdcd9957	-0.10039013
227	0xbe06aead	-0.13152571
228	0x3c33e30b	0.010979424
229	0xbe371c60	-0.17881918
230	0xbd5a6361	-0.05331743
231	0xbe14fdcd	-0.14549942
232	0xbe018655	-0.126489
233	0xbd21a3a7	-0.03946271
234	0xbcd81233	-0.026375866
235	0x3cfbe21f	0.030747471
236	0x3ae5183c	0.0017478536
237	0x3dad943e	0.084755406
238	0x3e470ee2	0.19439271
239	0x3da44a25	0.080219544
240	0xbdd980de	-0.106202826
241	0xbaa82273	-0.001282765
242	0xbc7bc62b	-0.015367071
243	0x3cfabd0c	0.030607723
244	0xbd6d6469	-0.057957087
245	0x3d86b9b5	0.065783896
246	0x3bf29eb0	0.007404171
247	0xbddef892	-0.10887255
248	0x3ca76ae2	0.020436708
249	0xbd7ede6c	-0.062223837
250	0x3dcb6bd5	0.09932677
251	0xbd18e84c	-0.03733091
252	0xbe045757	-0.12923943
253	0x3e1909aa	0.14945093
254	0x3df906d9	0.12159509
255	0x3e4c5d88	0.19957554

conv2.bias f4 [12]
0	0xbd70ed84	-0.058820263
1	0xbde4d646	-0.11173682
2	0xbe7cb6a3	-0.24679045
3	0x3d91a3ba	0.071113065
4	0x3eb69cdf	0.35666558
5	0xbe062fff	-0.13104247
6	0x3ebf1d48	0.37327027
7	0xbde2b37d	-0.11069391
8	0x3e8f756b	0.2801927
9	0xbbcafbbd	-0.0061945603
10	0x3e99c05b	0.30029568
11	0xbdaa1909	-0.08305556

conv3.weight f4 [16, 12, 3, 3]
0	0xbd9b3154	-0.07577768
1	0x3de19054	0.110138565
2	0xbe0082b1	-0.12549855
3	0x3dc23b45	0.09483961
4	0x3da94eef	0.082670085
5	0xbc2d5519	-0.010579371
6	0xbdc78678	-0.09742445
7	0x3e30e27a	0.17273894
8	0x3cebb699	0.028773593
9	0xbe03a8d0	-0.12857366
10	0xbe0e8d52	-0.13921097
11	0x3ba73557	0.005102794
12	0x3dab37be	0.08360241
13	0x3b9293b3	0.0044731735
14	0xbc5672c7	-0.0130888885
15	0x3e2095ef	0.15682195
16	0x3db1ebf0	0.0868758
17	0x3e16a277	0.14710413
18	0xbd13f964	-0.03612651
19	0x3d8bbb47	0.0682283
20	0xbd47c0f7	-0.04876801
21	0x3e5cc610	0.2155993
22	0x3e38ef87	0.18060122
23	0x3dca1fc5	0.09869341
24	0x3d8de9ca	0.06929357
25	0x3dc7fc9a	0.09764977
26	0x3e1ebe6a	0.15502325
27	0xbd649aa2	-0.05581153
28	0xbca3632c	-0.01994475
29	0xbd0324ec	-0.032017633
30	0xbd08f1e0	-0.033433795
31	0x3d9bdfa8	0.076110184
32	0xbe22aa49	-0.15885271
33	0xbd43ed9d	-0.047834028
34	0x3ceacffe	0.028663632
35	0xbd984e19	-0.07436771
36	0xbd97ab8a	-0.07405765
37	0xbb6b8ed5	-0.0035943289
38	0xbbd10a6c	-0.006379416
39	0xbd2d4ea6	-0.042311333
40	0x3dbb53a7	0.09146815
41	0x3db0ceab	0.08633169
42	0x3da7b89f	0.081895106
43	0xbcbd5acf	-0.02311459
44	0x3bf16862	0.0073671797
45	0xbd198a5c	-0.037485465
46	0x3d0b325f	0.033983584
47	0x3cd6fef2	0.026244614
48	0x3da832f0	0.082128406
49	0x3d2bf761	0.041983966
50	0x3e2a40d0	0.16626287
51	0x3e33b563	0.17549662
52	0x3bc888c9	0.0061198217
53	0x3c8c6a2a	0.017140467
54	0xbedd6101	-0.4323807
55	0xbf1f7569	-0.6228853
56	0xbece93b9	-0.40347078
57	0xbeb4cdbd	-0.35313216
58	0xbf1b226b	-0.6059939
59	0xbf0c4ecc	-0.54807734
60	0xbe26d9a3	-0.1629396
61	0xbe9cbb3d	-0.306116
62	0xbe0d40f9	-0.13794316
63	0x3da7a9ed	0.08186708
64	0x3dab5401	0.08365632
65	0xbc75e76e	-0.01500879
66	0xbcb329ab	-0.021870455
67	0x3d880f2b	0.06643518
68	0x3d90c8e1	0.070695646
69	0xbd4f0ed5	-0.050551254
70	0x3d875a2f	0.06608998
71	0x3d84b5d4	0.064799935
72	0xbc736680	-0.014855981
73	0xbe8a7af7	-0.2704694
74	0xbed81c92	-0.42209297
75	0xbf40110f	-0.7502603
76	0xbf36278e	-0.71154106
77	0xbfb648c3	-1.4240955
78	0xbec2cd6e	-0.38047355
79	0xbf1fe1a3	-0.6245367
80	0xbddcf186	-0.107882544
81	0xbcea8f20	-0.0286327
82	0xbe14b355	-0.14521535
83	0xbe1a3582	-0.15059474
84	0x3c7f2d2b	0.015574734
85	0xbc92582d	-0.017864311
86	0x3c5140e3	0.012771818
87	0xbd057746	-0.03258445
88	0x3d98d26c	0.0746201
89	0x3d05eb77	0.03269526
90	0xbdb16c61	-0.0866325
91	0xbdbca62c	-0.09211382
92	0x3b531860	0.0032210574
93	0xbe2a5951	-0.16635634
94	0xbe32caa4	-0.17460114
95	0xbde67b62	-0.11254002
96	0xbcbb19ea	-0.022839505
97	0x3c6035c0	0.01368469
98	0x3dc6709d	0.09689448
99	0xbca1b9b2	-0.019741867
100	0xbbb7e289	-0.005611722
101	0xbd65e477	-0.056126084
102	0xbce74d36	-0.02823506
103	0x3d1fed72	0.039044805
104	0xbce06bb3	-0.027395105
105	0xbc137a3d	-0.009001312
106	0xbc233a1e	-0.009962587
107	0x3d8ffd77	0.070307665
108	0x3db1fbd4	0.086906105
109	0xbe33702a	-0.17523256
110	0xbdccd4f5	-0.10001556
111	0x3dcc781c	0.099838465
112	0x3d0b3caa	0.0339934
113	0x3d11fc94	0.035641268
114	0x3c278c42	0.010226311
115	0xbc9535d7	-0.01821415
116	0xbb29d521	-0.0025914388
117	0xbe0e99b8	-0.13925827
118	0xbcb367eb	-0.021900138
119	0xbdc7e460	-0.09760356
120	0xbdc3f2e2	-0.095678106
121	0xbc977c63	-0.01849193
122	0x3cd4264c	0.025897168
123	0xbdd7cfbc	-0.10537669
124	0xbd6b9c47	-0.057522085
125	0x3c131eda	0.008979524
126	0xbd9a6932	-0.07539596
127	0xbdcb25a2	-0.09919287
128	0xbe4822f1	-0.19544579
129	0xbd013342	-0.031543024
130	0x3e51401a	0.20434609
131	0x3df2030b	0.11816987
132	0x3c20c85f	0.009813397
133	0x3d77e25b	0.060518604
134	0x3e346061	0.1761489
135	0xbe478776	-0.19485268
136	0xbc811434	-0.015756704
137	0xbe159efa	-0.14611426
138	0x3eb50f7f	0.35363385
139	0x3ef44a9b	0.4771317
140	0x3e88076f	0.2656817
141	0xbdebe5b7	-0.11518424
142	0x3e4e071a	0.20119897
143	0xbc9f9f5d	-0.01948517
144	0x3e5698d4	0.20956737
145	0xbd347710	-0.04405886
146	0x3e8c7793	0.27434978
147	0x3c59342a	0.013257066
148	0xbf1149fb	-0.5675351
149	0x3c2292f2	0.00992273
150	0xbc2faecd	-0.010722828
151	0xbd35d135	-0.04438897
152	0x3ea86ec1	0.32897
153	0xbe152562	-0.14565042
154	0xbdcfee6d	-0.10152898
155	0xbdfa1479	-0.12210936
156	0x3c829b8c	0.015943311
157	0x3ca99a2e	0.020703401
158	0xbc850d17	-0.016241593
159	0x3cc14f5e	0.023597416
160	0xbd2b4dd9	-0.04182229
161	0xbdd5b1c5	-0.104342975
162	0x3e03d6d3	0.12874918
163	0x3cb110ad	0.021614397
164	0xbd282a47	-0.041055944
165	0xbce2cd5e	-0.027685817
166	0xbec344fe	-0.38138574
167	0xbe00ae3a	-0.12566462
168	0xbe41932c	-0.18903798
169	0xbe9a3f05	-0.30126205
170	0xbd1bd3a4	-0.038043633
171	0xbd996ded	-0.0749167
172	0x3c628811	0.013826386
173	0xbdc6262f	-0.09675252
174	0xbdd945cc	-0.10609016
175	0xbdd3729e	-0.10324596
176	0xbe0d1c57	-0.13780342
177	0xbe01d0ac	-0.12677258
178	0x3b61fd79	0.0034483357
179	0x3b73bbe8	0.0037190858
180	0xbde5cfb5	-0.112212576
181	0x3e158f4f	0.14605449
182	0xbda98fd9	-0.0827939
183	0xbdf22e75	-0.11825267
184	0x3e6330e8	0.22186625
185	0xbddcdc57	-0.10784214
186	0xbe6175c0	-0.22017574
187	0x3ef6ea30	0.48225546
188	0x3f16676d	0.58751565
189	0xbc4b7cd2	-0.012419896
190	0xbc16207a	-0.009163016
191	0xbd4dec14	-0.05027397
192	0x3d3a5097	0.045487013
193	0xbcaf6470	-0.021410197
194	0x3d5e87d4	0.054328755
195	0xbdd1705e	-0.102265105
196	0x3d421209	0.04738048
197	0x3cee30af	0.029075949
198	0x3e754ed8	0.23955858
199	0x3d5f8c45	0.05457713
200	0xbe37d6e8	-0.17953074
201	0xbe3a59e6	-0.18198356
202	0xbe7ee5c8	-0.24892342
203	0x3e5f7b90	0.21824479
204	0x3e0b9dc1	0.13634397
205	0xbddafe09	-0.106929846
206	0x3e5dc447	0.21656905
207	0x3baf54ec	0.0053506996
208	0xbe161e1a	-0.1465992
209	0xbd595ad0	-0.05306512
210	0xbc8af21f	-0.016961155
211	0xbc2a5683	-0.010396603
212	0x3d163952	0.03667576
213	0xbe23c2e0	-0.15992308
214	0xbdc96d5d	-0.098353125
215	0xbd2ab5d1	-0.0416773
216	0xbd8156f5	-0.06315414
217	0xbd0195e6	-0.031637095
218	0xbd07cdff	-0.033155438
219	0xbdef7026	-0.116913125
220	0x3d2809b1	0.041024867
221	0xbda9c61a	-0.08289738
222	0xbc71234d	-0.014717889
223	0x3d43f98b	0.047845405
224	0xbc7d4645	-0.015458648
225	0x3d32b3cb	0.043628495
226	0x3ba30558	0.0049750023
227	0xbddbd5a1	-0.10734106
228	0xbd6e0f23	-0.058119904
229	0xbdbc9ea7	-0.09209948
230	0xbde0b4ba	-0.10971971
231	0xbd2abea1	-0.041685704
232	0xbd83cc95	-0.06435505
233	0x3d160032	0.03662128
234	0xbdb78ab3	-0.08962002
235	0xbdc0b230	-0.094089866
236	0x3c84cb1d	0.016210133
237	0xbd00fed0	-0.031493008
238	0xbdbb74af	-0.09153115
239	0xbdd9ea45	-0.106403865
240	0xbd9d628d	-0.07684813
241	0x3c3b6cd8	0.011439525
242	0xbd51abda	-0.05118928
243	0xbddee9ea	-0.10884459
244	0xbcbd2cbb	-0.023092618
245	0x3bea1cf0	0.007144563
246	0xbd6caa86	-0.05777981
247	0xbd9e7fb9	-0.07739205
248	0x3d4b5152	0.0496381
249	0xbdaa1980	-0.08305645
250	0xbd4a6514	-0.0494128
251	0xbe1698b8	-0.14706695
252	0x3aa25069	0.0012383583
253	0xbdd93bdb	-0.1060712
254	0x3d09966f	0.03359073
255	0xbdc015df	-0.093791716

conv3.bias f4 [16]
0	0xbe97755d	-0.2958173
1	0x3e904309	0.28176144
2	0xbc55bca1	-0.013045461
3	0x3e737bd5	0.23777707
4	0x3de42140	0.111391544
5	0xbeb3984f	-0.3507714
6	0xbe166b77	-0.14689432
7	0xbe509759	-0.20370235
8	0xbdab6ad0	-0.08369982
9	0xbdda3ee4	-0.10656527
10	0xbd0cfb37	-0.034419265
11	0xbcc54600	-0.02408123
12	0x3cf8570e	0.030314948
13	0xbe3c6e91	-0.18401553
14	0xbc250ec0	-0.010074317
15	0x3da3d5ee	0.07999788

t_conv1.weight f4 [16, 12, 4, 4]
0	0x3db5c599	0.088755794
1	0x3d069bbd	0.032863367
2	0xbb749805	-0.0037322056
3	0x3e43306a	0.19061437
4	0x3a237cd6	0.00062365585
5	0xbe0fbb94	-0.14036399
6	0xbe7ff028	-0.24993956
7	0xbd322fe8	-0.04350272
8	0x3cf6e04e	0.030136254
9	0xbe3ccc4c	-0.18437308
10	0xbe23789d	-0.15963979
11	0xbd2ed614	-0.04268463
12	0x3d8bdab3	0.06828823
13	0xbcc29f08	-0.023757473
14	0xbe41585f	-0.18881367
15	0x3c873350	0.01650396
16	0x3d08cf74	0.033400968
17	0x3d4a2d24	0.049359456
18	0xbd04b6f8	-0.032401055
19	0x3cf28c3c	0.029607885
20	0xbcad2b6c	-0.02113887
21	0x3d1ef86c	0.038811132
22	0xbbc63240	-0.0060484707
23	0xbd4afa6a	-0.04955522
24	0xbd4ac0f6	-0.04950043
25	0x3d58196e	0.052758627
26	0xbca41474	-0.020029284
27	0x3c6374b0	0.013882801
28	0x3ccea74c	0.025226258
29	0x3cee3d89	0.029082077
30	0x3c293f90	0.010330096
31	0xbd2f1aa8	-0.04275003
32	0x3d37f528	0.044911534
33	0xbc1d2478	-0.009591214
34	0x3cd073d0	0.025445849
35	0x3d8db540	0.06919336
36	0x3d33d9ea	0.04390899
37	0x3d2ec4a4	0.042668
38	0x3cfd1100	0.030891895
39	0xbcc6c53c	-0.02426397
40	0xbd892bba	-0.06697793
41	0x3cc40998	0.023930356
42	0xbd584888	-0.052803546
43	0x3d8ea966	0.06965904
44	0x3cbaaecc	0.022788428
45	0x3ca2a470	0.0198538
46	0x3d552d18	0.052044958
47	0xbcabf5ee	-0.020991292
48	0x3cb7caac	0.022435509
49	0x3d61cdb8	0.05512783
50	0x3e4ad4d6	0.19807753
51	0x3c9343e7	0.017976714
52	0x3e4551a7	0.19269429
53	0x3eb64f8c	0.35607564
54	0x3f039d81	0.51412207
55	0x3e2521c1	0.16126157
56	0x3d038899	0.03211269
57	0x3eab2dea	0.33433467
58	0x3ec982a6	0.3935749
59	0x3e5433c7	0.20722876
60	0xbe05824d	-0.13037987
61	0x3d709c8d	0.05874305
62	0x3e5d96e8	0.21639597
63	0x3cb3ec4f	0.021963267
64	0xbd69434d	-0.05694895
65	0x3ca5bae4	0.020230718
66	0xbb187440	-0.002326265
67	0x3ccd2c80	0.025045633
68	0xbd4b9f9a	-0.049712755
69	0xbd318baf	-0.043346103
70	0x3d52f066	0.051498793
71	0x3bbd3ae0	0.0057748407
72	0xbb3502c0	-0.0027620047
73	0xbbb568b0	-0.0055361614
74	0x3d369aa2	0.044581063
75	0xbc8d2e2a	-0.017233927
76	0x3d7bba48	0.06145695
77	0xbc29c144	-0.0103610195
78	0x3c159a00	0.009130955
79	0xbc7b02d4	-0.0153204985
80	0xbeef2215	-0.4670569
81	0x3e3fb7fe	0.18722531
82	0x3f25c2ee	0.64750564
83	0xbd53cda9	-0.051709805
84	0x3eaee0ca	0.34155875
85	0x3f311b96	0.6918272
86	0x3f7532a1	0.9578038
87	0x3f1cede4	0.6130049
88	0x3eb68b16	0.3565299
89	0x3f0adfe3	0.54247874
90	0x3eac6fd5	0.3367907
91	0x3e758dfb	0.23979943
92	0x3ee9f118	0.45691752
93	0x3f84c291	1.0371877
94	0x3f93431c	1.1504855
95	0x3f81e63f	1.014839
96	0x3d90782b	0.0705417
97	0x3e45b8ef	0.19308828
98	0x3ebd54d1	0.36978772
99	0xbdc06c88	-0.09395701
100	0x3e6f37f5	0.2336119
101	0x3eaacb18	0.33358073
102	0x3f258e65	0.646704
103	0x3e5399f6	0.206642
104	0x3e212b00	0.1573906
105	0x3dd2531d	0.10269759
106	0x3ec91a8d	0.3927807
107	0x3d5f7fd7	0.054565277
108	0xbd003aa6	-0.03130593
109	0x3cb09468	0.02155514
110	0x3e81b508	0.25333428
111	0x3d999afc	0.07500264
112	0xbd41b3e6	-0.047290705
113	0xbce49814	-0.027904548
114	0xbbc096c0	-0.005877346
115	0xbd640b26	-0.055674694
116	0x3bc366e0	0.0059631914
117	0x3ca677d4	0.02032081
118	0xbd229cf3	-0.03970046
119	0xbd1c4576	-0.03815218
120	0xbd257171	-0.04039139
121	0xbd2f35bc	-0.042775854
122	0xbb17057e	-0.0023044045
123	0xbd1933b6	-0.03740283
124	0xbd0c90f4	-0.034317926
125	0x3d25812c	0.04040639
126	0xbcd2b5bd	-0.025721425
127	0x3cabdad8	0.020978376
128	0x3d51f974	0.051263288
129	0xbc9dd052	-0.019264374
130	0x3d3c20a6	0.045929573
131	0x3c648300	0.013947248
132	0x3c1c5128	0.0095408335
133	0xbce43502	-0.027857307
134	0xbcc4617e	-0.02397227
135	0xbd2f686b	-0.04282419
136	0xbbdf7c70	-0.006820254
137	0xbd631d5d	-0.055447925
138	0xbd1266db	-0.035742622
139	0x3d02748a	0.03184942
140	0xbc5fe510	-0.013665453
141	0xbbce18f0	-0.006289594
142	0x3d6e9af4	0.058253244
143	0x3d394186	0.045228504
144	0x3e14dd4c	0.14537543
145	0x3e9288cf	0.28620002
146	0x3dd537cc	0.10411033
147	0x3e83353c	0.25626552
148	0xbe7b298b	-0.24527566
149	0xbd9238a4	-0.071397096
150	0xbe9d3f34	-0.30712283
151	0xbe92274b	-0.28545603
152	0xbe236f13	-0.1596034
153	0xbec83523	-0.3910304
154	0xbefbfff3	-0.4921871
155	0xbeec9931	-0.46210626
156	0x3e350d40	0.17680836
157	0xbd9a396d	-0.07530484
158	0xbeb45e7a	-0.3522833
159	0xbe995668	-0.29948735
160	0x3d98418b	0.07434376
161	0x3e443ca2	0.19163755
162	0x3d9d6069	0.076844044
163	0x3dca7928	0.0988639
164	0xbe274dc1	-0.16338255
165	0xbe515f89	-0.204466
166	0xbe8e808d	-0.2783245
167	0xbe5c5c77	-0.21519648
168	0xbe3c922a	-0.18415132
169	0xbde4ab95	-0.11165539
170	0xbeb22f18	-0.34801555
171	0xbe415f00	-0.18883896
172	0x3de1ae68	0.110195935
173	0xbba6c45d	-0.0050893263
174	0xbe1161fe	-0.14197537
175	0x3d00a486	0.0314069
176	0xbc0e0c2e	-0.008669896
177	0x3c8ecf5a	0.017432857
178	0x3d5e41b8	0.054261893
179	0x3de42683	0.11140158
180	0xbdbcdfd1	-0.09222377
181	0xbd1b938f	-0.03798252
182	0xbdde2931	-0.108477004
183	0x3b9ab420	0.0047211796
184	0xbe0049e0	-0.12528181
185	0xbdd42bcb	-0.10359915
186	0xbdacbbaf	-0.08434235
187	0xbcbec572	-0.023287509
188	0xbde5e43d	-0.112251736
189	0xbdf039ed	-0.117297985
190	0xbdb7c18f	-0.08972465
191	0xbdcc4609	-0.09974296
192	0xbd3432b6	-0.043993674
193	0xbd0710bb	-0.03297494
194	0x3df0a4fd	0.11750219
195	0x3e8ba0d8	0.27271152
196	0x3cb9d0ad	0.022682512
197	0xbde9d172	-0.11416902
198	0xbe2ce2c6	-0.16883382
199	0x3d61b7d0	0.055106938
200	0x3db32a94	0.087483555
201	0xbdb9fee9	-0.090818234
202	0xbe7b3c51	-0.24534728
203	0x3d3c83dd	0.046024192
204	0x3d827b6f	0.06371199
205	0xbe0dbd40	-0.13841724
206	0xbe3a05de	-0.181663
207	0x3e4a92d5	0.19782574
208	0xbcb4926d	-0.022042478
209	0xbd8a8951	-0.06764472
210	0xbc33f3bc	-0.010983404
211	0xbda9f620	-0.08298898
212	0xbd6085d6	-0.054815136
213	0xbda05d90	-0.07830346
214	0xbdd01a6e	-0.10161291
215	0xbd0ef09b	-0.034897428
216	0x3b38f47c	0.0028221896
217	0xbd3af981	-0.0456481
218	0xbd288cb8	-0.041149825
219	0xbc816c34	-0.015798666
220	0xbdcc7a3d	-0.099842526
221	0xbb8aff8a	-0.0042418884
222	0xbc4f6521	-0.012658388
223	0xbc009c40	-0.007849753
224	0xbd8e3440	-0.0694356
225	0xbd073e5c	-0.033018455
226	0xbd9baf1b	-0.07601758
227	0xbd6c3152	-0.057664223
228	0xbc8ec1d9	-0.017426418
229	0xbde1361e	-0.1099665
230	0xbc5e6c73	-0.013575661
231	0xbd107fc7	-0.035278108
232	0xbdcfbc7a	-0.10143371
233	0xbdd2d3b5	-0.10294286
234	0xbdb2aae2	-0.087239996
235	0xbba1329f	-0.0049193646
236	0xbb1a2c1e	-0.002352483
237	0xbd54ed16	-0.051983915
238	0xbc00577d	-0.007833359
239	0xbdb743ac	-0.08948454
240	0xbe089016	-0.13336214
241	0xbd4c6336	-0.049899302
242	0xbde7a638	-0.113110006
243	0xbddc3296	-0.10751836
244	0x3caad06e	0.02085134
245	0x3e0bfb1e	0.13670012
246	0x3e08ea0a	0.13370529
247	0x3ddbee76	0.10738842
248	0x3d49a111	0.04922587
249	0x3e8009f4	0.25007594
250	0x3e58ca1b	0.21170847
251	0x3e67fafe	0.2265434
252	0xbd840772	-0.064467326
253	0xbc9478fa	-0.018124092
254	0xbc90bc35	-0.01766787
255	0xbc54063a	-0.012940938

t_conv1.bias f4 [12]
0	0xbd8dcff7	-0.06924432
1	0xbd925353	-0.07144799
2	0xbdb5b347	-0.08872085
3	0xbc116e46	-0.008876389
4	0xbd98a54a	-0.074534014
5	0x3ea79071	0.32727388
6	0xbdaf0f23	-0.08547809
7	0xbd20c690	-0.039251864
8	0xbd87f1ea	-0.06637938
9	0x3c893a9c	0.01675158
10	0x3e886cff	0.26645657
11	0x3d51980a	0.051170386

t_conv2.weight f4 [12, 3, 4, 4]
0	0x3e04e24a	0.12976947
1	0x3e016416	0.12635836
2	0xbcb6ca3b	-0.022313228
3	0xbd8aea57	-0.06782978
4	0x3e04ca57	0.12967812
5	0xbde02841	-0.10945178
6	0xbe872a49	-0.2639945
7	0x3dd4c22c	0.10388598
8	0x3d69e99b	0.05710755
9	0xbe543927	-0.20724927
10	0xbe93d74e	-0.28875202
11	0x3cb947dc	0.022617273
12	0xbe2b86fa	-0.16750708
13	0x3ce748d6	0.028232973
14	0x3cc9f8c1	0.024654748
15	0xbcdfdbdd	-0.027326519
16	0x3c67d638	0.014150195
17	0x3db09627	0.08622389
18	0xbdd0c035	-0.101929106
19	0xbddc5148	-0.10757691
20	0x3dd6753a	0.10471578
21	0xbdcd0398	-0.10010451
22	0xbeb4ecee	-0.35337013
23	0x3d440a49	0.04786137
24	0x3c8f3c55	0.017484823
25	0xbe69c14a	-0.2282764
26	0xbea47a0e	-0.3212437
27	0xbe03a7b3	-0.12856941
28	0xbdf847f1	-0.12123097
29	0x3dc3918a	0.09549244
30	0xbcb1d235	-0.02170668
31	0xbe137dbb	-0.14403431
32	0x3c26ae79	0.010173433
33	0x3e0b994a	0.13632694
34	0xbd82284d	-0.06355343
35	0xbdfb608f	-0.122742765
36	0x3dbdeb03	0.092733406
37	0xbdc166c5	-0.0944343
38	0xbebb935d	-0.36635867
39	0x3c6179c2	0.0137619395
40	0x3d7878cf	0.060662087
41	0xbe2cbde6	-0.16869316
42	0xbeb627de	-0.3557729
43	0xbe2508a2	-0.16116574
44	0xbd8624c3	-0.065499805
45	0x3db4ff88	0.08837801
46	0x3dd8344b	0.10556849
47	0xbe750d94	-0.23930961
48	0x3e4665ed	0.19374819
49	0x3b208934	0.0024495842
50	0x3993cea3	0.0002819198
51	0x3db41f3f	0.08795022
52	0xbd73d696	-0.059530817
53	0x3cddfc64	0.027097888
54	0x3e00ec85	0.12590225
55	0x3e120c11	0.14262415
56	0x3c6bb75d	0.014386979
57	0x3e0396b2	0.12850454
58	0xbd319843	-0.0433581
59	0x3e2f14fe	0.17097852
60	0xbd777e06	-0.06042292
61	0xbc84e986	-0.016224634
62	0x3deb0977	0.11476415
63	0x3e48693a	0.19571391
64	0x3c99e45b	0.018785646
65	0x3e54b1ce	0.20770952
66	0x3e0bedf3	0.13664989
67	0x3be37b43	0.006942184
68	0x3cfad6c2	0.030619983
69	0x3dfd01c1	0.1235385
70	0x3d658fba	0.05604527
71	0x3dcded37	0.10055011
72	0xbda78335	-0.08179323
73	0x3e17199f	0.14755867
74	0xbb770ddb	-0.0037697467
75	0x3dfd4583	0.12366774
76	0x3dc08bda	0.094016746
77	0x3c06eea7	0.00823561
78	0x3da7507a	0.081696466
79	0x3cb12278	0.021622881
80	0x3c7da960	0.015482277
81	0x3c303ab9	0.010756188
82	0xbe18c36b	-0.14918296
83	0x3da59ea2	0.080868974
84	0xbd0437e3	-0.03227986
85	0xbe0d9a4b	-0.1382839
86	0xbd56c779	-0.052436326
87	0xbe1afc4e	-0.15135309
88	0xbd90dd7c	-0.07073495
89	0x3e3120a8	0.17297614
90	0x3c701e71	0.014655695
91	0x3dd3cd45	0.103418864
92	0x3df74d43	0.120752834
93	0x3e4bea15	0.19913514
94	0x3e511947	0.20419799
95	0x3df4bfa7	0.11950617
96	0x3dc35331	0.09537352
97	0x3dbcceb6	0.092191145
98	0x3d89647a	0.067086175
99	0x3d7e0cb8	0.06202385
100	0xbb8931f2	-0.004186862
101	0xbd9a0659	-0.07520742
102	0x3e14aaaa	0.14518228
103	0x3dead322	0.11466052
104	0x3e2d7c6f	0.16941999
105	0xbd2efba2	-0.042720445
106	0x3e1ee867	0.15518342
107	0x3d34e6b1	0.044165317
108	0x3e3fe684	0.18740278
109	0x3c409d9d	0.011756328
110	0x3bce31c4	0.0062925536
111	0x3ceca525	0.02888734
112	0x3cbc293e	0.022968885
113	0x3c0e74c0	0.008694828
114	0x3dcccc4c	0.09999904
115	0xbd8d442a	-0.06897767
116	0xbcb99ed1	-0.022658737
117	0x3d35c9c8	0.044381887
118	0x3db7831b	0.08960553
119	0x3d86c8a5	0.06581239
120	0x3bc1ca2f	0.0059139947
121	0x3dc7f72a	0.0976394
122	0xbd9992b5	-0.07498685
123	0x3c021475	0.007939448
124	0x3b890c3b	0.004182366
125	0xbcb1819d	-0.02166825
126	0xbce083f6	-0.027406674
127	0x3d8b9134	0.06814805
128	0x3d2ef34a	0.042712487
129	0xbd8788f6	-0.0661792
130	0x3e1412d9	0.14460315
131	0x3d6892db	0.056780677
132	0xbcc4852c	-0.023989283
133	0xbd754abd	-0.05988573
134	0xbd371422	-0.044696935
135	0x3e21d79f	0.15804909
136	0x3e07dd07	0.13267909
137	0x3dbc14d3	0.091836594
138	0x3e257ece	0.16161653
139	0x3e2ec566	0.17067489
140	0x3e2a8e3c	0.1665582
141	0x3e2e372f	0.17013238
142	0x3df07261	0.11740566
143	0x3cdbbe9d	0.02682429
144	0x3c5f829d	0.0136419805
145	0x3d6aa60d	0.057287265
146	0x3dfea4df	0.124337904
147	0xbb6c8c0e	-0.0036094221
148	0x3c409985	0.011755352
149	0x3dff5c91	0.124688275
150	0x3e2f1078	0.17096126
151	0x3d45548c	0.048176333
152	0x3d560188	0.052247554
153	0x3d953430	0.072853446
154	0x3ea43149	0.32068852
155	0x3d711af7	0.058863606
156	0x3db4a1cc	0.08819923
157	0xbd385a08	-0.045007735
158	0x3e12cf17	0.14336811
159	0x3c85a674	0.016314723
160	0x3d0a23a6	0.033725403
161	0x3cfa7297	0.030572219
162	0x3da9ab76	0.08284657
163	0x3c6c5169	0.014423707
164	0xbc14d6ca	-0.009084413
165	0x3deaab0d	0.114584066
166	0x3e8faac2	0.28059965
167	0x3e0bf3ff	0.13667296
168	0x3d585b2c	0.052821323
169	0x3e319275	0.17341025
170	0x3e7dad15	0.24773057
171	0x3d92282e	0.0713657
172	0x3d9d66e2	0.07685639
173	0xbcb66240	-0.022263646
174	0x3e1da511	0.15394999
175	0x3db9fbd5	0.09081236
176	0x3ca28bf3	0.019842124
177	0x3dc5a04f	0.09649717
178	0x3d583676	0.052786313
179	0x3dc3a2a2	0.09552504
180	0xbcc4f78f	-0.024043826
181	0x3e4d2df8	0.20037067
182	0x3e905141	0.28186992
183	0x3dbd661a	0.0924799
184	0x3cb2927a	0.021798361
185	0x3e29892f	0.16556238
186	0x3e9fbf66	0.31200713
187	0x3e479b8a	0.19492927
188	0x3d2f9d06	0.04287436
189	0x3d3c163c	0.04591964
190	0x3e29dce3	0.16588168
191	0x3e0d0944	0.13773066
192	0xbdca52a6	-0.09879045
193	0x3d8008ff	0.06251716
194	0xbde4a480	-0.111641884
195	0xbe406279	-0.18787564
196	0xbd782899	-0.060585592
197	0xbc7b937a	-0.015354985
198	0x3d927aa0	0.07152295
199	0xbe255f99	-0.16149749
200	0xbd08320b	-0.03325085
201	0xbe383373	-0.17988376
202	0xbe315dec	-0.17320985
203	0x3d7c70bd	0.061630953
204	0xbe15a6cf	-0.14614414
205	0x3d31a559	0.04337058
206	0xbe4dbb9a	-0.20091096
207	0xbaafcd6a	-0.0013412659
208	0xbdf271b7	-0.11838096
209	0xbdd7c88f	-0.105363004
210	0xbc66ca36	-0.014086297
211	0x3d949348	0.07254654
212	0xbdb78cca	-0.089624
213	0x3d87ed85	0.066371
214	0xbdb3fb4b	-0.08788165
215	0xbcd126d4	-0.02553121
216	0xbe5017f7	-0.20321642
217	0x3c19c9fe	0.009386538
218	0x3c042db8	0.008067541
219	0xbd6f8971	-0.058480684
220	0x3cc4e76f	0.024036137
221	0x3d7257cd	0.059165765
222	0xbdc6b260	-0.09701991
223	0xbd5c062b	-0.05371682
224	0x3d5ecd94	0.054395273
225	0xbe2fe520	-0.17177248
226	0xbd9861d7	-0.074405365
227	0xbe2921d7	-0.16516815
228	0x3d09a7e6	0.033607386
229	0xbdac2585	-0.08405594
230	0x3c1290bc	0.00894564
231	0xbc8443f1	-0.016145678
232	0xbd9dfce5	-0.077142514
233	0xbe14cca7	-0.14531194
234	0xbe2cdf38	-0.16882026
235	0xbd917d19	-0.071039386
236	0x3d4d040d	0.05005269
237	0x3d68fdc6	0.056882642
238	0xbd71abb8	-0.059001654
239	0xbca20a5f	-0.019780336
240	0x3f15b331	0.5847655
241	0x3d81c76f	0.06336867
242	0xbdee697b	-0.116412126
243	0xbbf7b22b	-0.007559081
244	0x3ea5053e	0.32230562
245	0x3f219445	0.63116866
246	0x3ef3a4ab	0.4758657
247	0x3e38cd5f	0.18047093
248	0x3e03a0e8	0.1285435
249	0x3ef56fad	0.47936764
250	0x3e0b2849	0.13589586
251	0x3c9e83ba	0.019349921
252	0xbad4b7ef	-0.0016229133
253	0x3ce7ca49	0.0282947
254	0xbcdb014f	-0.026734022
255	0x3cf70ca4	0.030157395

t_conv2.bias f4 [3]
0	0x3e041a6b	0.12900703
1	0x3e22d43b	0.15901272
2	0xbe940077	-0.28906605
