.ipynb_checkpoints/models/cae3.pth (torch, 64687 bytes, 16 tensors)

conv1.weight f4 [8, 1, 3, 3]
000000 5b 25 b0 3e 39 e3 7c 3e fb 21 a7 3e 4f 56 88 3f
       0.344035 0.24696054 0.32643113 1.0651339
000010 e7 00 bf 3e 2e d2 92 3e 5b 70 03 3a bb 81 40 3e
       0.37305376 0.2867598 0.00050139957 0.18799488
000020 3a 03 ca 3e 49 d0 30 3f 4a 39 92 bf f1 8b 5d bf
       0.39455587 0.6906782 -1.1423733 -0.8654166
000030 b4 e2 c2 3e 95 f4 23 3f c6 c8 b1 bf c7 2d 14 be
       0.38063586 0.6404508 -1.3889396 -0.14470588
000040 77 19 86 3e 5c f3 2a c0 1c 15 65 be ba 5d 25 3e
       0.26191303 -2.6711035 -0.22371334 0.16149035
000050 5f bc 6d 3e 65 b8 b5 3c 7e b1 20 be 56 64 49 be
       0.23216389 0.022182653 -0.15692708 -0.19667181
000060 00 a3 f5 bb bc e9 d4 bd 4f 40 44 3e 1a aa 0c 3d
       -0.0074962378 -0.10396144 0.19165157 0.03434191
000070 ad a2 4d 3e ab e8 a6 3f a2 25 37 bf 7e cd a8 3e
       0.20081587 1.3039755 -0.715418 0.32969278
000080 47 c5 8c be d1 ae 7f 3e c4 45 69 bf 50 92 92 be
       -0.2749426 0.24969031 -0.9112208 -0.28627253
000090 c2 01 80 be d2 af cb bc 5f 9f 50 bf 32 ff 6e be
       -0.2500134 -0.024864111 -0.8149318 -0.23339537
0000a0 ac e2 7e bf 01 59 4e 3e 30 0d e3 bd 08 f2 e4 be
       -0.99564624 0.2015114 -0.110865 -0.44715905
0000b0 ba e8 f8 3e 04 f8 a9 be 3c 5b ca bd 93 04 cd bd
       0.48615056 -0.33197033 -0.09880683 -0.10010638
0000c0 30 12 00 3e 1a af 84 3e 91 56 24 3d 9d 40 d7 bb
       0.12506938 0.25914842 0.04012162 -0.006568982
0000d0 b1 16 c2 be 86 98 aa be f6 d1 9d be c7 b5 3b 3d
       -0.37907937 -0.3331949 -0.3082425 0.045827653
0000e0 78 c4 a0 be 17 74 84 3c 80 15 56 be 0e 95 b1 be
       -0.31399894 0.016168637 -0.20906639 -0.34684032
0000f0 18 df 02 bf c3 03 da bc 98 34 41 be 34 1c 91 bb
       -0.51121664 -0.026613122 -0.18867719 -0.004428411
000100 52 88 48 bf 62 22 fa be b2 10 1c be 1b 81 24 3f
       -0.7833301 -0.48854357 -0.15240744 0.642595
000110 b4 40 2f bf e8 a7 e9 be 80 1f aa bf 31 4b b2 3e
       -0.68458104 -0.45635915 -1.3290863 0.34822991

conv1.bias f4 [8]
000000 24 20 8d bf 22 8f 3d be 06 46 a4 be d6 96 b1 3d
       -1.1025434 -0.18511632 -0.32084674 0.08671348
000010 e2 4c 83 3f 45 5a 9a be cf 36 cc be bb 9d 7b 3f
       1.0257838 -0.30146995 -0.39885566 0.9828755

conv2.weight f4 [12, 8, 3, 3]
000000 61 58 c1 bd 09 03 94 3c 61 5f ff bc 5d 08 29 be
       -0.09440685 0.018067854 -0.03117341 -0.16507097
000010 75 a6 2a bd 28 e9 72 bd 05 7b e0 bc 81 0f 67 bd
       -0.041662652 -0.059304386 -0.02740241 -0.05641127
000020 1a bf 60 3c 5c 89 bd bd 9e 04 05 3d c2 ac 2e 3d
       0.013717437 -0.09254715 0.032475106 0.042645223
000030 81 09 09 be c2 ca cf bd be 90 54 3c 3a 8d c9 bd
       -0.13382532 -0.10146095 0.012973962 -0.0984139
000040 0c 4f 1a 3c b3 bb 3a ba ff ba 06 be b1 e2 d8 3c
       0.00941826 -0.0007123306 -0.13157271 0.026475282
000050 e6 1a 80 3c df c2 ef bd 26 d2 d4 3b 1a 8f 5b bc
       0.015637826 -0.117070906 0.006494778 -0.013400817
000060 9f 3a a5 bd 5e 48 7a 3d cb 9e eb bd 05 0b bf bd
       -0.08067822 0.06110417 -0.11504897 -0.09328274
000070 d7 9b b5 bd 38 81 2c bc 0c 2f 51 bc 8f c1 1e be
       -0.08867615 -0.010528855 -0.0127675645 -0.15503524
000080 44 dc b3 bc f5 a8 35 bc cf 79 f3 bd 9f 5b 06 3c
       -0.021955617 -0.011087646 -0.118884675 0.008200555
000090 8b b1 0c be c4 20 d7 3c d6 60 19 bd 5b 5c 01 be
       -0.13739602 0.026260741 -0.037445866 -0.12632887
0000a0 3c 2d f8 bd e5 16 4e 3d cf 9a 21 be f4 62 00 bd
       -0.12118003 0.050314803 -0.15781711 -0.03134437
0000b0 e0 f4 31 bd 99 dc 90 bd 83 5f 2f bd 6f f2 3b bd
       -0.04344642 -0.07073326 -0.042815696 -0.0458855
0000c0 93 c4 79 3d 0d fd 6e 3d 7f c9 a1 3c 8d 5e a6 3c
       0.060978483 0.058346797 0.019749401 0.020308757
0000d0 59 7a da bd af f1 1c 3b 50 73 29 bd 94 b7 81 bd
       -0.10667867 0.0023947766 -0.041369736 -0.06333843
0000e0 18 1c 48 bd ca cb 04 bd a4 0f 58 3d da 4f 12 3d
       -0.048854917 -0.03242091 0.05274929 0.035720684
0000f0 4d 6d 1a be 8b 79 c5 3d d7 9c 67 bd 9f 74 c4 3d
       -0.15080757 0.09642323 -0.05654606 0.09592556
000100 a7 17 1c bd 73 12 8e bd fa f0 c6 bd e7 53 89 bc
       -0.038108494 -0.06937113 -0.097139314 -0.01676364
000110 32 ff 9d bc 0f fb 11 be 52 df fb bd d9 c2 07 be
       -0.019286726 -0.14255928 -0.12298454 -0.13257922
000120 b8 b5 84 be 1d b2 a3 be e8 e4 41 be eb 99 0a be
       -0.2591989 -0.31971827 -0.18934977 -0.13535278
000130 81 7a 53 be 9d 44 57 be 5b 41 6b be 7a 46 b6 be
       -0.206522 -0.21022268 -0.2297415 -0.35600644
000140 e5 fd 70 be 9d 59 72 bd e7 6d c3 bd 68 c3 ef bd
       -0.23534353 -0.059167493 -0.095424466 -0.11707193
000150 e9 3f b7 bd d6 a7 f8 bd fa 97 89 bd 72 49 9d bb
       -0.08947737 -0.12141387 -0.0671844 -0.004800015
000160 67 36 d4 bd ae 6a 41 be 23 fa 1e bd d5 33 84 bd
       -0.10361939 -0.18888351 -0.038812768 -0.06455199
000170 55 b0 ba 3d 7c 71 5a bd 79 2e 56 3c 05 4d b8 bd
       0.09115664 -0.053330883 0.013072603 -0.08999065
000180 9f 8d ff 3d 14 28 b5 3d d5 c8 32 3d 7d c0 80 be
       0.12478184 0.08845535 0.04364856 -0.25146857
000190 b2 bc 6d be 30 1f c3 be 75 ea 5d be 93 84 0c be
       -0.23216513 -0.38109732 -0.2167147 -0.13722448
0001a0 cf a0 a9 bd e2 22 14 be 1f 59 84 bd 2b 06 89 3d
       -0.08282625 -0.14466432 -0.06462311 0.066906296
0001b0 b8 a8 70 be b1 eb 36 be 7a 07 7f be 4a 09 6c bd
       -0.23501861 -0.17863347 -0.24905196 -0.057626046
0001c0 5f 23 7e bd 70 75 8a be fb 91 59 be 17 21 6d be
       -0.06204545 -0.27042723 -0.21247093 -0.23157154
0001d0 57 9b c9 bd c4 70 00 3e 9a e7 d0 bb 93 b3 45 3d
       -0.09844082 0.12543017 -0.0063752653 0.04826696
0001e0 94 73 03 bd f8 40 14 bd 1c af f6 3d bb ae a9 3a
       -0.032092646 -0.03619477 0.12045118 0.001294575
0001f0 c7 fd af 3c 1c 27 07 3d fa 83 af bc 1c 9e c1 bd
       0.021483315 0.032996282 -0.021425236 -0.09453985
000200 8e 1e 3b be af 9b 17 be 19 e6 8f bd 5a 12 9d 3d
       -0.18273374 -0.14805482 -0.070263095 0.07669516
000210 7d 28 6e 3d 6a 09 bf bc be 87 9a bc 07 f3 b8 3e
       0.05814408 -0.023319919 -0.018863555 0.36122915
000220 f1 c8 92 3e 83 8d b1 3e d4 e3 ad be 17 a5 96 bd
       0.2866893 0.34678277 -0.33962882 -0.07355707
000230 b6 f0 43 bd a9 da 89 3e a4 4e d8 3d 0b 21 8d 3d
       -0.04783698 0.26924637 0.105618745 0.06891068
000240 7d 3f 17 bc 9c 40 06 3f a9 64 42 3f 9e 44 9c bf
       -0.009231445 0.52442336 0.75934845 -1.220844
000250 ad ed 77 3f e4 54 fc bd 8a 82 e1 3e e7 db 23 bf
       0.9684704 -0.12320879 0.44044906 -0.6400742
000260 b3 ac a2 be 72 3b 06 40 ab 19 41 be a8 0b 3c 3f
       -0.31772384 2.0973783 -0.18857448 0.73455286
000270 e9 4e 59 3e b3 8f aa be 90 8f 26 bf 04 63 c5 3f
       0.21221508 -0.3331276 -0.6506281 1.5420842
000280 1b 59 91 bf 14 c4 44 3e 12 de 0c be 39 65 5d ba
       -1.1355318 0.19215423 -0.13756588 -0.00084455643
000290 7d fb 8f bc c2 96 a1 3d 8b a0 8a bd 80 de 16 3e
       -0.017575974 0.07890083 -0.067689024 0.14733315
0002a0 e4 34 a2 bc 90 9c c3 3c 85 0e 25 3b b8 bb 86 3d
       -0.01980061 0.023878366 0.0025185656 0.06578773
0002b0 c2 df ac be b1 1c 44 3e 1e 03 02 be 0e 7b 6a be
       -0.33764464 0.1915157 -0.12696502 -0.22898504
0002c0 87 7c 2f bd f5 56 66 bf 4a 22 a1 3e 83 d0 de 3c
       -0.042843368 -0.89976436 0.31471473 0.027199036
0002d0 4f 0d d9 3d 2d 62 75 bf 87 35 5b 3e 2f 07 80 3d
       0.105982415 -0.9585293 0.21407138 0.0625137
0002e0 83 7e b3 3e 1c 19 c8 3d 4d a0 02 3f 2e ed ce bd
       0.35057458 0.09770414 0.5102585 -0.10103832
0002f0 d2 59 90 bd 4a b9 15 bd be 82 3f bd ae d5 e1 3c
       -0.07048382 -0.03655366 -0.046755545 0.02756771
000300 2a 8a e8 bd 98 85 56 3d be 06 aa 3a 29 a7 6d bd
       -0.11354478 0.0523735 0.001297198 -0.058020744
000310 0f 6a 8c 3d d2 f2 f4 3c 23 f3 46 3e fd 0e 83 3d
       0.068561666 0.029900942 0.19428687 0.06399343
000320 fc c2 3f 3e 5f 54 27 3d 9a 81 5f 3e 88 6c 09 3e
       0.18726724 0.040851947 0.21826783 0.13420308
000330 dc 35 00 3e 24 a3 c3 3c 42 e6 6c 3e 18 10 36 3f
       0.12520546 0.023881502 0.23134711 0.7111831
000340 58 69 b3 bd a4 08 19 3f 7a 83 48 be 94 8b b3 3e
       -0.08760327 0.5977881 -0.19581404 0.35067427
000350 4d 3e da be 9e 84 36 3f 1e 8f 05 bf fe f3 fc 3e
       -0.42625657 0.7129611 -0.52171504 0.494049
000360 9d d3 f7 bd de 15 10 be 6a 73 b5 bd 8c 35 29 be
       -0.12100909 -0.14070842 -0.08859904 -0.16524333
000370 0a 7c 07 be 5a a1 26 bd fa fe 78 bd 23 89 b5 bd
       -0.13230911 -0.04068122 -0.06079004 -0.088640474
000380 bb 76 15 be 9a fe 3d bd 2e 13 93 bd 50 8b 8a 3b
       -0.14596073 -0.046385385 -0.071813926 0.004228033
000390 08 52 c7 bc 7c b5 b8 bd b0 b5 c1 bc 1a cf 0b 3d
       -0.024331108 -0.090189904 -0.023646206 0.034133054
0003a0 16 0f 0d 3d 16 eb 5a 3d 05 f4 a3 3d 05 a2 cf 3d
       0.034438215 0.05344685 0.080055274 0.10138325
0003b0 93 5c 9e 3d d4 43 c6 bd aa 4b 39 3d fb ca 8b 3d
       0.07732501 -0.09680906 0.045238174 0.06825825
0003c0 58 01 26 bc 1c 82 e0 bc 80 98 fc 3a 4c 9e b1 bd
       -0.010132156 -0.027405791 0.0019271523 -0.08672771
0003d0 a8 4c 71 3c 61 56 bf bc 90 c4 88 bd f8 bc 1f be
       0.014727749 -0.023356618 -0.06678116 -0.1559943
0003e0 2f c5 ba bd fb 60 b7 bc 24 1b 17 bd a4 0e 34 bd
       -0.09119641 -0.022385111 -0.036891118 -0.043959275
0003f0 1c 44 34 bd 73 c8 28 3c 52 5b 0d be f2 35 9a bd
       -0.044010267 0.010301697 -0.13804367 -0.075298205

conv2.bias f4 [12]
000000 9c 58 58 3b f7 bc c2 be e4 2f 78 bd c4 d9 74 be
       0.00330118 -0.38034794 -0.060592547 -0.23911196
000010 63 3d 33 bf 50 6a 1b bf ae 68 a6 3c 03 cb 52 bd
       -0.70015544 -0.60709095 0.020313587 -0.05146314
000020 48 d6 63 bd 26 96 9a bd c4 93 a2 bd 80 07 6e be
       -0.055624276 -0.0754817 -0.0793834 -0.23245049

conv3.weight f4 [16, 12, 3, 3]
000000 fe 24 b3 bc c0 e8 f7 bc e4 f2 13 be 9d e9 04 3c
       -0.021868225 -0.030262351 -0.14448124 0.008112338
000010 48 88 a4 bb 0e a4 26 bb 79 f7 2e bd c4 33 46 3c
       -0.005021129 -0.0025427374 -0.042716477 0.012097303
000020 71 46 93 bd 32 28 0e be 7d 9e 84 bb 87 bc d1 3c
       -0.0719117 -0.13882521 -0.0040472136 0.025602592
000030 5a 1c 3b bd 8c fc ed bd 0a 50 0a be fe b7 b3 3c
       -0.045681335 -0.11620435 -0.13507095 0.02193832
000040 73 33 95 bd 98 60 b5 3b ff 9f 9c 3c 7e ae d5 bd
       -0.07285204 0.0055351965 0.01911926 -0.10433672
000050 a7 03 df bc 3e 3a d1 bd cb 07 c5 bd b1 b2 3a bd
       -0.027223421 -0.10216187 -0.09620627 -0.04558057
000060 d2 68 68 bc 72 d4 1a bd 6c 1b 70 ba e4 66 ff 3c
       -0.014185147 -0.03780026 -0.00091593596 0.031176992
000070 ba ca 5e bd a6 fa ae bd 48 6b 5a bc 8a 99 50 3d
       -0.054392554 -0.08543901 -0.013331242 0.050927676
000080 58 5b 4c 3c 94 e1 84 bc a0 0d 5f bd ca 6a bf bd
       0.01247295 -0.016220845 -0.054456353 -0.0934654
000090 08 ad 00 be 70 16 00 bc 8d 74 51 bc 2f cc fe bc
       -0.12566006 -0.0078178495 -0.0127841355 -0.031103222
0000a0 56 eb ed bd 1c 2d fc bd 60 96 1c be f0 54 f0 bd
       -0.116171524 -0.123132914 -0.15291739 -0.117349505
0000b0 e1 a1 87 3c 71 57 f1 bd 00 42 a9 3c 95 86 7b bb
       0.016556682 -0.11784256 0.020661354 -0.0038379778
0000c0 bc 39 0f be de 80 19 be d3 81 16 be a7 d9 39 bc
       -0.13986868 -0.14990565 -0.14697962 -0.011343396
0000d0 6f 62 5a bd 6f 75 e5 bd b8 37 20 bd 93 4a db 3c
       -0.05331653 -0.11204039 -0.039115638 0.026768958
0000e0 3d 0e b0 bd 69 81 94 bd 5f 05 b9 3c 6f e8 70 bd
       -0.08596466 -0.072512455 0.022585569 -0.058815416
0000f0 46 89 d3 bd 3f 53 7d bd 7b 7d b7 bd d6 50 37 3c
       -0.10328917 -0.061846968 -0.089594804 0.011188706
000100 3f 65 b7 bd e4 b4 e1 3b 22 91 07 be de 0f 99 bd
       -0.08954858 0.006888019 -0.13238958 -0.074737296
000110 b6 1d a1 bd a2 c4 0d bd 05 1d cb bb 28 8a fb 3d
       -0.07866995 -0.03461135 -0.0061985278 0.122822106
000120 61 00 03 3d c2 04 ce bd aa 0a c4 3c b1 15 2f bd
       0.031982783 -0.10059501 0.023930866 -0.042745296
000130 39 8d 4c 3c 1b d4 f8 bd e4 0c d7 bd e0 6a 43 3c
       0.012484842 -0.12149831 -0.105005056 0.011927336
000140 99 c6 df bd 66 05 f0 bd db ed e5 3c ec c0 75 3a
       -0.10926551 -0.1171978 0.02806752 0.0009374756
000150 1d 2f 58 bc d0 f5 02 be cc 1f ff bd 5a 58 19 be
       -0.013194826 -0.12789083 -0.12457237 -0.1497511
000160 2f 89 98 3b 4e 71 c7 bc 01 65 3e bd 6c ed a8 bd
       0.0046550254 -0.02434602 -0.046483044 -0.0824841
000170 36 12 4a 3d 60 c3 d8 bb 36 23 a0 bd 60 d5 06 bc
       0.049333774 -0.0066150874 -0.07819216 -0.0082295835
000180 a6 80 19 3d 64 d9 8f bd 1c 9d be 3c 5b da 20 bd
       0.037476204 -0.07023886 0.023268275 -0.03927074
000190 2b 2d 87 3d 37 8c 11 bd c0 2e a5 3b 6c eb 29 bd
       0.06600412 -0.03553411 0.0050409734 -0.04148428
0001a0 73 ae 2c bd 42 7c 03 bd 7b 00 7c bd 79 77 6f bd
       -0.042158555 -0.032100923 -0.061523896 -0.058463547
0001b0 a8 b0 30 3d 89 ba 11 be ab 40 41 bd 35 a0 d0 bd
       0.043137223 -0.14231314 -0.047180813 -0.10186807
0001c0 01 29 d9 3c 6d ab 7e 3c 87 0d 80 3d f0 3e aa bc
       0.02650881 0.015543801 0.0625258 -0.020781964
0001d0 db 5b 58 3c 1d 36 1e bd 1f a2 da bd d7 05 5f bd
       0.013205494 -0.038625825 -0.106754534 -0.05444893
0001e0 f3 33 93 bc 40 8f ac 3b f2 3e 56 bd f6 90 ea bd
       -0.017969107 0.0052661 -0.052306123 -0.1145343
0001f0 d9 7b 81 bd 0d 8e c1 bc c1 8b 33 bc 39 1e 05 be
       -0.0632245 -0.023627305 -0.010958613 -0.1299981
000200 76 f9 ea b9 12 35 88 3c ca 21 23 be a2 5c 8a bc
       -0.0004481782 0.016626868 -0.15930858 -0.016889874
000210 e0 ec 70 bd 77 01 0b bb 3b e5 2d bd cb c9 99 bd
       -0.05881965 -0.002121059 -0.04245494 -0.07509192
000220 fd ed ac 3d e4 4c 93 bc 84 a0 e0 3c bc bc b0 bc
       0.0844383 -0.017981 0.02742029 -0.02157437
000230 90 70 31 3c c7 88 39 bd eb 84 c3 3d e0 66 1f 3b
       0.01083006 -0.045296457 0.095468365 0.0024322793
000240 94 e3 5c bd eb 36 41 bd 70 1c d8 bd 2e d3 45 be
       -0.053927973 -0.047171514 -0.10552299 -0.1931884
000250 77 37 51 39 09 b6 86 bd ed 38 b7 bd 07 87 a8 bc
       0.00019952455 -0.06577689 -0.089464046 -0.020572199
000260 79 34 93 bd 40 e1 cb bd 44 74 0b 3d ce 74 0a be
       -0.07187743 -0.099550724 0.034046426 -0.1352112
000270 88 c8 2b be aa ac 83 bd a3 20 01 be f1 c9 f2 bd
       -0.16775715 -0.064294174 -0.12610106 -0.118549235
000280 05 3c 08 be 80 33 08 3d aa c1 35 3d 45 7f 72 bd
       -0.13304146 0.03325224 0.044374146 -0.059203405
000290 2f c2 54 bd c1 06 93 bd 4c 8a d4 3c 16 70 41 3d
       -0.051943 -0.071790226 0.025944851 0.047226034
0002a0 ea e7 5c bd b4 47 79 bd 53 b6 99 bd b7 98 9a 3d
       -0.053932108 -0.060859397 -0.07505479 0.07548659
0002b0 89 48 19 be f8 df b1 bd 08 c8 88 bd be 50 95 bd
       -0.14969076 -0.08685297 -0.06678778 -0.07290791
0002c0 5f 20 de 3c 38 8e 93 bc 9d 42 0f be 3d a1 fd bd
       0.027115045 -0.018012151 -0.13990255 -0.123842694
0002d0 c2 9b a1 bd 77 36 f7 bb b6 64 2d bd a7 b1 b2 bd
       -0.078910366 -0.0075443345 -0.042332374 -0.08725291
0002e0 80 4f c5 bd c9 3b a3 bd 8d 4d a3 bd 39 cb b9 3c
       -0.09634304 -0.079703875 -0.07973776 0.022679912
0002f0 52 93 0d be ee 55 49 3d c0 31 09 be 03 15 35 3c
       -0.1382573 0.049154215 -0.13397884 0.011052373
000300 b8 3c c2 bd 49 87 61 bd e8 64 d3 bd 6a f3 44 3d
       -0.094842374 -0.05506066 -0.10321981 0.0480837
000310 c0 97 eb 3c a8 ed 72 bd 74 39 98 3c eb bf bc 3d
       0.028758883 -0.059308678 0.018582083 0.09216293
000320 c7 13 15 bd 99 33 6d bd f1 7d 80 3d 1a 45 77 3d
       -0.036395814 -0.057910535 0.062740214 0.060368635
000330 ed bb 9f 3d 0c 05 7b bd 72 23 31 3d 17 2a 65 bd
       0.07799516 -0.06128411 0.043246694 -0.055948343
000340 0a e0 59 3d 0b bc 99 bd 78 54 76 3c 5a 09 b5 bd
       0.053192176 -0.075065695 0.015034787 -0.08839674
000350 a6 1e a8 bd 12 bc 67 3d 62 25 16 bd 3b 17 83 3d
       -0.08208971 0.056575842 -0.036656745 0.06400915
000360 18 ad b2 3b 70 af 89 bd e5 bf 5e bd cb d6 57 3c
       0.0054527633 -0.06722915 -0.054382224 0.013173769
000370 3e cc 85 bd a8 b0 7e bd cb 81 8e bd 34 e8 01 be
       -0.06533097 -0.06218019 -0.0695835 -0.12686235
000380 e9 a7 37 ba 0c 65 55 bc 0a aa af bc c3 92 67 bd
       -0.00070059166 -0.01302458 -0.021443386 -0.056536447
000390 7d 97 9f 3c 8a 68 d0 bc ba 9a c1 3d 9d c7 a9 3d
       0.019481415 -0.025440473 0.0945334 0.08290026
0003a0 c7 19 b4 3d ce 95 93 bd 5c 1c 7f bd 0e 6e ac bd
       0.08793979 -0.07206307 -0.062282905 -0.08419429
0003b0 99 2d a1 3c bf 98 04 bd 84 7f 06 be 7a 1a df bd
       0.019675063 -0.032372233 -0.13134581 -0.10893722
0003c0 92 a9 40 bb af 40 f1 bd a0 41 c9 bd 8e ac 98 bd
       -0.0029397947 -0.117799155 -0.0982697 -0.07454787
0003d0 ff 14 29 bd 2c 2b 80 bc 60 fb f1 3b 08 1a bb 3c
       -0.04127979 -0.015645586 0.0073847026 0.022839561
0003e0 b7 f3 8f bd d0 b8 f1 bc 10 dc df bb 20 19 19 3c
       -0.07028907 -0.02950707 -0.0068316534 0.009344369
0003f0 8d 66 bf bd 7d 17 92 bd 01 2d 32 3d f0 ef d5 bd
       -0.09345732 -0.07133386 0.04349995 -0.10446155

conv3.bias f4 [16]
000000 09 d2 d2 bd f6 e8 b7 bd 8f c7 ac bd 14 b0 79 bc
       -0.10293967 -0.08979981 -0.084365 -0.015239734
000010 69 b2 fc bd 14 a3 ff bd b1 0a 08 bd ad b2 ac be
       -0.123387165 -0.124822766 -0.03321332 -0.3373007
000020 d6 68 bf bc 2f 24 53 be ec 63 8d bd 3f 3b 0e be
       -0.02336542 -0.20619272 -0.06903824 -0.13889788
000030 de 6e 08 be 56 e5 17 be 9c e0 9c 3c 19 49 9b 3d
       -0.13323542 -0.14833578 0.01915007 0.07582302

conv4.weight f4 [20, 16, 3, 3]
000000 58 ac 59 bc 14 c5 f4 3c 00 56 50 3c 80 e6 ae 3b
       -0.013285719 0.02987913 0.0127158165 0.0053375363
000010 10 f7 83 bb 10 d7 13 bd 87 9b a5 3d 1c 75 8e bc
       -0.004027255 -0.03609377 0.08086305 -0.017389826
000020 28 78 73 3c f6 36 c0 3d 45 9b 39 bd 02 9e 0e 3d
       0.01486019 0.09385483 -0.045314092 0.034818657
000030 fe 69 fa 3c 4f 99 b8 3d 26 f9 86 3d bc 5a ee 3d
       0.03056812 0.09013616 0.0659049 0.116384
000040 75 92 d7 3c 37 33 f0 3c c5 76 95 bc 71 84 99 bc
       0.026314953 0.029321296 -0.01824511 -0.01873991
000050 61 d5 8d bb a9 da ba 3d 40 ab 4c 3b d6 af ee bc
       -0.0043284153 0.09123737 0.0031230003 -0.02913658
000060 f6 fb 0e 3d ae ac a4 3d 25 8f cd 3c d1 3a 97 bc
       0.034908257 0.080407485 0.02509267 -0.018460663
000070 33 c9 ba 3d 42 50 72 3d a7 a6 5e 3c 2f 25 1d 3d
       0.09120407 0.05915857 0.013589538 0.03836554
000080 73 e4 26 bd 53 0d 81 3d 68 67 25 3d 0a 8c f6 3c
       -0.04074521 0.063013695 0.04038182 0.030096073
000090 8d 66 18 3c d8 16 8c 3c 2e 21 08 bd 4c 33 0a be
       0.009301794 0.017100736 -0.033234768 -0.1349613
0000a0 4f 69 ef bd 38 11 7f bd d2 7f f8 bd 81 27 26 bd
       -0.11690008 -0.06227228 -0.12133755 -0.040565018
0000b0 76 7c 9c bd 32 4c 44 3d 9e c2 16 bd 84 a3 83 bd
       -0.076409265 0.047924228 -0.036806695 -0.064276725
0000c0 13 15 5d 3d b4 26 7c 3d 0b 27 4c 3d 70 eb 82 bd
       0.053975176 0.061560348 0.04984192 -0.063925624
0000d0 88 4d 6a bd ad a2 6d bd 92 bc c4 3d 49 7c 1d 3e
       -0.057202846 -0.058016468 0.096062794 0.15379442
0000e0 97 47 17 3d 5d e2 c7 3c af ac 81 3b 36 10 c1 3c
       0.036933508 0.02439993 0.003957353 0.0235673
0000f0 b5 7d 19 3d 4a 69 10 3e db 7a 03 3e 8c 82 51 be
       0.0374734 0.14102665 0.12839834 -0.20459956
000100 0f ec 44 3e 53 5c 02 3e c6 2b 67 3f f0 e1 a9 be
       0.19230674 0.12730531 0.9030117 -0.3318019
000110 2b 72 ad be 52 bc d3 be bb 41 e2 be 9d ae 78 bf
       -0.33876166 -0.41354614 -0.44190773 -0.9714144
000120 88 96 b4 bd 3c c1 b5 bd fe cc 1b bd 05 05 b5 3d
       -0.08817774 -0.08874747 -0.038037293 0.08838848
000130 4e 68 b2 3d 98 43 92 3d a7 a8 b3 3d 69 0d 94 bc
       0.08711301 0.07141799 0.08772402 -0.0180728
000140 3e 13 3b 3d 50 7c 90 3b f2 93 e6 3c 7e 99 a3 bd
       0.045672648 0.0044093505 0.028146718 -0.07988261
000150 d0 52 3f 3b 25 fb 1a 3d bd 00 82 bd 6a a4 a7 3c
       0.0029193647 0.037837166 -0.06347797 0.02046414
000160 de 24 1b 3c b8 c6 93 bd 46 44 6f bd 72 b7 dc bc
       0.009469239 -0.07215637 -0.05841472 -0.026942942
000170 41 dc 0d 3d 52 b4 5c 3d 6c 3d 86 bd f9 96 f3 bc
       0.03463388 0.053882904 -0.06554684 -0.029735075
000180 68 b6 11 3d 53 b3 55 bd 00 00 a6 bd e6 72 4c 3d
       0.035574347 -0.05217297 -0.08105469 0.049914263
000190 5a cd 00 3d f7 89 aa bd c8 2f 37 3c 7d 75 90 3d
       0.03144584 -0.08327096 0.0111808255 0.07053659
0001a0 f8 f5 59 bd 08 25 7a bc 0c cc 8a 3c 96 da 08 bd
       -0.05321309 -0.015267618 0.016943 -0.033411585
0001b0 d0 38 d9 bb 12 9f 2f 3d 5c 06 e4 bc 93 e2 13 bd
       -0.006629087 0.04287631 -0.027835064 -0.03610475
0001c0 c8 9e 3d bc 8c 8a 92 3c 3a d9 0e 3d 60 57 fd bc
       -0.011573501 0.01788833 0.034875132 -0.030925453
0001d0 09 58 8c 3d dd 83 4a 3c 58 38 06 3b 82 a9 10 3d
       0.06852729 0.01236054 0.002048036 0.035317905
0001e0 b7 3d 54 bd 87 11 8e bd 40 87 dc bc d9 d2 17 bd
       -0.05181667 -0.06936937 -0.026919961 -0.037066314
0001f0 95 5a 7e 3d 14 0d b2 bd 24 40 33 3f ca f8 82 bd
       0.062098105 -0.08693901 0.70019746 -0.06395109
000200 6c 77 bd bf 59 f9 43 be 0b 0d 18 bd 0f 58 24 3e
       -1.480207 -0.19138087 -0.037121814 0.16049217
000210 7f 48 00 bf 94 9e f2 bf 47 ab 4c 3e 92 d7 e7 3d
       -0.5011062 -1.8954644 0.19987212 0.11320414
000220 c9 0f 58 be 91 ca 71 3e 8e 13 2a be 4e 12 8d 3d
       -0.21099772 0.23612429 -0.16609022 0.06888257
000230 54 19 33 3d f3 2d 2b 3f 47 b3 53 be 41 ad 16 3f
       0.043725327 0.6686699 -0.20673858 0.58858114
000240 c0 20 84 bd ed 3b 3f bd a4 1b 91 bd 01 84 85 3c
       -0.06451559 -0.04668801 -0.0708535 0.016298296
000250 43 f4 db bc 22 af 9d 3c 36 56 35 bd 10 c6 75 3c
       -0.026849872 0.019248549 -0.04427167 0.015000835
000260 3f 90 93 3c 66 1d a7 3d 6d 5b f0 bb 5a 81 cc bd
       0.018013118 0.08159904 -0.0073351176 -0.09985609
000270 a4 76 09 be c3 66 d0 bc 50 5e 91 bb d3 c9 34 3c
       -0.13424164 -0.025439626 -0.0044362918 0.011034447
000280 87 a1 c0 bc 5a 89 81 3b 5e 41 35 bd 2a 29 01 bd
       -0.023514522 0.003953141 -0.044251792 -0.031533398
000290 7e 9a 11 be fd 40 d2 bc bf 85 22 bd 83 7a 04 3c
       -0.1421909 -0.025665754 -0.03967833 0.00808585
0002a0 2b be 80 bd ce 05 ad bd 83 0c c8 bd 8d 59 6c bd
       -0.06286272 -0.08448373 -0.097680114 -0.05770259
0002b0 6a f8 82 3c 59 6a 4e bd 61 83 0d 3d 0a 56 53 3c
       0.015987594 -0.05039439 0.03454912 0.012898931
0002c0 9d 48 bf bd 75 c2 59 bd bf 9b 32 bb 19 c2 ae bd
       -0.09340022 -0.053163964 -0.0027253476 -0.08533115
0002d0 96 fd 9a 3c ea c2 c4 bd 37 84 ea bd 90 4c 85 3c
       0.018919747 -0.096074894 -0.11450999 0.01627186
0002e0 88 88 87 bd c1 79 b4 bb f2 81 56 bc 58 2e 85 bd
       -0.06617838 -0.0055076783 -0.013092505 -0.0650298
0002f0 a1 f5 cc bd 14 b6 d3 bc 8a 8a 5f bd 6c 8e 88 3c
       -0.100077875 -0.025843658 -0.05457548 0.016669475
000300 e7 5a d6 3d b9 00 c5 3d 2f 4e 2d 3c 46 f9 84 3d
       0.10466557 0.096192785 0.010577722 0.06492858
000310 40 eb e6 bd 3d bb 97 bd e1 04 14 be 2a 69 e8 bb
       -0.11275339 -0.0740876 -0.14454986 -0.0070926147
000320 8d bb da bd f2 e1 3c bc a7 d2 0c 3d ae 6f 9d bd
       -0.10680304 -0.011528479 0.03438058 -0.07687317
000330 75 30 b7 bc ba b3 da bd 29 c3 9a bc b3 d8 0c be
       -0.022361973 -0.10678811 -0.018891888 -0.13754539
000340 a3 14 e0 bd 3a f3 af bd 9a f8 d8 bd f2 da ab bd
       -0.10941436 -0.08591314 -0.10594292 -0.0839137
000350 41 68 11 be 52 24 fb bd 0c 09 82 3c 32 14 a0 3c
       -0.14199926 -0.12262787 0.015873455 0.01954088
000360 09 70 b8 3b d5 fb 5d bd 20 29 bb bd fe 94 fe bd
       0.00562859 -0.054195244 -0.09138703 -0.12430762
000370 7e dc 11 be 5e 83 10 be 2b ef e1 bd 13 f7 05 be
       -0.14244267 -0.14112613 -0.11031946 -0.13082533
000380 30 ee 04 be 20 7d 0d 3c 91 69 f7 3c 4b 1a 8c bd
       -0.12981486 0.008635789 0.030201705 -0.068409525
000390 20 27 10 bd 92 6d 15 bd 38 d6 36 3c ee e0 25 ba
       -0.035193563 -0.036481448 0.011159472 -0.00063277676
0003a0 50 2a 64 bd b0 b2 25 3d f0 31 7a 3d 3e c5 d3 3c
       -0.055704415 0.040453613 0.06108278 0.025850888
0003b0 80 7f 70 bd 89 6b 10 3c 00 3c 81 3c 01 b3 fe bc
       -0.058715343 0.008814701 0.01577568 -0.031091215
0003c0 72 de 22 bc 3f 49 5b bb 1c f7 df 3c 30 ce 14 bd
       -0.00994073 -0.0033460406 0.02733951 -0.03632945
0003d0 28 af 8f bd c8 45 6b bd 2f 53 a8 3d 6c 18 85 3d
       -0.0701583 -0.057439595 0.08218991 0.06498799
0003e0 e8 4b 96 bd b6 65 51 bd cf ef a3 bd 97 f5 91 bd
       -0.07338697 -0.05112239 -0.08004724 -0.07126921
0003f0 b3 d7 e9 bd d7 12 18 bd 99 4c 44 bd b7 23 6b bc
       -0.114180945 -0.037127342 -0.04792461 -0.014351777

conv4.bias f4 [20]
000000 03 ad f1 bd fc 8a e9 bc 02 f4 a0 be 99 21 35 be
       -0.118005775 -0.028508656 -0.31436163 -0.17688598
000010 a5 64 d9 bc 33 92 5f be e6 e2 64 bf 00 ec 00 be
       -0.026537249 -0.21833114 -0.8940872 -0.12590027
000020 20 b0 0c be 25 55 47 bd c6 64 e8 bd 75 ff 4e be
       -0.13739061 -0.048665185 -0.11347346 -0.20214637
000030 b8 77 ff 3d a8 08 1e be cb 20 39 bf e3 1d fe bd
       0.124740064 -0.1543299 -0.72315663 -0.12408044
000040 d4 7b d5 bd 57 7c 27 3c be 58 22 be 33 d8 6d be
       -0.10424009 0.010222516 -0.15854165 -0.23227005

t_conv1.weight f4 [20, 16, 4, 4]
000000 54 db 69 be 2d 14 28 be cb 25 81 be 5c d7 3b be
       -0.22837573 -0.16413946 -0.25224146 -0.18343872
000010 db 55 6d be 83 f1 62 be be 5a 4f be a0 91 69 be
       -0.23177283 -0.22162442 -0.20249459 -0.22809458
000020 d9 30 7b be fb 5f 50 be f4 ad 20 be d9 66 43 be
       -0.24530353 -0.20349114 -0.15691358 -0.19082202
000030 5d 46 58 be e3 1e 6c be 68 6e 22 be 11 19 63 be
       -0.21120591 -0.23058657 -0.15862429 -0.22177531
000040 b3 1c 34 bd f7 05 13 bd a6 82 a7 bd 11 f3 30 bc
       -0.043972682 -0.03589436 -0.08179216 -0.010800139
000050 9c a3 8a bc 0a 71 f4 bc 13 c0 ed bd 2d b4 c7 bd
       -0.016923718 -0.029839057 -0.11608901 -0.09751163
000060 02 94 92 bd 46 ee d4 bd 45 64 c5 bd c8 41 ac bd
       -0.071571365 -0.103970096 -0.096382655 -0.08410984
000070 24 78 72 bd 88 8b ba bd e9 6a 85 bd 85 5d a2 bd
       -0.059196606 -0.09108645 -0.06514532 -0.07927994
000080 78 87 a6 be 69 38 30 bf c2 c9 76 bf bd 57 8a 3e
       -0.3252523 -0.68836075 -0.9640161 0.27020064
000090 9e 56 8d 3c ce ca 3e 3e bd a7 05 3d 4f 4a 1c bd
       0.017253216 0.18632051 0.03263067 -0.038156804
0000a0 45 60 74 be 62 b8 9e 3e 97 db 18 bd 25 a0 0b be
       -0.23864849 0.31000048 -0.037318792 -0.13635309
0000b0 5a 5c 11 bd 80 f1 c3 3e 85 de 35 3e 8a 07 20 3e
       -0.035488464 0.38270187 0.17760666 0.15627876
0000c0 40 81 b7 3c 94 28 5b bd 3b 89 2a bd ce 30 58 bd
       0.022400498 -0.053505495 -0.04163478 -0.05278092
0000d0 e6 7f 32 bd c1 0d 2e bd 5c 66 8e bd 02 b9 13 bd
       -0.043579005 -0.042493585 -0.06953117 -0.03606511
0000e0 12 b9 ce bd 50 41 d9 bd 84 77 73 3a d0 49 4c bd
       -0.10093893 -0.106081605 0.00092875236 -0.04987508
0000f0 2b 71 33 bd e1 25 4b bd 3c ef 16 bd ea 70 58 bc
       -0.043809097 -0.04959667 -0.036849245 -0.013210515
000100 a1 ba 03 be cc f2 c7 bd fa 69 12 be 89 40 c1 bd
       -0.12864162 -0.09763107 -0.1429824 -0.09436137
000110 3a 89 e1 bd b5 07 42 be 03 e1 29 be 7c 86 4e be
       -0.11012502 -0.18948252 -0.16589741 -0.20168489
000120 74 22 06 be 08 8d db bd 25 e7 1d be 51 ee 9f bd
       -0.1309908 -0.10720259 -0.15420206 -0.07809127
000130 36 5a 53 bd 62 fc 23 bd 68 d0 8e bd 09 ad 66 bd
       -0.051599704 -0.040035613 -0.06973344 -0.056317363
000140 a6 7a b2 3c 9f 30 44 bd f7 22 71 bd 91 be 2c 3d
       0.021786999 -0.04789793 -0.058871236 0.042173926
000150 0a cb a0 bd 24 91 61 be 06 48 a3 bd ff 66 b6 bc
       -0.07851227 -0.22028023 -0.07972722 -0.02226591
000160 90 7a c2 bb 0a a4 8f be b4 db 06 bd ff 40 c6 3b
       -0.0059350207 -0.2805484 -0.03292437 0.0060502286
000170 f0 85 88 bd 69 64 d7 bd 49 19 e7 bc 58 dc 7e bd
       -0.066661716 -0.105171986 -0.0282103 -0.062221855
000180 12 2e 99 bf 2c 98 0a c0 a5 e3 2b 3c 03 71 e9 3c
       -1.1967185 -2.1655378 0.010491286 0.028496271
000190 97 84 8d bf 5b 33 20 bf 28 34 02 3f 4b 6d 1c 3e
       -1.1056088 -0.6257836 0.50860834 0.15276067
0001a0 32 2d c5 bd b5 f6 a7 be ad d7 98 be 25 4b 33 3d
       -0.09627761 -0.3280541 -0.29852048 0.043772835
0001b0 80 53 51 bf 2f 3a 8a bf c1 18 96 3d bb a0 24 3e
       -0.81768036 -1.0799006 0.0732894 0.16076939
0001c0 29 10 00 be 32 ef 1d bd 1c 82 ad bd 86 5d 1c 3d
       -0.12506165 -0.038558193 -0.08472082 0.03817513
0001d0 bd 70 a3 bd 0a 22 7e bd ac 79 1b bd d8 fe 5a bd
       -0.079804875 -0.06204418 -0.037957832 -0.053465694
0001e0 ba 92 ba bc 8e cc 51 bc 8f 26 0c 3d f1 2d 2c bd
       -0.022775043 -0.012805117 0.03421646 -0.042036
0001f0 5c 46 52 bd 80 03 93 ba a8 a6 29 bc 44 8d e8 3c
       -0.05133663 -0.0011216253 -0.010354675 0.028387673
000200 cf fc 7e be 59 65 3d be 09 6d 04 be ae 90 8a be
       -0.24901126 -0.18495692 -0.12932219 -0.27063507
000210 ac 67 68 be 12 e7 a8 be e2 30 c6 bd a9 04 87 bd
       -0.22695798 -0.32988793 -0.096772924 -0.06592686
000220 61 33 4d be 5a ac 1c be c9 40 95 be 16 62 25 be
       -0.20039131 -0.15300122 -0.2915099 -0.16150698
000230 28 e1 5b be 1c d6 4b be 08 f1 51 be 10 78 67 be
       -0.21472609 -0.19905895 -0.20502102 -0.22604394
000240 13 35 2b bc ee 53 f2 bc 21 47 3c be 4e 4e 6f bd
       -0.010449666 -0.029581036 -0.18386509 -0.058424287
000250 e7 0f db bc c4 26 38 bb 3b f0 9c be 71 d9 39 be
       -0.026740981 -0.0028099278 -0.3065203 -0.18149354
000260 ef 85 be bd 94 af 59 bc bc c8 9c be 1a cf 9d bd
       -0.093028896 -0.01328649 -0.30621898 -0.07705517
000270 f2 ba 5c bd 15 c1 d8 bd cd 91 2f bd ca f6 77 bd
       -0.053889222 -0.105837025 -0.042863656 -0.06053809
000280 59 d6 07 be 47 e5 02 be ea 7e 0a be 84 50 4d bd
       -0.13265361 -0.12782775 -0.13524976 -0.050125614
000290 d3 5f f8 bd 0d 7a ef bc 03 bb 09 bd c7 d3 ec bd
       -0.12127652 -0.029233003 -0.033625614 -0.11563831
0002a0 b0 83 e5 bd b5 9d b1 bd 68 43 b0 bd 4d 5c 65 bc
       -0.11206758 -0.08672658 -0.08606607 -0.013999057
0002b0 24 15 a4 bc d4 e5 12 bd a2 cf 17 bd ac ab 44 3d
       -0.020029612 -0.035863712 -0.03706325 0.04801528
0002c0 6b 71 bd be 0a f9 9a be 91 cc 99 be 57 b4 b0 be
       -0.37000594 -0.30268127 -0.30038884 -0.34512588
0002d0 c2 81 a0 be 4b 28 a0 be b7 81 ee bd 37 55 bc be
       -0.31348997 -0.3128074 -0.11645835 -0.36783764
0002e0 18 f5 9b be b0 83 84 be 86 b8 8b be fa 96 90 be
       -0.3046043 -0.2588172 -0.27289218 -0.28240186
0002f0 e8 e5 d4 be 91 43 d0 be 8a 70 a7 be 22 7c 2d be
       -0.41581655 -0.4067655 -0.32703048 -0.16941884
000300 0d b0 0d be 52 fb 3d be a2 17 36 be 7d 07 40 be
       -0.1383669 -0.18552902 -0.17782453 -0.18752857
000310 24 96 9a be b5 1d 81 be 2d 42 93 be 79 46 80 be
       -0.30192673 -0.25217977 -0.28761426 -0.25053766
000320 e1 83 48 be 5c e2 85 be fe f5 72 be 70 30 2b be
       -0.19581558 -0.2614926 -0.23726651 -0.16717696
000330 88 59 1e be 22 7d df bd 17 78 8b be e6 98 89 be
       -0.15463841 -0.10912539 -0.2724006 -0.26874465
000340 9b a0 19 bf e9 94 d6 3d 2d 75 04 be 30 cd 2c bf
       -0.6001069 0.10477621 -0.12935324 -0.6750059
000350 7f e4 19 3f 2b 64 9c 3d 70 1a 39 3d 10 5a c6 3d
       0.6011428 0.07636293 0.04519123 0.09685147
000360 cf 41 de 3c 8d 90 91 3e e0 87 60 3d 79 23 a0 3e
       0.02713099 0.28430596 0.05481708 0.31277063
000370 46 a8 e5 be af c2 5c bd 2b 41 3f 3e 02 ec d5 be
       -0.44854945 -0.053896602 0.18677203 -0.41781622
000380 ba 0f a5 bd 5c 94 79 bd 04 6a 89 bd 16 0b ae bd
       -0.0805964 -0.060932502 -0.06709674 -0.08498208
000390 69 b9 9e bd 81 13 22 bd ca 71 c8 bd 42 5f 80 bd
       -0.07750208 -0.03956938 -0.097873285 -0.06268169
0003a0 2e d4 02 be fe 86 dc bd c4 0a 32 bd 41 8e 87 bd
       -0.12776253 -0.10767935 -0.0434673 -0.0661893
0003b0 39 76 51 bd 57 45 06 be e0 22 5f bd d7 b3 86 bd
       -0.051138137 -0.13112389 -0.05447662 -0.065772705
0003c0 3a 4e ea 3b fe 51 9d bd 5d 98 93 bc 85 d4 1b be
       0.0071504386 -0.076816544 -0.018016988 -0.15217789
0003d0 a9 cc d9 bc 2e 5c 25 bd 24 a0 28 bd 2e b5 d1 bd
       -0.026586847 -0.040371113 -0.041168347 -0.102396354
0003e0 a3 39 fb bc dc 71 d2 bd f0 43 d0 bd d8 04 39 bd
       -0.030667132 -0.10275623 -0.10169208 -0.045170635
0003f0 1f 37 c6 bc 4d 38 cb bc 31 ea f7 bc 00 66 c2 bd
       -0.024196206 -0.02480712 -0.030263038 -0.09492111

t_conv1.bias f4 [16]
000000 fb 16 85 be 26 d8 36 bd de ba e1 3d a6 7a a3 bd
       -0.25994095 -0.04463973 0.1102197 -0.07982378
000010 3a 38 d6 bd 97 09 25 be 56 72 04 3e 69 c8 07 bd
       -0.10459943 -0.1611694 0.1293424 -0.03315011
000020 9d f7 93 be 3c dd b8 be a5 6c 28 bd c0 ae c1 be
       -0.2889985 -0.36106288 -0.041119236 -0.37828636
000030 f3 56 b3 be d2 f5 73 3d ef 60 3a bd 5b 30 41 bd
       -0.35027274 0.059560604 -0.0455026 -0.047165256

t_conv2.weight f4 [16, 12, 4, 4]
000000 d0 43 47 3d 43 48 8d bd 00 5d 3f bb d4 89 52 3d
       0.048648655 -0.068985485 -0.002919972 0.051400974
000010 16 75 11 3d e4 ec 63 bc b4 99 bb 3c 1f fe 92 bd
       0.035512052 -0.01391146 0.02290044 -0.07177376
000020 c4 c7 d1 3c e0 e4 ac bb 88 05 3d bc 74 a2 71 bd
       0.025607951 -0.0052763075 -0.011536963 -0.058992818
000030 34 0a 0e 3d 5c 05 fe bc f0 86 02 bc a6 0f 41 3d
       0.0346777 -0.031008415 -0.007966742 0.047134064
000040 25 d4 10 bd 4c 1f 6f 3b 23 36 93 bd 55 01 ea bd
       -0.035358567 0.003648716 -0.0718806 -0.11426035
000050 6d b4 eb bc 9f ec 5c 3b 23 d4 5b bd 6a 53 30 bd
       -0.028772557 0.0033710373 -0.053669106 -0.0430483
000060 e2 cd f1 bd b2 0b 46 bb 46 37 5f bd ac d4 1a bd
       -0.11806847 -0.0030219373 -0.054496072 -0.037800476
000070 ba 2c ad bc 0d c8 0c 3c a8 78 05 be 3b c0 4f bd
       -0.021139491 0.008592618 -0.13034308 -0.050720435
000080 eb 23 c1 bd b9 f0 41 bd 29 91 a3 bc 6a 24 da bd
       -0.09430679 -0.04734871 -0.019966679 -0.10651477
000090 0c d3 41 3b 1d 79 02 be 8e c5 0b 3c 70 f7 a7 bd
       0.0029575257 -0.12741514 0.008530987 -0.08201492
0000a0 5f 49 52 bd 96 bf cf bd fd 05 06 3c 03 50 02 be
       -0.051339503 -0.10143964 0.008180139 -0.12725835
0000b0 77 5a 55 bc d3 f0 90 bd 84 0d 99 bd 8d 14 ed bd
       -0.013022057 -0.070771836 -0.07473281 -0.115761854
0000c0 85 a4 4d be ae 9b 46 be c4 b4 16 be 70 ab 0d be
       -0.2008229 -0.19395325 -0.14717394 -0.1383493
0000d0 e4 6e 42 be 1c ab ea bd c1 49 fd bd 14 1c e0 bd
       -0.18987614 -0.11458418 -0.12367583 -0.109428555
0000e0 d7 11 bb bd 81 0c 0c be 06 a9 5e be ea 30 e1 bd
       -0.09134262 -0.13676645 -0.21744165 -0.10995658
0000f0 91 f0 ad bd b1 ee 42 be 2a 7a 52 be 7a 17 2e be
       -0.0849315 -0.19036366 -0.20554414 -0.17001143
000100 84 dd 4d bd 18 fb d4 bd b0 a4 b8 bd d3 a8 c7 bd
       -0.050260082 -0.10399455 -0.09015787 -0.097489975
000110 1d 97 b5 bd f2 7f a7 bd c6 87 90 bd 7c 88 8e bd
       -0.08866713 -0.081787005 -0.07057147 -0.06959626
000120 c1 9e f3 bd 6d a0 2c bd 20 7e e9 bd 16 60 60 bd
       -0.11895514 -0.04214518 -0.114010096 -0.054779135
000130 83 b4 6d bd 53 19 c1 bd 95 be 04 be c2 c2 97 bd
       -0.058033478 -0.09428658 -0.12963326 -0.07410194
000140 18 13 0d be a3 31 5a be 1c 08 3c be 6c 88 3e be
       -0.13776815 -0.21307997 -0.18362468 -0.18606728
000150 91 5d 3f be f1 ae 4a be 87 cc 2c be 40 6f 1c be
       -0.18688037 -0.19793297 -0.16874896 -0.15276814
000160 00 64 53 be 84 99 df bd 79 47 e6 bd 3c a8 54 be
       -0.20643616 -0.10917953 -0.11244101 -0.20767301
000170 0b f5 1b be 48 e5 2a be 7f bd 20 be 2e c4 12 be
       -0.15230195 -0.16689026 -0.15697287 -0.14332649
000180 1f cf 1b be 54 f4 c6 bd 2b dd ca bd 5b 02 4b be
       -0.15215729 -0.09714571 -0.09905466 -0.19825117
000190 f1 00 34 be 2e c6 cd bd 72 e7 31 be 07 f9 07 be
       -0.17578484 -0.100475654 -0.17373446 -0.1327859
0001a0 55 51 f8 bd e3 04 38 be 01 5e 55 be 6c d9 0a be
       -0.12124888 -0.17970614 -0.20836641 -0.13559502
0001b0 94 98 63 be 7d 6d 52 be 6f 10 24 be 83 70 01 be
       -0.22226173 -0.20549579 -0.16021894 -0.12640576
0001c0 eb 0d 42 be 30 12 08 be 2c d4 b4 bd fa fb 99 bd
       -0.18950622 -0.13288188 -0.08829531 -0.07518764
0001d0 b3 57 25 be 7a eb c1 bd 05 ea ef bd ce 6e 2f be
       -0.16146736 -0.09468742 -0.117145576 -0.17132112
0001e0 49 12 53 be b6 52 ac bd 80 66 af bd 3a 83 4b be
       -0.20612444 -0.08414213 -0.08564472 -0.19874278
0001f0 f5 af 30 be 63 f4 35 be bc 96 40 be c3 a3 0c be
       -0.17254622 -0.17769007 -0.188075 -0.13734345
000200 48 88 64 be c4 f1 6a be 5c 0c e7 bd 4c 43 69 be
       -0.22317612 -0.22943789 -0.11281654 -0.22779578
000210 b2 77 46 be e4 4b 05 be 79 4d 43 be c1 af 5d be
       -0.19381598 -0.13017231 -0.19072522 -0.21649076
000220 83 c2 39 be 9b 78 dc bd e4 dc 17 be 28 57 62 be
       -0.18140607 -0.10765191 -0.14830357 -0.2210356
000230 33 12 46 be 7a 4c be bd a0 59 5d be 89 56 0c be
       -0.1934288 -0.092919305 -0.2161622 -0.13704886
000240 44 5f d5 bd a9 de b5 3b 2d c4 17 bc 0a 3e 2b bd
       -0.10418561 0.005550225 -0.009263081 -0.041807212
000250 dd 45 ce bc d4 c8 e2 bc 11 b3 4f bd bf e5 03 be
       -0.025179798 -0.027683653 -0.05070788 -0.1288061
000260 f0 03 02 be 91 0c 50 bc fe f4 90 bd b0 56 e4 bd
       -0.12696815 -0.012698309 -0.070779786 -0.11149347
000270 ff 3f 95 bd 34 45 17 bd 01 ca 89 bd 50 d1 f8 bd
       -0.07287597 -0.03693123 -0.06727982 -0.12149298
000280 9c 2f 1f be 44 5b 17 be b2 7e c6 bd a7 27 eb bd
       -0.15545505 -0.14780909 -0.09692134 -0.114821725
000290 e7 28 c1 bd 99 0e 02 be 45 91 38 bd 2c f8 01 be
       -0.0943163 -0.12700881 -0.045060415 -0.12692326
0002a0 4d 3c d0 bd 3e fc 9b bd f5 30 31 be 29 1a 1b be
       -0.101677515 -0.07616471 -0.17303832 -0.15146698
0002b0 6b 11 37 bd d3 81 0a be 0c 06 08 be b3 c5 2d be
       -0.044694345 -0.13526087 -0.13283557 -0.16969948
0002c0 9c 2c aa 3c 58 35 82 3d de e3 90 3d f4 34 b5 3c
       0.020773225 0.06357831 0.07074712 0.022119977
0002d0 40 38 41 3b 86 88 fd bc 40 23 30 bb c6 ae c9 bc
       0.002948299 -0.030948889 -0.002687648 -0.024619471
0002e0 86 f6 10 bd b4 1d 73 3d 8a f1 41 3d e2 2e 80 3d
       -0.035391353 0.0593545 0.04734949 0.06258942
0002f0 0e d8 4b bd 26 0f 3e bd 32 f9 08 bd e8 49 16 bc
       -0.049766593 -0.046401165 -0.033440776 -0.009172894
000300 70 e9 8e 3d 6c 4d fd bc 24 82 ff 3c f6 b7 b8 bc
       0.069781184 -0.030920707 0.031189986 -0.022548657
000310 10 81 ee 3c 1e 94 88 3d 7c ce 4c 3d 30 48 64 bd
       0.029114276 0.06668876 0.050001606 -0.055732906
000320 a2 f6 5e bd 3e 8e 90 3d fe 8e 82 bd 20 a0 5f bb
       -0.054434426 0.070583805 -0.0637493 -0.0034122542
000330 80 8d 08 bc 44 09 3c bc fe e5 48 3d 5a 96 91 3d
       -0.0083345175 -0.0114768185 0.049047463 0.071087554
000340 c5 0a 06 3c 56 a8 e9 bd 58 8c 19 bb 66 d8 d0 bd
       0.008181279 -0.11409061 -0.0023429599 -0.10197525
000350 ce 11 c2 bc 25 f2 d0 bd a3 6d 09 bd 4d ff 54 3c
       -0.02369013 -0.102024354 -0.033551823 0.013000322
000360 9c af 99 3a b9 4b be 3c 93 95 e7 bc 3d 5d 01 bd
       0.0011725309 0.023229467 -0.028269565 -0.03158306
000370 af fb 56 bd 89 d5 d2 bd be 7f 9b bd b3 3c 01 3c
       -0.052486118 -0.10294635 -0.07592724 0.007888007
000380 e6 0d 1c bd b2 d7 ac bd 02 cf 15 3c 59 ce 81 bd
       -0.038099192 -0.08439578 0.009143593 -0.06338186
000390 41 b9 14 bd db 8e 28 bd 70 49 b6 bd 2a 1b f7 3b
       -0.036309484 -0.041151863 -0.08900726 0.00754108
0003a0 61 ff 67 bd 30 8b ae bc a6 3e f3 bc a3 c4 e2 3b
       -0.056640033 -0.021306604 -0.029692959 0.0069204136
0003b0 a8 2f a4 bd c7 5d e6 bd 7c b5 79 bd 88 ef 3f bd
       -0.08016902 -0.11248355 -0.060964093 -0.046859294
0003c0 bb 35 1b bd 2b 9b 29 bd 13 ce 4d bd 8b 0c 42 bd
       -0.03789304 -0.041407745 -0.050245356 -0.047375243
0003d0 3c 3a e9 bd 0c 26 e8 bd 5b 17 ce bc 85 80 c6 bd
       -0.113880605 -0.11335382 -0.025157621 -0.09692482
0003e0 6c 71 b1 3c af 9c 83 3c 7f 32 5a 3c 74 19 d7 3c
       0.02166053 0.016065923 0.013317703 0.026257254
0003f0 fe d0 c8 3b fa c3 13 bd 80 22 cf 3c 86 d6 b8 bb
       0.0061284294 -0.03607557 0.025285006 -0.0056408076

t_conv2.bias f4 [12]
000000 68 c2 15 be e3 dc b2 3d aa 13 07 be ea 0e 92 3e
       -0.14624941 0.08733537 -0.13191095 0.28527004
000010 7d b3 01 3e 91 49 23 be 4a 06 eb 3e 81 04 61 bd
       0.12666126 -0.15946032 0.45903236 -0.054935936
000020 36 a9 f3 bc af 83 c8 bd 48 60 ba bb 3b 3f 17 3d
       -0.029743772 -0.09790742 -0.005687747 0.036925536

t_conv3.weight f4 [12, 8, 3, 3]
000000 30 0d ba 3d 92 af e2 3d da b6 6c 3e b7 bc 32 3e
       0.090845466 0.11068644 0.23116627 0.17454801
000010 b7 8e 1c 3d 7d 62 fd 3d a4 50 91 bd 2a 99 82 be
       0.03822204 0.12372301 -0.07095459 -0.2550748
000020 60 8c 0f be 37 8c a8 3d d9 04 7a bd f0 05 1a bc
       -0.14018393 0.08229869 -0.06103978 -0.00940083
000030 20 3a 1d bb 80 9d a6 bb 00 80 65 ba 80 31 12 3a
       -0.0023990944 -0.0050846934 -0.000875473 0.0005576834
000040 38 2e a0 bc 98 62 0b 3c 7d c1 d8 3d d0 11 85 3b
       -0.019553289 0.008507393 0.1058378 0.0040609613
000050 4c a1 fc 3c ed ee a1 3d 45 74 ed bd c4 0e 3e bd
       0.030838631 0.079068996 -0.11594442 -0.0464008
000060 0e 8f 43 3d aa 9b 57 3d 32 7e 0a 3d 03 eb d7 3d
       0.04774385 0.052638687 0.033811755 0.10542872
000070 3c dc 87 3c c7 e1 d6 bd 36 04 5d bd 25 de a8 3d
       0.016584508 -0.10492282 -0.053959094 0.08245496
000080 d1 eb d5 3d 18 0d e6 bc c0 ca d1 3a 4e 43 66 3d
       0.10445369 -0.028082415 0.0016005859 0.05621653
000090 4e bb ea bd e9 c5 d0 3d ca ef 7b 3d 9f 5c 93 3d
       -0.11461507 0.10193998 0.061507978 0.071954004
0000a0 9d 55 ab 3d e0 5a 01 bc a2 64 29 bd 5f 12 0f bd
       0.08365939 -0.007895201 -0.041355737 -0.03492963
0000b0 3b 25 bc 3d 7b 45 25 be 28 3f a2 bc aa 4f 86 bc
       0.09186789 -0.16139786 -0.019805506 -0.016395409
0000c0 54 4e 36 3c e3 91 1c bc 4b 7e fa bd 41 04 17 3d
       0.011127073 -0.0095562665 -0.1223112 0.03686929
0000d0 26 3c 0b be a0 e0 78 bb b8 93 8b bc bb d2 a2 bd
       -0.13597164 -0.0037975684 -0.017038211 -0.0795035
0000e0 37 90 b5 bd 6a d1 66 3d 61 da 9d 3d 9a 04 1b 3d
       -0.088653974 0.056352057 0.07707668 0.037846185
0000f0 20 98 f2 bb 70 a3 cb 3b 94 dd e1 3c bc 98 84 bd
       -0.0074033886 0.0062145516 0.027571477 -0.06474444
000100 fe cc 04 3d 0c e8 cb 3c 6e c3 51 3d 31 e9 a1 3d
       0.03242206 0.024890922 0.051211767 0.07905806
000110 38 d6 12 bc 94 c8 17 bd 0c 4f bd 3d f8 58 e2 bd
       -0.008962207 -0.03705652 0.092435926 -0.11052126
000120 89 a7 71 bd 99 7c 15 be 6c 57 94 bd ec be 97 3d
       -0.058997665 -0.14598311 -0.07243237 0.07409462
000130 fc 2a 78 3d 39 26 f2 bc 07 90 57 be eb 9a 48 3e
       0.060587868 -0.029559242 -0.21051036 0.19590347
000140 8b 1a af bd 8c 16 59 be f5 0b c7 bd 3a 33 26 bd
       -0.085499845 -0.21200007 -0.097190775 -0.040576197
000150 48 1d 54 be 5d fa 3e be bb 75 5c be ae ed 46 be
       -0.20714295 -0.18650194 -0.21529286 -0.19426605
000160 30 df b5 bd 6a 62 9f bc e2 36 b9 be 86 fd c8 be
       -0.0888046 -0.019456107 -0.36174685 -0.39255923
000170 d3 47 00 be 1e 67 97 be ac 75 93 be 87 10 ae bd
       -0.12527399 -0.2957086 -0.28800714 -0.08499246
000180 30 44 b1 be d5 59 8e be 89 13 e7 bd 05 ac d7 be
       -0.34622335 -0.2780291 -0.11283023 -0.42123428
000190 f1 05 08 bf 0d d0 03 3c 59 3a 05 3f ee 33 75 be
       -0.53134066 0.008045209 0.52042156 -0.23945591
0001a0 ce c3 5e be 58 c8 db bd 44 be 2e 3e ae 40 66 be
       -0.21754381 -0.10731572 0.17064768 -0.22485611
0001b0 2f ea e1 3c 8c d4 d8 bd 0f 29 27 be 83 c0 5e be
       0.027577488 -0.10587415 -0.16324256 -0.21753125
0001c0 e0 78 98 bd ee f1 37 3d a5 28 36 3b 52 5a 67 be
       -0.0744493 0.044908457 0.0027795222 -0.22593048
0001d0 c3 7a 12 bd e5 1e 0d bf 7c bf 9b be 55 55 92 3e
       -0.035761606 -0.55125266 -0.30419528 0.28580728
0001e0 bf ca e0 3d 55 d1 d9 be 28 27 ad 3e e6 e7 64 be
       0.10976171 -0.4254252 0.33818936 -0.22354087
0001f0 aa fb 2d 3d 05 66 cb be 52 41 fc bd b4 24 83 be
       0.042476334 -0.39726272 -0.12317146 -0.2561394
000200 6f b7 7f be de 86 58 be c7 51 e1 bd d1 11 ce bd
       -0.24972318 -0.21145198 -0.11001926 -0.10061992
000210 c0 3b 81 be ca 61 8e be 1b 3a d2 bd cb d4 6b bf
       -0.25240898 -0.27808982 -0.10264989 -0.9212157
000220 29 82 b8 3e f6 0d 65 3d 91 0d d8 bd ee 46 6d be
       0.36036804 0.055921517 -0.105494626 -0.23171589
000230 1b 8c 48 bd 43 e2 bc 3e 7f b6 e5 3d 66 05 40 be
       -0.04896174 0.36891374 0.11216449 -0.1875206
000240 5c f5 90 3d a2 d9 1c 3d c0 f8 0a be a7 e7 d2 3c
       0.070780486 0.03829349 -0.13571453 0.025745226
000250 0b 4d aa bc 54 dd 69 be 64 d9 3d 3e 01 bd 35 3e
       -0.02078869 -0.22838336 0.18539959 0.1774788
000260 92 e4 e1 bd 8a d7 5d 3d 0d 52 b4 bd b4 e6 88 bd
       -0.110299245 0.054160632 -0.088047124 -0.06684628
000270 0e c2 13 3d 1f 2e 05 3c 7a a7 bc bd 04 16 d6 bc
       0.036073737 0.008128672 -0.09211631 -0.026133545
000280 f9 62 56 bd 4c b0 c7 bd aa 90 ac bd e1 16 20 3d
       -0.05234048 -0.09750423 -0.0842603 0.03908432
000290 80 6b d2 bd f9 94 2a be 94 61 f1 bd f4 b3 00 be
       -0.1027441 -0.16658391 -0.1178619 -0.12568647
0002a0 bc a8 ca 3d 42 00 a6 3d 93 e4 d4 3d d1 46 21 be
       0.09895465 0.08105518 0.103951596 -0.1574967
0002b0 10 e9 21 bc c1 91 e3 bd 7c a1 d9 bc cf 2f 0a be
       -0.009882227 -0.11111785 -0.02656626 -0.134948
0002c0 84 58 bd 3c 59 a0 0b be db 02 8a bd b0 8c 3b 3d
       0.023113497 -0.13635387 -0.06738826 0.045788467
0002d0 26 92 a0 bd 99 57 53 3d 90 c1 f0 bd 5d 16 46 3d
       -0.078403756 0.05159721 -0.11755669 0.04836117
0002e0 d5 8c 1b be 31 d8 f9 3c 0a 83 d9 bd 9d f6 e0 bd
       -0.15190442 0.030498596 -0.10620697 -0.10984538
0002f0 f5 4f 33 3c 82 f2 90 be 54 94 d9 bc f2 ee ea bd
       0.010944356 -0.2831002 -0.026559986 -0.114713565
000300 51 53 4a be b3 d4 23 be 4c 9c 25 be eb 57 93 be
       -0.19758345 -0.15999107 -0.16172904 -0.28778014
000310 ba 48 ad bd b6 af 23 be 66 f5 52 3d 27 b2 c2 3d
       -0.08461137 -0.15984997 0.05150356 0.09506636
000320 1a cf 47 bd 62 30 9b bd 00 a0 f1 39 7c 64 ab 3c
       -0.04878149 -0.07577588 0.0004608631 0.020921938
000330 d6 ae 40 3d 8e d5 08 3d 64 3a 23 bd f0 91 04 3e
       0.047041737 0.033406787 -0.039850608 0.12946296
000340 75 26 27 bd ee 01 a1 bd 58 55 18 3e 61 68 78 bd
       -0.04080816 -0.07861696 0.14876306 -0.06064642
000350 95 d6 ba bd 45 73 09 3e 74 7a 1b bc 94 ea 28 be
       -0.091229595 0.13422878 -0.009489644 -0.16495734
000360 33 05 92 be 26 f2 10 3e a3 0c c2 bd 4b 3c 33 bd
       -0.28519592 0.14154872 -0.094750665 -0.04375867
000370 56 ef 9f bb 8b 53 f6 bc 8b 9d 2e be ed c2 d0 bc
       -0.004880826 -0.030069133 -0.17052285 -0.025483573
000380 60 8f ac bc fe 8d b8 3c ca df 9f bd 74 ec 01 3d
       -0.02106446 0.022528645 -0.07806356 0.03171964
000390 85 e0 23 be c3 ec 92 bd ea 3b 47 3d b2 29 12 bd
       -0.16003616 -0.07174065 0.048641123 -0.035684295
0003a0 5a cb de bb 01 c5 1f be df d7 b6 be f7 10 ca be
       -0.0067991437 -0.15602495 -0.35711572 -0.39466068
0003b0 f8 e6 b3 be 24 61 f4 bd 25 4a 81 be 32 86 8c be
       -0.35137153 -0.119325906 -0.2525188 -0.27446133
0003c0 4d c1 6f be a5 d8 76 be 3c a3 33 be 1f 05 b4 be
       -0.23413582 -0.24106081 -0.17542738 -0.35160157
0003d0 32 54 19 bf 56 64 82 bf ce cc 79 bd f4 91 d4 bd
       -0.59894097 -1.018687 -0.060986333 -0.10379401
0003e0 06 ac d3 bd a2 f6 37 be c0 3b a8 bc b7 32 f8 3c
       -0.10335545 -0.17965177 -0.020536304 0.03029762
0003f0 0c 43 d5 3e 1a 92 af be 13 52 a3 3e 3a 82 19 be
       0.41652715 -0.34291154 0.31898555 -0.14991084

t_conv3.bias f4 [8]
000000 1c 7d 8f 3e e7 b0 2e be df 7f 88 be be 7c 0b 3e
       0.28025138 -0.1705967 -0.26660058 0.13621804
000010 96 0c 25 3e 40 01 a0 3e 8c f4 e8 be d5 6a ca be
       0.16118082 0.31250954 -0.45499074 -0.3953463
