models/cae.pth (torch, 29503 bytes, 10 tensors)

conv1.weight f4 [8, 3, 3, 3]
0	0xbebf79d9	-0.3739765
1	0x3e7dce94	0.24785835
2	0xbe8990ee	-0.26868385
3	0x3ec48bef	0.3838801
4	0x3ea620da	0.3244694
5	0x3ed34ad9	0.41268042
6	0xbed9654c	-0.42460096
7	0x3e433569	0.19063343
8	0xbe473591	-0.19454028
9	0xbe908a12	-0.2823034
10	0x3db1fd12	0.086908475
11	0xbe6dfa9c	-0.23240131
12	0x3e1b5b3d	0.15171523
13	0x3dc245c3	0.09485962
14	0x3e0639f6	0.13108048
15	0xbe3eb877	-0.18625055
16	0x3d3ed48f	0.04658943
17	0xbe84e215	-0.25953737
18	0xbed6f2ca	-0.41982108
19	0x3e05ed10	0.13078713
20	0xbec55fe2	-0.38549715
21	0xb9696a76	-0.00022260271
22	0xbd61e0e3	-0.05514611
23	0xbe492d93	-0.19646291
24	0xbeaab184	-0.3333856
25	0x3e094670	0.13405776
26	0xbe550175	-0.20801337
27	0x3cfbdd49	0.030745165
28	0xbcf99bdd	-0.03046983
29	0xbe2be7f1	-0.16787697
30	0xbd7ab086	-0.061203502
31	0xbe2b1f30	-0.16711116
32	0xbe4430b6	-0.19159207
33	0x3de3d139	0.111238904
34	0xbe596d1e	-0.21233031
35	0xbd9a6d34	-0.0754036
36	0x3dd5f76b	0.10447582
37	0xbdfe13fa	-0.12406154
38	0xbe8a0905	-0.26960006
39	0xbe77afb5	-0.2418812
40	0xbe180fe9	-0.14849819
41	0x3d178a7e	0.03699731
42	0xbe507712	-0.20357922
43	0xbe617e8b	-0.22020929
44	0xbdd64466	-0.10462265
45	0x3da56296	0.080754444
46	0x3d81dfa8	0.06341487
47	0xbe7b0fd7	-0.24517761
48	0xbe0ed50f	-0.13948463
49	0x3beba397	0.0071911323
50	0xbdb93e39	-0.09045071
51	0x3d0d66ff	0.034522053
52	0x3c17607e	0.009239314
53	0xbe48fefb	-0.19628517
54	0xbf13ef3e	-0.5778693
55	0xbec8faa2	-0.39253718
56	0xbe6ebafc	-0.23313516
57	0xbe338385	-0.1753064
58	0x3be5fafc	0.007018445
59	0x3e2b3fc6	0.16723546
60	0xbe115674	-0.14193135
61	0xbbca7cc5	-0.0061794245
62	0xbd9d4779	-0.07679648
63	0xbe9ecc44	-0.31015217
64	0xbe5c4e93	-0.21514349
65	0x3d366743	0.04453207
66	0xbd22d96f	-0.039758142
67	0xbd9d4295	-0.07678715
68	0xbcf57fba	-0.029968131
69	0xbe1d20a2	-0.1534448
70	0x3df447f2	0.11927785
71	0xbcf0b10d	-0.0293813
72	0x3c87200a	0.01649477
73	0x3c4eed5b	0.012629832
74	0x3e90aaad	0.28255215
75	0xbc9797d9	-0.018505024
76	0xbcb477bf	-0.022029756
77	0xbe3638fe	-0.17795178
78	0x3df0fbfd	0.11766813
79	0xbdbedfe9	-0.09320051
80	0x3df6d847	0.120529704
81	0xbe2c4557	-0.16823326
82	0xbd516d2a	-0.051129498
83	0xbe3f2b9b	-0.18668978
84	0xbdc93925	-0.098253526
85	0x3e201103	0.1563149
86	0x3defde83	0.117123626
87	0x3d941a10	0.072315335
88	0xbc8347b1	-0.016025396
89	0xbda640ed	-0.08117852
90	0xbc40d094	-0.011768479
91	0xbcd9a5ef	-0.026568381
92	0x3c07da44	0.008291785
93	0xbc73965b	-0.0148673905
94	0x3eb15a10	0.34639025
95	0x3de23cb9	0.11046738
96	0xbd9fb0df	-0.07797407
97	0xbb8f2951	-0.004368939
98	0x3dbf5317	0.0934202
99	0x3dbf5284	0.093419105
100	0x3d94f5b1	0.072734244
101	0x3e74b1b8	0.2389592
102	0xbd5a5bf3	-0.053310346
103	0x3efff7ab	0.49993643
104	0x3e8e590a	0.27802306
105	0xbc3238a0	-0.010877758
106	0x3a824481	0.0009938629
107	0x3e03b04a	0.12860218
108	0x3d83f841	0.06443835
109	0xbc5a1c1c	-0.013312366
110	0x3e151bf2	0.14561442
111	0x3e6a4d97	0.2288116
112	0x3dde5798	0.10856551
113	0x3e1c9dd7	0.15294586
114	0xbd2097fb	-0.03920744
115	0x3e99aec8	0.3001616
116	0x3d14d743	0.036338102
117	0xbd048fc1	-0.032363657
118	0x3d987c7c	0.074456185
119	0xbd79063c	-0.06079696
120	0x3dd6a541	0.104807384
121	0x3d582854	0.052772835
122	0x3df130b9	0.11776871
123	0xbd04bd7b	-0.032407265
124	0x3dcaab10	0.09895909
125	0x3e536388	0.20643437
126	0xbc96c34d	-0.018403674
127	0xbda4f1e7	-0.08053952
128	0xbc557b18	-0.013029836
129	0xbe216d7c	-0.15764421
130	0xbc9a8921	-0.018864216
131	0x3d716d23	0.05894197
132	0xbc8d801d	-0.017273003
133	0xbd9b0165	-0.07568625
134	0x3e0b67a7	0.13613759
135	0xbe14d74a	-0.14535251
136	0xbe53a459	-0.20668162
137	0xbe11160d	-0.14168568
138	0xbea96bfd	-0.330902
139	0xbe31a8d5	-0.1734956
140	0xbd0ac6b8	-0.03388092
141	0xbe99b1b9	-0.30018404
142	0xbdae0258	-0.08496541
143	0xbc5e3113	-0.013561505
144	0xbe14c5ba	-0.14528552
145	0xbe029341	-0.12751485
146	0xbe04228b	-0.12903802
147	0xbdc79a24	-0.09746197
148	0xbe12b319	-0.14326133
149	0xbe8e367b	-0.2777594
150	0xbe5c1bb5	-0.21494944
151	0xbe9ee03a	-0.31030446
152	0xbee2b1cb	-0.4427627
153	0xbe1c98cc	-0.15292662
154	0xbdab6c93	-0.08370318
155	0xbe61208d	-0.21985073
156	0xbe818a74	-0.25300944
157	0xbed207c4	-0.4102155
158	0xbed9e039	-0.4255388
159	0xbe664a10	-0.2248919
160	0xbe0df618	-0.13863409
161	0xbee3b223	-0.44471845
162	0xbe105e7b	-0.14098541
163	0xbcdade28	-0.02671726
164	0xbe2b4524	-0.16725594
165	0xbddab601	-0.10679246
166	0xbc8af1d8	-0.016961023
167	0xbec14762	-0.37749773
168	0xbe4df01f	-0.2011113
169	0xbec29c06	-0.3800966
170	0x3caace84	0.020850427
171	0xbeb7533a	-0.35805684
172	0xbe912583	-0.28348932
173	0xbea49b50	-0.32149744
174	0xbe57af9a	-0.2106308
175	0xbe86a12e	-0.26294845
176	0xbea40ecb	-0.32042536
177	0xbe08294c	-0.13297004
178	0xbe30197a	-0.17197219
179	0xbe597dc7	-0.21239386
180	0xbe7b9032	-0.24566725
181	0xbdf21021	-0.118194826
182	0xbea3249c	-0.31863868
183	0xbeb22ae4	-0.34798348
184	0xbe78e726	-0.24306926
185	0xbdab907b	-0.08377167
186	0xbeb20d42	-0.3477574
187	0xbec6e46d	-0.3884615
188	0xbe97aea7	-0.29625437
189	0x3d686492	0.056736536
190	0xbe044e85	-0.12920578
191	0xbc8c4cdd	-0.017126495
192	0x3de06381	0.10956479
193	0xbde06fd5	-0.1095883
194	0xbedb4ebf	-0.42833516
195	0x3c71c4d8	0.014756404
196	0x3df5baa3	0.11998489
197	0xbdf5fa5f	-0.12010645
198	0xbd91ba42	-0.07115604
199	0x3e125484	0.14290053
200	0xbdce7ab7	-0.10082
201	0x3c548b8c	0.012972724
202	0x3daaa2c4	0.08331826
203	0xbe97df65	-0.29662624
204	0xbc8869ce	-0.016652014
205	0xbd887c4f	-0.06664335
206	0x3df9e7ea	0.12202437
207	0xbd37ec6b	-0.0449032
208	0x3cafd97f	0.021466015
209	0x3e107327	0.14106427
210	0x3c77940e	0.015110983
211	0xbddc96fa	-0.10770984
212	0x3c8f1c6e	0.017469611
213	0xbcc485d5	-0.023989597
214	0xbcd3362c	-0.025782667
215	0xbbc47fd0	-0.0059966817

conv1.bias f4 [8]
0	0x3e13dada	0.14438954
1	0xbd6dc67a	-0.05805061
2	0x3e9ce45e	0.3064298
3	0xbb866098	-0.0041008703
4	0xbde38b01	-0.11110497
5	0xbe995671	-0.29948762
6	0xbdd824bb	-0.10553881
7	0x3f34e57f	0.70662683

conv2.weight f4 [12, 8, 3, 3]
0	0xbdf416a6	-0.11918382
1	0x3ddb23b0	0.10700166
2	0x3cbfa76f	0.023395268
3	0x3db6c10d	0.0892354
4	0x3e1fa693	0.15590887
5	0x3dca4194	0.09875789
6	0xbd3eaff7	-0.046554532
7	0xbd4c3518	-0.04985532
8	0x3c2fd914	0.010732908
9	0x3db00f0d	0.08596621
10	0xbd1d9f4e	-0.038482003
11	0xbd422a15	-0.047403414
12	0x3d8310c0	0.06399679
13	0x3d729cfa	0.059231736
14	0xbe2c9dd8	-0.16857088
15	0xbd639527	-0.055562165
16	0xbe3240af	-0.17407487
17	0xbd93bbc5	-0.072135486
18	0x3c9dd4d1	0.019266518
19	0xbe555696	-0.20833811
20	0xbe46b172	-0.19403628
21	0xbe2f11a5	-0.17096575
22	0x3ed57bf4	0.4169613
23	0x3e97c359	0.29641226
24	0xbde689fe	-0.11256789
25	0xbdd771a2	-0.105197206
26	0xbe21566a	-0.1575562
27	0x3d730675	0.05933233
28	0x3dc32108	0.095277846
29	0xbd23709d	-0.03990232
30	0xbd7b56de	-0.06136214
31	0xbf5ea732	-0.8697387
32	0x3d30ae60	0.043135047
33	0x3d17937a	0.03700588
34	0x3def5e34	0.1168789
35	0xbd6c88b1	-0.057747547
36	0xbdd4cb4d	-0.10390339
37	0xbdca503a	-0.09878583
38	0x3d7cf5bd	0.06175779
39	0x3d9832ae	0.074315414
40	0x3d123f2f	0.035704788
41	0x3e36af0d	0.17840214
42	0xbe1ff0fc	-0.15619272
43	0x3da2887b	0.07936188
44	0xbdb6eb11	-0.08931554
45	0xbe8bbac5	-0.2729093
46	0xbe716913	-0.23575239
47	0xbe8a38cf	-0.26996467
48	0xbdf1ed53	-0.11812844
49	0x3c178624	0.00924829
50	0xbe2b0d5a	-0.16704312
51	0x3d221ac5	0.03957631
52	0x3dd647b9	0.10462899
53	0x3d2d6190	0.04232937
54	0xbd57ce2d	-0.05268686
55	0x3e212fc7	0.15740882
56	0x3e048de7	0.12944756
57	0x3db00679	0.085949846
58	0x3e66de8a	0.2254583
59	0x3e1f37ca	0.15548626
60	0x3e37ed48	0.1796161
61	0x3d958edc	0.07302639
62	0x3e4c419e	0.19946906
63	0xbe1ebf8c	-0.15502757
64	0x3d6e81fe	0.05822944
65	0xbd0eab35	-0.034831244
66	0x3e1c0ef9	0.15240087
67	0x3e35058d	0.17677899
68	0xbc8c99ff	-0.017163275
69	0xbe256a85	-0.16153915
70	0xbd7ee6b1	-0.062231723
71	0x3d9c44d3	0.07630315
72	0xbd59f6d6	-0.053213917
73	0xbcfdaed3	-0.030967152
74	0xbc7d10e2	-0.01544592
75	0xbded814d	-0.11596928
76	0xbdc7d672	-0.09757699
77	0xbd47c164	-0.048768416
78	0x3c8cb8fc	0.017178051
79	0x3d599ffc	0.05313109
80	0xbd28290a	-0.041054763
81	0x3aec5177	0.001802965
82	0x3c331153	0.010929423
83	0xbd99f358	-0.07517117
84	0x3a6385f8	0.00086793257
85	0xbdd448c1	-0.10365439
86	0xbd10855a	-0.035283424
87	0xbc315c7f	-0.010825275
88	0xbd65a556	-0.05606588
89	0xbe1ffe4a	-0.15624347
90	0xbc12faf1	-0.008970962
91	0x3ce50027	0.027954174
92	0xbcfa56c1	-0.030558946
93	0xbd0afa2d	-0.033929992
94	0xbd0f1207	-0.0349293
95	0xbd141564	-0.036153212
96	0x3cc1d50b	0.023661157
97	0xbcad7012	-0.021171603
98	0xbce78efb	-0.02826642
99	0xbd852823	-0.06501796
100	0x3bc6a4c2	0.006062121
101	0xbda31668	-0.07963258
102	0xbdf26f49	-0.11837632
103	0xbdebcf5e	-0.115141615
104	0xbcd388c9	-0.02582206
105	0xbc429186	-0.011875516
106	0x3d8d9f9f	0.06915211
107	0xbdbd8e1f	-0.09255623
108	0xbd86923b	-0.0657086
109	0x3c87a6df	0.016559063
110	0x3ba1934f	0.0049308906
111	0xbd7bd7cb	-0.061485093
112	0xbdb90525	-0.09034184
113	0x3d4f6a5c	0.05063854
114	0xbbc872c6	-0.0061171977
115	0xbd0e579d	-0.034751523
116	0x3d8e1485	0.069375075
117	0x3db27895	0.087144054
118	0x3d1a0259	0.037599895
119	0x3dac68da	0.08418436
120	0xbdd6b118	-0.10482997
121	0xbdc235c4	-0.09482911
122	0xbe31212e	-0.17297813
123	0xbe091682	-0.13387492
124	0xbe19460b	-0.14968126
125	0x3cc530c4	0.024071105
126	0xbcca4c48	-0.024694577
127	0xbde5a7bf	-0.11213636
128	0x3bf8dbd6	0.007594566
129	0xbdf050fa	-0.11734195
130	0xbda64762	-0.08119084
131	0xbdd6fa12	-0.10496916
132	0x3d2f0b2a	0.042735256
133	0xbd726c4b	-0.059185307
134	0xbdb3e940	-0.08784723
135	0xbd954989	-0.07289416
136	0x3d83d49c	0.064370364
137	0xbb86a67e	-0.004109203
138	0xbba6a9d5	-0.0050861635
139	0xbb33e7a9	-0.0027451313
140	0xbd3786c6	-0.044806264
141	0xbe274a8e	-0.16337034
142	0xbb28ed05	-0.002577604
143	0xbae18912	-0.0017206988
144	0xbdbffb80	-0.09374142
145	0xbc9a0f7e	-0.018806215
146	0xbdfcf00e	-0.12350474
147	0x3cd8339b	0.026391795
148	0xbdae4bbf	-0.08510541
149	0xbd8b7699	-0.0680973
150	0xbc2fe88f	-0.010736599
151	0x3cee2d2d	0.029074276
152	0xbe01ae52	-0.12664154
153	0xbe300472	-0.17189196
154	0xbd526328	-0.051364094
155	0xbe3bf7d0	-0.18356252
156	0xbdbeb891	-0.09312547
157	0xbdde02e5	-0.10840396
158	0xbdda4ba7	-0.10658961
159	0xbdb6caff	-0.08925437
160	0xbdaf32ad	-0.085545875
161	0xbdfe3a6a	-0.12413485
162	0xbe0643aa	-0.1311175
163	0xbe15fe72	-0.14647844
164	0xbd9c34fb	-0.07627293
165	0xbc9aa271	-0.018876286
166	0xbd3422da	-0.04397855
167	0xbd10b6dd	-0.035330642
168	0xbc35c3f4	-0.011094082
169	0xbdfdba90	-0.123890996
170	0x3ceb6ff4	0.028739907
171	0xbde3c8e5	-0.11122302
172	0xbd85497b	-0.06508156
173	0xbd2c88e3	-0.042122733
174	0xbe1fdba0	-0.15611124
175	0x3c750c1a	0.0149564985
176	0xbdb339bf	-0.087512486
177	0xbd9a7bd5	-0.0754315
178	0xbd13027c	-0.03589104
179	0xbd8c489f	-0.06849789
180	0xbdc268b7	-0.09492629
181	0xbe15a0c8	-0.14612114
182	0x3cdb1507	0.026743425
183	0xbe0086d0	-0.12551427
184	0xbce373a7	-0.027765108
185	0x3d0861d4	0.03329642
186	0xbd621afa	-0.055201508
187	0xbe282a73	-0.16422443
188	0xbd5271aa	-0.05137793
189	0xbd9a3951	-0.075304635
190	0xbc628c75	-0.013827433
191	0x3dcba390	0.099433064
192	0xbe24d27c	-0.16095918
193	0xbd1244ff	-0.03571033
194	0xbe19c5d8	-0.15016878
195	0x3d76b5ee	0.060232095
196	0x3df5b2d4	0.119969994
197	0x3e12eea9	0.14348854
198	0xbd3b11ba	-0.045671202
199	0xbd9694ca	-0.07352598
200	0xbc0f8d15	-0.008761664
201	0x3ca03ce0	0.019560277
202	0xbe05b74c	-0.13058203
203	0xbd98e3f3	-0.07465353
204	0xbdf7bef6	-0.1209697
205	0xbe1fa7d8	-0.15591371
206	0x3ce258d9	0.027630256
207	0xbd51cb50	-0.051219285
208	0xbde088dd	-0.109636046
209	0xbda21431	-0.079140075
210	0xbac05258	-0.0014672978
211	0x3c5b836e	0.0133980345
212	0xbde316eb	-0.11088356
213	0xbe0903a0	-0.13380289
214	0xbc6fca10	-0.014635578
215	0xbe166bd7	-0.14689575
216	0xbdbb9650	-0.09159529
217	0x3d2a2232	0.041536517
218	0xbe323d5d	-0.1740622
219	0xbc216d54	-0.009852726
220	0x3d1d1403	0.038349163
221	0xbdf1abec	-0.118003696
222	0xbde74569	-0.11292536
223	0xbc497734	-0.012296487
224	0xbbfe4155	-0.007759253
225	0x3d30fef4	0.043211892
226	0xbdd1df02	-0.102476135
227	0xbc377da3	-0.011199388
228	0xbb5fe381	-0.0034162703
229	0xbd0879f8	-0.033319443
230	0x3d4d4fc8	0.050124913
231	0xbdcbd247	-0.099522166
232	0x3d56adec	0.05241196
233	0x3d89b3ec	0.067237705
234	0x3d2ca0bf	0.042145487
235	0xbd9ff927	-0.07811194
236	0xbd079792	-0.033103533
237	0x3d8f6255	0.07001177
238	0xbdb37f72	-0.08764543
239	0x3cbb5149	0.022865908
240	0xbc2f2112	-0.010689037
241	0xbd9cdc51	-0.076592095
242	0x3dbc535b	0.09195586
243	0xbdbd16d0	-0.09232867
244	0xbce2c71c	-0.027682833
245	0xbbd8b219	-0.006613028
246	0xbe128025	-0.14306696
247	0xbd372316	-0.044711195
248	0xbdebdeb8	-0.115170896
249	0xbe05042f	-0.12989877
250	0xbe44355c	-0.1916098
251	0xbdee752a	-0.11643441
252	0xbdbcff34	-0.09228364
253	0xbdf7fb3e	-0.121084675
254	0xbdd4b1a0	-0.10385442
255	0xbd436a5a	-0.047708847

conv2.bias f4 [12]
0	0x3f7a4b48	0.9777112
1	0xbd440290	-0.047854006
2	0xbb6f0bf8	-0.003647564
3	0xbdceb16c	-0.10092434
4	0xbf4dd1f0	-0.80398464
5	0xbd9462d6	-0.07245414
6	0x3f34cf02	0.7062837
7	0x3f028d43	0.509968
8	0xbe1eaa03	-0.15494542
9	0x3e6dd4a8	0.23225653
10	0x3d09aafb	0.033610325
11	0x3efb659e	0.49100965

conv3.weight f4 [16, 12, 3, 3]
0	0xbf7909a3	-0.9728033
1	0xbfb5bb80	-1.4197845
2	0x3e22aeaa	0.15886942
3	0xbf9ae578	-1.2101278
4	0x3eb746a2	0.35796076
5	0x3e8ea010	0.27856493
6	0xbf9d9e59	-1.2313949
7	0xbf8f0aa0	-1.1175117
8	0xbe254426	-0.16139278
9	0x3ccd54ae	0.025064792
10	0xbdc81081	-0.09768773
11	0x3d2272c9	0.03966025
12	0xbde5f039	-0.112274595
13	0x3ac6cda5	0.0015167488
14	0x3cb52cdf	0.022116123
15	0xbdc47d10	-0.09594166
16	0x3c013378	0.007885806
17	0x3c807466	0.015680503
18	0xbe0c6b8b	-0.137129
19	0xbcc6250c	-0.024187587
20	0xbd8eafcf	-0.069671266
21	0xbde8900a	-0.11355598
22	0xbe162350	-0.14661908
23	0xbdb5333d	-0.088476636
24	0xbca82e56	-0.020529907
25	0xbcfdb6b0	-0.030970901
26	0xbc8fe691	-0.017565997
27	0xbb275d04	-0.002553762
28	0x3d246b2c	0.04014127
29	0xbbe7294d	-0.007054484
30	0xbdd012e4	-0.10159853
31	0xbd00bb0c	-0.03142838
32	0x3cbedbff	0.023298262
33	0xbdce3325	-0.10068349
34	0x3d914737	0.07093661
35	0x3d88eb8e	0.066855535
36	0x3e76c2a5	0.24097688
37	0x3e02532d	0.12727042
38	0x3d42669c	0.047461137
39	0x3e740e4e	0.23833582
40	0x3ecb879c	0.397519
41	0xbc923c58	-0.01785104
42	0xbd848703	-0.06471064
43	0xbcfeea11	-0.031117471
44	0xbed6b9a5	-0.4193851
45	0xbd52286d	-0.051308084
46	0xbd71810c	-0.05896096
47	0x3b52d2df	0.0032169146
48	0xbe0aa0ba	-0.13537875
49	0xbdeefa7f	-0.11668872
50	0x3d448030	0.04797381
51	0xbe088320	-0.1333127
52	0x3b10e13a	0.0022106902
53	0xbdedd292	-0.11612429
54	0x3d72f5d6	0.05931648
55	0xbe7cba90	-0.24680543
56	0x3f1220d9	0.5708137
57	0xbe305533	-0.17220001
58	0x3dd7aa08	0.10530478
59	0xbf2d4752	-0.6768695
60	0x3e043b7e	0.1291332
61	0x3efbfbfe	0.49215692
62	0x3e3df6fd	0.1855125
63	0x3f4693b1	0.7756911
64	0x3ebe8f15	0.37218538
65	0x3ea112b2	0.31459576
66	0x3f1d0e7f	0.61350244
67	0x3f931073	1.1489395
68	0xbf1f4097	-0.6220793
69	0x3f977615	1.1832911
70	0x3f2afcce	0.66792
71	0xbe90fbc8	-0.28317094
72	0x3cf8db43	0.03037799
73	0xbd8e7284	-0.06955436
74	0xbd8a08fe	-0.067399964
75	0xbc1ab959	-0.009443604
76	0x3c5b8e5b	0.013400639
77	0x3d494dd3	0.049146485
78	0x3cb3b60f	0.021937398
79	0x3d04d626	0.03243079
80	0x3c3711cd	0.011173678
81	0x3f075ef9	0.5287929
82	0xbe860d47	-0.26182005
83	0xbe3c9de3	-0.18419604
84	0x3f07b905	0.5301669
85	0x3f065123	0.52467555
86	0xbdbbadee	-0.09164034
87	0x3f7c0480	0.98444366
88	0x3e4f0dc9	0.20220102
89	0x3d3c5c2e	0.045986347
90	0x3e6e71b6	0.23285565
91	0x3e009e0f	0.12560295
92	0x3d709921	0.058739785
93	0x3d390b2a	0.045176663
94	0x3e295b35	0.16538699
95	0x3e0988e6	0.13431129
96	0xbe06f0c4	-0.13177782
97	0xbdfae299	-0.12250251
98	0xbdd14e1b	-0.102199756
99	0x3deb834d	0.11499653
100	0x3e73b50b	0.23799531
101	0xbd6a2c9e	-0.057171457
102	0xbe174167	-0.14771043
103	0x3f5b6678	0.8570323
104	0xbdd0ff87	-0.10204988
105	0xbd349b4a	-0.044093408
106	0x3ed402f7	0.41408512
107	0xbe111c4e	-0.14170954
108	0xbda3a524	-0.079904824
109	0xbdca1fbc	-0.09869334
110	0xbdacb70b	-0.0843335
111	0x3d484c38	0.048900813
112	0xbdad8bed	-0.08473954
113	0x3c8e6985	0.0173843
114	0xbd980073	-0.07421961
115	0xbd97f089	-0.07418925
116	0xbd97f1bc	-0.07419154
117	0xbdeb3137	-0.11483996
118	0xbc2dcc48	-0.0106077865
119	0xbdfacae2	-0.12245728
120	0xbda3a3fe	-0.079902634
121	0xbd74e441	-0.059787992
122	0x3c6586ad	0.01400916
123	0xbdf78cd7	-0.1208741
124	0xbe0ae552	-0.13564041
125	0xbd9ca802	-0.076492324
126	0x3b088680	0.0020832121
127	0x3d19ee88	0.037580997
128	0x3c349268	0.011021234
129	0xbd1174d7	-0.035511818
130	0x3a2278d4	0.00061978144
131	0xbdbec72c	-0.09315333
132	0xbd9fa01c	-0.0779421
133	0x3c1f40ec	0.009720068
134	0x3d59c5c2	0.053167112
135	0xbd3e1435	-0.04640599
136	0xbd25bc83	-0.040462982
137	0xbe1ecacf	-0.15507053
138	0xbdd3d222	-0.10342814
139	0xbddf22ef	-0.10895335
140	0xbddd3016	-0.10800187
141	0xbdf5617b	-0.119814835
142	0xbe01bf25	-0.12670572
143	0xbe1ae2f1	-0.15125634
144	0xbd11280d	-0.035438586
145	0xbdb28183	-0.08716109
146	0xbcfb097b	-0.03064417
147	0xbd36f4a1	-0.04466689
148	0xbd0baa35	-0.03409787
149	0x3d24a54c	0.040196702
150	0xbe02de47	-0.12780105
151	0xbe17b961	-0.1481681
152	0xbe04346b	-0.12910621
153	0xbd7fbed3	-0.062437844
154	0xbb13c4ba	-0.0022547678
155	0xbd3551ec	-0.04426758
156	0x3cb0fb45	0.02160419
157	0xbd207c20	-0.039180875
158	0xbdf64019	-0.120239444
159	0xbcdc6491	-0.026903423
160	0xbda83be6	-0.0821455
161	0xbdad0b3c	-0.084494084
162	0xbaf47dc0	-0.0018653199
163	0xbce3e700	-0.02782011
164	0x3b9b8880	0.0047464967
165	0xbdbe06e9	-0.09278662
166	0xbcecd0c8	-0.028908148
167	0x3d1669e2	0.03672207
168	0xbca01dc8	-0.01954545
169	0x3d36b426	0.044605397
170	0xbd1957ef	-0.037437376
171	0xbdc434dd	-0.09580395
172	0x3abdf24d	0.0014491767
173	0xbd4b6eb9	-0.04966614
174	0xbcbf3d2c	-0.023344599
175	0xbe05786b	-0.13034217
176	0xbd3d3ae5	-0.046198744
177	0xbdbf7a18	-0.093494594
178	0x3a5401ab	0.0008087407
179	0x3bdf71fb	0.0068190075
180	0xbc43a0f5	-0.011940231
181	0x3d27ec74	0.040996984
182	0xbdb9d953	-0.090746544
183	0xbde2601c	-0.11053488
184	0xbda2f892	-0.07957567
185	0xbdd7c08b	-0.105347715
186	0xbdca8457	-0.09888523
187	0x3d004abb	0.03132127
188	0xbe1a1c26	-0.150498
189	0x3d29d702	0.041464813
190	0xbdc7336d	-0.097266056
191	0xbc04b877	-0.0081006205
192	0xbc8faea9	-0.01753934
193	0xbd2a670a	-0.041602172
194	0xb9a2c0f1	-0.000310428
195	0x3cad388d	0.02114513
196	0x3c1cbb02	0.0095660705
197	0x3b6a63b7	0.0035765
198	0xbc926b74	-0.017873503
199	0xbd25ccd9	-0.04047856
200	0x3cdec4ec	0.027193509
201	0xbe053105	-0.1300698
202	0x3cd7e1ff	0.02635288
203	0xbc2c307e	-0.010509608
204	0xbde3aa4c	-0.11116466
205	0xbbbb7e32	-0.0057218308
206	0xbe0f4966	-0.13992843
207	0x3cc4f175	0.024040917
208	0xbdf0adfe	-0.117519364
209	0xbd8a1c14	-0.06743637
210	0xbdec6990	-0.11543572
211	0xbd8341c0	-0.06409025
212	0x39a23286	0.0003093669
213	0xbde9d7c9	-0.11418111
214	0xbdb80813	-0.08985915
215	0xbdac7168	-0.08420068
216	0xbe8b2cdf	-0.2718267
217	0xbe65d567	-0.22444688
218	0xbe410a37	-0.18851553
219	0xbe9ec1e8	-0.31007314
220	0xbe86bcd9	-0.26315954
221	0xbe0f2dd3	-0.13982324
222	0xbe842756	-0.2581126
223	0xbe5f46cd	-0.21804352
224	0xbe57e4c1	-0.21083356
225	0xbc91e1a0	-0.017807782
226	0xbdea8d3f	-0.11452722
227	0x3c8cf2e5	0.017205665
228	0xbc4b9aec	-0.012427073
229	0xbde81327	-0.11331778
230	0xbd7b32f9	-0.06132791
231	0xbdf8cdb4	-0.1214861
232	0xbe035d2d	-0.12828512
233	0xbad9a093	-0.0016603641
234	0xbce76da7	-0.028250528
235	0x3b784e81	0.003788859
236	0x3e11f700	0.1425438
237	0x3caf1f95	0.021377364
238	0x3e0acd0e	0.13554785
239	0x3d7ed400	0.062213898
240	0x3d9e26fa	0.07722278
241	0x3cb35f70	0.021896094
242	0x3c87609e	0.016525563
243	0x3ccc0a9d	0.024907405
244	0x3ce16f69	0.027518945
245	0xbd23cfa9	-0.039992962
246	0xbd8704ce	-0.06592713
247	0xbdb86fdb	-0.0900571
248	0x3ab4a2e7	0.0013781459
249	0xbe00ad24	-0.12566048
250	0xbd8a3ed4	-0.06750265
251	0x3af8ac55	0.0018972257
252	0xbdeebc3d	-0.11656997
253	0xbe1d28ec	-0.15347642
254	0xbdb40aac	-0.08791098
255	0xbd834d2f	-0.06411206

conv3.bias f4 [16]
0	0xbde38a6d	-0.11110387
1	0xbe1d39d6	-0.15354094
2	0xbe59d2ca	-0.21271816
3	0xbdfc7b65	-0.12328223
4	0xbb3c0661	-0.0028690326
5	0xbcbc09e7	-0.02295394
6	0xbde8dba5	-0.11370019
7	0xbe7e5df7	-0.24840532
8	0xbd0ffa4a	-0.035150804
9	0xbdd8a178	-0.10577673
10	0xbdfd3808	-0.12364203
11	0x3de3d4d7	0.1112458
12	0xbda6a3e6	-0.0813673
13	0xbd241a17	-0.040063944
14	0xbcc6dd22	-0.024275366
15	0xbe4dc700	-0.20095444

t_conv1.weight f4 [16, 12, 4, 4]
0	0xbd79bad1	-0.060969178
1	0x3b3ab54f	0.0028489416
2	0xbd94dc98	-0.072686374
3	0xbdf462eb	-0.119329296
4	0xbd8a157c	-0.06742379
5	0xbd8d7867	-0.069077305
6	0xbc9dfdb5	-0.019286016
7	0xbe504997	-0.20340572
8	0xbc94c4db	-0.018160274
9	0xbdda8cc7	-0.106713824
10	0xbd7f088c	-0.06226401
11	0xbe1a9480	-0.15095711
12	0xbcdcb714	-0.026942767
13	0xbd838323	-0.06421497
14	0xbdbbcf52	-0.091704026
15	0xbe7174ce	-0.23579714
16	0x3ebb80af	0.36621615
17	0x3dc6681f	0.09687828
18	0x3e277003	0.16351323
19	0x3e38e0af	0.1805446
20	0xbf0bd68e	-0.5462426
21	0x3f8c0f27	1.0942124
22	0x3e816348	0.25271058
23	0xbe115880	-0.14193916
24	0x3d22fdfa	0.039792992
25	0x3f0a5462	0.5403501
26	0xbeeb02cb	-0.45900568
27	0x3de9f4e9	0.11423666
28	0x3da1049d	0.07862208
29	0x3f0d322d	0.5515469
30	0xbee51d46	-0.44748896
31	0x3e8de99d	0.27717295
32	0xbfd1381b	-1.6345247
33	0xbf0352f5	-0.5129846
34	0xbdfca26e	-0.123356685
35	0xbdd81b3d	-0.1055207
36	0xbf801ae4	-1.0008206
37	0x3e3105e2	0.172874
38	0xbe286c7d	-0.16447635
39	0xbe28bd10	-0.16478372
40	0xbe8fbdd3	-0.28074512
41	0xbeeb60e8	-0.4597237
42	0x3ef1ddb5	0.47239462
43	0xbd75264f	-0.059850987
44	0xbef2443a	-0.47317678
45	0x3d4b8561	0.049687747
46	0xbf0a1c50	-0.5394945
47	0xbd799038	-0.060928553
48	0x3d161859	0.036644313
49	0xbc992ad7	-0.018697185
50	0xbd071f22	-0.032988675
51	0x3c88fcaa	0.016722042
52	0xbdbed05f	-0.093170874
53	0xbd370905	-0.044686336
54	0xbd2f6d2f	-0.042828735
55	0xbd99cb6c	-0.07509503
56	0xbd92ae90	-0.071622014
57	0xbce4dd13	-0.027937448
58	0xbd144a47	-0.03620365
59	0xbd2f5ac4	-0.04281117
60	0x3c0574ba	0.008145506
61	0x3caac28d	0.020844722
62	0xbdc8d0d2	-0.09805454
63	0xbdb3c228	-0.08777267
64	0xbded50a1	-0.11587644
65	0xbd8d9fad	-0.06915221
66	0xbda67a6b	-0.08128818
67	0xbe008bdc	-0.12553352
68	0xbc18302a	-0.009288827
69	0x3a9f025e	0.0012131443
70	0xbde5315a	-0.11191054
71	0x3aa14394	0.0012303465
72	0xbd820e66	-0.063504025
73	0xbc8c8d7a	-0.017157305
74	0xbe01c423	-0.12672476
75	0xbd912886	-0.07087807
76	0xbd4509cb	-0.048105042
77	0xbd5d8dc9	-0.054090295
78	0xbe04ff9a	-0.1298813
79	0xbdc9c7eb	-0.098525845
80	0x3d478e92	0.04871995
81	0x3ea83f65	0.32860866
82	0x3e071559	0.13191737
83	0x3e3dc57b	0.18532364
84	0xbd19ee6a	-0.037580885
85	0x3ecdb964	0.40180504
86	0x3e17a903	0.14810567
87	0xbeb1b7bd	-0.34710494
88	0x3e22b2a3	0.15888457
89	0xbd7162e3	-0.058932196
90	0x3e26b84e	0.16281244
91	0x3df73585	0.12070755
92	0x396143e9	0.0002148297
93	0x3e80a236	0.25123757
94	0x3de340c4	0.110963374
95	0xbdacdc41	-0.084404476
96	0x3c7a9928	0.015295304
97	0xbdd3ddf8	-0.103450716
98	0x3bf6dffd	0.0075340257
99	0xbd0813d2	-0.033222027
100	0xbc21a451	-0.009865836
101	0xbd8a7a79	-0.06761641
102	0xbd3e6bfc	-0.0464897
103	0xbd835f91	-0.06414712
104	0xbdbe3e65	-0.092892446
105	0xbe02a742	-0.12759116
106	0xbdd64d80	-0.10464001
107	0x3b642741	0.0034813436
108	0xbc4b7c46	-0.012419766
109	0xbdb0d226	-0.08633833
110	0xbd3b12ac	-0.045672104
111	0xbda07378	-0.07834524
112	0xbf2ab166	-0.6667694
113	0xbe039704	-0.12850577
114	0xbd7dfca2	-0.062008508
115	0xbe0e1a5c	-0.13877243
116	0xbee2eea0	-0.4432268
117	0xbdb10cee	-0.08645044
118	0x3efa80d6	0.4892642
119	0xbe464413	-0.19361906
120	0x3e49aa15	0.19693787
121	0xbd971776	-0.07377522
122	0x3f191735	0.59801036
123	0xbe4ff8ac	-0.20309705
124	0xbed01d07	-0.40647146
125	0xbe8d1a6c	-0.2755922
126	0xbf1bf9fa	-0.6092831
127	0x3dbbf1e8	0.09176999
128	0xbc48f97c	-0.012266513
129	0xbbfb1170	-0.007661991
130	0xbc875381	-0.01651931
131	0xbb4f5a4b	-0.0031639512
132	0xbccbfa6e	-0.024899688
133	0xbdcb678a	-0.09931858
134	0xbde0ea6f	-0.10982215
135	0x3be6d3a2	0.0070442716
136	0xbd0cb126	-0.03434863
137	0xbdc8f7a0	-0.09812856
138	0x3b25dd1f	0.00253088
139	0xbdcfbac9	-0.10143048
140	0xbcded84a	-0.027202744
141	0x3ca972bf	0.020684598
142	0x3c0248b1	0.007951901
143	0xbc5d0521	-0.013489992
144	0xbdb9a6e0	-0.09065032
145	0xbd5de1f7	-0.054170575
146	0x3c13a0c5	0.009010498
147	0xbdaa7ba9	-0.083243676
148	0xbc9bebd4	-0.01903335
149	0xbd9a06b6	-0.07520811
150	0xbd27ef0a	-0.04099945
151	0xbd358bf8	-0.044322938
152	0xbd85b557	-0.065287285
153	0xbd785514	-0.06062801
154	0xbd7ce7fa	-0.061744668
155	0xbd793546	-0.06084182
156	0xbdaf79a0	-0.0856812
157	0xbd38384d	-0.044975568
158	0x3b84278a	0.0040330337
159	0xbcb306b5	-0.021853784
160	0x3dc57e0e	0.09643184
161	0xbde1a629	-0.11018021
162	0xbe40422e	-0.18775246
163	0xbca8ab65	-0.02058954
164	0x3dbeae51	0.09310592
165	0xbf5d489b	-0.8643891
166	0x3e46e7d8	0.19424379
167	0xbde4c591	-0.11170495
168	0xbe638d4c	-0.22221869
169	0xbe2b932b	-0.16755359
170	0xbe1ada3b	-0.15122311
171	0xbc91234a	-0.017717022
172	0xbbcb594e	-0.0062057143
173	0xbdb898e1	-0.09013534
174	0xbd483d8f	-0.04888683
175	0xbd324024	-0.0435182
176	0xbd64fe3d	-0.055906523
177	0xbdf0e240	-0.11761904
178	0xbd0001cb	-0.03125171
179	0x3be01823	0.006838815
180	0x3ad2a722	0.0016071538
181	0xbd68bc99	-0.056820486
182	0xbcf37471	-0.02971861
183	0xbdc322ad	-0.09528098
184	0x3bf8b8e9	0.0075904024
185	0xbd7d6fb3	-0.061874103
186	0xbd492f05	-0.049117107
187	0x3c47096b	0.0121482415
188	0xbcaf4595	-0.021395484
189	0xbc0f90fa	-0.008762592
190	0xbc19c4ac	-0.009385269
191	0xbdf416c5	-0.119184054
192	0xbc47ca5f	-0.012194245
193	0xbc7277f2	-0.014799105
194	0x3dcf8fa5	0.1013482
195	0x3d08773a	0.03331683
196	0x3dac2456	0.08405368
197	0x3d7a73cc	0.06114559
198	0xbc4fe17e	-0.012688039
199	0x3b182180	0.0023213327
200	0x3d92ceb7	0.07168334
201	0x3dd78f1a	0.10525341
202	0x3d5c9184	0.053849712
203	0xbcf58750	-0.029971749
204	0x3d6afbd8	0.057369083
205	0x3d06deed	0.032927442
206	0x3d76561d	0.060140718
207	0x3d8d6ad0	0.069051385
208	0xbcc20ce6	-0.023687791
209	0x3de43edc	0.11144802
210	0x3d567022	0.052353032
211	0x3ce70434	0.028200246
212	0x3dbe01a8	0.0927766
213	0x3d43e2dd	0.047823776
214	0x3d8454ce	0.06461488
215	0x3d690060	0.056885123
216	0x3ded581b	0.115890704
217	0x3d6cfae1	0.057856444
218	0x3cd2148b	0.025644561
219	0x3d823363	0.063574575
220	0x3c2e3e94	0.010635037
221	0x3d328885	0.043587226
222	0x3dc6e0e4	0.09710863
223	0x3bd41e6a	0.006473352
224	0xbe06c785	-0.13162048
225	0xbd972dd7	-0.0738179
226	0xbc4cde91	-0.012504236
227	0xbc1f853f	-0.009736358
228	0xbd80239b	-0.06256791
229	0x39b14133	0.00033808648
230	0xbdd9b8e0	-0.10630965
231	0xbe05212e	-0.13000938
232	0xb9fa2b6e	-0.00047716073
233	0xbd24b56c	-0.04021208
234	0xbdb7b8e4	-0.08970812
235	0xbdde086f	-0.10841452
236	0xbd8f2ab0	-0.06990564
237	0xbdc7ff07	-0.097654395
238	0xbb71dc20	-0.0036904886
239	0xbdea1734	-0.11430207
240	0x3cb48076	0.022033911
241	0xbd8d7ab7	-0.069081716
242	0xbb0c5d57	-0.002141794
243	0xbde0fbd6	-0.10985534
244	0xbd1e61d3	-0.03866751
245	0xbdb5edcd	-0.088832475
246	0xbd00d427	-0.031452324
247	0xbd6f4dd0	-0.058423817
248	0xbda58b93	-0.08083262
249	0x3cc3ca8f	0.023900298
250	0x3c50dc6d	0.012747866
251	0xbd05dc7f	-0.032680985
252	0xbd02e47d	-0.031956185
253	0xbba7f2a3	-0.00512536
254	0xbd9e2c0e	-0.077232465
255	0xbbd911e2	-0.0066244463

t_conv1.bias f4 [12]
0	0xbd0a1d7f	-0.033719536
1	0xbe035ac1	-0.12827589
2	0xbe4ffe2d	-0.20311804
3	0xbd87089b	-0.06593438
4	0xbd065064	-0.03279151
5	0x3e392380	0.18079948
6	0xbcad0194	-0.021118917
7	0xbcd7466a	-0.026278693
8	0xbdbc039e	-0.091803774
9	0xbda966cc	-0.0827156
10	0xbe8ec648	-0.27885652
11	0xbd71f759	-0.05907378

t_conv2.weight f4 [12, 3, 4, 4]
0	0xbbd78dfb	-0.0065782047
1	0x3d21a761	0.039466266
2	0x3e022f80	0.12713432
3	0x3c659058	0.014011465
4	0x3e2e5513	0.1702464
5	0x3e860cd2	0.26181656
6	0x3e3aea3b	0.18253414
7	0x3cdbe00c	0.026840232
8	0xbcf76da1	-0.030203642
9	0xbcd43905	-0.025906095
10	0x3d40ec10	0.047100127
11	0x3dcdc720	0.10047746
12	0x3e0ca91a	0.13736382
13	0x3e7bf6be	0.24605843
14	0x3dac8c26	0.08425169
15	0xbd42b168	-0.04753247
16	0xbd82d21c	-0.063877314
17	0xbc4230c2	-0.011852445
18	0x3d17912b	0.037003677
19	0x3d3bc041	0.045837644
20	0xbdbd6e1d	-0.09249518
21	0xbc6a7d0a	-0.014312038
22	0xbe3255dc	-0.17415565
23	0xbe2a8e8f	-0.16655944
24	0xbe45a8f6	-0.19302735
25	0xbe2fb155	-0.1715749
26	0xbe0cc0b6	-0.13745388
27	0xbe11c9d0	-0.14237142
28	0xbe0de312	-0.13856152
29	0xbe80f732	-0.25188595
30	0xbd5bc88b	-0.05365805
31	0xbdfc08a1	-0.12306333
32	0x3ef32c35	0.47494665
33	0x3eab1229	0.33412293
34	0x3e674358	0.22584283
35	0x3e915c2c	0.28390634
36	0x3f00c58f	0.5030145
37	0x3e30eb60	0.17277288
38	0x3e34edb0	0.17668796
39	0x3dc5bc90	0.09655106
40	0x3e9c7296	0.30556172
41	0x3e0121bc	0.12610525
42	0x3cf1c76a	0.029514033
43	0x3dce7555	0.10080973
44	0x3ea0f645	0.3143789
45	0x3d72a697	0.059240904
46	0x3ddd61f8	0.10809702
47	0x3d100702	0.035162933
48	0xbdce95dd	-0.10087178
49	0xbca91cd9	-0.020643638
50	0xbd974c1d	-0.07387564
51	0x3c88a181	0.016678574
52	0xbe3fb914	-0.18722945
53	0xbee12712	-0.4397512
54	0xbf03cc06	-0.5148319
55	0xbe0b9769	-0.13631977
56	0xbe74ac0c	-0.23893756
57	0xbdb4d352	-0.08829369
58	0xbdd60dd0	-0.10451853
59	0xbcdf023c	-0.027222745
60	0xbc91e2d6	-0.01780836
61	0xbb7dc417	-0.0038721615
62	0xbd43bdf2	-0.047788568
63	0xbb227967	-0.00247916
64	0xbd9cc640	-0.07655001
65	0xbc6e46d5	-0.014543255
66	0xbdae8419	-0.085212894
67	0x3d09ebcf	0.03367215
68	0xbe65b9e3	-0.22434191
69	0xbea3245a	-0.31863672
70	0xbed3d4a2	-0.41373163
71	0xbe2719fd	-0.16318507
72	0xbe5214d1	-0.20515753
73	0xbcea0842	-0.02856839
74	0xbd13fa9e	-0.03612768
75	0xbc7b974f	-0.015355899
76	0x3bbaa885	0.0056963586
77	0x3cc22efe	0.023704048
78	0xbceffac4	-0.029294379
79	0x3cad1d28	0.021132067
80	0xbd3ca811	-0.046058718
81	0xba8de5e1	-0.0010825956
82	0xbdc9be91	-0.09850801
83	0x3d76d578	0.060262173
84	0xbe881d20	-0.2658472
85	0xbe6e72ff	-0.23286055
86	0xbe936d71	-0.28794435
87	0xbe4daabb	-0.2008466
88	0xbe3623f9	-0.1778716
89	0x3cebc061	0.028778257
90	0xb9c91aa3	-0.00038357553
91	0x3c14d2d3	0.009083468
92	0x3d0d901d	0.034561265
93	0x3d3abb2f	0.04558867
94	0xbc3ed90c	-0.011648428
95	0x3d2b5ed2	0.041838475
96	0x3e04e9eb	0.12979858
97	0x3dbec3a3	0.093146585
98	0x3da7a131	0.08185042
99	0x3d45e85d	0.048317302
100	0x3e147df3	0.14501171
101	0xbdfd0b68	-0.12355691
102	0xbdfc4987	-0.12318712
103	0x3dcd8a15	0.10036103
104	0xbc5730c6	-0.013134187
105	0xbea9ae66	-0.33140868
106	0xbe60ae1f	-0.21941422
107	0x3e0bd02f	0.13653634
108	0xbe3fb346	-0.18720731
109	0xbe0066bb	-0.12539189
110	0xbd712f74	-0.058883145
111	0x3e1ecadd	0.15507074
112	0x3dc27d3e	0.09496544
113	0x3d23c3a9	0.039981518
114	0x3c5588f0	0.013033137
115	0x3ce4b05b	0.027916124
116	0xbd25e1d7	-0.04049858
117	0xbea6da8c	-0.32588613
118	0xbe66564c	-0.22493857
119	0x3dca8d2f	0.0989021
120	0xbeab044a	-0.3340171
121	0xbf0368a9	-0.51331574
122	0xbe83a894	-0.25714552
123	0x3e442786	0.19155702
124	0xbd961fa8	-0.07330257
125	0xbe4424a0	-0.19154596
126	0xbdf17035	-0.1178898
127	0x3e1ea871	0.15493943
128	0x3db984f8	0.09058565
129	0xbcfc1b35	-0.030774692
130	0xbdb18f7c	-0.086699456
131	0xbd6b6a21	-0.05747426
132	0xbe8573e7	-0.2606499
133	0xbf182a69	-0.5943971
134	0xbec5c8e8	-0.38629842
135	0x3d6368b0	0.05551976
136	0xbf3b99b9	-0.7328144
137	0xbf44708b	-0.76734227
138	0xbea50d33	-0.32236633
139	0x3e662e0e	0.22478506
140	0x3c55d6b8	0.013051681
141	0xbe94a893	-0.29034862
142	0xbe4800c1	-0.19531538
143	0x3df9d786	0.12199311
144	0xbc723d1a	-0.014785076
145	0x3d9eb555	0.0774943
146	0x3dd3dbbd	0.10344646
147	0xbe21e352	-0.15809372
148	0xbdeb2ae1	-0.11482788
149	0x3dccc7b2	0.09999026
150	0xbde2a39b	-0.110663615
151	0xbdc606cf	-0.096692674
152	0x3d12987c	0.03578995
153	0x3dab6772	0.0836934
154	0xbb7ea3b8	-0.0038854908
155	0x3dad6fb8	0.08468574
156	0x3cd6db50	0.026227623
157	0xbba8db97	-0.0051531303
158	0xbe231892	-0.15927342
159	0x3d9a1878	0.07524198
160	0xbe2bfff8	-0.16796863
161	0xbe42f7ae	-0.19039795
162	0xbc450798	-0.012025736
163	0xbde0f6cf	-0.10984575
164	0x3db47e9c	0.08813211
165	0xbdf9f1d2	-0.12204327
166	0xbd4b63ce	-0.049655728
167	0xbce50cfd	-0.027960295
168	0xbcb4ea54	-0.022084393
169	0xbe175268	-0.14777529
170	0x3d8eb121	0.069673784
171	0xbdf61b21	-0.12016893
172	0xbcc9eda9	-0.024649458
173	0x3daecd11	0.08535207
174	0xbd6c6cbc	-0.057720885
175	0xbd821672	-0.06351937
176	0xbe0f6c52	-0.14006165
177	0xbd3cdc9a	-0.04610882
178	0xbd61879b	-0.055060964
179	0x3d14f4cf	0.03636628
180	0xbe1945ce	-0.14968035
181	0xbe22e077	-0.15905939
182	0x3c4abbfb	0.01237392
183	0x3d766b4b	0.060160916
184	0xbbd0881c	-0.0063638818
185	0x3d4e423e	0.050356142
186	0xbdba0778	-0.09083456
187	0xbd3dec4a	-0.04636792
188	0xbe40241e	-0.18763778
189	0xbe070bb4	-0.13188058
190	0xbdd1faf7	-0.10252946
191	0x3d46a575	0.048497636
192	0xbd4a4e92	-0.049391337
193	0x3dc0dd50	0.09417212
194	0x3dfb1734	0.12260285
195	0x3b7b78cc	0.003837156
196	0xbe1de9a1	-0.15421154
197	0xbda7e0be	-0.08197163
198	0xbe220e35	-0.15825732
199	0x3db87949	0.09007508
200	0xbe05cc42	-0.130662
201	0xbe20c32b	-0.1569945
202	0xbd11ceaf	-0.0355975
203	0x3da6aff2	0.08139028
204	0xbe5582b1	-0.20850636
205	0xb89cdb5c	-7.4795185e-05
206	0x3d925066	0.07144241
207	0xbddf0144	-0.10888913
208	0x3c161774	0.009160865
209	0x3e44403c	0.19165128
210	0xbd42ab2e	-0.04752653
211	0x3a2b3283	0.0006530659
212	0x3da03661	0.07822872
213	0x3d87c7fe	0.06629942
214	0xbd60a1b0	-0.054841697
215	0x3dba1afc	0.09087178
216	0xbbd4037e	-0.006470143
217	0x3cfc872f	0.03082618
218	0xbc3dd7fb	-0.011587138
219	0xbd99d2a4	-0.0751088
220	0xbd221e59	-0.039579723
221	0xbd158bb2	-0.036510177
222	0xbd84c000	-0.064819336
223	0x3da3b53c	0.07993552
224	0x3e0b773e	0.13619706
225	0x3c2461fd	0.010033128
226	0x3ba4c22e	0.005028031
227	0x3d051584	0.032491222
228	0xbc4cef2c	-0.012508195
229	0x3e4633ff	0.19355772
230	0xbd14c335	-0.036318976
231	0x3d73ff95	0.059569914
232	0x3ddae11d	0.10687468
233	0x3e160593	0.14650564
234	0x3df30ea5	0.118680276
235	0x3e24644b	0.16053884
236	0x3d3d7142	0.04625059
237	0xbd0b4d2d	-0.034009147
238	0x3de0b9eb	0.10972961
239	0x3e0491f1	0.12946297
240	0x3d52bbc2	0.05144859
241	0xbd010aa4	-0.03150429
242	0xbcdd5e20	-0.027022421
243	0xbcd90ae4	-0.02649445
244	0x3e76f3c9	0.24116434
245	0x3ecada90	0.39619875
246	0x3f164b5f	0.5870876
247	0x3ddca401	0.10773469
248	0x3e9b5147	0.30335447
249	0x3e1c3f3b	0.15258496
250	0x3e63c03f	0.22241305
251	0x3d508a9e	0.050913446
252	0x3d9f514e	0.077791795
253	0xba185607	-0.0005811159
254	0x3c665d06	0.014060264
255	0x3c697512	0.014249103

t_conv2.bias f4 [3]
0	0xbefad5e5	-0.48991314
1	0x3ef3e0ec	0.4763254
2	0x3fbbd323	1.4673809
