models/cae.pth (torch, 29567 bytes, 10 tensors)

conv1.weight f4 [8, 3, 3, 3]
00000000: 1ef2 7fbd 9e0a 45be 11a8 b1bb 6638 0dbe
00000010: bad6 eebc 88aa ff3d fca4 74ba cf65 3d3d
00000020: 041b fdbd c778 cbbd 15e8 ae3b 433f 013e
00000030: bb54 09be e32d b1bd 58d8 d63d 5d66 60be
00000040: eb56 fc3d 704f c63d 51c1 90bb 8ada aebb
00000050: 054c 263e 01a3 1a3e 7e50 063e 3879 d2bd
00000060: 02db b93d 1947 c23d 982f d0bd d884 09be
00000070: 8957 88be 5dd8 2dbe f5f2 28be 0437 063c
00000080: 5205 78bd 0b11 ccbe ed31 85be 9150 aabe
00000090: 3170 8dbd 32d8 e2bd ee51 82bd 3337 8bbe
000000a0: 2439 533d 8935 68be 7652 cabd 8f00 a4be
000000b0: 585b b8be 9713 a4be b1f2 24be 5427 0bbe
000000c0: d4f8 8abe cb21 cb3c f6d0 8c3c 986d 45be
000000d0: 2e47 46be 271d 49be 8523 9f3e 04fc f93e
000000e0: 671e 963e b4f8 24bc d8ef 2a3e 0cd0 8c3e
000000f0: 0b96 813e 4f80 233e 084a c43e 73bd 9d3d
00000100: 0a18 d43d 58fe 7c3e 4ebb 1dbe 88d6 4f3e
00000110: e08f 91bd 4c4c 19be 1560 3dbd 3ba2 c33d
00000120: d03c b4be 36d7 15bc 3742 30be b813 b5be
00000130: 5092 78bd f775 44bd b990 29be cd91 a1be
00000140: d7be 85be 77b4 1dbe 86b9 ab3e aedc e93d
00000150: 7f63 9c3e f35a cc3e c368 cf3e ebf6 1d3e
00000160: fa3a 1b3d b97f c6bd 73e7 2a3e 084d 103e
00000170: f6be 8b3c 3c89 923e 5d08 d23e 5723 a03e
00000180: ac97 02bc 49e1 3c3e 919a 113e 97ad fb3d
00000190: 7ec2 ab3e bb2d 173e de90 8e3e 7f69 b43e
000001a0: 56bf c93e 0e33 853e ba24 633e 8ec3 a53c
000001b0: 694a 19be 7a37 493e f25f 143e c2b1 b3bd
000001c0: b8bf 5d3e 42ce 6d3e 25a4 6abe 7e7d 24be
000001d0: 204c 99be 2b23 adbd e4c0 723e 7385 52bd
000001e0: bdd4 aa3d 13a4 e03e 0c72 41bd 0ac6 883c
000001f0: 3492 a1be dd62 94be 6969 23be 0137 cb3e
00000200: f870 b83d f999 1f3e 3e1c d03e 22ba 963e
00000210: 0c1d bdbd 0bec 4abe ee65 81be f187 d0bd
00000220: ed0b 143e 35bf 89bd ea17 073d b36f 5bbe
00000230: 44eb a0b9 ed08 f6bc 50b1 12be c109 a03d
00000240: 7b2f 243e 2649 df3d 9b60 4b3e a6dc 0abe
00000250: f189 9d3d 3e7d 1bbe 31f1 2cbe 2db0 35be
00000260: e636 ae3d 3f97 a5bd 6ea1 7fbd a2ff 593d
00000270: 885d ebbd 4c7f 78bd fa1f 5d3e 20ea a2bd
00000280: 1163 e73d 00b4 24be 6d0d 76bd febc 29be
00000290: 6611 5abd 2d26 623d 7397 1dbe aef6 aebe
000002a0: 43f1 503e e68e 5c3e f26b 35be 8e82 d0ba
000002b0: df85 51be 5f3f aabe 2b8e cebd 94bf f5bd
000002c0: 136a babe 94b4 e93c ef9a 39bd da18 d43d
000002d0: 4d21 d8bd 04cb cdbd 63c6 5abe 5d04 95be
000002e0: 7274 c5bd ea90 91be 768f 2d3e 1be7 49be
000002f0: dca2 b1bd 4e08 b83d db78 263d ac68 fcbd
00000300: c5d3 573e 5109 873e 0e47 cebe 147c d83d
00000310: 33d6 7e3e 810e f6bd b375 3a3e 0008 493e
00000320: 1e05 90bd 49bf 4b3d 5937 6e3e 07be 88be
00000330: 41c1 d73d 1725 6d3e f4f4 32be 4ab9 203e
00000340: 5894 a83c e302 6ebd 48d1 523e 7b98 7e3e
00000350: 6d65 01bf e008 8b3d 99da 783d 2233 8cbd
-0.06248676 -0.19242331 -0.0054216464 -0.13791046 -0.029155124 0.12483698 -0.0009332446 0.04623967
-0.123586684 -0.09935146 0.005337725 0.12621789 -0.13411228 -0.0865133 0.10490483 -0.21914048
0.12321266 0.0968312 -0.0044175764 -0.0053361105 0.16239937 0.15101244 0.13116643 -0.10277027
0.090749756 0.09486217 -0.10165328 -0.13429582 -0.26629284 -0.16977067 -0.16498931 0.008191828
-0.06055195 -0.39856753 -0.26014653 -0.33264592 -0.069061644 -0.11076392 -0.06363283 -0.2719055
0.051568165 -0.22676672 -0.098790094 -0.32031676 -0.3600719 -0.32046196 -0.16108204 -0.13589221
-0.27142966 0.024796387 0.017189484 -0.19280088 -0.1936309 -0.19640027 0.31081787 0.48825085
0.2932007 -0.010069061 0.16693056 0.27502477 0.25309786 0.15966915 0.3833773 0.0770215
0.103561476 0.247064 -0.15403482 0.20296681 -0.0710752 -0.14970511 -0.04623421 0.095524274
-0.35202646 -0.009145549 -0.17212759 -0.35366607 -0.06068641 -0.047964063 -0.16559114 -0.3155655
-0.26122162 -0.15400873 0.3353998 0.114190444 0.3054466 0.3991314 0.40509614 0.15426223
0.03789804 -0.0969233 0.16689853 0.14091885 0.01705883 0.28620327 0.41022006 0.31276962
-0.007970732 0.18445314 0.14219119 0.12288969 0.33546823 0.14763539 0.278449 0.35236737
0.3940379 0.26015514 0.22181979 0.02023485 -0.14969791 0.19650069 0.14489725 -0.08774139
0.21655166 0.23223212 -0.22914179 -0.16063496 -0.2994089 -0.084539734 0.23706394 -0.0513968
0.08341358 0.4387518 -0.047227904 0.016695995 -0.31556857 -0.28981677 -0.1595818 0.39690402
0.09005922 0.1558608 0.40646547 0.29438883 -0.09234056 -0.19816606 -0.2527308 -0.10182179
0.14457674 -0.06725923 0.03298179 -0.21429329 -0.00030692865 -0.030033553 -0.14325452 0.078143604
0.16033737 0.10902624 0.19861071 -0.13560733 0.07692326 -0.15184495 -0.16888882 -0.17742987
0.08506565 -0.080854885 -0.06240981 0.053222306 -0.11492449 -0.060668275 0.2159423 -0.07954812
0.11298192 -0.1608429 -0.060071398 -0.16576001 -0.05323925 0.05521219 -0.15389805 -0.34172577
0.20404534 0.21538886 -0.17716959 -0.0015908049 -0.20461224 -0.33251473 -0.1008571 -0.11999431
-0.36409053 0.02852849 -0.04531377 0.103563026 -0.105532266 -0.10048488 -0.21364741 -0.2910489
-0.09641351 -0.28430873 0.16949257 -0.19717066 -0.08673641 0.08985959 0.0406426 -0.12324652
0.21076877 0.26374295 -0.40288585 0.10570541 0.24886398 -0.12014485 0.18208961 0.19631958
-0.07032226 0.04974297 0.23263301 -0.2670748 0.10534907 0.2315868 -0.17476255 0.15695682
0.020578548 -0.05810822 0.20587647 0.24862854 -0.5054539 0.06788802 0.060755346 -0.0684569

conv1.bias f4 [8]
00000000: 0672 f2be 2e62 093f 794f 8c3d eaad 25c0
00000010: 6407 b5bb e182 87b9 19d1 923f 430d 2cbe
-0.47352618 0.53665435 0.06851096 -2.5887399 -0.0055245627 -0.0002584672 1.1470062 -0.16801934

conv2.weight f4 [12, 8, 3, 3]
00000000: 3ccf c5bd f9ce f43c 72d4 e7bd e609 013d
00000010: 0179 bc3d f45f 53bd 9ed9 09bd db2c 6e3d
00000020: 41b4 babd 1bce 513e 1891 483e 5a16 933e
00000030: 9674 453e 7e0f 243e bb16 a33d 65b0 213e
00000040: a0df ef38 5cdf 0d3e 1e09 fd3b 71e5 c6bc
00000050: 0409 e13c d3d1 aa3d 901f ae3c 8b70 813c
00000060: 4265 1ebe 7e4c 25bc d10d 063d 7f92 dcbd
00000070: 6d4d 3ebe 9ca1 a6bd eac7 43be 3323 4ebe
00000080: 8937 9dbd 870a 01be c7d7 fe3d a9b8 cabb
00000090: 0337 88bc 4b94 333d 29f1 39be 64b6 68be
000000a0: e6df 2ebe 3084 cfbd e25d b6bd 18af dc3d
000000b0: f43b 30ba a140 bb3c 21c9 8fbd f052 45bd
000000c0: 1d4d dbbd 08cd ba3d b938 0cbe cb9c d8bd
000000d0: 984d 83bd 2938 a3bd be92 403d a2cf 183e
000000e0: a8cf 0c3e f7ec 2dbb 75ab b03d 909c 5d3e
000000f0: e9cf 8d3e a867 593e 0c0b 803e ad49 8cbd
00000100: 857a 25be 6b13 05bd 9eef b7bd 048e 6fbe
00000110: 8c3b bebd 39f9 003e e89d 42be ddfc 9d3c
00000120: 8790 2bbd 33cb fd3b 8151 c43d 21f2 c6bc
00000130: f067 85bd df33 b13d 2fc3 733a 45a5 cdbd
00000140: 243f a0bd 734f b63d a361 fa3d 5130 e8bd
00000150: 4f94 c63e 9f1a 8a3e 3fe3 383e 6b36 013e
00000160: 7a3f 013e de61 a4bd 39d4 973d 5595 04bd
00000170: 550c a33c 26d3 24be 9811 fe3b faee 923c
00000180: 39b4 20be a04f dcbd 65ee 75bc 587f 3ebd
00000190: 2da2 8ebe eca5 a1bc fd64 6abe e6b2 ccbe
000001a0: 46d4 b43b a798 493e 1a09 123e 4887 0c3e
000001b0: bc3c ef3d 60a4 083e 50a5 febc 1ba6 29be
000001c0: 0bd0 6fbe d54f 693e 5c40 81be 0580 40bd
000001d0: e21a 273e 055b a33d 37b1 7abb 465c 233d
000001e0: a383 7fbd 8ae2 c6bc 597f c7bd ffc1 f6bd
000001f0: 3eef 4fbd 7de3 c63d ecf0 0cbe 23e6 343d
00000200: a44a 8ebe 554e ad3d c5cb 693e 1622 0cbe
00000210: 2a4a 9e3d e972 e43d fdd0 31be 5878 843d
00000220: a207 86be 3e48 c73a 0f44 b43e 768e 48be
00000230: ffce 80bd 4ea5 503d 3068 9abd b346 153e
00000240: 1d37 b6ba f60c 92bd 40b5 a1bd 02cb bbbd
00000250: 8f51 ad3c 168e d9bd bb6a 42bd 3248 96bb
00000260: d861 ccbd 3a34 40bd c0e8 aabd 4e28 843d
00000270: 4b5c 773d 3455 dabc b3ef da3d b624 1bbd
00000280: 8ec2 193c cdca 5cbd 2465 eb3d b811 4a3e
00000290: 6e91 8b3e c864 7bbc 520e 8a3d ed04 e53d
000002a0: 7c92 8d3d e453 42bd d72b 163e d36d 463c
000002b0: dcea 4bbd be7e 2dbd a961 033e 92d3 003d
000002c0: 41ac 173e 7254 9fbc ec23 c0bd e84c 54bd
000002d0: 998f a7bd b47a a53c c354 d1bd 0814 fa3d
000002e0: 4693 943c 303f 4abc 1a8b 8cbc 71e6 03be
000002f0: 7b69 06bd 4764 87bd 0bc2 bfbc b858 a6bd
00000300: 4107 07be 0536 5ebd 3e54 c7bd fe37 c7bd
00000310: 5f48 f63b cbd3 cd3d 3f1d d0bc 5a71 82bc
00000320: ddf1 c5bd 0aab 12bd bc88 92bc 8e90 213d
00000330: ed24 b23d 4625 923c c62c 093d 6f70 473d
00000340: f75b 863d 3d1e f6bb 5d26 ec3d 8963 573d
00000350: 5f29 de3b f8ef 263d 0916 c6bd 2483 16be
00000360: da3a abbd ba28 2abb 3e46 bf3b 9d60 c03b
00000370: fcf3 e8bc c391 a7bd 2c9a 183c 9c38 973d
00000380: 6751 9d3d 9dbd 373d 0845 c73d 36ff a43c
00000390: 59a4 4c3d ae69 f2bd 40b5 803d 58db 26bc
000003a0: 49e0 cf3d e2b3 be3d 3c2e b4bd 3405 293b
000003b0: 30a9 14bc 952b e93d 884c 59bd e463 3a3d
000003c0: 97cb 923d f823 a3bd 04b0 efbd af11 55bd
000003d0: 525d c53c c419 81bd 610d 433d 125d 12bd
000003e0: 4368 e0bc 8b6f d63c 4b9e b3bd 21a4 dabd
000003f0: a43e 68bd 3c50 673c d42f 8b3d b04f c6bd
-0.096586674 0.029883849 -0.113198176 0.03150358 0.09202767 -0.05160518 -0.0336548 0.058148246
-0.09116412 0.20488779 0.19586599 0.2872799 0.19282755 0.16021535 0.0796332 0.15789945
0.000114380615 0.13854736 0.007722034 -0.024279328 0.02747012 0.08340802 0.021255285 0.015800735
-0.15468314 -0.010089038 0.03272802 -0.107701294 -0.18584223 -0.08136293 -0.1911923 -0.20130615
-0.07676608 -0.12601672 0.124435 -0.006186564 -0.016627794 0.043842595 -0.18158402 -0.22725827
-0.17077598 -0.10132635 -0.089046255 0.10775584 -0.0006722801 0.022857966 -0.07020784 -0.0481748
-0.107080676 0.09121138 -0.13693513 -0.10576781 -0.06411284 -0.07969696 0.047014944 0.14922956
0.1375109 -0.0026538947 0.08626453 0.21641755 0.27697685 0.21230948 0.25008428 -0.0684999
-0.16160019 -0.03248922 -0.0898125 -0.23394018 -0.092887014 0.12595071 -0.19005549 0.019285614
-0.04188588 0.0077451705 0.09585858 -0.024285378 -0.06513965 0.08652472 0.0009298799 -0.10041288
-0.07824543 0.089018725 0.12225654 -0.113373406 0.38785025 0.26973435 0.18055438 0.12618415
0.1262187 -0.08026479 0.07413525 -0.032368977 0.019903341 -0.16096172 0.007753562 0.017936219
-0.1569375 -0.10757375 -0.015010451 -0.046508163 -0.27858105 -0.019732438 -0.22890086 -0.3998024
0.005518469 0.19687138 0.14261284 0.1372348 0.11681506 0.13343954 -0.031084687 -0.1656727
-0.23419206 0.2278436 -0.25244415 -0.04699709 0.16318849 0.07976345 -0.00382526 0.03988292
-0.062381398 -0.024277944 -0.097410865 -0.120487206 -0.05076527 0.09711359 -0.1376378 0.044164788
-0.2779132 0.08462206 0.22831638 -0.13684878 0.077289894 0.1115473 -0.17364879 0.06468266
-0.26177698 0.0015204025 0.35208175 -0.19585595 -0.06289481 0.050938897 -0.075394034 0.14577751
-0.0013901923 -0.07131378 -0.07895899 -0.0916958 0.021157054 -0.10622804 -0.047465067 -0.004586243
-0.099796 -0.046924807 -0.08345175 0.06453 0.06039075 -0.026651956 0.1069025 -0.037876807
0.009384764 -0.053904343 0.114939004 0.19733322 0.27259392 -0.015343852 0.06741013 0.1118258
0.06912705 -0.047443286 0.14665161 0.012111145 -0.049784526 -0.0423572 0.12830223 0.03145177
0.14811803 -0.019449446 -0.093818516 -0.051831156 -0.08181686 0.020200111 -0.10221245 0.12210852
0.018136632 -0.012344167 -0.017156173 -0.12880875 -0.032815438 -0.06610923 -0.023407957 -0.081223905
-0.13186361 -0.054250736 -0.09732865 -0.097274765 0.0075159515 0.10050162 -0.02540457 -0.01592319
-0.096652724 -0.035807647 -0.017887466 0.0394445 0.08698449 0.017840039 0.033489965 0.04869121
0.0656051 -0.007510929 0.11530755 0.05258516 0.006779834 0.040756196 -0.096721716 -0.14698464
-0.083608344 -0.0025964216 0.005837231 0.005870892 -0.028436653 -0.08182099 0.009314101 0.07383844
0.07681542 0.044858564 0.097299635 0.020141225 0.04996142 -0.11836563 0.06284571 -0.010184132
0.10150201 0.09311654 -0.08797881 0.0025790455 -0.009073541 0.11385266 -0.0530515 0.04550542
0.07167738 -0.07965845 -0.11703494 -0.052018818 0.02409235 -0.063037425 0.04762018 -0.03573329
-0.027393466 0.026176235 -0.08770426 -0.10675836 -0.056700364 0.01411825 0.06796232 -0.09683168

conv2.bias f4 [12]
00000000: de0c 0c3e 842e 473f c7ce 54bd 9354 40be
00000010: aff0 99bf 19a3 f0bd 2f1a 25be c95c c93e
00000020: 8062 e73d 187b b43c f2eb 553d 5816 3cbe
0.13676783 0.7780535 -0.05195501 -0.18782263 -1.2026576 -0.117498584 -0.1612327 0.39328602
0.11298084 0.022031352 0.052226968 -0.18367898

conv3.weight f4 [16, 12, 3, 3]
00000000: 587f c23d b9db f63d e46a 173d 02a0 963d
00000010: 9ead 6abd 7693 0f3e 5191 163d 6aa6 fcbc
00000020: 9787 4ebd 698f 3c3e f901 533e 8ecb 593e
00000030: a40f 0cbe edc5 00be 535f 203e 73b4 2abe
00000040: 712d 68be ab88 433c 8d68 613b e696 50bc
00000050: 2a41 a43d 0591 39bd 88f5 333d 89c6 bb3d
00000060: 96e3 deba b2c1 e43d 70b7 bb3d ee8e b13d
00000070: aecd 8bbd 3072 34bd 74dd 8d3c 5393 07bd
00000080: dff0 98bd cd8d 8fbc 365d 1cbd dcf9 4ebd
00000090: a94e dbbc 4c50 ecbd 25c4 5cbe 5b49 553d
000000a0: be06 233e edd1 0b3e 2810 c3bd c8ed 083e
000000b0: 1dfe a9bc 726a 2c3b c64f bb3b ed38 6abc
000000c0: 8788 ab3d 52e7 143d d482 b63d d976 853d
000000d0: af3f 26bd 041b b2bd bff4 d5bc 5f34 253d
000000e0: d081 81bd 4cdf 8c3d 680f a13b f12f a6bc
000000f0: 066e b6bd 7199 8f3c 56b8 3b3c b22b 38bd
00000100: 85e2 b5bd cdf8 8b3c 056d 22bd 16ff 73bc
00000110: dc16 df3d c213 fabd b199 5dbe e82b 2b3d
00000120: 55c7 dfbc 2e8c 1cbd 09cf 8bbd 7531 f1bc
00000130: 9d99 973d 9ee1 4cbc 16d0 c73d 7607 bfbc
00000140: 22cc 64bd 8c85 3fbd 3bc7 27bc 00d8 e63c
00000150: 5a96 12be f830 aebc 28f0 bdbd 1599 d1bc
00000160: c005 283c 9a34 f03d 0034 cc3d 6210 2dbd
00000170: dda8 b33d 4fc8 11bd bd10 37be 54d1 f5bc
00000180: 0395 90bd 4d1b d1bd 6a3e fd3c 6f5a bf3d
00000190: aefa a6bd 5f24 50bc 0865 0b3c 023c 1a3d
000001a0: e5a4 a33d 93fe 47bd f441 c63c bb92 ba3d
000001b0: a291 af3d ff60 75bd d401 313c 5f2e 9e3d
000001c0: cf80 153c 1cbf 17bd 4e15 a5bd 19c8 893d
000001d0: 31e6 fdbc 1534 febd c3ba dabd 960f cdbd
000001e0: d3d9 08bd a73a 9fbd f801 dbbd 5975 c5bd
000001f0: c645 56bd be0c eebd 44a3 7ebd 4b43 c4bd
00000200: 0d01 853d 4a4a eebd 7afe ccbd 3380 70bd
00000210: de33 743d 5e78 b2bd caf1 4ebd a0b3 87bc
00000220: 0ce5 59bd eaa7 a1bd 682e 19bc ec21 86bd
00000230: 0a96 dfbc a6b3 b5bd 8edf 70bd d0d5 463b
00000240: 3ead 633c 863f b5bc 3967 06bd 12fd f13c
00000250: 5d68 cb3d 5c11 073e 58f9 a7bc bbb7 3e3e
00000260: 5f48 bb3c 593b 723d 4625 153d 5f7b ab3d
00000270: e690 7fbd f9b4 f63c 8cbf 863d b4eb 5ebd
00000280: efca b43d ba4d 223c 2fac abbd 42a7 4bbd
00000290: f31a b4bc 71a2 483d 0929 5ebc ee1b 69bd
000002a0: 5244 f3bc 759b 7abd f0a4 e5bc efd5 c13b
000002b0: 588d 983d 0575 98bc 37fd 21bd 9ff6 22bd
000002c0: a362 2fbd 759f 7bbd 681d 673d a493 43bd
000002d0: d3d0 e9bb 2ca5 9fbd 0cef 113d a26a 423d
000002e0: f49d cabc 0a9c 303d aadd f9bd 7c3c 05bd
000002f0: f0be fabd 2b5b 2f3c e199 7e3d 7704 883d
00000300: b1ed 35bd 332b 7d3c 41c8 2f3d b09b a4bd
00000310: 1794 abbd ae4c 5ebd 0ee8 b2bd 91e9 603d
00000320: 4faa 24bd 038f a9bd c245 abbd 8753 90bd
00000330: 8be4 313d 263c 87bd e6b9 1e3d 7fd6 42bd
00000340: 48b0 813d 1f70 bf3d c6d3 adbc 07b5 6b3c
00000350: 6ca4 313d 0ea3 213d 5d0e 9fbd b374 dbbc
00000360: f0a1 073e cd5f b5bc 1e7e 7a3d c30b 183d
00000370: ea53 bebd c2f6 e4bd deb5 1e3d 9be4 b63c
00000380: 922c 9a3d 334d 023e a9d4 b73d 5de4 273d
00000390: d13b 643d 7aa8 a7be 4658 bbbd 41ad 163e
000003a0: 9328 823d 1aec 4e3e bb80 6fbd fbd0 5ebd
000003b0: 9894 62bb 74b2 f6bd 3314 183d 3024 c9bc
000003c0: ecc3 a1bd 5c43 9e3d 173f b6bd 4fc7 b53d
000003d0: ffb2 2abc f2cd 83bd 0418 8cbd bd96 723d
000003e0: cf96 ac3d 82c1 17bd 9770 b0bd 8f4c dfbc
000003f0: f85d ad3d a3e7 8abd d6a6 053d 3326 e6bc
0.09496945 0.120536275 0.036967173 0.07354738 -0.05729448 0.14021096 0.03675968 -0.030841071
-0.050422277 0.18414082 0.20606221 0.21269056 -0.13677841 -0.12575503 0.15661363 -0.16670398
-0.22673585 0.01193444 0.0034394593 -0.0127312895 0.080202416 -0.045304317 0.04393533 0.09168727
-0.0017005082 0.11169757 0.09165847 0.0866984 -0.0682634 -0.04405421 0.017317511 -0.033099484
-0.074678175 -0.01752367 -0.03817483 -0.050531253 -0.026770907 -0.11538753 -0.21559198 0.05207191
0.1592054 0.13654299 -0.09524566 0.13371956 -0.020751053 0.0026308564 0.005716297 -0.014295799
0.0837565 0.036353417 0.08911672 0.06516809 -0.040588077 -0.08696559 -0.02611768 0.040333148
-0.06323588 0.06878528 0.0049151666 -0.020286532 -0.08907704 0.017529221 0.011457523 -0.044963546
-0.08881096 0.01708641 -0.03965475 -0.01489236 0.10893032 -0.122108 -0.2164066 0.04178992
-0.027316729 -0.038219623 -0.06826598 -0.029442528 0.07402346 -0.012504963 0.09756486 -0.023318987
-0.05585874 -0.04675822 -0.010240371 0.028179169 -0.14315167 -0.021263584 -0.09274322 -0.02558569
0.010255277 0.11728783 0.09970856 -0.042251952 0.087724425 -0.03559142 -0.17877479 -0.030007042
-0.07059672 -0.10210285 0.03091355 0.09343421 -0.08153282 -0.012703984 0.008507974 0.037654884
0.079904355 -0.048826765 0.02420137 0.09110018 0.08572699 -0.059906956 0.0108036585 0.07723688
0.009124949 -0.03704749 -0.08060704 0.06727619 -0.030993553 -0.124122776 -0.10680153 -0.100127384
-0.03341086 -0.07774859 -0.10693735 -0.09641523 -0.052312635 -0.11623524 -0.06216742 -0.095831476
0.06494341 -0.11635263 -0.10009475 -0.05871601 0.059619777 -0.087143645 -0.050523557 -0.016565144
-0.05319695 -0.07893355 -0.009349443 -0.06549439 -0.027293224 -0.08872156 -0.05880695 0.0030339845
0.013896285 -0.022125017 -0.032813285 0.029539619 0.09932015 0.13190216 -0.020504639 0.18624775
0.022861658 0.05913863 0.0364125 0.083731405 -0.062394045 0.030115591 0.065795034 -0.054424003
0.08827769 0.009906227 -0.08382451 -0.049720056 -0.021985507 0.04898304 -0.013559588 -0.0569114
-0.029695664 -0.06118341 -0.02803275 0.0059153954 0.07448834 -0.018610487 -0.039548125 -0.039785977
-0.042818677 -0.061431367 0.05642453 -0.047748223 -0.0071354895 -0.07795176 0.035628363 0.047464974
-0.024733521 0.04311756 -0.12200482 -0.032528386 -0.1224345 0.0107028885 0.06215847 0.066414766
-0.044416133 0.015452194 0.042915586 -0.080375075 -0.08377855 -0.054272346 -0.08735667 0.054910246
-0.04020148 -0.082792304 -0.083629146 -0.070471816 0.043430846 -0.06603269 0.038751505 -0.04756784
0.06332451 0.09347557 -0.021219146 0.014386422 0.043369696 0.03946214 -0.077664115 -0.026789045
0.13245368 -0.022140408 0.06115543 0.03712059 -0.09293349 -0.11179878 0.03874766 0.022325804
0.07528032 0.12724762 0.089761086 0.04098927 0.055721108 -0.32745725 -0.09147696 0.14714529
0.06355395 0.20207253 -0.058472376 -0.054398518 -0.0034573432 -0.12045756 0.03712864 -0.024553388
-0.07898697 0.077276915 -0.08898752 0.08875906 -0.010418653 -0.06435765 -0.06840518 0.059225786
0.08427202 -0.037049778 -0.08615225 -0.027258186 0.08465189 -0.067824624 0.03262981 -0.028094387

conv3.bias f4 [16]
00000000: 01d0 38be c737 b6be 256f 903e 2fe1 23be
00000010: 9e04 2ebf 0f35 63be 1107 0fbf 52d1 363f
00000020: 67c2 e9bc 2be1 0fbe 255c e4bd b792 55bd
00000030: 8261 51be 1d8f 3b3d 897d 9abe cf0e b23e
-0.18048097 -0.3558943 0.28209797 -0.1600387 -0.67975795 -0.22188209 -0.5587016 0.7141315
-0.028535081 -0.14050739 -0.11150388 -0.05214187 -0.20447353 0.04579078 -0.301739 0.34776923

t_conv1.weight f4 [16, 12, 4, 4]
00000000: 8407 9ebd 7d33 cb3c f9fa 7dbd cd5c 6d3d
00000010: d497 b6bb db65 783b 7598 06be fd48 3d3c
00000020: 0684 fb3c 037c 573d 0ee1 be3c 8eab d53d
00000030: 6b7b abbd e4e5 60bd 604b 8fbd 7fed 41bb
00000040: 2d19 f03c 8fdf c83c 117d b83b 5d1c 393c
00000050: 8942 373d edb2 523d 9c83 31bd 76c3 eabc
00000060: 7449 bfbc 77f8 90bd 1148 873c 55f1 3dbd
00000070: b4b1 50bd 8367 0abc da29 16bc e768 04be
00000080: fff1 86bd 5762 00bd cc5e d1bd d508 34bd
00000090: e350 63bc c98c 2a3c 11d4 d83c cd31 c53c
000000a0: 79e5 d13d fc74 dd3d 0e2a ac3d a777 5cbd
000000b0: 9f0e 2bbc 697a 933d 8fde 8abc 0edb 49bd
000000c0: 9181 3ebd 19b6 2e3d 33a2 fabc 5f9a 59bd
000000d0: 8b1d 29bd 05f9 0f3b 8c21 72bd f095 2dbd
000000e0: e59d dabc af61 c3bc 5f24 68bd 1134 293c
000000f0: 1eb8 0b3c ce36 20bc 1f6d aebc 0153 1c3b
00000100: db4c 8ebb dcd3 84bd a285 d1bd 548f dfbd
00000110: ec64 fe3c a478 953d 5d0d 4dbb b30a b2bb
00000120: 8e69 3dbd e642 9ebc 238a 06be 8654 23be
00000130: d81b 543d 5bb0 683d 7006 a5bd 1e8c 37bc
00000140: ce39 90bd 7a55 0cbd 1d9d 943d 4591 77bd
00000150: baa2 89bd 74f5 ac3c 5999 8d3c 4b48 3fbc
00000160: d69f 4cbd 1407 7d3d ed65 57bc 4dd2 063d
00000170: e0d0 44bd 9ec0 abbc f8fc 89bd 4b64 3cbd
00000180: d7f6 ebbd 410f f0bd f456 d7bd 54b9 eabd
00000190: 8257 9bbc 9b96 45bd f02c 11be 5867 d8bd
000001a0: 411d 80bc 94a0 04bd 0284 9bbc fe07 1ebd
000001b0: 02de edbc 83ff 2e3c 7a32 c9bb 31e0 64bd
000001c0: 2633 8d3b 1d56 d13c c7e3 ccbc fd33 11bd
000001d0: c347 69bd 2348 353d a9ee 48bd 2119 553c
000001e0: cddc 3d3d a112 7cbd f41e b6bc f011 56bb
000001f0: 3944 a43c 8201 2c3c f5bb 80bd 8df3 2f3d
00000200: decb 23bd 85a9 703d 5f27 813d 7eb2 843d
00000210: 07f3 a9bc ac31 18bd 05e9 603d 1d9b 2ebc
00000220: 7215 7ebc 80c1 2cbd 87ca 853c 57a8 37bd
00000230: 6130 cdbc b46f 81bb a039 81bc fca5 30bd
00000240: 4d27 ac3c a446 003e 9ec3 2a3d 0b87 4f3c
00000250: 3974 cd3c 5a0b 533d 325a 02be 9e18 103e
00000260: 6b43 183e f16f 12bc 6e42 22be 204a a63d
00000270: 91cd 88bc 8e4c 25be b513 58be 5ebf e73d
00000280: e0a8 ab3c 0797 d03d 4283 bd3d a910 7ebd
00000290: a85c a5bd 0f93 eb3c 42bf 793d 1c3f 813d
000002a0: 1579 c93d 7d42 8c3d 30ce 2a3e ec2a c83d
000002b0: 0c8b 48bd b151 aebd 673b 15bd 4f2e 99bd
000002c0: 85c1 3a3c 31cf cf3d 9db9 b73d 1e69 ca3c
000002d0: 4644 00bd e61b 0fbd f80f 0e3d 568f 553d
000002e0: 0a9d 1abc 1705 f9bd 6748 5cbd 0642 0ebd
000002f0: 5bdf 9e3c 8df8 333c 08d5 9b3b d51e 073d
00000300: 948f 883d a5c3 83bd 58ce 2abd f2ca f0ba
00000310: f5cc 36bd 8c95 b3bc 1fbb 60bd 8f49 b63c
00000320: 225b 393b 9832 08bd 3460 293d 8470 61bd
00000330: e669 943d ec7a e83c bec5 713b d7a2 c4bc
00000340: e0c6 3f3c 3390 d83b 0a36 1ebd bd9a a43c
00000350: f717 a63c a423 9c3d cdcd 9abc 3be2 393d
00000360: 1153 92bb 5d78 18bd 8750 60bd ecf9 fabb
00000370: d6a2 b2bc d5e9 31bd ce78 3abc afce 813c
00000380: d436 ce3d 1031 3cbc df74 2f3d 81ea 343c
00000390: bb18 f33d 3ca7 ff3d 7b27 eb3c c715 023d
000003a0: e1bc 813d a8ef a73d bdc1 b33c fbde 923c
000003b0: b011 9b3d 8511 c83d ec02 763c 2f52 1c3d
000003c0: ed82 f4bb 8395 99bc 23a2 00bd 8e87 4ebd
000003d0: 5460 8ebc 60de 2cbd 1634 203d 8c31 75bd
000003e0: e1db bf3c 66df c0bc 5c6e 00bd dd36 c03b
000003f0: df31 483b a6aa 90bb 258c 19bd a4a5 3ebd
-0.07716277 0.024804825 -0.062006924 0.05794983 -0.0055722985 0.0037902507 -0.13144095 0.011553046
0.030702602 0.0526085 0.023300674 0.10433112 -0.083731495 -0.05490674 -0.069967985 -0.0029591022
0.02930888 0.024520664 0.0056301435 0.011298266 0.044741187 0.05144017 -0.043338403 -0.028657656
-0.023350455 -0.07078641 0.016513856 -0.04637273 -0.05095072 -0.008447531 -0.009165252 -0.12930642
-0.06589126 -0.031343784 -0.10223159 -0.043953735 -0.013874265 0.010409542 0.026468309 0.024071598
0.102488466 0.108133286 0.08406459 -0.053825047 -0.010440498 0.07201082 -0.016951827 -0.049281172
-0.046510283 0.04265413 -0.03059492 -0.053125735 -0.04128794 0.0021968496 -0.059114024 -0.04237932
-0.026686618 -0.02385029 -0.05667531 0.010327355 0.008527784 -0.009778691 -0.021292267 0.0023853185
-0.004342658 -0.064857215 -0.102305666 -0.109160095 0.031053983 0.07298401 -0.0031288483 -0.0054334044
-0.046243243 -0.019319009 -0.13138632 -0.15950212 0.051784366 0.05680881 -0.080578685 -0.01120284
-0.07042275 -0.034261204 0.072565295 -0.060441274 -0.06720491 0.021113135 0.017285036 -0.011674951
-0.04995712 0.06177433 -0.01314686 0.032915402 -0.04805076 -0.02096587 -0.06737703 -0.045994084
-0.1152169 -0.117216595 -0.10514632 -0.1146113 -0.018962625 -0.04823933 -0.14177299 -0.10566586
-0.01563895 -0.0323797 -0.018983845 -0.03858184 -0.029036526 0.010681036 -0.0061400505 -0.055877868
0.004309076 0.025553757 -0.025010956 -0.03544997 -0.056953203 0.044258248 -0.04905573 0.0130064795
0.04635315 -0.061541203 -0.022231556 -0.00326645 0.020052062 0.010498406 -0.0628585 0.042956877
-0.039989345 0.058755416 0.063063376 0.06479357 -0.020745767 -0.037156746 0.054909725 -0.010657099
-0.015508043 -0.042176723 0.016331924 -0.044838276 -0.025047483 -0.0039500836 -0.015774548 -0.043127045
0.021014834 0.12526947 0.04169046 0.012666474 0.025079833 0.051524498 -0.1272972 0.1407189
0.14869468 -0.008937822 -0.15845653 0.08119607 -0.016699584 -0.16142485 -0.21101268 0.11315797
0.02095455 0.10185056 0.09253551 -0.062027607 -0.080743134 0.028756646 0.060973413 0.06310865
0.09837548 0.06848619 0.16680217 0.09773812 -0.04896073 -0.08511675 -0.036433604 -0.07479536
0.011398678 0.101469405 0.0897095 0.024708327 -0.03131511 -0.034938715 0.034683198 0.05213865
-0.009436855 -0.12159174 -0.053779986 -0.034730934 0.019393614 0.010984552 0.00475562 0.032988388
0.0666801 -0.064338006 -0.04170069 -0.0018371029 -0.044629056 -0.021921895 -0.054865953 0.022251872
0.002828308 -0.033251375 0.041351512 -0.055038944 0.07246761 0.028378926 0.0036891545 -0.02400343
0.01170513 0.0066089868 -0.038625754 0.020093316 0.0202751 0.076239854 -0.018896962 0.045381766
-0.0044654687 -0.037224162 -0.054764297 -0.0076591875 -0.021806162 -0.04343589 -0.011381341 0.015845625
0.100690514 -0.011486307 0.042836066 0.011042238 0.11869951 0.12483069 0.02870535 0.03175905
0.06334854 0.08200008 0.021942968 0.017928591 0.07571733 0.097689666 0.015015345 0.038164314
-0.0074618966 -0.01874805 -0.031404626 -0.050422244 -0.017379917 -0.04220426 0.039112173 -0.059861705
0.023420276 -0.023544025 -0.031355247 0.005865915 0.0030547304 -0.004414874 -0.037487168 -0.046544686

t_conv1.bias f4 [12]
00000000: f4a0 483f 7cab ff3a 399d c13d ae46 93bd
00000010: cbfc bb3e 73d6 dabd 76ae af3e fe7a 80bd
00000020: b1e8 9e3d a829 1f3f 2edf a63e ce92 c73d
0.78370595 0.0019506062 0.09453816 -0.071912155 0.36716303 -0.10685434 0.3431279 -0.06273459
0.07759226 0.6217294 0.32592148 0.09744798

t_conv2.weight f4 [12, 3, 4, 4]
00000000: 68ad 34be cb80 efbd da8c 5abe 8756 22bd
00000010: 6143 50bd 6ce5 82be c2e8 93be 7b55 fdbc
00000020: c22b febd aad9 b2be 59c8 88be 5619 77be
00000030: 2197 41bd 1657 29be b43b 14be 5ab4 84be
00000040: 3dba debd 4bfc 4cbe 3dd4 25be a3e3 cfbc
00000050: 8326 063a b5b7 4abe 341e 16be a580 2cbe
00000060: 41c2 33be bd4d 87be 7aae 1ebe cd6f 94be
00000070: 12bb dbbc fd6c 6abd 63dc 82be ddda 9fbc
00000080: 0c1d 96bd 0189 2abe 90c0 f7bd b342 d8bd
00000090: d925 5bbb 2368 65be 551a 1bbe a9a9 27be
000000a0: 6073 57be 7c79 8cbe b4fd 88be 4b55 1dbe
000000b0: 01ea f5bd 6545 24be fdee 82be ec4e 2bbe
000000c0: b324 41be a80a 3c3d 291c 26be 4c6b ec3c
000000d0: 2e92 e1bd 5c36 283d be38 42be 1d65 813d
000000e0: cf16 0b3d 074c 11bd b4aa 6c3d 70d7 783d
000000f0: a416 0f3d e69c bfbd 1b44 b2bd 9ee4 b5bc
00000100: 7fb6 36be a4b2 a2bd ad55 4dbd 76a5 093d
00000110: 31ec 25be eb85 a5bd 4b4a 0abe 2a04 8cbc
00000120: 9d91 2fbd c28e 0a3d ddbc db3d c20a d03b
00000130: 1035 23be 84a6 e03d 664e 68bd 7f5d 853d
00000140: 8088 e0bd bcf0 51bc dbc2 653d afca 37bd
00000150: 3687 38be 086f 96bd b113 e3bd c4eb 133d
00000160: 217d 8b3d fa53 4cbd 0317 05bd 4855 9b3c
00000170: 7338 b1bd caff b9bc e4e6 d53d 7e45 d23c
00000180: 7404 c33d ae74 9d3a 6aa8 1cbd d4d9 f83b
00000190: 0134 453b 80cf a83d 8588 0e3e 0949 743d
000001a0: eb38 02bd 7c3d 3a3e 5ade 3f3e 506d 023c
000001b0: eb5d e73d 7aa0 a13b 6a19 b53c aaa4 9d3d
000001c0: 6392 8b3d aa99 aa3a 15a1 cabc 1b50 dc3c
000001d0: d050 6d3a a6f4 fc3d 5839 173e 40a3 063d
000001e0: 2289 d1bc 82a9 113e b0ca 4a3e 34e2 253d
000001f0: 0e40 e53d b4d1 d4bb 724d 1d3d 44cc 753d
00000200: 6849 3f3d afe3 9b3c 36fe 42bd 7936 753d
00000210: 65ca 64bb c643 9b3d d433 513e e3fc 473d
00000220: 6805 88bd c16b 593e 0875 f03d acdf ce3d
00000230: 339b 903d ea07 5f3c c798 d63c 41d8 b43d
00000240: 2895 8e3c 838f 263e bfb0 0a3e 7a80 52bd
00000250: faa8 183b 6bfa 923d b83c b636 39fc 7fbd
00000260: 4482 243d d5d3 403c f8ae f73c d449 273e
00000270: 359c 0f3e ca33 afbd 882a 4c3b 89ec e33d
00000280: 9ebb a33d 1a92 a23d 7c09 1cbe 1262 13be
00000290: bf53 c4bd 7d2e 64bc 499a 003d 6108 23be
000002a0: 1bbb 5bbb efd5 e5bd 8489 a33d c48c 953d
000002b0: 4699 e1bc f42e 1ebe 5545 c2bc c2c0 a1bd
000002c0: e567 e9bb 0c62 adbc 55cd 9cbd 65e3 46bd
000002d0: e28f cebd 0f34 6e3d b7fc 39be 872a 44be
000002e0: faee a03d 7257 a83d ba5b a03c 0c70 d23d
000002f0: db76 d33d a957 cf3d 29ed 9d3d 6215 223c
00000300: ccb2 18be 482c 43bd 8352 5cbe a779 13be
00000310: 255c 05be 7451 383e fd59 cc3d fbbb c4bd
00000320: 037a b6bd 6634 233d 687c 55be 032f 16be
00000330: bc8c 5cbe 91a1 2bbd 1231 0dbe e074 cbbd
00000340: ccc2 f3bd 0656 e73d 1ea2 02be 9772 2ebe
00000350: 71ff a0bc c1c9 5a3e 523b 033e bdfb 113e
00000360: 54ed f8bd b38b ed3d 5b89 dcbd 417b fbbb
00000370: a24a a5bd 962f 2e3c c78e 87ba dd98 24be
00000380: 1d79 a3bd 155a f93d f083 473d 2fa8 b43d
00000390: 5051 d03d e321 bc3e 3e29 ae3e 1475 143e
000003a0: 1c00 2d3d 501f 883e a5d9 963c 309f 0bbc
000003b0: 73ed dc3a d197 173e 5613 053d c97f e53c
000003c0: 7a06 f23d 9e44 38bd e1b2 05be d40d 26bd
000003d0: 9d25 ac3d 8a88 d8bd 8cf8 ec3b cbfb ecbd
000003e0: 8fdc 9e3d f07f 61bd 2b66 8b3d 37e5 8d3d
000003f0: cde5 523c b119 84bd 87ee 3bbd 5ff6 b2bd
-0.17644274 -0.11694487 -0.21342793 -0.0396333 -0.050845508 -0.2556566 -0.28888518 -0.03092455
-0.1241069 -0.3493169 -0.26715353 -0.24130759 -0.04726327 -0.16537127 -0.144759 -0.25918847
-0.10875366 -0.20018117 -0.16194244 -0.0253771 0.0005117433 -0.19796641 -0.14659959 -0.16845949
-0.1755457 -0.26426497 -0.15496245 -0.28991547 -0.0268226 -0.057232846 -0.25558767 -0.019513542
-0.07329759 -0.16653825 -0.12097275 -0.10559597 -0.0033439307 -0.22403006 -0.15146764 -0.16373314
-0.21040106 -0.27436435 -0.2675606 -0.15364568 -0.12007523 -0.16042097 -0.2557296 -0.16729325
-0.18861656 0.0459086 -0.1622168 0.028859757 -0.1101421 0.041067466 -0.18966958 0.06318114
0.0339573 -0.035472896 0.057779983 0.060752332 0.0349337 -0.09356098 -0.08704396 -0.02220374
-0.17843054 -0.07944229 -0.050130535 0.03360506 -0.16203381 -0.080821835 -0.13504903 -0.01709183
-0.042863477 0.03382755 0.10729382 0.0063489387 -0.1593821 0.1096926 -0.05671539 0.065119736
-0.10963535 -0.012813743 0.05609403 -0.04487103 -0.18020329 -0.07345396 -0.1108774 0.036113515
0.06810976 -0.049884774 -0.03249265 0.018961564 -0.08653345 -0.022704978 0.104444295 0.025667902
0.09522334 0.0012012923 -0.03824655 0.0075943265 0.0030090811 0.082427025 0.13919266 0.059639964
-0.031792562 0.18187517 0.18737164 0.007960632 0.1129721 0.0049324604 0.022106845 0.07697423
0.068150304 0.0013015766 -0.024735013 0.026893666 0.00090528745 0.123513505 0.14767969 0.03287053
-0.025578085 0.14224818 0.19803882 0.040498927 0.11193858 -0.006494725 0.038403936 0.060009256
0.046700865 0.019029466 -0.047605716 0.059866402 -0.0034910676 0.07581286 0.20429927 0.048825156
-0.06641656 0.21232511 0.11741072 0.10101256 0.07060852 0.013612727 0.026195897 0.0883031
0.017405108 0.16265683 0.13543986 -0.051392056 0.0023294077 0.0717667 5.4310913e-06 -0.062496398
0.040163293 0.011769255 0.030234799 0.16336757 0.14024432 -0.085548 0.003115328 0.111291
0.079947695 0.07938023 -0.15237993 -0.1439288 -0.09586286 -0.013927099 0.031397138 -0.15921165
-0.0033528272 -0.11222445 0.079852134 0.073022395 -0.027538907 -0.15447599 -0.0237147 -0.07898094
-0.007122981 -0.021164916 -0.076563515 -0.048556704 -0.10086037 0.058155116 -0.1816281 -0.19156848
0.07858081 0.08219804 0.019574989 0.102752775 0.10325404 0.10124142 0.0771125 0.009892793
-0.14911956 -0.04764965 -0.2151585 -0.14401875 -0.13023432 0.17999822 0.099781014 -0.09606167
-0.08909991 0.039844893 -0.20848238 -0.14666371 -0.21538061 -0.04190213 -0.1378825 -0.099344015
-0.11902389 0.112957045 -0.12757155 -0.170359 -0.019653054 0.21366026 0.12815598 0.14256187
-0.12154642 0.11598911 -0.10768386 -0.007674605 -0.08070876 0.010631463 -0.0010342234 -0.16073938
-0.07982085 0.12175385 0.04870981 0.08821141 0.10171759 0.36744604 0.3401584 0.14497787
0.042236432 0.2658639 0.018414328 -0.00852184 0.0016855433 0.14804007 0.032489143 0.028015034
0.118176416 -0.044987313 -0.13056518 -0.04054053 0.08405612 -0.10572918 0.0072317775 -0.11571463
0.07756912 -0.05505365 0.06806596 0.06928485 0.012872172 -0.06450213 -0.045881774 -0.08738398

t_conv2.bias f4 [3]
00000000: 34f4 043f 2781 0f3f 8593 fd3e
0.51935124 0.56056446 0.4952661
