models/cae.pth (torch, 29503 bytes, 10 tensors)

conv1.weight f4 [8, 3, 3, 3]
000000 f3 3e ed 3d 59 a4 bd bd 5e cb ba 3d 84 b7 e3 be
       0.11584272 -0.092598625 0.091208205 -0.4447595
000010 42 86 c3 3d 55 9f 81 be a8 74 fb 3c 30 b8 af be
       0.09547092 -0.25316873 0.030695274 -0.3432021
000020 80 b3 c8 3c 05 07 d8 3d 5f 57 60 bd 85 6a 53 3c
       0.024499655 0.10548214 -0.054770824 0.012903814
000030 ab ac 86 be ec 1c d3 bd 6e d0 8a be 8b a7 d0 bb
       -0.2630361 -0.10308251 -0.27112144 -0.006367629
000040 e4 25 f5 bd 83 e9 24 be dd d5 8d bd 93 47 97 be
       -0.11970118 -0.16104703 -0.06925557 -0.29546794
000050 9e ec 26 be 2f c3 28 be 96 f3 f7 bd 2b 19 f7 be
       -0.163012 -0.16480707 -0.12107007 -0.4826139
000060 ff ef aa be 02 ef 23 bf 46 52 fb be 5f d5 26 bd
       -0.33386227 -0.6403657 -0.49086207 -0.04073083
000070 4b e0 13 be a4 85 26 bc 7a 1b 30 bd 27 ff d0 be
       -0.1444103 -0.010163698 -0.042994954 -0.40819666
000080 41 10 33 bd d9 ca 91 bb 06 2a fe bd 8b 0f db bc
       -0.043716673 -0.00444923 -0.12410359 -0.02674081
000090 af b4 e3 3c 35 ca 2d bd b3 93 a9 3c c7 85 a1 bd
       0.027796118 -0.042429168 0.020700311 -0.07886844
0000a0 e6 d2 be bd a3 8f ae 3b 98 b4 9d 3d a2 3f d0 3d
       -0.093175694 0.0053271814 0.07700461 0.10168387
0000b0 27 ff 2c 3d 9d 7e 03 3d f6 c2 97 3d 13 a1 73 39
       0.04223552 0.03210317 0.07410233 0.0002323429
0000c0 e1 04 2c bc b9 06 b8 bd 9a 53 0b 3e 18 4c de 39
       -0.01049921 -0.08985657 0.1360611 0.00042399834
0000d0 00 3f bd 3d 59 e4 05 bd 2e 9c cb bd 4b 02 5b bb
       0.09240532 -0.032688472 -0.09941898 -0.0033418115
0000e0 c3 c2 c2 bd 97 b0 17 bd ca 50 16 3e cb aa 1c bd
       -0.09509804 -0.037033644 0.14679256 -0.03824882
0000f0 41 d1 63 bc a3 5b 5d be c1 23 d9 3c 38 9e 3a 3e
       -0.0139048705 -0.21616988 0.026506307 0.18224418
000100 70 e5 4c bd c5 0f e9 3d 33 71 9c bc 3c b2 37 3d
       -0.050023496 0.11379961 -0.019096946 0.044847712
000110 1f ae da 3e 07 10 18 3e d3 04 2d 3e 92 55 c1 3c
       0.4271097 0.14849864 0.16896372 0.023600373
000120 87 b0 85 bd b1 12 85 bd b5 b3 51 bd 84 9b e8 bc
       -0.065278105 -0.06497706 -0.051196773 -0.028394468
000130 f4 67 e2 bd ae 3f 74 3e 60 6c c9 bd 32 e2 4c be
       -0.11054984 0.23852417 -0.09835124 -0.20008162
000140 d9 e0 12 be b1 01 34 3c 3f a4 f5 bc b7 d7 dc 3d
       -0.14343585 0.010986731 -0.029985545 0.10783332
000150 e7 e5 8e 3d b6 74 b7 bd 0f 3e 21 be a6 06 92 bc
       0.06977444 -0.08957808 -0.1574633 -0.017825436
000160 31 3a 86 bd 91 a7 20 3e 60 28 3a bd bb 86 26 3e
       -0.06554068 0.15688922 -0.04544866 0.16262333
000170 bf 38 97 bd 65 a7 8c 3d 38 be 2d 3e a8 e5 40 be
       -0.0738387 0.068678655 0.16967094 -0.18837607
000180 97 64 8a bc 6e 58 d1 bc 1f 56 87 bd 67 a1 af bc
       -0.016893668 -0.025554862 -0.06608223 -0.021439267
000190 0c 1f c7 bd c1 c4 26 bd 10 64 d5 bc 97 21 04 be
       -0.097227186 -0.040714983 -0.02604869 -0.12903439
0001a0 12 30 49 bf ae 2b a2 bc 36 1e c9 3d f7 43 3c be
       -0.78588974 -0.019796219 0.098202154 -0.18385302
0001b0 f6 22 1d 3b 7d 85 47 bb e0 c9 bf 3d 6e d0 cc bc
       0.0023977137 -0.0030444555 0.093646765 -0.02500173
0001c0 51 ec d2 3c c1 d3 38 bd 57 35 dd 3d 4f 5a 9f bc
       0.02574745 -0.04512382 0.108011894 -0.019452242
0001d0 35 5c bd 3d e2 6d 6d be cb 93 d4 bd b4 33 7d be
       0.09246103 -0.23186448 -0.10379752 -0.24726754
0001e0 b5 ef 51 be 51 28 48 3d 3e 3c b1 bc 71 02 77 be
       -0.20501597 0.048866574 -0.021635171 -0.24122025
0001f0 7f 47 11 be ff cf 9e be 70 38 75 3e 86 6e 25 bd
       -0.1418743 -0.31018063 0.2394731 -0.040388606
000200 d0 07 0b 3e 28 32 be 3b 30 b3 0b be 61 58 fd 3c
       0.13577199 0.005804319 -0.13642573 0.030925931
000210 0c 49 6e 3e 8e 3b 5c bd fb 6c 34 3e f1 5e 19 bc
       0.23270053 -0.053767733 0.17619698 -0.009361015
000220 91 8e ea bc 6a 9d d1 3c ab fb 18 bd 94 44 a8 bc
       -0.028632434 0.025587756 -0.037349384 -0.020540513
000230 c5 bc 77 3d 00 74 af bd b5 9c 8c bd 29 4c fd bc
       0.06048276 -0.08567047 -0.06865827 -0.030920105
000240 35 0d 43 bd c5 12 e6 3b 9e 59 c2 bc 61 0e 5e bc
       -0.047620017 0.0070212805 -0.023724373 -0.013553233
000250 b0 c6 1e 3e 17 6f a4 3d 65 d5 64 3d 31 8e b6 3d
       0.15505481 0.08029001 0.05586757 0.089138396
000260 bd 95 1d 3d c6 1a 36 3d 4d e9 3a 3d 69 55 de bc
       0.03847288 0.044459127 0.04563265 -0.027140336
000270 41 0b 82 3d 5a 5c 65 3d db 62 04 be 81 2f a7 bc
       0.06349803 0.055996276 -0.12928335 -0.020408394
000280 02 30 b2 3d fe fb b8 be 0a 5a ce 3b 0a 98 15 3d
       0.08700563 -0.36129755 0.0062973546 0.03652195
000290 bf d3 0a 3e b6 ec 1b bd b1 05 f0 3d 09 da a7 bd
       0.13557337 -0.038067542 0.117198355 -0.08195884
0002a0 7a 6e 40 bd 80 1b 3a 3e d5 03 30 be c5 a0 1a 3d
       -0.04698036 0.18174553 -0.17188962 0.037750978
0002b0 a8 36 b3 bc 04 23 c6 3d 1d c5 f3 3d 8c db 6e 3e
       -0.021876648 0.096746475 0.11902831 0.23325938
0002c0 3a 5e 70 bd 6d f6 9d bc 1b 16 3d 3d ec b7 1d 3e
       -0.05868361 -0.019282544 0.04616366 0.15402192
0002d0 2f 22 91 bc ba a1 ef bd ab 20 83 be f6 e1 59 be
       -0.017716495 -0.11700769 -0.2561086 -0.21277604
0002e0 e6 29 53 be 30 ae 99 bd c5 e1 02 3c 2b 4c af 3e
       -0.20621452 -0.07503927 0.007988398 0.342378
0002f0 14 da 7d bd dc 90 a9 bd 34 84 cd 3d cb e8 c5 3d
       -0.061975554 -0.08279583 0.10034981 0.09663542
000300 ac 34 95 3d 6a c5 62 3d bc c5 0b be fc 33 cd 3c
       0.07285437 0.05536405 -0.13649648 0.025049202
000310 ce 5a db bd d1 13 8c 3c 51 21 ff bc 3d dc 50 3c
       -0.10710679 0.017099293 -0.031143816 0.012747821
000320 1e ac 9a 3d 5c a9 5c 3d 08 ca bd 3e cf e0 16 bd
       0.0755236 0.05387245 0.370682 -0.036835488
000330 34 c2 25 3c 4f c3 ce 3d 02 9a a2 3d 6e fb 03 3e
       0.010117102 0.10095846 0.07939531 0.12888882
000340 e2 b4 16 3e e4 a7 09 bc ae a2 4d bd 75 30 13 3e
       0.14717439 -0.008401845 -0.05020397 0.14373954
000350 b5 53 7a 3e b5 bb d3 3d 34 c9 bd bc 60 ad 90 3d
       0.24445994 0.10338537 -0.02316723 0.07064319

conv1.bias f4 [8]
000000 12 72 95 3e 35 d3 26 3f c7 a9 86 bb 57 45 4b 3e
       0.2918859 0.65166026 -0.0041095945 0.1985067
000010 6b 2b fb 3d fd 12 ec 3d 4e 68 a7 3b f3 74 15 be
       0.12264141 0.11527059 0.0051088696 -0.14595394

conv2.weight f4 [12, 8, 3, 3]
000000 9a e0 08 be 21 62 19 be d1 27 af 3c 40 45 e9 bd
       -0.13366929 -0.1497884 0.02138129 -0.113901615
000010 a0 ce bb bd c3 2e 40 3c 40 07 4a bd 38 70 19 be
       -0.0917027 0.011729899 -0.04932332 -0.14984214
000020 8f 9f d9 3b cb d9 3f 3d e9 cb 78 bd 28 76 31 bd
       0.0066413353 0.046838563 -0.06074134 -0.043325573
000030 c5 9b 98 3c b9 86 0a 3d d6 56 f0 3b ed 97 cd bd
       0.018628964 0.033819888 0.0073345704 -0.10038743
000040 4c 39 f9 3c b2 fc ca 3c bd e7 c2 bd 65 6a 22 bc
       0.03042283 0.024778698 -0.09516857 -0.009913062
000050 7b 9f 03 bd 1b cd e0 3d df b2 cf bd 30 b3 0d be
       -0.032134514 0.10976621 -0.10141539 -0.13837886
000060 4d ac 85 3d 15 54 51 3d dd f5 f9 3d a5 03 e0 bd
       0.065270044 0.051105577 0.12205098 -0.10938195
000070 d1 5a 48 3d 65 ca 4c bd 2d 41 14 be b7 d2 38 3d
       0.048914734 -0.049997706 -0.14477988 0.04512283
000080 4d c2 0b 3d 9d 24 83 bd 73 2b 76 bd f8 f3 d5 bc
       0.034120847 -0.06403468 -0.06010003 -0.02611731
000090 52 af d3 bd 5e a3 8c 3c 0d f5 5a 3d d9 8b b4 b9
       -0.10336174 0.017167743 0.053456355 -0.0003443647
0000a0 6a a3 be bd bb 8f c7 bd b0 bb a8 bc 43 84 15 be
       -0.093085125 -0.09744211 -0.020597309 -0.14601235
0000b0 7c a1 e9 bd 0a 2f 00 3a 8e 2c 08 be 05 7b 4d bd
       -0.11407754 0.0004889822 -0.13298246 -0.05016615
0000c0 15 a0 59 bd c5 b5 48 bd 7d ff 2a be 9e e8 17 bd
       -0.05313118 -0.049001474 -0.16699024 -0.037087075
0000d0 b8 c4 7b bd 1f 15 8d 3d e1 da 2b be 40 23 44 bc
       -0.061466902 0.06888794 -0.16782714 -0.011971295
0000e0 04 9b 05 bd 5e 4f 26 be f5 ed e8 3c ca 1f 0e be
       -0.032618538 -0.16241214 0.02843378 -0.13879314
0000f0 c5 35 c9 bd 8c c7 2e ba df 01 df bd c5 58 c4 3d
       -0.09824709 -0.0006667308 -0.10889029 0.09587244
000100 70 e5 b3 bd 8a f3 43 bd 1b 65 75 bd 4b 7f d7 bd
       -0.08783996 -0.04783968 -0.059910875 -0.10522326
000110 1b e3 e6 bd d8 b7 83 bd b8 e4 0a bc 8c 4b 6a 3c
       -0.11273786 -0.0643155 -0.008477382 0.014300238
000120 e8 6a 56 bd 2d 2e 0b 3e 03 9d 59 bd d7 24 d3 bc
       -0.052348047 0.13591833 -0.053128254 -0.025774403
000130 4f c8 01 3f e8 d8 99 bb 09 de 19 3c 36 94 9e bd
       0.5069627 -0.0046950467 0.009391316 -0.07743113
000140 d5 23 db bd 5f 98 fb bc 1a 73 82 3c eb f4 4e bd
       -0.10700194 -0.030712305 0.015924025 -0.05052654
000150 58 ad 56 3d 3b 85 b0 3d 1e fe 47 3d 9d 80 51 bd
       0.052411407 0.08619162 0.04882633 -0.051148046
000160 e5 96 0f 3d e7 ab 01 be 96 f4 55 3d 10 a1 24 3d
       0.035056014 -0.12663232 0.05223521 0.040192664
000170 ec 56 7e bc f2 5b c5 be 1c ad bf bd 5f b2 ba 3d
       -0.0155236535 -0.3854671 -0.0935919 0.09116053
000180 e8 e9 a8 3d ed 0f 07 bb 59 88 7a bc b2 7a 4e 3d
       0.08247739 -0.0020608858 -0.015291297 0.05040998
000190 ac 2c 91 3c 8f 6c 7b bb 59 50 b0 bc 89 04 2e 3e
       0.017721497 -0.0038364267 -0.021522688 0.16993918
0001a0 a0 72 fb bc b1 47 92 3d 4c d2 79 bc a0 d5 09 3d
       -0.030694306 0.0714258 -0.015247893 0.033650994
0001b0 4a b3 de bd f0 86 4d 3d 9f cc 79 bd 97 82 cc 3d
       -0.108740404 0.050177515 -0.060986158 0.099858455
0001c0 85 22 34 3e 44 94 89 3d 59 6b 81 bd b3 3c a7 3d
       0.17591293 0.067177325 -0.06319303 0.08165874
0001d0 de 5b cd bc 7e 80 4f bd e0 8b 8f 3c 6f ae 0a bd
       -0.02506822 -0.05065965 0.017522752 -0.03385776
0001e0 b0 2f d0 3d d6 91 8a 3d fe 6e 8b bd 71 3c 65 bd
       0.10165346 0.06766097 -0.068082795 -0.055965845
0001f0 46 62 d0 bc 33 41 24 3c 7b e3 ab 3c d2 17 7c be
       -0.025437485 0.01002531 0.020982495 -0.24618462
000200 ac e6 94 3d 6b 3e d7 3c 3e 78 1b bc 10 d5 6e ba
       0.0727056 0.02627488 -0.009489117 -0.0009110728
000210 7a aa 74 3b 3d c4 96 3d 9a 06 3f 3b bd 65 82 bc
       0.0037333057 0.07361648 0.0029148222 -0.015917653
000220 32 ef 04 3d ce aa 18 bd 7a 9c 26 3d 75 5c d0 be
       0.032454677 -0.037272267 0.04067657 -0.4069554
000230 15 82 29 bc 5c cd 8f bc e6 d5 18 be 2b 9e aa 3c
       -0.010345955 -0.017553978 -0.14925346 0.020827373
000240 97 9d cd 3b 5c 99 02 be 54 76 26 be ee e9 11 3d
       0.0062748897 -0.12753814 -0.16256076 0.035623483
000250 e8 ff ac 3c 81 7a 0e be bb b6 9b bd 43 82 b1 bd
       0.02111812 -0.13913919 -0.076032124 -0.086674236
000260 b1 67 b0 bd 2a aa bc bd 8b fc 39 3d b4 7d fb bd
       -0.086135276 -0.09212144 0.04540686 -0.12279835
000270 f7 7c a2 3c f8 23 d5 ba 35 c1 2d 3d bc f8 6b bd
       0.019834979 -0.001626133 0.042420585 -0.05761026
000280 df 87 28 be f0 f7 9d bd e5 5d e4 bd 66 4f e0 3d
       -0.1645808 -0.07713306 -0.111507215 0.10952644
000290 c2 e2 00 be 5f cf e0 3c 72 a8 b9 3d c5 51 28 3e
       -0.12586501 0.027442632 0.090653315 0.16437443
0002a0 ac 2b 75 3c ec 0b ce 3d 38 8f f2 3d 5f cb 1c 3d
       0.0149640255 0.10060868 0.11843723 0.038279887
0002b0 4a 1d 3c 3c 05 bc 8d bd af 01 17 bd 4f e9 89 bd
       0.011481592 -0.069206275 -0.03686684 -0.06733953
0002c0 47 99 f2 bc a5 a2 fe bb 09 f8 fb ba b7 1c 0a bd
       -0.029614104 -0.0077708536 -0.00192237 -0.03371879
0002d0 8d 70 82 bc 31 47 0a be 80 a0 08 be f3 f5 31 be
       -0.015922809 -0.1350372 -0.13342476 -0.17378978
0002e0 77 f5 1c bd 06 91 63 bb b7 19 b5 bd 5a 82 1e bc
       -0.03832003 -0.0034723892 -0.08842795 -0.009674633
0002f0 d7 0c 93 bc 53 f2 31 bd dc 02 aa 3c d0 87 5d bd
       -0.017950458 -0.04344399 0.020753317 -0.0540846
000300 37 a7 9c bd f4 74 2f 3d 7b f8 28 be 09 fd 1d be
       -0.07649081 0.042836145 -0.16501038 -0.15428557
000310 69 a4 e5 bd 6b 72 3b bd 5d 50 21 be f0 d4 c1 bd
       -0.112129994 -0.045763414 -0.15753312 -0.09464443
000320 22 42 fa bd 5a 53 7c bb c1 a2 fe bd f9 65 81 3c
       -0.12219645 -0.003850183 -0.124333866 0.015795695
000330 60 bd ee bd a2 75 0c be 59 d5 d0 bd 44 4f 0d be
       -0.11657214 -0.13716748 -0.10196943 -0.13799769
000340 ac 9a 24 be 17 5b 51 bd 18 25 15 be eb 49 45 bb
       -0.16074628 -0.05111226 -0.14564931 -0.0030103873
000350 07 8f 31 be 68 78 24 be 06 6f 63 3d da 05 ba bd
       -0.17339717 -0.16061556 0.055525802 -0.09083147
000360 82 a2 2c 3d 8c 50 27 bd 28 47 26 3d 56 57 d9 bd
       0.042147167 -0.0408483 0.040595204 -0.10612361
000370 49 fc 02 be a1 29 e4 bd d8 d7 ae bd 0a 5c 11 be
       -0.12791552 -0.111407526 -0.08537263 -0.14195266
000380 b9 f8 ca bd dd cb d6 bc 24 b8 1e bd 54 51 3f be
       -0.09910721 -0.026220256 -0.03874983 -0.18683368
000390 72 4e 87 bd 61 14 8b bd a9 d2 8a be 65 dd 5a be
       -0.06606759 -0.06790996 -0.27113846 -0.21373518
0003a0 07 35 ad be 7c 37 35 be 54 61 55 be 61 c8 47 be
       -0.3382952 -0.17696947 -0.20837909 -0.19510032
0003b0 89 8d b3 bc 35 cc 77 be ac d5 7b be aa 82 34 bd
       -0.021918075 -0.24198993 -0.24593228 -0.044069923
0003c0 3b 4c 61 3b a0 f8 d8 bd e3 ea 41 3c d7 9c 3b 3e
       0.0034377712 -0.105942965 0.0118357865 0.18321548
0003d0 67 82 a3 3c c8 1e 14 be 9c 3c 37 3e d9 1a 40 3e
       0.019959642 -0.14464867 0.17894214 0.18760242
0003e0 43 be 09 be 9b c9 72 be 81 61 a9 be d0 fa 7f be
       -0.13451485 -0.23709719 -0.33082202 -0.24998021
0003f0 ed c0 ce bd 18 49 ad bd 38 c2 21 bd 8a 48 9d 3d
       -0.100953914 -0.08461207 -0.039491862 0.07679851

conv2.bias f4 [12]
000000 60 4f 08 be 36 08 48 3f 94 8b e9 3c 48 5c a2 bd
       -0.13311529 0.7813753 0.028508939 -0.079277575
000010 6c 28 8e be ce 7b 25 3f 6e 85 90 3d 9c da e5 bc
       -0.27765214 0.64642036 0.070567 -0.028058343
000020 19 18 11 bd 39 b6 0e bd bb 00 8f 3e c2 a5 9d bd
       -0.035423372 -0.03484175 0.27930245 -0.076976314

conv3.weight f4 [16, 12, 3, 3]
000000 75 0d 8c 3d 1a c6 bc bc f7 f0 87 3d 3c ae 7f 3d
       0.06838504 -0.023043681 0.06637757 0.062422022
000010 05 61 e2 bd d9 89 48 bc a8 8e f1 bc 1d ed c8 bd
       -0.11053661 -0.012239897 -0.02948697 -0.09810851
000020 6b fa 9d bc d0 54 f1 3c f2 a8 2d bc 34 a0 c7 bd
       -0.019284448 0.029459387 -0.010599362 -0.09747353
000030 c0 55 03 be ea 4f 1d be 98 59 03 be b5 79 27 bd
       -0.1282568 -0.15362516 -0.12827146 -0.040887553
000040 53 e9 2f be 12 bc b2 bd 44 07 ed 3b 48 8f ae bd
       -0.1717885 -0.08727278 0.007233532 -0.085234225
000050 68 e7 a4 bd 63 98 ce bd 74 d6 f6 3b 55 e3 05 bd
       -0.0805195 -0.10087659 0.007532889 -0.032687504
000060 b9 64 d0 bd 45 7e 03 be 1c 4c 3c bd 48 18 c7 bd
       -0.10175461 -0.12841137 -0.04597102 -0.09721428
000070 12 71 e9 bd ff 55 5a bc 27 c3 0e be ca 81 12 bd
       -0.113985196 -0.013326167 -0.13941632 -0.035768308
000080 c6 cc b7 bd 11 8f 61 bd c8 d8 ba bd c1 a0 d6 bd
       -0.08974604 -0.05506808 -0.09123379 -0.1047988
000090 f3 07 b5 bd 37 08 9a 3d 67 25 a0 bd 1f 01 57 bd
       -0.08839407 0.07521098 -0.07819634 -0.052491304
0000a0 57 84 c1 bd 2d 1a 0f bd 90 b8 63 bc bd 2d b8 bd
       -0.0944907 -0.034937073 -0.013898984 -0.08993099
0000b0 8c e5 96 bc eb b6 04 bd b9 89 71 bd 17 08 1f be
       -0.018420003 -0.032401007 -0.058969233 -0.1553043
0000c0 e0 d5 08 be ad 3e 7a bd bc e7 d6 bd 0d ff 04 be
       -0.13362837 -0.06109493 -0.104934186 -0.12987919
0000d0 5c dd de bd 65 42 98 bd f9 1e 6e 3d c9 f4 55 bc
       -0.10882065 -0.07434539 0.058135007 -0.01305885
0000e0 87 10 10 bd b0 49 6e bd ab 78 45 3b 26 a5 ee bd
       -0.03517201 -0.058175743 0.0030131738 -0.11652593
0000f0 93 37 17 3d 57 3e e5 3b d3 dc 46 3d 05 80 9a 3c
       0.036918234 0.006995957 0.048550438 0.018859873
000100 f4 07 41 bd e4 df 22 bd b3 40 16 bc 25 87 e9 bd
       -0.047126725 -0.0397643 -0.009170699 -0.1140273
000110 52 25 94 bd 8f b1 7b bd a4 f5 fe 3c 51 49 72 3c
       -0.07233681 -0.06144863 0.03112299 0.014787988
000120 43 32 2c bd 08 d0 11 be 8d 70 8d bd 76 84 d9 bd
       -0.04204012 -0.14239514 -0.06906233 -0.10620968
000130 92 4a e6 3b ee 95 fc bd 30 2d 19 be 54 b3 8a 3b
       0.0070279324 -0.12333284 -0.14958644 0.0042328034
000140 85 cc 6a bd bb 04 8a 3c 14 5a eb bd 3e 66 08 3d
       -0.05732395 0.016847959 -0.114917904 0.03330063
000150 d3 d1 dd 3c 12 6b 0f 3d 86 81 33 bc f5 5b 00 be
       0.027077591 0.03501422 -0.010956174 -0.12535079
000160 af 85 26 3c d6 43 4f bd 98 13 c9 bd 03 41 8a bd
       0.010163709 -0.050601803 -0.0981819 -0.06750681
000170 34 d5 38 bb cb b4 29 3d b1 bc 16 3d 88 3e 8a bd
       -0.002820325 0.041432183 0.036801044 -0.06750208
000180 e7 e5 43 bd 81 8f 25 bd 13 21 22 be e1 40 f5 bc
       -0.047826674 -0.04042006 -0.1583293 -0.029938163
000190 d7 5e af bd 8e 66 ea bc 80 2b 3e bd 42 42 0c bd
       -0.08563011 -0.028613355 -0.046428204 -0.034242876
0001a0 38 a2 65 3c be 99 ff bc a5 13 3d bd e6 dd 48 3d
       0.014015727 -0.03120124 -0.046161313 0.049039744
0001b0 5c 10 b1 3d bd bf d1 3d 86 d4 41 3d 24 c3 b4 bd
       0.086456984 0.10241649 0.04732182 -0.088262826
0001c0 e2 69 3b 3d ea a1 35 bd 1a 3b 0f be ea 98 54 bd
       0.045755275 -0.044343866 -0.13987389 -0.051903643
0001d0 80 84 1f 3b ca fc 57 3b ce 1d 46 be 4d e1 25 bd
       0.002434045 0.003295707 -0.19347307 -0.040498067
0001e0 51 13 5d be 2d c0 d5 3e 3e fc 47 3e b2 5e a1 bd
       -0.215894 0.4174818 0.19529817 -0.0787939
0001f0 14 32 18 be 5b f4 56 be 9d a2 d9 bc a0 de f5 bd
       -0.14862853 -0.20991652 -0.026566798 -0.12005353
000200 12 6a 93 bd 4f 95 0a bd d8 28 03 be bc bb e4 3c
       -0.07197966 -0.033833798 -0.1280855 0.02792155
000210 9c 6d 03 be b5 b4 3a 3c 41 36 9a bd 7d a8 c3 3d
       -0.12834781 0.011395623 -0.07529879 0.09553621
000220 12 4b bd bd 4e e8 90 3d 92 c2 d8 bc 54 91 29 3e
       -0.09242834 0.070755586 -0.026459966 0.16559345
000230 c9 7d ea 3d a1 f0 6c 3e 57 02 07 be 58 ca 49 3d
       0.11449773 0.23138668 -0.13184486 0.049265236
000240 c3 ab 57 3e 4c dc ef 3d 1b 46 2f 3e 1e 11 9c 3e
       0.21061616 0.1171194 0.17116587 0.3048181
000250 0e 76 e5 3d 28 71 9b 3d 63 2c 10 3e 2a 2e 6c 3e
       0.11204158 0.07589942 0.14079432 0.23064485
000260 77 d6 0e 3e f0 b6 65 bd 04 2d 05 3e 7f 41 0f 3e
       0.13949 -0.056082666 0.13005453 0.13989829
000270 d1 33 f1 3d 3b 7f f0 be bd e2 38 be a4 4d e0 3d
       0.11777461 -0.4697207 -0.18055244 0.10952309
000280 f5 6a 82 be 81 01 42 3c 99 44 78 3e e4 46 bb be
       -0.25472227 0.011841179 0.24244918 -0.36577523
000290 d1 e0 1f 3e e3 e6 04 3e 16 6f f2 3d 32 db ae 3e
       0.15613104 0.12978701 0.11837594 0.34151608
0002a0 f4 bd 8a be e9 4c 19 3d ee f4 e4 bd 38 b7 59 bd
       -0.27098048 0.037426863 -0.11179529 -0.053153247
0002b0 2e 5f ae 3d 39 ce e6 3d 8b 3b 4b 3d 53 28 c5 3b
       0.08514248 0.112698026 0.04961733 0.00601677
0002c0 3e 3f 25 3d 6f 85 86 bd d3 d5 87 bd 9d e5 3c bd
       0.040343516 -0.06568419 -0.066325806 -0.046117414
0002d0 05 38 0a bd 6e d3 46 3d d9 69 76 be 4e bc f6 3c
       -0.03374483 0.04854148 -0.24063815 0.030119088
0002e0 87 5f e5 3d 56 44 0d 3e c6 90 95 bd 6f eb 6b be
       0.11199861 0.137956 -0.07303004 -0.2303903
0002f0 fa b5 2a 3d d6 9e 1f 3d 16 93 8d 3d ab ac a8 3d
       0.041677453 0.038969837 0.0691282 0.08236059
000300 2e 93 5c 3d ab 4c de 3c 2e 14 3d 3d 11 7e 99 bb
       0.0538513 0.027136168 0.046161823 -0.0046842177
000310 1e 97 e6 3d 52 53 53 3d 38 5d 4a 3d 8a dd 02 3e
       0.11259292 0.051593132 0.049405307 0.12779823
000320 16 27 16 3e 06 08 58 3c 8e 25 30 be ff 90 f2 bb
       0.14663348 0.013185507 -0.17201826 -0.007402539
000330 63 84 a9 bd 0a bc 84 3d a2 b2 40 3e de ef bd bd
       -0.08277204 0.06481178 0.18818143 -0.09274267
000340 ac 45 dd bd 49 3a a4 bd 18 5e 06 bc 62 5c be bd
       -0.108043045 -0.080189295 -0.008201145 -0.092949644
000350 a5 3f 4b bd b2 be 77 3c bd 99 34 bd d9 47 00 be
       -0.049621243 0.015121149 -0.04409193 -0.12527408
000360 c9 ff b5 3d c4 62 9c bc 7a 60 03 3d 55 f3 2a bd
       0.08886678 -0.019090064 0.03207443 -0.041735966
000370 38 e6 ae 3c f3 86 1e bd e7 9b 0d bd 80 86 33 bd
       0.021350011 -0.038702916 -0.03457251 -0.04382944
000380 cb e0 f5 3d 9d a6 a9 3d cf cc d4 bd 6a eb 04 3d
       0.120057665 0.08283732 -0.10390627 0.03245107
000390 60 d2 4a 3d cc 73 c0 bd df b4 cc bc 0f f5 c3 bd
       0.049517035 -0.093970865 -0.02498859 -0.095682256
0003a0 42 1f 43 3c fb f7 67 bd 5e 17 a2 3a 65 2e ca 3d
       0.011909308 -0.056632977 0.0012366583 0.0987213
0003b0 2e 01 06 3e b7 ad 0e 3d ff 9b f7 3d 73 2f db bc
       0.13086388 0.034833636 0.12090301 -0.026756024
0003c0 59 e4 00 3e 4e 9e 1b 3d 3b 63 03 3e f8 fe a9 bd
       0.12587108 0.037992768 0.12830822 -0.083005846
0003d0 30 e8 e3 bd 0d 1b e1 bd 06 5c 00 be 2c 1c 1c bd
       -0.111282706 -0.10991488 -0.12535104 -0.038112804
0003e0 58 7d 0f be fd e1 36 3d 46 3d 47 3c 35 5e bb bb
       -0.14012659 0.044649113 0.012160605 -0.0057180175
0003f0 ef 08 9f 3d 90 be 90 bd 9f 88 9d 3d 46 93 a8 bd
       0.07765376 -0.07067597 0.07692074 -0.08231215

conv3.bias f4 [16]
000000 2f 15 0e bd 3f 10 e7 3e af 2b bf bd a0 e5 a9 3d
       -0.03468817 0.45129582 -0.09334504 0.082957506
000010 de 8f 4a 3d bf d9 c4 bd 33 04 56 be e7 90 f0 be
       0.04945361 -0.09611844 -0.2090004 -0.46985552
000020 35 b9 34 be 02 42 4c bd 1f 82 97 be 50 72 31 3f
       -0.17648776 -0.049867637 -0.29591462 0.6931505
000030 42 6f aa bb 96 38 07 bd 85 7f 14 be 78 2e d0 bd
       -0.0052012512 -0.03301295 -0.1450177 -0.10165113

t_conv1.weight f4 [16, 12, 4, 4]
000000 6a 69 0d bc 0e 85 f1 3d 58 f6 ec 3d 8f 49 8f 3d
       -0.00863109 0.11792956 0.11570424 0.06996452
000010 da 5b ab 3d cc ee dd 3d 4a 59 80 3c 28 86 45 bc
       0.08367129 0.108365625 0.015667576 -0.012055911
000020 2e 42 a1 3d 19 5a 89 3c 92 51 df 3d c5 5a e9 3c
       0.07873951 0.016766595 0.1090423 0.028485665
000030 2a 45 ab 3d db 44 41 3d e7 b2 63 3d f0 1b 12 bb
       0.083628014 0.047184806 0.055590536 -0.0022294484
000040 3c 18 b4 3d 14 78 1c 3d 87 81 03 3e e3 3f 02 3e
       0.08793685 0.038200453 0.1284238 0.12719683
000050 c9 27 98 bb 67 fe 43 3d 50 f3 e7 3d 32 0f 5f 3d
       -0.0046434146 0.04785004 0.11325705 0.05445785
000060 2d fc 06 3d 70 e0 af 3d 57 25 02 3c 40 eb 83 3d
       0.032955337 0.0858773 0.007943473 0.06441355
000070 1a 37 ca 3d 29 15 c6 3c 0f 3d c4 3d 8a 99 93 3d
       0.09873791 0.024180012 0.095819585 0.072070196
000080 35 c8 9a bd 13 97 01 be eb 42 82 bd 35 82 17 bd
       -0.07557718 -0.12655286 -0.0636042 -0.03698941
000090 57 25 c5 bd 9a cf 45 bd 28 ce 9b 3a 2c 8a 8c bd
       -0.09626263 -0.048293687 0.0011887001 -0.06862292
0000a0 b4 df 4e bc a6 72 04 bc 97 4a ca bd 0e 64 b5 bd
       -0.012626577 -0.008083975 -0.09877508 -0.088569745
0000b0 3b 2c fb bd 9f 04 13 bd 9d 82 90 bc 1c d3 12 b7
       -0.12264296 -0.03589308 -0.017640406 -8.751431e-06
0000c0 a0 44 29 3d 16 7e 88 3d b0 40 13 3c 9c c9 d6 3c
       0.04132521 0.06664674 0.008987591 0.026219182
0000d0 dc 55 8d 3d 0c f9 a5 3c 1c 6a 9e 3c e7 10 91 bd
       0.06901142 0.020260356 0.019337706 -0.07083302
0000e0 40 b5 fb ba e0 3d cd 3c bc f1 69 bc 6a bf 2a bd
       -0.0019203797 0.025053918 -0.014278825 -0.041686453
0000f0 56 0d 01 bd e8 92 0d bc 7d 46 5f bd 20 ad d9 3c
       -0.03150686 -0.008640982 -0.054510582 0.02657181
000100 32 f5 85 bd 85 70 c7 bd 23 f2 af bc e6 fc 87 bd
       -0.06540908 -0.09738258 -0.021477764 -0.066400334
000110 69 db bb bd 20 31 19 bd 08 2e e4 bd 9e 3b b1 bb
       -0.091727085 -0.037400365 -0.11141592 -0.0054087183
000120 88 4a ac bd 8e 02 a7 bc 86 8e c9 bd b0 e8 3b bd
       -0.08412653 -0.02038696 -0.09841637 -0.045876205
000130 17 4b 93 3c 6f 21 57 3d 47 7d a2 3b 4b b1 04 bd
       0.017980142 0.05252212 0.004958782 -0.032395642
000140 73 11 66 3c 34 f8 e2 3d 09 14 3f 3d 6a 11 b4 3c
       0.014042246 0.11082497 0.046649966 0.02198096
000150 03 60 90 3c 0d d2 ef 3d 81 d5 1a 3d 90 1a e4 3c
       0.017623907 0.11709986 0.03780127 0.027844697
000160 b5 6d eb 3d ad d8 03 3d ce 2d 30 3d 31 94 4a 3d
       0.11495534 0.03218906 0.043012433 0.049457733
000170 de 68 80 3d e3 76 b7 bb d0 48 5d 3d 64 16 7a 3d
       0.06270002 -0.005598889 0.054024518 0.06105651
000180 07 e2 ce 3d e1 3b 02 3e 06 4e d0 3d 14 cc a6 3d
       0.10101705 0.12718154 0.10171132 0.081443936
000190 16 06 12 3d 47 ad 50 3d b0 4b e0 3c 14 6a 12 3e
       0.035650335 0.0509465 0.02737984 0.14298278
0001a0 aa 30 b3 3d b3 ff be 3d 58 fe c7 3d 9f d7 11 3d
       0.08749516 0.093261145 0.09765309 0.035606023
0001b0 6b ab a1 bc 50 88 f9 bc 6a 70 98 bb 2f 81 a6 bc
       -0.019735059 -0.030460507 -0.0046520727 -0.020325271
0001c0 48 38 45 bd 3e 99 bd 3d da 36 58 bd 9e 59 82 bd
       -0.048149377 0.09257744 -0.052786686 -0.06364749
0001d0 0b 0b dd bb ad 3b 0c 3d 88 46 85 bd dc 15 63 bc
       -0.006745701 0.0342366 -0.065075934 -0.013860192
0001e0 8a ec 70 bd 05 4c d5 3b 04 b4 31 bd 61 5b 86 bd
       -0.05881933 0.0065093064 -0.043384567 -0.06560398
0001f0 f1 0f 06 3c 6f 38 7b bd 30 af 74 3d 16 bd 44 3d
       0.008182512 -0.061333116 0.059737384 0.04803189
000200 50 da 55 3d f0 54 a7 bb 36 9d 8c 3d bc 66 dd 3c
       0.052210152 -0.005106561 0.06865923 0.027026527
000210 28 6e 2d bc 60 1a 1a 3c ac 46 53 3d e8 58 96 3c
       -0.010585345 0.009405702 0.05158107 0.01835294
000220 a2 77 54 bd f0 c6 ca 3c 10 eb 4e bc 2c c1 f4 bc
       -0.051871903 0.024753064 -0.012629285 -0.029877268
000230 41 5f 71 bd 80 4e ff 3c a0 5c 92 3d 8e e7 08 3d
       -0.05892873 0.031165361 0.07146573 0.033423953
000240 c0 81 64 bb d2 c8 28 bd ec 7a 27 3d 6e 36 1d bd
       -0.0034867376 -0.041207142 0.04088871 -0.038381986
000250 98 bc b6 3d 6f 40 a9 3d 4b 6d bd 3c 53 bf aa 3c
       0.0892269 0.08264243 0.023123404 0.020843184
000260 80 ad 9b 3a 87 60 8c 3d d1 0a 8f 3c cc 58 b7 3d
       0.0011877269 0.06854349 0.017461212 0.089524835
000270 22 eb a1 3d 43 34 08 3d 5a 3e 7e 3d 17 c8 1a 3c
       0.07906176 0.033252966 0.06207118 0.009447119
000280 da 2a 24 bd 56 30 85 bc 82 d1 72 bd e4 eb 80 bd
       -0.04007993 -0.0162584 -0.059281833 -0.062949926
000290 67 56 c2 3d 3f f1 c7 3d 82 e3 25 3c a7 cd 51 3d
       0.09489136 0.09762811 0.010125043 0.051221516
0002a0 23 81 2f 3d c4 9c 8d 3d 22 29 90 3b 99 b6 03 3d
       0.042847764 0.06914666 0.0043994347 0.03215656
0002b0 bf 5f 01 3e 96 32 80 bc 6d 9f fa 3d 8c 04 1c bc
       0.1263418 -0.015649121 0.12237439 -0.009522568
0002c0 01 a8 c4 ba 36 af ee 3d 31 1a ec 3d ba c1 7a 3c
       -0.0015003682 0.116545126 0.11528433 0.015304977
0002d0 8e 0b 2f 3d eb eb 3a bc fc 51 e0 3d 23 c4 ef 3d
       0.04273563 -0.011408786 0.10953137 0.11707332
0002e0 82 07 ab 3d 7c ed 13 3d 70 0e 05 3e b2 d9 c0 3d
       0.083510414 0.036115155 0.12993789 0.09416522
0002f0 cb dd ef 3d 30 3b b9 3d d7 bb 15 3d a1 fb 23 3c
       0.117122255 0.09044492 0.03655609 0.0100087235
000300 a5 0b d9 bd 60 05 7b bd 10 6a 50 3e 36 21 8c 3e
       -0.10597924 -0.061284423 0.2035296 0.27369088
000310 0e de 5a be 0b 06 01 3e 3f 7b 7c bd dd f7 ca bd
       -0.2137377 0.12599961 -0.061640974 -0.099105574
000320 07 64 b9 bd 4f 59 21 be 82 0a 1f bf 29 8c a2 be
       -0.09052282 -0.15756725 -0.6212541 -0.3174756
000330 72 1a c8 3d f4 59 44 3d 42 79 b6 bd 93 ad 83 3e
       0.09770669 0.04793735 -0.08909847 0.25718364
000340 2f fe ba bd 5c 2f 1b bd 26 7c 8d 3b 54 f2 0b bb
       -0.09130513 -0.037886962 0.004317778 -0.0021354156
000350 f3 82 dd bd 01 98 87 bd 1f 2d d0 ba 80 b2 09 be
       -0.10815992 -0.06620789 -0.0015882588 -0.13446999
000360 06 82 c3 bc b5 bc ff bd 15 7d ce bd a0 35 2c bc
       -0.023865711 -0.12487165 -0.10082451 -0.010510832
000370 23 3c bd bd bc 44 81 bd 2f 81 a8 bb f4 c6 fd bd
       -0.09239986 -0.06311938 -0.005142353 -0.12391463
000380 38 a8 1a 3e d3 6c 36 bd 58 94 1a 3e 48 68 ae 3d
       0.15103233 -0.044537377 0.15095651 0.08515984
000390 ba 7b 20 be f1 a9 ba be bd 70 b1 be 30 f0 9e be
       -0.15672198 -0.3645778 -0.34656325 -0.31042624
0003a0 33 61 21 3e 95 e6 2b bf 6b 09 80 bf 37 bf 01 bf
       0.15759735 -0.67148715 -1.0002874 -0.50682396
0003b0 f2 b4 2d be 64 00 07 bf ec d3 0e bf 35 8e 28 be
       -0.16963556 -0.5273497 -0.5579212 -0.16460498
0003c0 3d 9e c9 bf bc 65 df bf 4b e7 79 bf 62 0d cd 3e
       -1.5751415 -1.7452922 -0.9761855 0.40049273
0003d0 80 5b a9 bf c5 bb 05 c0 a9 10 b6 bf a9 5d 06 bf
       -1.3231049 -2.0895855 -1.4223834 -0.52486664
0003e0 de 64 d9 3e 89 b9 23 bf b5 95 13 bf a4 24 3b be
       0.42459768 -0.6395498 -0.5765031 -0.18275696
0003f0 ca fd 52 3e 72 fc 26 3e 36 15 98 3e 75 f0 02 3e
       0.20604625 0.16307238 0.29703683 0.1278704

t_conv1.bias f4 [12]
000000 99 08 c1 3d e0 62 a1 bd 16 e9 7f 3d fa 15 d3 3e
       0.09425468 -0.07880187 0.062478147 0.41227704
000010 b4 26 ed 3d bf 40 4c 3d ef 99 1b 3d 0c 69 a2 3e
       0.11579648 0.049866434 0.0379886 0.3172077
000020 84 42 d8 bd bb b5 96 3b b5 89 3f 3e fd 6c 17 bd
       -0.10559562 0.0045993007 0.18704875 -0.036969174

t_conv2.weight f4 [12, 3, 4, 4]
000000 69 c9 b0 bd 41 50 a2 3d 24 76 a1 bd a1 7f 4b bd
       -0.08632166 0.079254635 -0.07883862 -0.049682263
000010 c0 a7 2f 3e c3 17 02 3f 7a 41 90 3e 63 3f bc 3d
       0.17153835 0.5081751 0.28174955 0.091917776
000020 af b6 31 3c 9d 14 55 3e fe 53 c5 bd ec 00 69 3d
       0.010846778 0.20808645 -0.09635161 0.056885645
000030 4f 79 84 bc 95 3a b4 bd 84 51 d3 bc d1 19 a0 3c
       -0.016171126 -0.08800236 -0.025795706 0.01954356
000040 01 0d c2 bd 1f 5b 07 bc 75 71 af bd a5 78 94 bd
       -0.094751365 -0.008261471 -0.08566562 -0.072495736
000050 55 ee da 3d 3d fc 04 3f 75 df fe 3d 43 c2 84 3d
       0.106899895 0.51947385 0.12444965 0.06482365
000060 5e 7b 48 3c f6 e0 c7 3c 54 28 83 be 99 24 04 3d
       0.012236444 0.024399262 -0.25616705 0.032261465
000070 1c b5 a4 3b 19 92 71 bd 0e ba 8e bd 92 66 fd 3c
       0.0050264727 -0.05897722 -0.06969081 0.030932698
000080 da 10 c4 bd 2c 2f 2b bd d0 5d 31 be b3 a1 fc bd
       -0.09573527 -0.041793033 -0.17320943 -0.12335529
000090 95 ad ab 3d b6 f3 b2 3e 21 a8 04 be 02 40 e0 bc
       0.083827175 0.34951562 -0.12954761 -0.027374271
0000a0 f2 0d 45 bd 7d aa b9 bd 85 b7 f3 be fe f2 14 bd
       -0.048109002 -0.09065721 -0.47600952 -0.036364548
0000b0 c6 04 3e 3c 20 cd bc bd 78 60 25 be 4c 2b 1a bd
       0.011597818 -0.09218812 -0.16150081 -0.037638947
0000c0 f7 3c 01 3e 2f 6b cf 3d b0 55 ad bd 38 50 ee bc
       0.12620912 0.101278655 -0.08463609 -0.029090986
0000d0 84 c2 0f 3d 09 c7 95 bd f6 30 b8 3d fa 69 05 be
       0.035097614 -0.073133536 0.089937136 -0.13028708
0000e0 ad 4e c4 bd e1 34 45 bc 27 b6 ce bd 66 8a 74 bd
       -0.09585319 -0.012036533 -0.100933366 -0.0597023
0000f0 75 19 f3 bc c0 a9 e7 3c 48 e3 07 be 8c 1c ec bd
       -0.029675225 0.028279185 -0.13270295 -0.115288824
000100 db 28 12 be d9 b5 8d 3d 64 80 77 bd 68 09 6b 3b
       -0.14273398 0.0691945 -0.060425177 0.003586376
000110 e8 1c d5 bd 6e c2 ae 3d fb 8a 14 bd 16 f0 8e 3d
       -0.10405904 0.08533178 -0.036265355 0.069793865
000120 2e 14 2a 3d d3 41 91 3d 91 a3 8b 3d 44 77 65 bd
       0.04152315 0.07092633 0.06818307 -0.056021944
000130 15 48 e8 3c 39 79 61 bc ed 4b 9f 3d 00 98 b9 3d
       0.028354684 -0.013761812 0.077781536 0.09062195
000140 d9 bf 9b 3d 15 cb d4 bd 86 eb d8 bd df 11 b2 bc
       0.076049514 -0.10390297 -0.105917975 -0.021737037
000150 b7 90 60 bd 40 76 a1 3c 2f 9d b4 bc c8 d9 05 3a
       -0.05482551 0.019709706 -0.022047607 0.00051059993
000160 ba 83 e5 3d e7 0c 18 be b7 18 17 be 24 8b 90 bd
       0.112067655 -0.14848672 -0.14755522 -0.07057789
000170 7a f2 53 bd 88 e5 27 be e1 aa ea bd 6c 52 73 3d
       -0.051744916 -0.16396153 -0.11458374 0.059404776
000180 04 09 be 3d 83 1d 67 3e 16 06 9a 3d 8a 2e 95 3d
       0.09279063 0.22569852 0.07520692 0.07284267
000190 ba b4 26 bd c0 84 6e 3f b5 41 05 3f f4 dc c0 bd
       -0.040699698 0.9317131 0.52053386 -0.094171435
0001a0 ad 12 1a bc 3c 9f 4e 3e df a4 da 3d 61 b8 39 3b
       -0.009403867 0.2017793 0.10675978 0.0028338658
0001b0 6e 72 3e bd 09 40 04 bd 26 be 97 bc 41 dc 82 bc
       -0.046495847 -0.03228763 -0.018523287 -0.015974166
0001c0 20 04 b2 3c 51 2d 00 3d bf a0 ef b9 9e 81 88 3d
       0.021730483 0.031293217 -0.00045705397 0.066653475
0001d0 0f f9 d3 bd 2a 61 0f 3f ac 45 8d 3e 49 fe 44 be
       -0.103502385 0.56007636 0.27592218 -0.19237627
0001e0 e8 ba 08 bc 82 29 32 3c a5 bd 3a 3b 1e 3f 13 bd
       -0.008345343 0.010874154 0.0028494385 -0.035948865
0001f0 f9 7c 81 ba 4b 3a 82 bd fc 99 15 bc 54 0a bf 3c
       -0.0009879164 -0.06358775 -0.009130951 0.023320355
000200 59 e1 03 3b 63 7b 59 bd f6 5e ce bd 82 a6 a6 3d
       0.0020123331 -0.053096186 -0.10076706 0.081372276
000210 a2 f8 84 be ba 99 98 3e de f3 91 3d 6e d3 93 be
       -0.25970942 0.29804784 0.07126592 -0.28872246
000220 3d d2 d8 bc f5 91 64 bd 14 31 77 bd 45 4b 29 bd
       -0.026467437 -0.055803258 -0.06034954 -0.04133155
000230 f1 c4 89 3a 8a e0 f2 bc 83 65 c6 bc 5e aa 01 3c
       0.0010510964 -0.029648084 -0.024218326 0.007914154
000240 f7 e4 26 3d 54 2e 0e 3d bd 96 62 3d 07 a9 7c 3d
       0.0407457 0.03471215 0.055319536 0.061684635
000250 19 34 a1 bd 27 78 2e 3e 73 9b 3b 3e 5c c8 0d 3e
       -0.07871265 0.17038022 0.18321018 0.13845962
000260 0f 28 9f be 8f a3 d8 3e 51 74 04 3f 55 b7 3f 3c
       -0.3108525 0.42312285 0.51739985 0.011701425
000270 c7 f3 2d be 83 2a 02 3f d5 9b 1f 40 9c df c6 3e
       -0.16987525 0.5084612 2.4938862 0.38842475
000280 27 37 be 3c f7 68 49 bc 55 2c 0b bd 05 a0 ee bc
       0.023219658 -0.012293092 -0.033977825 -0.029129038
000290 7d 5d eb bd f1 7c 0f 3e df 87 13 3e 6d 2c 0d 3d
       -0.11492441 0.14012505 0.144073 0.034466196
0002a0 33 2c 9b be 68 ce dc 3e f8 2f 06 3f c4 a3 b0 3c
       -0.3030716 0.43126225 0.52416945 0.021562465
0002b0 7e 6c 12 be 75 e9 c5 3e de e9 10 40 b0 fc 3c 3f
       -0.14299199 0.38654676 2.2642741 0.7382307
0002c0 68 a1 00 3d 01 14 98 3d 7f 85 a3 3d 77 8c 05 3a
       0.03140393 0.074256904 0.07984447 0.0005094478
0002d0 fe d1 4a bc 49 16 e4 3e db 1f dc 3e f2 0f 7f 3e
       -0.012379168 0.44548252 0.42993054 0.24908426
0002e0 d5 ee 0d be 5d 90 6b 3f 1e fb 83 3f 70 f0 b2 3e
       -0.13860638 0.92017156 1.031101 0.34949064
0002f0 6b bb 58 be f4 b5 b2 3e 18 62 12 40 f6 4c cf 3e
       -0.21165244 0.34904444 2.2872372 0.40488404
000300 af 41 7e bc d8 14 47 3d e8 53 84 bd 2a 14 56 bc
       -0.01551859 0.048603863 -0.06461316 -0.013066331
000310 f6 de fb 3d 56 4e b0 3e 49 0a 4c 3e 4b 29 d2 bd
       0.12298386 0.34434766 0.19925798 -0.10261782
000320 30 9b fb bd d1 90 89 3e 69 9b b1 3c df 23 bc bd
       -0.12285459 0.268683 0.02168055 -0.09186529
000330 4a 94 0d 3d df 53 f7 3c 5f f3 c6 bd 85 a3 88 bc
       0.034565248 0.03019136 -0.09714388 -0.016679535
000340 41 20 06 bd b3 66 9a 3c f7 34 f3 bd 1d 1c a3 bd
       -0.032745603 0.018847799 -0.118753366 -0.079643466
000350 00 6c a5 3d 40 89 b8 3e 67 35 4f 3e c1 a2 62 bd
       0.0807724 0.36042213 0.20235215 -0.055330995
000360 6f bd 37 be 19 e8 b2 3e bd c5 16 3e f5 59 69 bb
       -0.17943357 0.349427 0.14723869 -0.0035606597
000370 81 f4 d4 bc 5a 8e 9b 3d a5 fd 30 3d d3 4e bd bc
       -0.025995495 0.07595511 0.043210644 -0.023108875
000380 15 74 12 bd 9f 17 a0 3a 10 93 10 be 05 5c c0 bd
       -0.035755236 0.0012214071 -0.141186 -0.09392551
000390 06 c4 92 3d 69 c4 cb 3e 2b 88 99 3e de 1f 7a 3d
       0.07166295 0.39798287 0.299867 0.061065547
0003a0 32 69 1f be 93 b3 e4 3e 4a 9d d0 3e ba 0b 6f 3d
       -0.15567473 0.44668254 0.40745002 0.058360793
0003b0 62 19 22 bc 22 64 ca 3d d8 6f db 3d c8 ed 09 3d
       -0.009893747 0.0988238 0.10714692 0.03367403
0003c0 06 34 bc 3d bb 3e 89 3d a6 3b 96 3d 71 e8 10 bc
       0.0918961 0.06701418 0.07335596 -0.008844481
0003d0 b7 39 b4 3d 67 3b 25 be 50 10 58 3c 1d 5e fe 3c
       0.08800071 -0.16135941 0.013187483 0.031050736
0003e0 5c 0d bd 39 9a e4 93 be 38 28 12 be c7 84 23 bd
       0.00036058843 -0.28885347 -0.14273155 -0.03992155
0003f0 df 69 d0 3d 05 f9 71 3d 7b f8 c9 3d 8d 71 00 3d
       0.10176443 0.059075374 0.09861847 0.03135829

t_conv2.bias f4 [3]
000000 a6 b5 ca be 92 10 e3 3c a6 57 d0 be
       -0.39591712 0.027717862 -0.4069187
