models/cae.pth (torch, 29503 bytes, 10 tensors)

conv1.weight f4 [8, 3, 3, 3]
0.046210352 0.19913515 -0.23411398 0.04109747 0.38337234 0.14664134 0.0076281936 0.2735229
-0.15739092 -0.16223313 0.02471788 -0.06536515 0.055492897 0.39590845 0.20438772 -0.032701932
0.1064645 0.046614237 0.046621144 -0.046624012 -0.039452337 -0.040445484 0.3484318 0.0030301523
-0.23939568 -0.08240941 -0.30951166 -0.11606506 0.043225728 -0.14589229 -0.039872434 0.12716779
-0.22000314 -0.13134348 -0.33564737 -1.2027406 0.07460766 0.027608847 0.15350816 -0.068189465
-0.08975851 -0.16832405 0.22597401 -0.2786028 -0.14466399 0.040205922 -0.08137889 0.11135777
0.02481919 -0.16848552 -0.018784491 -0.008479448 0.23863113 -0.05740627 0.06349133 0.20051385
0.05524711 0.09942633 0.2579973 0.21688631 0.13430128 0.07783341 -0.022470208 -0.059155755
-0.078162484 0.09995287 -0.062482093 0.011163653 0.08950145 -0.0063897176 -0.05943624 0.019673971
0.02970507 0.052765984 0.047845535 0.03214275 -0.0059975744 0.26433924 -0.09883646 0.020515297
-0.10124124 -0.057466358 -0.03694357 0.0058176247 -0.118652225 0.21092652 0.29888377 -0.026757644
-0.034660317 -0.009816832 0.15492432 0.04530398 0.09970013 -0.1832184 0.1806737 0.2073307
0.13014436 0.053189494 0.0316239 -0.099652685 -0.029573347 -0.122308105 0.12660268 -0.10937561
-0.1600643 -0.07245841 -0.13811292 -0.06183036 0.050347358 0.025630478 -0.045609675 -0.04017502
-0.0387749 -0.023200702 0.120082006 -0.0104947295 -0.041202858 0.0062577026 -0.10447492 0.16350468
-0.025905417 -0.09065108 -0.022968626 0.036809247 -0.06653685 0.13668108 -0.17518403 -0.18704608
-0.1427168 -0.2792607 -0.0003274691 -0.23124678 -0.23372033 -0.0915239 -0.10544165 -0.04533976
0.10431413 0.06493354 -0.044455808 0.0039163725 -0.16040115 -0.12227662 -0.16338918 0.11248216
0.11578282 0.10113196 -0.020945393 0.05814164 0.19773978 -0.013066944 0.0718232 -0.03959954
-0.041654132 0.08889833 0.34117243 0.018909736 0.054963015 0.31027877 0.044931583 0.111101784
0.080135226 -0.019005314 -0.014687899 0.045353822 0.16880926 0.030463576 -0.3318074 0.13325812
-0.080844164 0.091853425 0.2008343 -0.26612547 -0.16039865 -0.117543995 -0.27534145 -0.38854688
0.13597932 -0.014827746 0.027882682 -0.1043149 0.17839506 -0.01581556 0.035450056 -0.03876707
-0.07626667 0.10679881 0.23381175 0.06190513 -0.023795214 0.0030035777 -0.0460365 0.16406211
-0.13294101 -0.10969236 0.04087297 0.13279316 0.0736044 -0.13227007 0.19134013 -0.13837278
0.10102551 -0.0259834 -0.080733165 0.16307822 0.014705264 -0.14266361 -0.20641443 -0.22900341
0.06388434 0.18124717 -0.0016461205 0.11612675 0.14816307 -0.00803077 -0.0388977 -0.0228104
00000000: 1147 3d3d 16ea 4b3e 93bb 6fbe d255 283d
00000010: 6149 c43e 2629 163e edf5 f93b 320b 8c3e
00000020: 162b 21be 7120 26be 277d ca3c 2ade 85bd
00000030: 854c 633d 83b4 ca3e 044b 513e 76f2 05bd
00000040: 0f0a da3d 92ee 3e3d d0f5 3e3d d2f8 3ebd
00000050: c698 21bd 2aaa 25bd a765 b23e 8595 463b
00000060: 2424 75be 44c6 a8bd 5078 9ebe 85b3 edbd
00000070: 760d 313d ca64 15be 4751 23bd 4638 023e
00000080: 8148 61be e87e 06be f9d9 abbe 67f3 99bf
00000090: e7cb 983d f32b e23c 3e31 1d3e eba6 8bbd
000000a0: 4fd3 b7bd 245d 2cbe bb65 673e 07a5 8ebe
000000b0: cc22 14be f7ae 243d faa9 a6bd 8b0f e43d
000000c0: 9d51 cb3c 7887 2cbe efe1 99bc 62ed 0abc
000000d0: b85b 743e d622 6bbd be07 823d 8153 4d3e
000000e0: cb4a 623d 08a0 cb3d 3918 843e 7217 5e3e
000000f0: 4686 093e 1f67 9f3d 7113 b8bc 4e4d 72bd
00000100: a713 a0bd 17b4 cc3d 39ed 7fbd c1e7 363c
00000110: 894c b73d d660 d1bb 6a73 73bd 4f2b a13c
00000120: 0c58 f33c 2521 583d aef9 433d 1ea8 033d
00000130: 4d87 c4bb 7957 873e c56a cabd b20f a83c
00000140: 9157 cfbd d861 6bbd 2452 17bd c6a1 be3b
00000150: f0ff f2bd 1ffd 573e 4b07 993e d932 dbbc
00000160: faf7 0dbd c7d6 20bc 7ba4 1e3e ab90 393d
00000170: 952f cc3d 9b9d 3bbe 8702 393e 804e 543e
00000180: 9044 053e 3add 593d 1088 013d b516 ccbd
00000190: ce43 f2bc ac7c fabd 22a4 013e 5200 e0bd
000001a0: e5e7 23be 1365 94bd 796d 0dbe d541 7dbd
000001b0: 0839 4e3d 02f7 d13c 36d1 3abd 908e 24bd
000001c0: 6ed2 1ebd 660f bebc 8eed f53d 16f2 2bbc
000001d0: 54c4 28bd 6a0d cd3b f2f6 d5bd c56d 273e
000001e0: 9937 d4bc 46a7 b9bd b328 bcbc 4bc5 163d
000001f0: 7944 88bd 20f6 0b3e 7163 33be 0289 3fbe
00000200: 5a24 12be 42fb 8ebe 29b0 abb9 f5cb 6cbe
00000210: 6254 6fbe e270 bbbd cbf1 d7bd 2fb6 39bd
00000220: a6a2 d53d e0fb 843d 4b17 36bd ea54 803b
00000230: 3340 24be 2a6c fabd 7e4f 27be 0c5d e63d
00000240: 8b1f ed3d 461e cf3d ac95 abbc ee25 6e3d
00000250: 4c7c 4a3e bc16 56bc 0b18 933d 2133 22bd
00000260: 869d 2abd 5410 b63d 27ae ae3e 97e8 9a3c
00000270: e620 613d dcdc 9e3e 2e0a 383d 5589 e33d
00000280: f01d a43d 08b1 9bbc 83a5 70bc eec4 393d
00000290: 56dc 2c3e c08e f93c a9e2 a9be d174 083e
000002a0: a091 a5bd a61d bc3d 82a7 4d3e 9941 88be
000002b0: 8b3f 24be e8ba f0bd 8ef9 8cbe 9eef c6be
000002c0: 2a3e 0b3e 13f0 72bc 396a e43c 0da3 d5bd
000002d0: 32ad 363e a28f 81bc 1434 113d 38ca 1ebd
000002e0: b331 9cbd 56b9 da3d 596c 6f3e 3c90 7d3d
000002f0: 2eee c2bc acd7 443b c590 3cbd e6ff 273e
00000300: b021 08be 63a6 e0bd 6a6a 273d eefa 073e
00000310: e7bd 963d ce71 07be abee 433e 98b1 0dbe
00000320: 76e6 ce3d 24db d4bc 6e57 a5bd fafd 263e
00000330: 59ee 703c 6916 12be 4e5e 53be df7f 6abe
00000340: cbd5 823d dc98 393e a3c2 d7ba ddd3 ed3d
00000350: 0fb8 173e 7e93 03bc 3253 1fbd e0dc babc

conv1.bias f4 [8]
-1.0338463 0.40397382 -0.15213962 0.025837893 0.19004875 -0.004017898 0.4706286 0.0060809203
00000000: 1355 84bf a8d5 ce3e 7dca 1bbe fda9 d33c
00000010: 249c 423e 92a8 83bb 3bf6 f03e 7542 c73b

conv2.weight f4 [12, 8, 3, 3]
-0.26494297 0.54680437 0.29947817 0.044302728 0.013484998 -0.033207804 -0.39794406 0.43982086
0.4699121 -0.11941241 0.05090043 -0.12555373 -0.0119100455 -0.1448264 0.0053127627 -0.15102531
-0.08399299 0.041805197 -0.32563218 0.045397814 0.01970233 -0.28638458 -0.08696222 -0.040162515
-0.2540709 0.019445911 -0.018153165 -0.16547081 0.08653747 -0.0652939 -0.2789814 -0.030191641
-0.097219184 -0.3754197 0.07857458 -0.04334766 -0.031613495 -0.1423829 0.024961537 -0.011251403
-0.15116808 0.04861492 -0.0818386 -0.05843956 0.104380585 -0.19197337 -0.09055629 -0.11474426
-0.23771122 -0.0014067047 -0.04315228 -0.3243432 -0.05195757 0.0064275456 -0.124508046 -0.22955231
-0.46048096 -0.18185546 -0.14819895 -0.43244082 -0.22343789 -0.07249666 -0.40791565 -0.141001
-0.31152996 -0.2655661 -0.12259317 -0.25399348 -0.29938385 -0.2766936 -0.22766571 -0.17613898
-0.12609452 -0.086727254 0.014667361 0.013613157 0.033098366 -0.06773466 -0.006104954 -0.07371994
-0.01928571 -0.13671981 -0.0717516 0.061416347 -0.018470285 -0.034308832 0.05120804 -0.14391455
-0.0022784641 -0.14989316 -0.16268837 -0.063472405 0.048428368 -0.05690293 -0.00012604921 -0.102921896
-0.039068613 0.062175326 -0.14302725 -0.033278704 -0.12633885 -0.16978188 -0.035832454 -0.069408335
-0.14744997 -0.034070108 -0.12903424 -0.08713611 -0.091852576 0.101854324 0.06966211 0.060698885
-0.042423364 0.11846031 0.064638846 0.046870504 -0.0804786 -0.123941176 -0.08864533 0.002378462
-0.019091172 0.042588443 -0.10630873 -0.060204357 -0.05511162 -0.033040676 -0.08433478 -0.056711044
0.000665515 -0.1694703 0.029442009 0.037545152 -0.013267619 0.01270965 0.046561934 0.03947063
-0.090807796 -0.1845729 0.049066387 -0.11915554 -0.10827564 -0.15165485 0.034338728 0.02593144
-0.0434998 0.30822074 0.012552685 0.049162585 0.3543881 0.15303788 -0.028100716 0.27414596
0.031404696 0.05446966 -0.65415525 0.26803538 0.053014737 0.052158516 0.025020476 -0.036505863
0.001168064 0.0033291257 -0.05457253 -0.023469578 -0.029896187 -0.01699942 -0.08727841 0.09643978
0.0034783224 -0.0042822626 0.02030383 -0.07071013 0.12455317 0.080742955 0.11742809 0.08401209
0.19901778 -0.12016311 0.15414087 0.10568095 -0.07916575 0.2758726 0.284033 0.0021404172
-0.17382398 -0.3890806 -0.020863004 0.28655854 0.2720445 -0.023076758 0.012009922 0.12198819
0.052607752 0.02932418 0.13084365 -0.0053543057 0.001982682 0.021311356 0.003938443 -0.0179959
-0.00074879505 0.021071648 0.0027531874 -0.9753119 -0.02760263 -0.013119371 0.05922274 -0.053919148
-0.20041934 0.07361529 -0.050837237 0.015940644 -0.11194789 0.022370154 -0.04556058 -0.06365242
0.2553589 -0.1461511 0.2276483 0.21696834 -0.89420545 0.0034616287 0.0341284 0.17693987
-0.032211017 -0.16305192 0.24274197 -0.002204335 0.38106266 0.81856495 -0.15374105 0.042485274
-0.058819756 0.14541928 -0.018128844 0.06831895 -0.00042512277 0.069421455 -0.35361224 0.29557496
0.39653555 -0.15639652 -0.4155409 -0.030840827 0.095422834 0.22699611 0.009282255 -0.26237592
0.08839373 -0.22095935 -0.043539524 -0.049984187 -0.29794267 0.14830638 -0.4705623 0.047418706
00000000: 9ba6 87be 5ffb 0b3f 3455 993e c776 353d
00000010: 2ef0 5c3c e804 08bd 53bf cbbe 3330 e13e
00000020: 5298 f03e 7e8e f4bd f87c 503d 2891 00be
00000030: 5a22 43bc 5f4d 14be af16 ae3b 61a6 1abe
00000040: 8404 acbd ed3b 2b3d 43b9 a6be 0ff3 393d
00000050: c866 a13c 00a1 92be 4019 b2bd 7381 24bd
00000060: 9515 82be 084d 9f3c f2b5 94bc 2e71 29be
00000070: 8f3a b13d cfb8 85bd a6d6 8ebe 7654 f7bc
00000080: da1a c7bd 0337 c0be b6eb a03d 518d 31bd
00000090: 277d 01bd d3cc 11be 237c cc3c ce57 38bc
000000a0: cecb 1abe 7020 473d ff9a a7bd 525e 6fbd
000000b0: 7dc5 d53d ab94 44be 9375 b9bd 0aff eabd
000000c0: 926a 73be 2d61 b8ba 72c0 30bd 5010 a6be
000000d0: 76d1 54bd 299e d23b 13fe febd c30f 6bbe
000000e0: 29c4 ebbe 5138 3abe 77c1 17be e268 ddbe
000000f0: e7cc 64be 2179 94bd 52da d0be 9162 10be
00000100: db80 9fbe 48f8 87be 2112 fbbd 6f0b 82be
00000110: d748 99be c9aa 8dbe 3321 69be c75d 34be
00000120: ec1e 01be 0f9e b1bd 5f4f 703c b809 5f3c
00000130: 2792 073d 78b8 8abd 110c c8bb 7bfa 96bd
00000140: 11fd 9dbc 4700 0cbe 81f2 92bd b58f 7b3d
00000150: ff4e 97bc 6b87 0cbd 86bf 513d 565e 13be
00000160: 4952 15bb 987d 19be c897 26be d2fd 81bd
00000170: d35c 463d 0c13 69bd 142c 04b9 b7c8 d2bd
00000180: 6906 20bd 8eab 7e3d bc75 12be 404f 08bd
00000190: f95e 01be 4ddb 2dbe 0dc5 12bd f525 8ebd
000001a0: 20fd 16be 198d 0bbd 8d21 04be 6b74 b2bd
000001b0: 341d bcbd 0099 d03d 02ab 8e3d 659f 783d
000001c0: 1fc4 2dbd 529b f23d 5f61 843d 49fb 3f3d
000001d0: f7d1 a4bd dfd4 fdbd af8b b5bd f9df 1b3b
000001e0: 1765 9cbc 3871 2e3d 64b8 d9bd d898 76bd
000001f0: b9bc 61bd a955 07bd b7b7 acbd d749 68bd
00000200: f575 2e3a 9f89 2dbe 5e30 f13c f2c8 193d
00000210: 6d60 59bc 233c 503c bab7 3e3d f5ab 213d
00000220: 70f9 b9bd ae00 3dbe d6f9 483d d207 f4bd
00000230: 9ebf ddbd 694b 1bbe c4a6 0c3d 2c6e d43c
00000240: d92c 32bd 1ccf 9d3e c7a9 4d3c b55e 493d
00000250: 5b72 b53e f6b5 1c3e 7933 e6bc dc5c 8c3e
00000260: 36a2 003d 941b 5f3d b876 27bf ef3b 893e
00000270: fb25 593d 2ba4 553d bef7 cc3c 2c87 15bd
00000280: b919 993a 762d 5a3b 7287 5fbd 4643 c0bc
00000290: d9e8 f4bc 5e42 8bbc 06bf b2bd 3882 c53d
000002a0: 91f4 633b 3952 8cbb 3854 a63c 79d0 90bd
000002b0: bb15 ff3d 905c a53d 237e f03d 880e ac3d
000002c0: 51cb 4b3e 1418 f6bd 1bd7 1d3e 416f d83d
000002d0: a721 a2bd 2c3f 8d3e c66c 913e 3e46 0c3b
000002e0: eafe 31be 9335 c7be e4e8 aabc cdb7 923e
000002f0: 6b49 8b3e 780b bdbc 44c5 443c f2d4 f93d
00000300: 3a7b 573d 4339 f03c e1fb 053e 2c73 afbb
00000310: e2ef 013b 2795 ae3c 0e0e 813b 236c 93bc
00000320: c94a 44ba 739e ac3c d26e 343b 0aae 79bf
00000330: e91e e2bc a1f2 56bc 8b93 723d 53da 5cbd
00000340: ba3a 4dbe 9dc3 963d b53a 50bd f495 823c
00000350: ef44 e5bd 9d41 b73c bb9d 3abd 335c 82bd
00000360: 67be 823e a2a8 15be a31c 693e f32c 5e3e
00000370: a6ea 64bf 7edc 623b 39ca 0b3d ba2f 353e
00000380: b3ef 03bd 15f7 26be 5a91 783e 9b76 10bb
00000390: a51a c33e 798d 513f 4b6e 1dbe 0a05 2e3d
000003a0: fcec 70bd cbe8 143e f182 94bc ceea 8b3d
000003b0: 03e3 deb9 d62c 8e3d aa0c b5be 9a55 973e
000003c0: b506 cb3e 6926 20be c7c1 d4be e7a5 fcbc
000003d0: 0c6d c33d ab71 683e 9914 183c 2356 86be
000003e0: c607 b53d 2b43 62be 8056 32bd 38bc 4cbd
000003f0: f18b 98be a1dd 173e 8bed f0be 1e3a 423d

conv2.bias f4 [12]
-0.56710476 -0.094981186 0.46289188 0.5069535 -0.02620196 0.85724485 0.74066246 -0.036753304
-0.063249774 0.156963 -0.14472452 -0.045492653
00000000: c72d 11bf 7f85 c2bd 2a00 ed3e b4c7 013f
00000010: 7ea5 d6bc 6674 5b3f 0e9c 3d3f a28a 16bd
00000020: 1989 81bd e9ba 203e aa32 14be 8156 3abd

conv3.weight f4 [16, 12, 3, 3]
-0.028125362 0.036711648 -0.13857844 -0.14774394 -0.1245942 -0.083984144 -0.06759136 -0.14225793
-0.0073939725 -0.14331536 -0.100316964 -0.13508168 0.026191153 -0.012380535 -0.07059301 -0.14152047
-0.096207514 -0.1356794 -0.009416074 0.006262293 -0.05845401 -0.14291623 -0.1113674 -0.0726982
-0.015552553 -0.08572634 -0.061780553 -0.022720532 -0.124698855 -0.14522985 -0.09672522 -0.086739965
-0.09504601 -0.039615534 -0.06534302 -0.06449472 -0.14797148 0.034856558 -0.08136954 0.03592517
-0.1500063 0.028872915 -0.08073063 -0.123038314 -0.06783226 -0.17537908 -0.14256385 -0.11593252
0.020066554 -0.12100936 -0.054501943 -0.07219763 -0.13473149 -0.108957246 -0.099544846 -0.050073024
-0.07240225 0.024573054 -0.020773958 -0.1517191 -0.13584322 -0.12402847 0.018094033 -0.095038585
0.009183581 -0.052185003 -0.02527304 -0.060497224 -0.06636317 -0.012366635 0.0027761557 0.016917942
-0.06481374 0.053404093 0.017227657 -0.10441262 -0.083118275 0.00068217947 -0.09182617 -0.06564803
-0.10348545 -0.14421277 -0.09643548 0.00026179853 -0.10344077 -0.104865305 -0.097420335 -0.12937437
0.014196269 0.020266445 -0.03511593 -0.11462677 -0.06268084 -0.059580818 -0.013147202 0.016397083
0.016152075 0.019518133 -0.015599879 -0.10156489 -0.12037854 0.0048340946 -0.014838644 -0.14887224
-0.1556398 -0.117998764 0.033290062 -0.026166415 -0.063917994 -0.027276343 -0.24510859 -0.09765942
0.018896226 -0.2878121 -0.078365766 0.098839015 -0.27517554 0.012083344 0.036830775 -0.11058008
0.03718368 0.042717345 -0.047133826 -0.0046775127 -0.08650132 0.033945832 0.11158704 0.07309102
0.019363381 0.23661521 0.17979342 0.02752642 0.028986916 0.026956744 -0.016482 1.1532781
-0.026973829 0.23383589 -0.036766075 -0.5445126 -0.28320223 0.06386753 0.17400658 0.095101826
-0.016584745 0.021981213 0.019700821 -0.0046520424 0.04138372 0.12950736 0.085587345 0.1090882
-0.018058717 0.17835635 0.040763624 -0.086894594 0.121442944 -0.44535246 -0.5047977 0.17883997
-0.18090162 -0.17211045 -0.0031616346 0.008692803 0.31528372 -0.089708105 -0.37619224 -0.15716842
0.0666195 -0.14361584 -0.226702 0.0016695131 0.12631828 0.02683748 0.08207182 0.04265148
0.05192741 0.028553046 0.14200498 0.052377965 -0.007312963 0.017396318 0.14905857 -0.005219031
0.048816435 -0.011562912 0.049419075 -0.04115421 -0.030780615 0.038935747 0.18919004 0.01095579
0.1188967 0.15074915 -0.06470801 -0.09207047 0.11139485 -0.116317496 0.028284816 0.11322322
0.12323165 -0.03106452 0.13864897 0.08798547 0.07432678 0.07741591 0.027420389 0.053018983
0.017071055 0.00696744 -0.04950896 0.08507825 0.026935225 0.012060269 -0.071741 0.019176908
-0.29040745 0.28589976 -0.2347021 -0.46437356 0.58298457 -0.34174117 -0.44741514 0.586669
-0.34251016 -0.03984276 -0.040664013 -0.1331307 -0.057580344 -0.064731054 -0.044304125 -0.10556539
0.0944886 0.0036975073 -0.69186246 0.03898121 -0.03660816 -0.52357256 0.6686256 0.1895496
-0.27959678 0.06763648 -0.11753615 -1.2705271 0.2875063 -0.56639946 -0.16598111 -0.34796575
0.5316692 0.067859665 0.5337109 -0.28071186 -0.07002279 0.07310759 0.0018261902 0.027512848
00000000: 2967 e6bc f45e 163d 82e7 0dbe 304a 17be
00000010: 3e2b ffbd e1ff abbd 576d 8abd 10ac 11be
00000020: 2349 f2bb 43c1 12be fb72 cdbd da52 0abe
00000030: d48e d63c bad7 4abc 1193 90bd beea 10be
00000040: 7208 c5bd 8aef 0abe e045 1abc ec33 cd3b
00000050: 796d 6fbd a258 12be 9714 e4bd cbe2 94bd
00000060: 23d0 7ebc 4b91 afbd 9b0d 7dbd 6920 babc
00000070: 1d62 ffbd 22b7 14be df17 c6bd b9a4 b1bd
00000080: 7ca7 c2bd e643 22bd 90d2 85bd cf15 84bd
00000090: d685 17be c0c5 0e3d 13a5 a6bd 4526 133d
000000a0: 409b 19be e486 ec3c 1a56 a5bd 83fb fbbd
000000b0: a4eb 8abd 9396 33be 42fc 11be 076e edbd
000000c0: 9d62 a43c c1d3 f7bd 6e3d 5fbd 5adc 93bd
000000d0: 0df7 09be fa24 dfbd 2bde cbbd 5f19 4dbd
000000e0: a147 94bd 6e4d c93c 262e aabc 405c 1bbe
000000f0: 7c1a 0bbe a302 febd f039 943c 97a3 c2bd
00000100: bb76 163c f1bf 55bd 6809 cfbc f0cb 77bd
00000110: 6ae9 87bd 6d9d 4abc 2af0 353b 7f97 8a3c
00000120: 11bd 84bd 40be 5a3d 0421 8d3c 49d6 d5bd
00000130: ea39 aabd 4ad4 323a 5c0f bcbd 7972 86bd
00000140: 2ef0 d3bd 83ac 13be f77f c5bd 0142 8939
00000150: c1d8 d3bd 9fc3 d6bd 5084 c7bd b77a 04be
00000160: 7897 683c d105 a63c b9d5 0fbd 71c1 eabd
00000170: d05e 80bd 040b 74bd 5d67 57bc 2d53 863c
00000180: 5b51 843c 7ee4 9f3c a396 7fbc 4101 d0bd
00000190: 0689 f6bd 5367 9e3b c91d 73bc f771 18be
000001a0: 0a60 1fbe 56a9 f1bd 295b 083d f35a d6bc
000001b0: 70e7 82bd a372 dfbc bffd 7abe a901 c8bd
000001c0: 42cc 9a3c 1c5c 93be 3b7e a0bd 1c6c ca3d
000001d0: cfe3 8cbe 38f9 453c dedb 163d cf77 e2bd
000001e0: ea4d 183d 62f8 2e3d 660f 41bd d245 99bb
000001f0: 9b27 b1bd c90a 0b3d bf87 e43d bfb0 953d
00000200: f49f 9e3c 424b 723e c41b 383e 167f e13c
00000210: f875 ed3c 64d4 dc3c 4205 87bc 9e9e 933f
00000220: 38f8 dcbc ad72 6f3e 0698 16bd 2e65 0bbf
00000230: e2ff 90be fbcc 823d c82e 323e bfc4 c23d
00000240: bbdc 87bc f211 b43c 9e63 a13c 2970 98bb
00000250: fa81 293d 949d 043e 6b48 af3d a269 df3d
00000260: e0ef 93bc 0ca3 363e c2f7 263d cbf5 b1bd
00000270: 14b7 f83d 3d05 e4be 6c3a 01bf d321 373e
00000280: 463e 39be b93d 30be 6d33 4fbb 426c 0e3c
00000290: de6c a13e e2b8 b7bd 459c c0be c2f0 20be
000002a0: ce6f 883d 0810 13be 9224 68be 90d3 da3a
000002b0: 9459 013e 46da db3c 4515 a83d 51b3 2e3d
000002c0: d6b1 543d 14e8 e93c c169 113e 478a 563d
000002d0: 94a1 efbb b982 8e3c cfa2 183e 6804 abbb
000002e0: bef3 473d 5e72 3dbc a86b 4a3d 5191 28bd
000002f0: a127 fcbc 177b 1f3d 09bb 413e ea7f 333c
00000300: 1d80 f33d fc5d 1a3e a285 84bd 718f bcbd
00000310: fc22 e43d de37 eebd 8fb5 e73c 93e1 e73d
00000320: e060 fc3d 057b febc fff9 0d3e ba31 b43d
00000330: a438 983d 3c8c 9e3d b9a0 e03c 6f2a 593d
00000340: 99d8 8b3c 1f4f e43b e8c9 4abd 813d ae3d
00000350: 43a7 dc3c 6f98 453c f2ec 92bd e418 9d3c
00000360: 49b0 94be 7461 923e bf55 70be 5fc2 edbe
00000370: 7a3e 153f b3f8 aebe 9913 e5be f12f 163f
00000380: 7e5d afbe 2932 23bd 4f8f 26bd 6a53 08be
00000390: 5ed9 6bbd b791 84bd 3e78 35bd ab32 d8bd
000003a0: 3d83 c13d e151 723b e61d 31bf c3aa 1f3d
000003b0: 70f2 15bd da08 06bf 0c2b 2b3f 4a19 423e
000003c0: 4f27 8fbe ff84 8a3d cbb6 f0bd a2a0 a2bf
000003d0: 0734 933e 8eff 10bf f4f6 29be 9128 b2be
000003e0: 791b 083f 02fa 8a3d 47a1 083f 77b9 8fbe
000003f0: 1c68 8fbd 6fb9 953d c65c ef3a a062 e13c

conv3.bias f4 [16]
0.0039103935 0.15081374 0.5206515 -0.010401541 -0.15444432 -0.28890958 -0.018165343 -0.01256072
-0.48493427 -0.08626717 -0.16186388 -0.5990284 0.32949355 -0.107570425 -0.26560473 -0.29348323
00000000: c222 803b eb6e 1a3e 6b49 053f 3a6b 2abc
00000010: a726 1ebe f5eb 93be 7ccf 94bc 7acb 4dbc
00000020: 4e49 f8be d8ac b0bd a5bf 25be ed59 19bf
00000030: 61b3 a83e e24d dcbd 58fd 87be 6f43 96be

t_conv1.weight f4 [16, 12, 4, 4]
-0.097687 -0.101648904 -0.028347984 -0.10474519 -0.04527918 -0.012857117 -0.038553253 -0.08842294
-0.068695724 0.11634616 -0.085720204 -0.053885758 -0.11700007 0.046307903 0.08642246 -0.021790694
0.10033946 -0.0520471 -0.049256336 0.00012740037 0.06696378 0.013847882 -0.007423476 -0.06748443
0.063540615 0.020215116 -0.10844549 0.03180536 0.033018854 0.0054327613 -0.02950238 -0.018097023
0.010252887 0.07595933 0.091342814 0.010668611 0.047687225 0.031685106 0.060081005 0.025708802
0.11713914 0.057201177 0.0023421387 0.10191315 0.027728368 0.10844335 -0.010831084 0.06309089
-0.11006483 -0.016783662 -0.10360923 0.0037017588 -0.030135956 -0.030209702 -0.08815971 -0.06342835
-0.12096763 -0.07546713 -0.09927149 -0.10514329 -0.046496917 -0.12175933 -0.05267789 -0.12658444
0.009928261 0.039402444 -0.0059667355 0.04079817 0.029963344 0.12767729 0.08552032 0.13045427
0.028433617 0.08585927 0.08600651 0.13023572 0.07690407 0.082183436 0.00092193804 -0.004897631
0.08030755 0.08548919 0.08907985 0.02792702 0.025641464 -0.0065273573 0.058564246 0.10715332
-0.0028803113 0.008205563 0.08208204 0.09571076 -0.011058602 0.035872817 -0.005726867 0.029925762
-0.11165265 -0.08019798 -0.029484361 -0.09651277 -0.022052525 -0.00634371 -0.11484013 -0.025733287
-0.038765028 -0.08037311 -0.08674322 -0.14759162 -0.0978108 0.011521728 -0.008496919 -0.015399647
0.070356525 0.10267225 -0.058330968 -0.016139675 0.09677309 0.1101363 0.031111022 0.053034972
0.19015634 0.0803746 0.00071209285 -0.043606225 0.074180484 0.108765244 0.13709268 0.042609856
-0.07896795 -0.09163274 -0.09349941 0.009798841 0.03637082 -0.03506128 0.10264975 0.049635734
0.053274244 0.055901203 0.061702307 0.16959634 -0.01436891 0.12598933 0.1305969 0.07559101
-0.0026062015 0.005317569 -0.061986506 -0.1078026 -0.11769852 -0.12763484 -0.08091763 -0.04702963
-0.007134178 -0.10050655 -0.012292974 -0.040530127 -0.076343596 -0.015702939 -0.05144149 -0.03080982
-0.059454102 0.010517517 -0.013509746 -0.10174304 -0.021082064 0.006979999 -0.03418423 0.0055978643
-0.0316294 -0.00092530245 -0.05926388 0.0040998803 0.0024589542 -0.0032372244 -0.005828885 -0.023025043
-0.04957229 0.0040664375 0.034092322 -0.043228194 -0.060511075 -0.002845943 -0.026985478 0.02097632
-0.05505032 -0.044243164 0.06910586 0.070004344 0.038987488 0.05994627 -0.057596475 -0.06418376
0.20680383 0.39332557 -0.06681369 0.32653984 -0.31737635 -0.7313415 -0.3799721 0.127207
-1.1491399 -1.046294 0.3422829 0.22151017 -0.40075016 -0.6123448 0.54026854 -0.03495736
0.14216803 -0.081126 -0.03644442 -0.08377845 -0.09481496 -0.20557176 -0.07551176 -0.120018095
0.011260298 0.1722403 0.30935997 0.0494753 -0.07149742 0.01870356 0.19575222 0.045301277
0.0066892593 -0.024846882 -0.027656391 0.18370146 0.065817185 -0.02272964 -0.07268173 0.20595993
0.04527724 -0.03195514 -0.21417265 0.016810603 0.0765152 0.06144704 -0.118177034 0.035924528
0.03148839 0.108878665 0.45173576 -0.14394346 0.38164708 -0.2492728 -0.34716073 -0.6782541
0.2896206 -1.0704224 -0.59212905 -0.35551545 0.15175073 -0.2572593 -0.17822415 -0.036274068
00000000: 1f10 c8bd 4d2d d0bd 083a e8bc a584 d6bd
00000010: a976 39bd a8a6 52bc 04ea 1dbd 1617 b5bd
00000020: 58b0 8cbd e546 ee3d 138e afbd 50b7 5cbd
00000030: bc9d efbd 5bad 3d3d 42fe b03d 6682 b2bc
00000040: c67e cd3d 572f 55bd 03c1 49bd c796 0539
00000050: 4e24 893d 3ae2 623c a140 f3bb 4735 8abd
00000060: 9521 823d 2c9a a53c ab18 debd 5646 023d
00000070: c73e 073d 4e05 b23b faae f1bc 3540 94bc
00000080: bafb 273c 9190 9b3d f111 bb3d 66cb 2e3c
00000090: ae53 433d 3ec8 013d 8017 763d 449b d23c
000000a0: a5e6 ef3d c84b 6a3d 917e 193b d7b7 d03d
000000b0: 9a26 e33c 8c17 de3d dc74 31bc cc35 813d
000000c0: ab69 e1bd e47d 89bc 1331 d4bd 3599 723b
000000d0: aedf f6bc 567a f7bc 148d b4bd b9e6 81bd
000000e0: e0bd f7bd 838e 9abd da4e cbbd 5d55 d7bd
000000f0: 8d73 3ebd f55c f9bd c5c4 57bd 5a9f 01be
00000100: 25aa 223c 7564 213d 9b84 c3bb fb1b 273d
00000110: b075 f53c d6bd 023e 4725 af3d ce95 053e
00000120: 9eed e83c fcd6 af3d 2e24 b03d 835c 053e
00000130: e27f 9d3d ca4f a83d 37ae 713a 4e7c a0bb
00000140: 4978 a43d f514 af3d 7f6f b63d 35c7 e43c
00000150: 0c0e d23c 71e3 d5bb 10e1 6f3d 3373 db3d
00000160: 9bc3 3cbb a070 063c a11a a83d 0104 c43d
00000170: 232f 35bc 60ef 123d 71a8 bbbb df26 f53c
00000180: 25aa e4bd d73e a4bd 3089 f1bc 7da8 c5bd
00000190: 7fa7 b4bc e5de cfbb 4d31 ebbd 9dce d2bc
000001a0: 14c8 1ebd a89a a4bd 6ea6 b1bd 4222 17be
000001b0: 0751 c8bd a1c5 3c3c a936 0bbc cd4e 7cbc
000001c0: 1517 903d d445 d23d 74ec 6ebd 5a37 84bc
000001d0: f830 c63d 248f e13d 8bdc fe3c 333b 593d
000001e0: 58b8 423e 709b a43d beab 3a3a 719c 32bd
000001f0: f0eb 973d 50c0 de3d 0662 0c3e ac87 2e3d
00000200: f3b9 a1bd f2a9 bbbd 9e7c bfbd 518b 203c
00000210: 92f9 143d 6b9c 0fbd 083a d23d d74e 4b3d
00000220: 1836 5a3d a9f8 643d 8fbb 7c3d aaaa 2d3e
00000230: 946b 6bbc 5903 013e 32bb 053e 76cf 9a3d
00000240: cecc 2abb 003f ae3b 90e5 7dbd 9cc7 dcbd
00000250: ec0b f1bd b5b2 02be 24b8 a5bd 24a2 40bd
00000260: d3c5 e9bb 61d6 cdbd 7868 49bc eb02 26bd
00000270: 085a 9cbd 73a3 80bc 50b4 52bd e064 fcbc
00000280: 2586 73bd aa51 2c3c fb57 5dbc a85e d0bd
00000290: 4bb4 acbc 7ab8 e43b c304 0cbd 4a6e b73b
000002a0: d48d 01bd ff8f 72ba afbe 72bd 4a58 863b
000002b0: 6826 213b 9d27 54bb 3b00 bfbb 049f bcbc
000002c0: 500c 4bbd c03f 853b 64a4 0b3d 0c10 31bd
000002d0: 76da 77bd 0083 3abb a610 ddbc 88d6 ab3c
000002e0: 727c 61bd 5238 35bd 6087 8d3d 705e 8f3d
000002f0: 58b1 1f3d 388a 753d 48ea 6bbd c672 83bd
00000300: 62c4 533e f861 c93e 9ed5 88bd 3b30 a73e
00000310: 277f a2be 3239 3bbf b48b c2be 8d42 023e
00000320: 0417 93bf f6ec 85bf b43f af3e 90d3 623e
00000330: 202f cdbe a1c2 1cbf 0a4f 0a3f 732f 0fbd
00000340: 7f94 113e 6325 a6bd bf46 15bd 0994 abbd
00000350: 592e c2bd 6781 52be e9a5 9abd 0ccc f5bd
00000360: 1d7d 383c c35f 303e 6e64 9e3e 9da6 4a3d
00000370: 3d6d 92bd 3538 993c 4573 483e d58d 393d
00000380: 9331 db3b b08b cbbc a88f e2bc 3c1c 3c3e
00000390: 29cb 863d 8333 babc 29da 94bd 29e7 523e
000003a0: a174 393d 65e3 02bd 1350 5bbe 64b6 893c
000003b0: 00b4 9c3d e4af 7b3d cd06 f2bd 9925 133d
000003c0: f8f9 003d c7fb de3d e949 e73e ea65 13be
000003d0: 3f67 c33e 5e41 7fbe 0dbf b1be 10a2 2dbf
000003e0: 2749 943e 9a03 89bf c595 17bf 1f06 b6be
000003f0: 8b64 1b3e 7eb7 83be 6480 36be 1e94 14bd

t_conv1.bias f4 [12]
0.25391573 0.95695084 -0.058944624 0.09270386 0.31334028 -0.31990418 0.0067522093 0.104563564
-0.004302 -0.01484183 -0.07917508 0.3122626
00000000: 3e01 823e bbfa 743f eb6f 71bd 85db bd3d
00000010: 236e a03e 7bca a3be a341 dd3b 6c25 d63d
00000020: cbf7 8cbb 262b 73bc 8b26 a2bd e2e0 9f3e

t_conv2.weight f4 [12, 3, 4, 4]
0.18197943 0.002780963 -0.38739157 -0.24573416 -0.041809008 -0.62117803 -0.99609786 -0.6768816
-0.071857415 0.2861928 -0.30822656 -0.022157092 0.026006477 0.06909255 -0.06908904 0.020676207
-0.04968317 0.012427991 0.15019448 -0.16757402 0.0144647965 -0.3226645 -0.59046066 -0.3362499
-0.08282051 0.39398998 -0.01768271 0.1418217 -0.041497167 -0.04964244 -0.013311735 0.012610547
-0.0446088 0.10138134 0.8019521 0.3590246 0.20078343 -0.012358156 -0.37291595 -0.23522177
-0.0570866 0.5497765 0.3942856 0.025808936 -0.08628248 -0.034191184 0.09973741 -0.011647846
-0.19734931 -0.03151763 0.35118604 0.1584937 -0.05594567 0.44070312 0.57927287 0.2507759
-0.11869319 -0.22681823 -0.19061129 -0.090373166 -0.073493235 -0.1222249 0.03190571 0.053925436
-0.059481177 -0.00899159 0.19275875 0.07366431 -0.07757464 0.40956435 0.50937974 -0.08000945
-0.25789213 -0.25852016 -0.40739325 -0.2902169 -0.008977586 -0.15129457 -0.08662796 -0.010140289
0.01428549 0.3507389 0.41650948 -0.03180521 0.2304093 0.7266894 0.5302879 -0.08190814
-0.09002786 -0.108278915 -0.27212375 -0.319592 -0.008856058 -0.035762586 -0.08560027 0.0562885
0.050782945 -0.127649 -0.010862965 0.19133386 -0.096177496 -0.37589794 -0.16208772 0.12984736
-0.09932996 -0.26287434 -0.21407649 0.10290494 -0.02599754 -0.19661275 -0.21330974 0.014433806
0.1488165 -0.20430413 -0.2254694 0.12520847 0.03973174 -0.4033613 -0.14740957 -0.061135598
0.07810038 -0.029132571 -0.1453989 0.049014367 -0.03976785 -0.11059793 -0.105883695 -0.010086257
0.1434679 -0.24976848 -0.16825062 0.10967328 0.047649007 -0.453767 -0.22948803 0.025989309
0.10406002 -0.03584231 0.041670263 0.08193285 0.0912924 0.0005167933 0.019607682 -0.012526528
-1.400326 -0.6482661 -0.2526871 -0.08529339 0.5773728 -0.32073775 -0.05391606 -0.020483589
0.09801602 -0.25763795 -0.0440526 -0.0067717675 0.021030024 -0.03742966 -0.03521834 -0.02660844
-1.1257421 -0.93702734 -0.39780077 -0.019534688 0.40898672 -0.39344886 -0.16926895 -0.016865684
0.16859168 -0.27991337 0.078779474 0.08030031 0.09081159 0.06664972 0.055065528 0.043997474
-2.467422 -1.4065406 -0.66403544 0.13068995 -0.17390722 -0.8776657 -0.3766338 -0.16246559
-0.07828123 -0.60143167 0.057431158 0.091151275 0.084648244 -0.0730457 0.07730952 0.1181134
0.037845626 0.03011624 0.025067847 0.05016656 0.20343296 -0.30824468 0.07950429 0.35887858
0.08221285 -0.7080812 -0.19572763 0.10950328 0.2340468 -0.007687217 0.11216858 -0.010832342
0.06884653 0.063848846 0.0122025395 0.042119402 0.13910124 -0.34519345 -0.00041186047 0.28267872
0.04023009 -0.78109246 -0.2818703 0.15989877 0.16257876 0.04983457 0.17611703 0.15171601
0.1602809 0.030068653 -0.13939625 -0.027969467 0.19238576 -0.1442547 -0.20832708 0.098730706
0.12567148 -0.67621773 -0.2744088 0.11156686 0.2237202 0.27450636 0.25614035 0.13606107
0.020186136 -0.114763096 -0.03597898 -0.15375412 -0.11372729 0.12207306 -0.265792 -0.5710811
0.096156366 0.15312944 -0.31195793 -0.23638879 0.110218965 -0.07051276 -0.2751948 -0.33122492
00000000: d158 3a3e d140 363b 3058 c6be bca1 7bbe
00000010: ec3f 2bbd 8605 1fbf 4500 7fbf 1d48 2dbf
00000020: fb29 93bd dd87 923e dfcf 9dbe ca82 b5bc
00000030: 890b d53c 6580 8d3d 8e7e 8dbd 2661 a93c
00000040: 9480 4bbd c69e 4b3c 95cc 193e 8698 2bbe
00000050: c1fd 6c3c 4834 a5be 6e28 17bf f228 acbe
00000060: cd9d a9bd 0eb9 c93e 55db 90bc b539 113e
00000070: eff8 29bd df55 4bbd 7719 5abc 789c 4e3c
00000080: b8b7 36bd 05a1 cf3d bc4c 4d3f 13d2 b73e
00000090: 2c9a 4d3e dd79 4abc d7ee bebe fadd 70be
000000a0: a4d3 69bd 27be 0c3f cddf c93e 436d d33c
000000b0: deb4 b0bd 0e0c 0cbd 2143 cc3d 9bd6 3ebc
000000c0: f015 4abe a118 01bd a8ce b33e 2c4c 223e
000000d0: 4927 65bd d7a3 e13e 3a4b 143f b365 803e
000000e0: 6a15 f3bd 0a43 68be 9b2f 43be 9115 b9bd
000000f0: 9f83 96bd 0c51 fabd 90af 023d ebe0 5c3d
00000100: 89a2 73bd 7651 13bc 8d62 453e 50dd 963d
00000110: 74df 9ebd 6bb2 d13e b666 023f ffdb a3bd
00000120: 700a 84be c15c 84be d995 d0be 4f97 94be
00000130: ba16 13bc f7ec 1abe 006a b1bd 7423 26bc
00000140: b00d 6a3c 0d94 b33e bb40 d53e 2e46 02bd
00000150: 6af0 6b3e 5108 3a3f f3c0 073f 74bf a7bd
00000160: 8760 b8bd 56c1 ddbd ce53 8bbe 90a1 a3be
00000170: 0019 11bc ca7b 12bd 324f afbd c58e 663d
00000180: c701 503d 6bb6 02be 94fa 31bc 06ed 433e
00000190: b5f8 c4bd b275 c0be 53fa 25be b5f6 043e
000001a0: 826d cbbd 7797 86be de36 5bbe d3bf d23d
000001b0: cbf8 d4bc da54 49be de6d 5abe c57b 6c3c
000001c0: 5a63 183e 1a35 51be 73e1 66be a636 003e
000001d0: c0bd 223d 5f85 cebe 89f2 16be 5269 7abd
000001e0: 18f3 9f3d 6ea7 eebc 73e3 14be 4ac3 483d
000001f0: 9de3 22bd 2b81 e2bd 8dd9 d8bd d440 25bc
00000200: 40e9 123e 4fc3 7fbe e449 2cbe 629c e03d
00000210: 9b2b 433d 2654 e8be e9fe 6abe 88e7 d43c
00000220: 6b1d d53d 63cf 12bd 70ae 2a3d 69cc a73d
00000230: 83f7 ba3d 6979 073a 4aa0 a03c 113c 4dbc
00000240: e23d b3bf c4f4 25bf 3460 81be 4dae aebd
00000250: b4ce 133f bd37 a4be 16d7 5cbd 33cd a7bc
00000260: a0bc c83d 1fe9 83be 8070 34bd b4e5 ddbb
00000270: 2847 ac3c d84f 19bd 1b41 10bd f1f9 d9bc
00000280: 5118 90bf 06e1 6fbf 8bac cbbe 3607 a0bc
00000290: b566 d13e 2172 c9be d754 2dbe e729 8abc
000002a0: 4ca3 2c3e ce50 8fbe 2257 a13d 7d74 a43d
000002b0: 6dfb b93d a67f 883d 648c 613d b236 343d
000002c0: 3eea 1dc0 8609 b4bf 3afe 29bf 96d3 053e
000002d0: bc14 32be b3ae 60bf 25d6 c0be 615d 26be
000002e0: e951 a0bd 6df7 19bf ef3c 6b3d 85ad ba3d
000002f0: 0f5c ad3d fc98 95bd 7454 9e3d 70e5 f13d
00000300: 0404 1b3d 55b6 f63c 165b cd3c 737b 4d3d
00000310: bb50 503e 3fd2 9dbe 25d3 a23d efbe b73e
00000320: 365f a83d cf44 35bf d36c 48be 4143 e03d
00000330: f7a9 6f3e 0de5 fbbb a4b8 e53d 237a 31bc
00000340: 69ff 8c3d 2fc3 823d 29ed 473c 6585 2c3d
00000350: 8e70 0e3e 32bd b0be faee d7b9 44bb 903e
00000360: 4fc8 243d adf5 47bf 4e51 90be 81bc 233e
00000370: 0c7b 263e 561f 4c3d 0658 343e 715b 1b3e
00000380: ad20 243e 8952 f63c e4bd 0ebe 3920 e5bc
00000390: c600 453e 81b7 13be b253 55be 5333 ca3d
000003a0: 06b0 003e 9b1c 2dbf 4f7f 8cbe 2a7d e43d
000003b0: e816 653e 198c 8c3e d424 833e 9853 0b3e
000003c0: 655d a53c ea08 ebbd b25e 13bd b871 1dbe
000003d0: dae9 e8bd 7101 fa3d e415 88be 5f32 12bf
000003e0: a1ed c43d f7cd 1c3e f3b8 9fbe e70f 72be
000003f0: 7bba e13d fe68 90bd 55e6 8cbe 5096 a9be

t_conv2.bias f4 [3]
-0.08071355 -0.08571033 0.46128637
00000000: 254d a5bd e688 afbd ba2d ec3e
