models/cae.pth (torch, 29503 bytes, 10 tensors)

conv1.weight f4 [8, 3, 3, 3]
000000 c9 45 4e bd 84 1c 8f 3d 2a 31 0d 3d 38 aa 83 bc
       -0.05035952 0.06987861 0.034470715 -0.016072378
000010 d8 ed 86 3d 80 dc 10 bd 74 81 a8 bb 10 76 c5 3d
       0.06588334 -0.035366535 -0.005142385 0.09641659
000020 70 f6 12 3d 65 eb d1 3c db 3c e7 bd 0f d7 bb bd
       0.035879552 0.02562494 -0.11290904 -0.091718785
000030 35 7a ab bd 25 48 fc bd 2a 52 b0 3d 8f 1e e1 bd
       -0.083729185 -0.12318448 0.086094216 -0.10992157
000040 41 2b 2b be 8c 36 37 be 53 f3 c7 3d 86 10 ed bc
       -0.16715719 -0.17891902 0.09763207 -0.028938543
000050 e6 a9 ca 3d 52 0b 19 bc 98 d1 74 3d 3e 0e 1c be
       0.09895687 -0.009341078 0.059770197 -0.15239808
000060 7a 4f c1 3d af d1 04 3d a2 10 15 3e b0 38 0d be
       0.09438987 0.032426532 0.14557126 -0.13791156
000070 c9 81 7c be 9c 8c 8f 3c 02 ee 1b be bc 92 d3 be
       -0.24658884 0.017523102 -0.15227512 -0.41322887
000080 fa a7 70 ba a7 bc 03 3d 2e f6 ab 3d f6 39 53 bd
       -0.0009180304 0.032162335 0.083965644 -0.051568948
000090 6d 44 85 3d a9 74 a5 bc 87 a1 fe 3d cc 32 ea bd
       0.06507192 -0.02019723 0.12433153 -0.1143547
0000a0 e3 18 37 be 74 2b f0 3d 68 13 44 3e 4a 6f 32 3d
       -0.17880587 0.11727038 0.19148028 0.043563165
0000b0 c2 16 8e 3d 81 09 04 3e 82 38 c7 3c 44 84 77 bd
       0.069379345 0.1289425 0.024318937 -0.060428873
0000c0 8a 4d 78 3d b1 ff 41 be 1a 5f b7 3d d7 32 b3 bd
       0.060620822 -0.18945195 0.08953686 -0.08749931
0000d0 8e de 9a 3d ed bf 65 bd 77 07 3c be 46 d1 b5 3d
       0.0756198 -0.056091238 -0.18362223 0.08877806
0000e0 eb 15 73 3c c1 ca 89 bd 8c 9f 1f bd 35 e6 92 3d
       0.014836769 -0.06728125 -0.038970515 0.07172815
0000f0 9b 26 ae 3d f0 ee ab bd d4 84 1b be 1a e2 60 3c
       0.08503457 -0.08395183 -0.15187389 0.013725782
000100 ba be 1a be 36 3d 26 be 99 85 dc bd 7a dd 78 be
       -0.15111819 -0.16234288 -0.10767669 -0.24303237
000110 cb a8 19 be c9 e7 aa bd 7b 6a bd 3c 24 42 db bd
       -0.15005796 -0.08344991 0.023122063 -0.10705975
000120 ec 95 2e 3c 9c 94 10 be 4e 29 33 3d 30 a8 1b be
       0.010655861 -0.1411919 0.043740563 -0.15200877
000130 28 bf 81 3d 34 f9 97 bb 0b 23 d2 3d e8 a3 34 be
       0.06335288 -0.0046378616 0.1026059 -0.1764065
000140 76 a8 31 3d c9 13 17 3d 7a 69 12 be 5e 03 76 3d
       0.043373547 0.036884103 -0.14298049 0.060061805
000150 ee 2e 6e 3d 9e 81 bd bd 8c eb 7c 3c db f4 77 bd
       0.058150224 -0.09253238 0.015437018 -0.060536247
000160 92 95 7e 3d 46 d7 8d 3c 81 d0 e3 bd 03 7a 1c 3e
       0.06215436 0.017314564 -0.11123753 0.15280919
000170 98 71 a8 bb 77 a6 29 3e 3a 4d 6d 3e ef 0e a4 bd
       -0.0051404946 0.16567408 0.23173991 -0.08010661
000180 fb 1c ba 3d 14 c2 92 bd 6b 77 d4 3c cc f3 16 3e
       0.09087559 -0.07165924 0.02593585 0.14741439
000190 41 48 0a 3c b6 2b 08 3c 02 46 69 3e 85 e0 da 3e
       0.008440078 0.008311203 0.22780612 0.4274942
0001a0 3d 4b 42 3a 7d 99 d8 3d 96 63 b3 3b 85 14 86 3d
       0.0007411724 0.105761506 0.005474518 0.065468825
0001b0 59 9a 6d 3d 35 f9 5a 3e 9c ca c0 bd 9f 19 98 3d
       0.058008526 0.21384127 -0.09413645 0.07426762
0001c0 ad 3b 75 3e 90 7f 99 3c a9 2e f2 bc 25 12 2c be
       0.23948546 0.018737584 -0.029563265 -0.16803797
0001d0 b0 45 0b bd 20 26 9c bd e7 c4 a2 3e e5 26 36 bd
       -0.034002006 -0.07624459 0.3179085 -0.044470686
0001e0 81 ae 2b 3e f5 f4 6d 3e 01 7e d0 3d 93 86 10 bb
       0.16765787 0.23237975 0.10180283 -0.0022052869
0001f0 97 dd b3 3d 19 00 af 3c d5 c9 5a bd d9 65 09 be
       0.08782499 0.021362351 -0.05341514 -0.13417758
000200 05 e7 04 be 1e 8c 78 bd f3 77 91 3d 42 cc 10 be
       -0.12978752 -0.0606805 0.071029566 -0.14140418
000210 46 ab 55 bd cd 90 f7 bc 7c e9 20 bc 5e 0f 79 3d
       -0.052165292 -0.030220414 -0.009821292 0.06080567
000220 fa 59 51 be 6c 89 ba bd ad b0 6c be a7 c5 aa bd
       -0.2044448 -0.091082424 -0.23114271 -0.083384804
000230 73 94 cc bd c1 42 cc bd ab f2 15 be e6 c0 0e 3d
       -0.09989252 -0.0997367 -0.14643352 0.03485193
000240 71 de e3 3c 03 31 86 3c fe 53 01 3e 9e 07 f6 bd
       0.02781603 0.016380792 0.12629697 -0.120131716
000250 a4 08 17 3c b3 d4 0c bd 07 7b 83 be d3 03 ab 3b
       0.009218369 -0.034382533 -0.256798 0.0052189617
000260 82 a9 53 be 11 46 37 be 5c 3c 70 bc 93 b1 00 be
       -0.20670131 -0.17897822 -0.014662828 -0.12567739
000270 cd b3 a4 bd f3 18 8b 3c 0c c8 81 bd 50 51 07 3d
       -0.08042107 0.01697967 -0.06336984 0.03303653
000280 da 19 96 bc 31 a9 24 be da fd 44 be ff 01 5a be
       -0.018322874 -0.16080166 -0.19237462 -0.21289824
000290 26 1a 9f be 8c 1a 1f be 80 e7 62 bd f6 d0 9c be
       -0.31074637 -0.1553747 -0.055396557 -0.30628175
0002a0 86 f9 a0 be 6e 33 50 be 2d 1a 8f be 93 35 82 be
       -0.3144037 -0.20332119 -0.27949658 -0.254315
0002b0 81 a7 07 be 8e 0e 80 be 99 f9 11 be 4f 0a 20 be
       -0.13247491 -0.25011104 -0.1425537 -0.15628932
0002c0 5e 7d 7d be 0e e7 c6 be 23 28 b1 be 41 cf eb be
       -0.24754855 -0.38848156 -0.34600934 -0.4605656
0002d0 e5 e8 0f be fb 5f 28 be 10 1c d9 bd 0e 29 0d be
       -0.14053686 -0.16442864 -0.106010556 -0.13785192
0002e0 11 5f 3d be dd e6 2e be 58 b2 b9 bc 30 a4 e5 3c
       -0.18493296 -0.17080255 -0.022668049 0.028032392
0002f0 52 f1 26 be 30 15 e6 bd 6f e2 99 bb 24 f7 3e be
       -0.16302994 -0.1123451 -0.0046961824 -0.18648964
000300 48 42 2f be ed 14 c7 bd 12 66 1e bd 82 89 4d bc
       -0.17115128 -0.09720788 -0.03867156 -0.012544991
000310 94 7e 71 be 00 6c e2 3d b3 82 cb bd d6 ed 32 be
       -0.23583442 0.110557556 -0.09937038 -0.1747354
000320 ad 7b 7c be 57 f1 81 3c 43 46 3b be 4e e1 56 bc
       -0.24656554 0.01586215 -0.18288521 -0.01311524
000330 e5 2f 6f 3d 77 bf 1a be 82 69 c9 bd 8d e6 69 be
       0.058395285 -0.151121 -0.09834577 -0.22841854
000340 cf e0 8c be 96 bc 82 be 37 af 40 be 1b 6c c1 3d
       -0.27515265 -0.25534505 -0.18816839 0.094444476
000350 24 e6 dc bc 3a 67 bd bb 79 07 4d 3d e6 fc 83 bd
       -0.026965208 -0.005780128 0.050055955 -0.06444721

conv1.bias f4 [8]
000000 69 49 82 3e 37 f8 1c 3f 05 c1 12 be d0 26 e8 bc
       0.25446633 0.61316246 -0.14331444 -0.02833882
000010 b6 39 a3 39 fb fb f9 bd fc 29 39 3e 10 27 0b be
       0.0003113278 -0.122062646 0.18082422 -0.1358912

conv2.weight f4 [12, 8, 3, 3]
000000 9f 64 18 be 93 4e dc bd 28 c8 48 be ba 7b 30 be
       -0.14882134 -0.10757174 -0.19607604 -0.17234698
000010 1a 34 2a bc 61 e2 1d be 50 d7 76 3d 33 3f 6a 3c
       -0.010388399 -0.15418388 0.06026393 0.014297294
000020 8b 8a a0 bd fc 0b 32 ba ad 6a 05 be cc 70 0d 3d
       -0.07838925 -0.0006791947 -0.13028975 0.0345314
000030 74 67 fd bd 38 0e 26 3d 57 a5 16 be 12 4e 46 bd
       -0.12373248 0.040540904 -0.1471151 -0.048414297
000040 db 45 24 be 1a 17 30 be 14 b0 59 3d 22 b3 9f bc
       -0.16042273 -0.17196313 0.053146437 -0.019494597
000050 5c 5b 49 3c 0d d9 ed bc bb d9 1d be 48 bc 85 3d
       0.012289848 -0.029034162 -0.15415089 0.065300524
000060 58 4b e6 bc 5c fb 37 bd f5 da cc bc d4 84 82 bd
       -0.028112099 -0.04491745 -0.02500675 -0.06372991
000070 1b 8a 62 bd 7e 59 82 bd a7 17 7a 3d 49 3e 9c bd
       -0.05530749 -0.063647255 0.061057713 -0.076290675
000080 56 bd 08 be 3d d2 99 bd a9 26 08 be 16 30 68 bd
       -0.13353476 -0.07510803 -0.13295998 -0.056686483
000090 89 a4 2f 3d f9 18 ce bd 0c 1f 82 bd 31 5f 79 3c
       0.042881522 -0.10063357 -0.06353578 0.015220449
0000a0 ce f3 24 be af 6f 66 bd 9e 3f 17 bd 50 10 8c bd
       -0.16108629 -0.056258854 -0.036925904 -0.06839049
0000b0 35 ae 9f bd d6 50 bd bd 91 6b da bd 29 f1 b8 bd
       -0.07796899 -0.09243934 -0.10665048 -0.09030373
0000c0 98 f7 16 be a9 9a d0 3c 33 a6 0a 3c a7 50 02 be
       -0.14742887 0.025464373 0.008462477 -0.12726079
0000d0 06 16 09 be 68 99 1c be 98 1b d1 bd 29 d9 24 be
       -0.13387308 -0.15292895 -0.10210341 -0.16098465
0000e0 d5 3d 03 be fc 25 1d be 88 c8 dc bd e8 e2 84 bd
       -0.12816556 -0.15346521 -0.10780436 -0.064885914
0000f0 ae 29 31 bc 7f 75 c4 3c 85 85 01 bd 7c 32 b3 bc
       -0.01081316 0.023981808 -0.031621475 -0.021874659
000100 4a a1 31 be 6a cc 89 bc 72 e9 0e be e6 3b f5 bd
       -0.17346683 -0.016821105 -0.1395624 -0.11974315
000110 68 d3 e3 bb 50 a1 a5 bd f3 8a 8e 3c cb 96 43 ba
       -0.006952692 -0.080874085 0.01740024 -0.00074611296
000120 72 eb 7b 3d ef 1b 9d bb 29 b7 58 3d 22 a2 d3 3d
       0.061503835 -0.0047945897 0.05290905 0.10333659
000130 08 c1 ce bd 97 cd 7f 3b d9 fc 6e bd 3d fb 0d be
       -0.100954115 0.0039032453 -0.058346603 -0.13865371
000140 85 51 f6 bd 61 a4 d2 bc 70 79 05 be 2e 58 a7 bd
       -0.12027267 -0.025713148 -0.13034606 -0.08171116
000150 4d 9f 03 3d 48 06 fe bc c9 ab 15 be 23 e3 5d bd
       0.032134343 -0.031008855 -0.14616312 -0.054171693
000160 59 13 ab 3c c3 78 b9 b9 7c 87 34 be d7 56 7a bd
       0.02088325 -0.00035375924 -0.17629808 -0.061117973
000170 0a aa e9 3c 04 ee 05 be 1b 39 d0 bd 03 6d 97 3c
       0.028523464 -0.13079077 -0.10167142 0.018484598
000180 93 ae 2d be 94 3a 98 3b 34 b7 52 bd 64 57 46 bc
       -0.16961126 0.004645655 -0.051444247 -0.0121057965
000190 c4 00 97 3c a0 78 15 bd bf d1 cc 3b 9c 2b 5b bc
       0.018432982 -0.03649199 0.0062505896 -0.0133770965
0001a0 a3 fd 2a be 40 36 67 bd 41 22 37 3d d4 0f ea bd
       -0.16698317 -0.05644822 0.0447104 -0.114288
0001b0 4a ee d4 bc bb 6a 08 3b 52 ab 14 bd fd 8a 2f be
       -0.025992531 0.002081557 -0.036296196 -0.17142864
0001c0 90 51 4e 3d 04 c0 bb bd 65 f5 2f be 6e 71 bb 3c
       0.050370753 -0.091674834 -0.17183454 0.022881236
0001d0 c6 69 0c 3d 6e 1b aa bd c7 91 b4 3d 05 5d c8 bd
       0.03428056 -0.08306013 0.08816867 -0.09783367
0001e0 1c 7f d3 bc 7a f6 e8 bd 90 8e c2 3c 3d e9 d6 3d
       -0.025817446 -0.11375137 0.02374962 0.104937054
0001f0 28 28 b7 3c c4 e2 a4 bd 7a 1b f1 bd 85 02 81 bc
       0.022358015 -0.080510646 -0.11772819 -0.015748272
000200 69 3d 15 be 98 3f a1 bd dd 17 09 3d 1c 19 a3 3c
       -0.14574207 -0.07873458 0.033470023 0.019909434
000210 a2 59 40 3c 86 b1 07 be 5f dd e9 bd a6 a0 20 3c
       0.01174012 -0.13251314 -0.11419176 0.009803927
000220 41 1e 1f bd 30 3a bd 3d c7 4b 3a 3e 3c 5e 55 3e
       -0.03884721 0.09239614 0.1819297 0.20836729
000230 33 73 2d 3e 5f 15 fb 3d 21 9b a5 3d 0e 04 45 3e
       0.16938476 0.122599356 0.08086229 0.19239828
000240 7d 14 7b 3b 2f 41 00 be c8 c7 d6 bd 3b e3 19 3c
       0.0038311773 -0.12524866 -0.10487324 0.009392555
000250 67 64 3a be b0 b7 41 be 3a 79 55 be c0 ab 1f bd
       -0.18202363 -0.18917727 -0.20847026 -0.038982153
000260 16 0e 8b bd f2 3f 87 3a 68 a6 06 3d 27 e1 2e bd
       -0.06789796 0.001031874 0.03287354 -0.04269519
000270 b6 56 cf 3c 22 c7 a0 3c a5 94 c6 bd 0d 9c 16 bc
       0.025309902 0.019626204 -0.096963204 -0.009192479
000280 a9 63 64 3d 43 a0 1e be 06 2a 8e 3d 6c f4 0f be
       0.055759106 -0.15490822 0.06941609 -0.14058083
000290 ad 61 fd bc b7 96 d3 bd 76 a4 ca bd dc 24 c8 bd
       -0.030930365 -0.10331481 -0.0989465 -0.09772655
0002a0 28 9e 38 3d fb 07 31 3d 2a b1 9a bd ed be 13 3d
       0.045072705 0.0432205 -0.075533226 0.036070753
0002b0 2c 18 bd 3c ce 71 6c 3d 75 47 95 bd 62 23 2a 3d
       0.023082815 0.05772572 -0.0728902 0.04153765
0002c0 ef 1a 46 3d 6b 39 95 bd 98 6d a7 bd fb 4b c1 bb
       0.04836553 -0.07286342 -0.081752 -0.00589895
0002d0 79 2a 6a be 4a 89 67 be f7 8c 6f be 2e d5 36 be
       -0.22867765 -0.22610965 -0.23393618 -0.17854759
0002e0 c0 f9 c7 bd 0c 43 5f bd 69 3d 47 be da b7 30 be
       -0.09764433 -0.0545073 -0.1945702 -0.17257634
0002f0 be c0 d3 bd 14 db c6 bd 37 3a 9d 3c c1 90 9d bd
       -0.10339497 -0.097097546 0.019192798 -0.07693625
000300 6d 07 0c be 12 ff 01 be 01 e6 0a be 26 d9 8e 3c
       -0.13674708 -0.12694958 -0.13564302 0.017437529
000310 69 0a ab bc d7 a6 8a 3d 15 ff d3 bc ed e5 44 3d
       -0.020878987 0.067701034 -0.025878469 0.048070837
000320 ea 52 d2 bd b9 18 22 3a 0e b0 01 be c9 28 76 bd
       -0.10269721 0.00061834935 -0.12664816 -0.06009749
000330 78 c7 26 3d 75 96 39 3d a3 7d 89 3b 85 4a 9d 3d
       0.040717572 0.045309503 0.0041958853 0.07680229
000340 f5 b2 d3 bc 2c bf d2 3d 1a ce 5b 3d ff 74 04 bd
       -0.02584217 0.102903694 0.05366335 -0.03233814
000350 ef 6d d3 bd f2 c1 5f bd a5 74 1c 3d f6 51 d3 bb
       -0.103237025 -0.05462832 0.03819718 -0.0064489795
000360 b5 ef d6 b9 7d 99 03 be 39 e5 38 be f2 70 43 bd
       -0.00040995856 -0.1285152 -0.18056192 -0.047715135
000370 61 5c df bd 1d 2e 9e 3c 63 d5 13 be ae a7 cd bd
       -0.10906292 0.019309098 -0.1443687 -0.10041748
000380 50 76 b1 bd e1 e3 28 bd f4 da 6b 3d fd 78 4c 3d
       -0.086651444 -0.041232947 0.057581857 0.04992007
000390 c7 76 61 3c 02 e7 1b be ec 3e b3 bd 0f 4a 29 bd
       0.013761229 -0.15224841 -0.08752236 -0.041330393
0003a0 54 43 0f be a8 d2 ff bc 0c 35 05 be 74 f5 64 3d
       -0.13990527 -0.031228378 -0.13008517 0.055898145
0003b0 be 17 bb bc 30 09 c7 3b 3f 9e 13 bd b1 40 be 3c
       -0.02283847 0.0060740933 -0.036039587 0.023224207
0003c0 42 85 31 bd d9 93 0a bd c8 df a6 3c 29 6e 2a bd
       -0.043339975 -0.033832405 0.02037038 -0.041608963
0003d0 fa 6b 35 be ad f4 4a be f1 6a d3 bd 5f dd 06 bd
       -0.17716971 -0.19819899 -0.10323132 -0.03292596
0003e0 29 32 a8 bc 5e 67 f6 bb 26 29 3c 3c 75 8c 4e bd
       -0.02053173 -0.0075196465 0.01148442 -0.05042692
0003f0 ed 43 ba 3c 86 e8 0b be 35 fa c8 bd 47 04 bb bd
       0.022737468 -0.1366292 -0.09813348 -0.09131675

conv2.bias f4 [12]
000000 47 d8 18 bc 7f 2d 24 be 79 98 d4 bd 76 97 b7 bc
       -0.009328908 -0.1603298 -0.10380644 -0.02241109
000010 71 6e 15 bd 41 6b 0f 3f 22 05 0f 3f 45 13 b3 be
       -0.03648228 0.5602303 0.5586721 -0.3497564
000020 8c e0 f5 bd 73 9a 28 3f 08 98 43 3f 9f 3c 17 3c
       -0.120057195 0.6586067 0.76403856 0.009230762

conv3.weight f4 [16, 12, 3, 3]
000000 49 2a bb bd da 13 a5 bc d4 05 9c 3c b5 29 a8 3c
       -0.09138925 -0.020151068 0.019045748 0.0205277
000010 88 6b ac bd 65 3c 44 bd be ba 35 b7 16 ab 94 bd
       -0.084189475 -0.04790916 -1.083192e-05 -0.072591946
000020 7f 5c 8e bc 2c 7a ff 3d 1f 06 ec 3d ba cd 85 bd
       -0.01737809 0.12474474 0.11524605 -0.0653338
000030 5f 02 37 3d b1 09 90 3b 8a 95 20 bd 7f a9 ef 3a
       0.044679996 0.0043956866 -0.03920511 0.0018284767
000040 29 b8 21 bd 4c f7 9b bd 44 fc 9e 3d be 2f eb 3c
       -0.03948227 -0.076155275 0.077629596 0.028709289
000050 32 a3 f7 3c 6c b4 c9 3d 23 e0 ce 3d 25 1a 17 bd
       0.030229185 0.09848866 0.101013444 -0.036890168
000060 b9 52 55 3d c8 9f f1 3d 8d 0c 8c bd 98 e4 81 bd
       0.052080844 0.11798054 -0.06838331 -0.06342429
000070 08 ef b1 bc 90 64 ef bd d6 bb ed bd 9f d7 37 3d
       -0.021720424 -0.11689103 -0.116080925 0.044883367
000080 7a 14 c0 ba 14 3e fd bd ab dc 9e bd e3 fb b3 bd
       -0.001465454 -0.12365356 -0.07756933 -0.08788278
000090 5f 7c 34 bc 54 a1 81 3d 81 4c 16 bd d4 f6 9f bd
       -0.0110159805 0.06329599 -0.036694054 -0.078107506
0000a0 fa 3c 95 bd cd 4a d6 bd b7 cd 2a bc 35 c0 bc bd
       -0.07287021 -0.10463486 -0.010425023 -0.09216348
0000b0 08 3c e0 bd dc 6a d8 bc 4d 05 8b bc d0 1b 7f bd
       -0.1094895 -0.026418142 -0.016970301 -0.062282383
0000c0 77 aa 75 bb 7a 66 f1 3e c5 96 73 b9 54 31 5a 3c
       -0.0037485638 0.47148496 -0.00023230452 0.013317425
0000d0 ee 8e e8 bd 5e 69 ae bd 74 7d 03 bd b4 fb ef 3e
       -0.11355387 -0.08516191 -0.032102063 0.46871722
0000e0 1e 78 e3 bd af 8a 91 3e 94 c9 8b 3d 08 d8 f2 3d
       -0.11106895 0.2842612 0.06825557 0.11857611
0000f0 cb 68 90 be 4a a9 cb 3d ff 7d 19 be 08 48 1f bc
       -0.2820495 0.09944399 -0.1498947 -0.009721763
000100 20 33 06 be d7 43 e5 bd 60 2e 3b 3b ff f0 11 3e
       -0.1310544 -0.1119458 0.0028561577 0.14252089
000110 6c cf f6 bd 52 73 1c be c0 e5 3c 3d 59 e9 02 be
       -0.12051281 -0.15278366 0.046117544 -0.12784328
000120 54 76 db 3a b9 99 65 3e 1f a9 32 be a1 4b bd bd
       0.0016743639 0.22421922 -0.17447327 -0.09242941
000130 dc 5d 31 3e 86 1e dd 3c 16 1c ed 3c 95 98 64 3e
       0.17320961 0.026992094 0.028944056 0.2232383
000140 39 72 2d be 72 48 9d 3d b2 ca 91 3e b2 cf 82 bb
       -0.16938104 0.076798335 0.28474957 -0.0039920444
000150 25 1e 3b 3c 0a d7 a7 bd d1 6d b1 3d 31 58 8b 3d
       0.011420761 -0.08195312 0.08663524 0.068039306
000160 89 fc d9 3e c4 2a fc bd 3a 9f 1f 3e 17 36 12 be
       0.42575482 -0.123128444 0.15588084 -0.14278446
000170 dc 45 97 3e df 16 4d bd 24 38 80 bf 45 0f 6f bd
       0.29545486 -0.05007064 -1.0017133 -0.05836417
000180 b5 6f e6 3d 6e 2f 22 3e 9e 86 13 3e 20 b3 e5 bc
       0.11251775 0.15838405 0.14406821 -0.028039515
000190 5a d5 8e 3c 4c cc 4c 3d 47 04 80 3c 57 fb 68 bc
       0.017435718 0.04999952 0.01562704 -0.01422008
0001a0 9d 8b f1 bd 31 24 9a 3c ac 06 8e bd 93 fc 66 bd
       -0.11794207 0.018816086 -0.06934866 -0.056393217
0001b0 0d b9 98 bd 86 b7 f0 bd 9f f2 a1 bc 1a 7e f8 3c
       -0.07457171 -0.11753754 -0.019769011 0.030333567
0001c0 cc 56 21 3d 88 f9 bb 3c 8e 29 9c 3c e6 54 69 bd
       0.039389417 0.022946134 0.019062784 -0.05696573
0001d0 74 cc aa bd 80 4c 69 bd c5 20 3d bc ce 7a 86 3d
       -0.083397776 -0.05695772 -0.011543457 0.06566392
0001e0 0e a7 02 be b0 cd a5 bd 25 3c f5 3b 92 58 46 bd
       -0.12759039 -0.080958724 0.0074839764 -0.04842431
0001f0 0e 40 d7 bc ce 02 52 bc 2f 25 e4 bd fb 06 a0 bd
       -0.02627566 -0.0128180515 -0.11139905 -0.078138314
000200 7f 21 80 bd 36 33 e3 bd b8 54 a0 bd 7d 41 ee bd
       -0.06256389 -0.11093752 -0.07828659 -0.11633585
000210 0f 8c 69 b9 a4 37 fe bc d4 c9 c1 3b e5 e5 9b bc
       -0.00022272787 -0.03103239 0.0059139524 -0.01903052
000220 ae 17 42 3d 51 5b 00 3d 16 09 8e 3d 85 f6 c2 bd
       0.047385864 0.031337086 0.06935327 -0.09519676
000230 14 b1 0d 3d ee 1f a0 bd 7b 10 94 3d ad 37 16 3d
       0.034592703 -0.0781859 0.07229706 0.03667419
000240 4e c6 60 bd 8b d1 2f bd 89 f8 fd bd 8d 5c 93 bd
       -0.054876618 -0.042924445 -0.1240092 -0.07195387
000250 9a ab d5 bd 50 40 e8 3c ae 75 74 bd 3f 8b d9 bd
       -0.10433121 0.02835098 -0.05968254 -0.10622262
000260 80 a2 34 bd f6 da 8d bc 09 e2 12 3c 2e 5c 68 bd
       -0.044100285 -0.017316323 0.008965024 -0.056728534
000270 3c 1b ac bd 76 fd bf be 85 1d e1 3d 7c 4d 7b 3e
       -0.08403632 -0.37498063 0.109919585 0.24541277
000280 02 ae 02 bd 0a 05 92 3c 9a 9b a0 be 56 26 c0 3a
       -0.031904228 0.017824668 -0.31368715 0.0014659862
000290 b8 1e 3e be 38 40 80 3e 9d c0 8d 3f 44 a6 2d 3e
       -0.18566406 0.25048995 1.1074406 0.16957957
0002a0 0d 1e 4c 3d e6 29 41 3e 7a f5 87 be 03 65 cd bd
       0.049833346 0.18863639 -0.2655447 -0.10029032
0002b0 f8 a3 31 3d 2a 06 af 3d 84 10 c7 bd c3 65 47 be
       0.043369263 0.085460976 -0.09719947 -0.19472413
0002c0 b8 42 c6 3d 89 7f 15 3d 5b e5 23 be 7f d7 85 3d
       0.09680694 0.03649858 -0.16005461 0.06535243
0002d0 87 8a 17 3f e2 36 6e 3e 01 3e 3a be 37 aa e7 3e
       0.5919575 0.23263124 -0.18187715 0.4524705
0002e0 e9 36 c6 3e c0 76 03 be 31 eb a4 bd 2c 30 89 3e
       0.38713768 -0.12838268 -0.08052672 0.26794565
0002f0 77 e4 47 be b2 b9 82 be 67 23 b4 be 1e ed c8 3d
       -0.19520746 -0.255323 -0.3518326 0.098108515
000300 68 d2 d7 be a4 aa 0e 3f 90 25 d8 3c 74 3c d2 be
       -0.42152715 0.55729127 0.026385099 -0.41061747
000310 43 0c e0 be fe 66 4a 3e 30 be f0 3e 4e 15 40 be
       -0.43759355 0.19765851 0.47020102 -0.18758127
000320 27 72 6f be 0e df f5 bf 87 e2 0e 3f fb f7 d7 3a
       -0.2338339 -1.9208696 0.55814403 0.0016477102
000330 09 9c a9 bf 7e 51 a2 be b8 74 de bd 03 68 b6 bd
       -1.3250743 -0.317028 -0.10862106 -0.089065574
000340 9d d3 4d 3d fd 24 85 3d 2b 17 51 bd 37 b0 11 3d
       0.05025064 0.065011956 -0.051047485 0.035568442
000350 50 41 9c 3d 89 34 04 bd fb 7a 25 3d c7 73 e0 bc
       0.07629645 -0.032276664 0.040400486 -0.027398957
000360 1b 68 1a 3e 0d f3 a2 3d 39 b0 e2 3c 0a 54 c1 3a
       0.15078776 0.079565145 0.02767192 0.0014749777
000370 9b d1 36 bd b0 2b 43 3d fa 52 8e 3c be 36 eb 3d
       -0.04463349 0.047649086 0.01737355 0.114850506
000380 0b 6e 00 bd 0c 67 b2 bd 93 48 b6 3b 50 82 3c bd
       -0.031354945 -0.08711061 0.0055628507 -0.046022713
000390 59 fe 86 3c a4 75 93 3c 1e 6c 7a 3d 8d b3 08 3d
       0.016478704 0.018000431 0.061138265 0.033374358
0003a0 32 7b 93 bc 98 ed 82 3d 0b bd d3 bd fd f6 39 3c
       -0.01800308 0.06392974 -0.103387915 0.0113503905
0003b0 9d a2 d8 bd 4b 16 00 be 1b 35 ac bb c8 62 2c 3c
       -0.10577891 -0.12508504 -0.005255354 0.010521598
0003c0 c4 de 85 bd a1 7b 28 be b4 41 b1 bc 56 24 57 bd
       -0.0653663 -0.1645341 -0.021637775 -0.052524887
0003d0 8a c3 90 bd a9 d9 3a bd e2 91 fb bd 76 26 97 3c
       -0.07068546 -0.045617733 -0.12283684 0.018450957
0003e0 ae e8 0c be 4b 47 0c bd f6 81 9b bd fc bf ce 3c
       -0.13760635 -0.034247678 -0.075931475 0.02523803
0003f0 79 70 15 be 6f d5 2f bd 64 bb bb bd dd 9f bd bb
       -0.14593686 -0.042928156 -0.09166601 -0.0057868795

conv3.bias f4 [16]
000000 8d 6f f7 3d 99 de 09 3e 13 d5 bc bc 33 cf 80 be
       0.120818235 0.1346382 -0.02305082 -0.2515808
000010 16 b1 a3 be 94 25 90 be 29 31 f1 bd 8d 33 db be
       -0.31971043 -0.2815367 -0.11776955 -0.42812768
000020 e9 73 08 be df 20 d8 bd 0e 7f 92 bd c6 b0 87 bc
       -0.13325466 -0.10553145 -0.0715314 -0.016563784
000030 d9 f5 44 3d 2a ad 6c be 38 09 3b 3e 55 ae 5f bd
       0.04808602 -0.23112932 0.18265235 -0.054609615

t_conv1.weight f4 [16, 12, 4, 4]
000000 db 2d 89 3b d5 71 81 3b 4a 24 13 bd c1 c7 8c 3e
       0.0041863746 0.0039503374 -0.03592328 0.2749615
000010 c6 d8 7d 3e f7 63 0d 3c 24 6e 09 be 28 3a f3 3d
       0.24789724 0.0086297905 -0.13420922 0.11876327
000020 c6 9f 0f 3e cb 89 0d be a1 06 38 be 97 81 1c 3e
       0.14025792 -0.13822095 -0.17971279 0.1528381
000030 98 29 a4 3c c4 16 5b 3d 6a 56 d4 bc f5 57 11 3e
       0.020039365 0.053488508 -0.025920112 0.14193709
000040 3e b0 1d c0 bb b4 82 c0 e7 31 98 bf 43 7e 51 bf
       -2.463882 -4.084562 -1.1890229 -0.81833285
000050 d7 60 09 bf 81 49 4e 3f c6 14 79 3f dc 81 21 bf
       -0.5366339 0.8058091 0.9729732 -0.63088775
000060 5b 08 11 bd 4e 17 17 be e1 fa 93 be 3f df ef 3a
       -0.03540836 -0.14754984 -0.28902343 0.0018300785
000070 70 44 91 3e ed d5 6a 3e 33 27 08 be 1b f4 44 3c
       0.28372526 0.22933169 -0.13296203 0.01202109
000080 4e fb f4 be e9 e1 3c 3d 82 7c 79 bd d0 13 c4 bd
       -0.4784798 0.046113882 -0.060909756 -0.095740914
000090 0f b0 8c be 58 b6 a9 3e 41 d4 e1 3e 06 fe 8d be
       -0.27478072 0.3314693 0.4410725 -0.27732867
0000a0 7d ac 63 bc 68 26 89 bd 4d bc b6 3e 69 9f 05 be
       -0.013896105 -0.066967785 0.35690537 -0.13049091
0000b0 cc 7c 1f be f1 22 47 be fb 1b 26 3e 7d e2 3d be
       -0.1557495 -0.19446923 0.16221611 -0.1854343
0000c0 e9 c9 87 3e ff 73 bc 3e 51 7e c3 3e e4 58 25 3e
       0.26521233 0.36807248 0.3818231 0.1614719
0000d0 14 b2 07 be b4 af 60 be 62 a0 4d be 55 9f 10 3e
       -0.13251525 -0.21942025 -0.20080712 0.1412328
0000e0 2f b2 1b 3e 6f f1 ce bc 28 c8 85 bd b7 52 92 3e
       0.1520469 -0.025261609 -0.065323174 0.2857873
0000f0 51 51 4f 3e f1 2d 2c bd 3e 69 c0 3d 79 dd e8 3d
       0.20245863 -0.042036 0.09395073 0.113703676
000100 b4 1c 73 bf 8b 79 4b bf db e7 6f be 2b 1a 98 be
       -0.9496567 -0.79482335 -0.2342829 -0.29707465
000110 44 c1 1d bf 4d 41 79 be f5 d9 60 3e 06 f4 9c be
       -0.61623025 -0.24341317 0.21958144 -0.30654925
000120 73 56 cb be 41 84 7f be 84 65 6f be 63 a6 cc be
       -0.39714393 -0.24952795 -0.23378569 -0.39970693
000130 a4 b7 c6 be 48 58 18 3e 25 6a 93 be b3 60 34 b9
       -0.38811982 0.14877427 -0.2879192 -0.00017202161
000140 c5 f9 0e bc dd 37 37 3e 70 93 cb 3d 90 98 16 be
       -0.008726542 0.17892404 0.09940231 -0.14706635
000150 d7 6a 58 bb 43 d7 cf 3e 0d d1 fc 3e 9b bb f9 3d
       -0.0033022666 0.4059392 0.49378243 0.12193986
000160 aa f0 64 3e 2a 2d f0 3e b6 5d c6 3e 0b 41 d8 3b
       0.22357431 0.46909457 0.3874337 0.0065995506
000170 bc a2 f0 bd 4a af 9c 3d 4c 83 c3 3c 7c 36 58 be
       -0.11749789 0.07650621 0.023866318 -0.21114534
000180 9e 2b 73 3e 78 d1 06 3d 6c a0 dd bd d0 4a 06 be
       0.23747107 0.03291461 -0.10821614 -0.13114476
000190 32 5c dd bd 38 31 0e be f5 56 16 3e e8 24 0b be
       -0.108086005 -0.13885963 0.14681609 -0.13588297
0001a0 a2 82 04 3e 5c d0 1c 3e d8 bb 12 3e 8f 43 31 3d
       0.12940457 0.15313858 0.14329469 0.04327732
0001b0 6a 12 08 3e a5 b6 ac 3e 34 2e 5c 3e 1f ad f4 3d
       0.13288274 0.33733097 0.21502 0.11947083
0001c0 01 c0 3f bd b7 24 80 bd 45 8f fa 3c 61 a7 94 3c
       -0.04681397 -0.06257003 0.030585894 0.018146219
0001d0 e6 3b af bd f5 b5 1e bc 51 15 d7 3c a2 e7 33 ba
       -0.085563466 -0.009686937 0.026255282 -0.0006862824
0001e0 7d 57 34 bd e8 cf 36 3b 4e a0 0a 3d da 91 86 bd
       -0.044028748 0.0027894918 0.033844285 -0.06570788
0001f0 a7 2c a2 bd 8b 74 bf bc 6d 76 a6 3d 0b d9 92 3c
       -0.07918673 -0.023371002 0.08128057 0.01792576
000200 fe fb 12 bd 9b 86 0c bd a5 84 fd 39 6f 63 36 3c
       -0.03588485 -0.034308057 0.00048354748 0.011132105
000210 89 fa 92 bb 43 d6 df bd 22 6a 09 bc 09 a8 07 bc
       -0.0044854325 -0.10929539 -0.00838712 -0.008279809
000220 97 ec 87 3c c7 54 68 3c 26 d5 94 bd 2d 5e e6 bd
       0.016592307 0.014180369 -0.07267217 -0.11248431
000230 8d b1 95 bd ac bc 7d bd 5c 31 8f bd c4 07 2a bc
       -0.07309256 -0.06194751 -0.069918364 -0.010377828
000240 2b c3 3a 3e 8d eb 92 3d 05 17 38 bd 37 c9 37 3e
       0.18238513 0.07173834 -0.044943828 0.17947851
000250 36 79 b0 3e f8 5f 7f be 6b 44 16 3f 78 64 eb 3d
       0.34467477 -0.24938953 0.5869815 0.11493772
000260 27 ef 05 bf 7e 0d aa bf 18 7e 70 be 52 a9 9a 3e
       -0.5231804 -1.3285367 -0.23485601 0.30207306
000270 dc 0b b8 bf 3a 5e b0 3d 88 41 9e bf e0 b0 6b 3e
       -1.4378619 0.08611722 -1.2363749 0.23016691
000280 13 4f 42 3c 7a 4d f4 3c db 4b b4 be 44 af 80 3d
       0.011859673 0.0298221 -0.35214123 0.06283429
000290 fa f9 a6 3e 9f a3 96 be ad b2 3b bf 19 9c 53 be
       0.32612592 -0.29421708 -0.7331951 -0.20665015
0002a0 82 f3 83 3d 23 dc 82 3f fe c1 bd be d6 16 a4 be
       0.0644293 1.022343 -0.37062067 -0.32048672
0002b0 82 28 00 3d b6 b4 67 be ba 42 b9 be ad a9 ca 3d
       0.03128863 -0.2262753 -0.3618372 0.09895644
0002c0 81 41 94 3c 46 ec 6c 3e 90 b7 83 bc ed ff 6f bd
       0.018097641 0.23137006 -0.01607874 -0.05859368
0002d0 87 aa ca bd 56 2b 0b 3d 5f 2a dd bd c4 87 98 be
       -0.09895807 0.033976875 -0.10799097 -0.2979108
0002e0 0d 9e 93 bc 7f 15 16 3f ff 53 13 3f 18 71 07 bd
       -0.0180197 0.5862655 0.5755004 -0.03306684
0002f0 88 47 80 be 14 b7 82 3c 3f 48 d9 3d 27 5c b9 bd
       -0.25054574 0.01595644 0.10609483 -0.0905078
000300 68 36 ba be 83 54 ad 3e 40 98 a2 bd c9 24 8e 3c
       -0.36369634 0.3385354 -0.07939196 0.017351525
000310 46 b0 9e be e0 21 2a 3f 8b aa bb 3d 5b f5 01 bd
       -0.3099386 0.6645794 0.09163388 -0.03172813
000320 7c 86 82 3c eb 23 40 3f 3e 61 40 3e bb 63 6a 3d
       0.015933268 0.75054806 0.18787095 0.057224017
000330 27 c0 e8 be c1 b3 20 3e b8 25 be 3b 87 27 d3 bd
       -0.454591 0.1569357 0.0058028363 -0.103102736
000340 7a 0e 15 bf f4 dc 09 bf 39 b8 9f bf 7c 6f 06 bf
       -0.58225214 -0.5385277 -1.2478095 -0.5251386
000350 6b e1 1c bf c0 a8 f9 be 91 d4 d1 bf 71 75 90 3e
       -0.6128146 -0.4876156 -1.6392995 0.282146
000360 0b fd 9e 3e 1c c5 1a bf f2 dc 64 3e 73 a9 ec bc
       0.3105243 -0.60457015 0.22349909 -0.028889393
000370 c8 71 ec 3e a5 16 9e bd a9 a7 a6 be 15 49 b9 3c
       0.46180558 -0.07719163 -0.3254979 0.022617856
000380 f1 1c f0 bd e7 1e 9c 3e 92 04 33 be 7f 1f 29 be
       -0.1172427 0.30492327 -0.17482212 -0.16515921
000390 bf dd ea bd c5 d7 d6 3e 3c 3d c2 bc 29 ea cf 3e
       -0.11468076 0.41961494 -0.02371084 0.40608338
0003a0 a1 5e 9f be fc d9 e1 be c7 24 81 3e 44 cf 17 3e
       -0.31126884 -0.4411162 0.2522337 0.1482516
0003b0 d4 d6 8b 3d c9 30 d3 bd a2 f1 6a be 42 fa 03 3e
       0.068280846 -0.103120394 -0.22943738 0.12888435
0003c0 64 c9 1b 3e 69 a8 8c bd 7c 68 11 bf 1d 69 5a 3d
       0.15213543 -0.06868059 -0.56800056 0.0533229
0003d0 ed e5 45 3e b2 da bb 3f 84 c7 ad be 63 cd d0 3d
       0.19325991 1.4676116 -0.3394128 0.101954244
0003e0 46 cb 92 bf fc 8a f5 3f 4e ba e8 3d 9f aa 45 be
       -1.1468284 1.918304 0.1136366 -0.19303368
0003f0 28 02 3c 3e 75 2b ae 3e 48 46 30 be 20 84 a5 3b
       0.18360198 0.3401753 -0.1721431 0.005051151

t_conv1.bias f4 [12]
000000 c6 5b 3a 3e 62 5f 72 3f 9b af cd 3d fb dc 9f be
       0.18199071 0.9467679 0.1004326 -0.31223282
000010 3b 6a b2 3e 46 1f 11 3f 4c 1f 00 be b8 2a 26 bd
       0.34846672 0.56688344 -0.12511939 -0.040568084
000020 d6 da 06 be de b6 f6 3e 20 a9 c6 3e 19 02 d9 3e
       -0.13169417 0.48186392 0.38800907 0.42384413

t_conv2.weight f4 [12, 3, 4, 4]
000000 0f 80 ee bd 3c a5 96 bd 90 3d ad be fd eb 2d be
       -0.11645519 -0.07355735 -0.3383603 -0.16984554
000010 66 2d 81 3d 48 bb 99 be 44 bb b3 be 99 8f 1d be
       0.06307487 -0.30025697 -0.3510381 -0.1538681
000020 7f 09 59 3d 3c 65 dd bb f5 c2 ce bd 9e b2 05 be
       0.05298757 -0.006756453 -0.10095779 -0.13056418
000030 55 f3 e8 bb 8b 80 71 bc 44 22 35 3d 7e c1 8a bd
       -0.0071090856 -0.01474012 0.04422213 -0.06775187
000040 6d c4 03 3b b2 7e e3 3a 3d ea ab bd a7 55 10 be
       0.0020106093 0.0017356484 -0.08394287 -0.14095174
000050 96 91 0d 3e 89 7e c3 bc 7b de 54 be 96 45 c1 3d
       0.13825068 -0.023864048 -0.20787995 0.094371006
000060 8a 06 12 3e 70 01 99 3e 39 40 c4 3d 09 05 90 3d
       0.14260307 0.2988391 0.09582562 0.070322104
000070 aa ff a0 3d 7a ed d5 3d 75 5c 1d 3e 59 1b 03 3c
       0.07861264 0.10445686 0.15367301 0.008002126
000080 8c f4 7d 3d 61 7f bc 3d e0 5c f8 bd 5f f6 05 be
       0.062000796 0.09203983 -0.121270895 -0.13082264
000090 1b 79 2e 3d e3 4d e6 bc 18 0c 48 be e3 5c ec bc
       0.042595964 -0.028113311 -0.19535863 -0.028852886
0000a0 12 6d e8 3d fd b2 f2 3d 01 da a9 3d a1 30 01 3e
       0.113489285 0.118505456 0.08293534 0.12616207
0000b0 64 ba d6 3c 54 e2 be ba b3 55 cb bd 5b 47 3b bd
       0.026211925 -0.0014563301 -0.09928455 -0.045722347
0000c0 4e 4e 9f bc 75 b4 77 bc 1e c9 be 3d 43 a5 d2 3b
       -0.019446518 -0.015118708 0.09315704 0.006428392
0000d0 9c 22 60 be 34 d5 04 3e 32 ee d6 3e bc ff a4 bd
       -0.21888202 0.12971956 0.41978604 -0.0805659
0000e0 60 ba fe 3e 4e e9 ef 3f 80 8e d4 3f d3 b7 bc 3c
       0.49751568 1.8743074 1.6605988 0.023036873
0000f0 c0 18 ff 3e 70 76 7d 3f 6c 7a 1f 40 ce 2a a5 3f
       0.4982357 0.99008846 2.491847 1.2903688
000100 c4 af 90 3d 7e f4 14 bd f9 15 5e 3d 1e 9a 9e 3d
       0.07064775 -0.03636598 0.054220174 0.07744239
000110 7d ef 49 be 0a f3 73 bd a6 30 48 3e ab 3f 2e be
       -0.19720264 -0.059557952 0.19549808 -0.17016475
000120 1f 8b 98 3e 64 63 c4 3f 67 e1 a3 3f 94 29 32 be
       0.2979364 1.5342832 1.2803162 -0.17398673
000130 cd b0 08 3f 36 0f ad 3f 20 d1 1f 40 37 af a5 3f
       0.53394777 1.3520267 2.497139 1.2944096
000140 72 d3 89 bc 7b ae d3 bd b3 1d ba bc ac 09 92 3d
       -0.016824458 -0.10336014 -0.02271924 0.07130751
000150 87 f8 a2 be a5 37 44 be c4 e9 c6 3d 13 02 82 be
       -0.31830236 -0.19161852 0.09712556 -0.25392208
000160 4d d7 44 3e 10 0d bd 3f 6d 6d 99 3f db 61 a3 be
       0.19222756 1.4769611 1.1986519 -0.31910595
000170 45 13 55 3e a7 f1 8c 3f 53 a6 1b 40 75 3e 9e 3f
       0.20808132 1.1011246 2.4320266 1.236281
000180 51 36 05 bc ee 09 5e 3e f1 d0 34 3e ae 95 b9 bd
       -0.008130626 0.21683475 0.1765783 -0.09061752
000190 19 e2 57 3e 18 fd 23 3f ed 17 42 3e 85 49 88 3e
       0.21082343 0.64058065 0.1895444 0.2661859
0001a0 aa c0 07 be d5 35 1a 3c 89 52 01 be 32 ea b3 be
       -0.1325709 0.009412249 -0.12629141 -0.35139614
0001b0 ca 80 ad 3d e0 92 d4 3d fe 7d 01 be 8e 9c 94 bd
       0.0847183 0.10379577 -0.12645718 -0.07256423
0001c0 22 c2 96 bd 8e 3f d9 3d 94 c4 ce 3d 72 d9 71 3e
       -0.07361247 0.10607825 0.10096088 0.23618105
0001d0 b1 2f 6e 3e c2 2c 65 3f 09 61 24 3f 8a f9 1a 3f
       0.2326038 0.8952142 0.64210564 0.60537016
0001e0 22 d2 b9 bd 56 b5 13 3e f5 3a 1c 3e 68 2f 2b be
       -0.09073283 0.14424643 0.15256865 -0.16717303
0001f0 5a 9e 9e 3d 57 dc c7 3d 4d 66 0d be 39 26 a9 3d
       0.07745047 0.09758823 -0.13808556 0.082592435
000200 dc 6f 53 be 17 56 14 3e 1b 91 f1 3e 42 a2 dd 3c
       -0.2064814 0.14485966 0.4718102 0.02705491
000210 60 82 55 3e a4 5d 9f 3f 74 62 9c 3f 9b 79 18 3f
       0.20850515 1.2450452 1.2217546 0.59560555
000220 7f 82 d7 bd c0 4c a7 3e 1a 97 05 3f f2 cb 4a be
       -0.10522937 0.32675743 0.5218369 -0.19804361
000230 60 73 7d 3c 4a bb 28 3e b2 ea bf 3d b0 f8 65 3d
       0.015469402 0.16477695 0.093709365 0.05614537
000240 e8 8a a5 3d 21 3a 99 bd c1 5c a6 3d 03 5f e4 3d
       0.08083135 -0.0748179 0.0812316 0.111509345
000250 21 4a 3e 3e 0f c0 ca be fc 6b 56 3b 93 ae ec 3d
       0.18582965 -0.39599654 0.0032718172 0.11556735
000260 26 66 07 be cf e3 00 bf fb 18 3b be a2 5d 8b bd
       -0.1322256 -0.5034761 -0.18271248 -0.068049684
000270 d5 f9 a1 3d 20 e2 63 3d 5f 51 ee 3d 7f a4 aa 3d
       0.0790898 0.05563557 0.11636614 0.083321564
000280 d4 4a 46 3d a7 29 17 be ee 83 00 3d 83 53 98 3d
       0.048411205 -0.14761983 0.031375818 0.074378036
000290 4c ef 9b 3d 75 ff ff be 14 6b 32 bd 05 b7 c4 3c
       0.07614002 -0.49999586 -0.04355915 0.024013052
0002a0 ee c8 82 be aa a1 1f bf 1d cf 87 be aa 52 64 be
       -0.25543922 -0.62356055 -0.26525202 -0.22297159
0002b0 0a ed 31 bd be 70 f6 38 db 3f 09 3d e8 a0 85 3d
       -0.04343895 0.00011751194 0.033508163 0.06524831
0002c0 e8 8c 0d 3d e0 38 00 be 3f ad e1 3d b9 e4 ba 3d
       0.034558207 -0.12521696 0.11019372 0.09125657
0002d0 e1 f8 05 3e 27 1e b5 be 4d 1b 96 3d ff e4 e5 3d
       0.13083221 -0.35374567 0.07329426 0.11225318
0002e0 6c 4b 04 be b3 5e e9 be c6 40 89 bd ab fb 17 be
       -0.12919396 -0.45580062 -0.06701808 -0.14842097
0002f0 ca 3d 17 3c 87 38 08 3e b6 0d 2a 3e 18 46 96 3d
       0.00923104 0.13302813 0.16606793 0.07337588
000300 88 58 ae 3c e5 03 9b 3c 27 71 38 3e 83 f2 7f bc
       0.02128245 0.018922755 0.18011914 -0.015621784
000310 14 64 97 3d d7 35 da 3e e4 81 90 3f f1 36 58 3e
       0.07392135 0.42619202 1.128964 0.21114708
000320 12 35 91 3d ef fd 61 3e fb 2e 2f 3f d6 1e bc 3e
       0.070902005 0.22069524 0.6843106 0.36742276
000330 49 e0 57 bd b6 f1 b3 bd fb 32 db bc 51 77 3a 3d
       -0.05270413 -0.08786337 -0.026757708 0.045523945
000340 3e 28 58 3d 3b 90 cc 3c 46 82 f1 3c 4e a3 b6 3c
       0.052772753 0.024971118 0.029481065 0.022294667
000350 83 f9 38 3c 25 bc 11 3e 38 11 35 3f ca 43 a7 3d
       0.011289957 0.14231928 0.707294 0.081672266
000360 7a 1f 78 3d ce 1e d3 3d 5c 0d d4 3e 58 db 90 3e
       0.060576893 0.1030861 0.41416442 0.28292346
000370 91 72 56 3c 59 51 07 be 48 5d 7e be 5f da 18 3e
       0.013088838 -0.13214625 -0.24840271 0.14927052
000380 ce 92 bd 3d 74 e1 4c bd 31 e7 36 be dc 0a 83 bd
       0.092565164 -0.050019696 -0.1786163 -0.06398556
000390 96 5e 39 bd a9 70 56 be 30 be 69 3e cc c7 f8 bd
       -0.04525622 -0.20941414 0.22826457 -0.12147483
0003a0 c7 d0 3a 3c 0a c3 04 be 65 26 bb 3b 8e e7 50 3d
       0.011402315 -0.12965026 0.005711364 0.051002078
0003b0 ef e9 bf 3c a3 05 3f be 85 4b d3 be 43 2a 54 3b
       0.023426978 -0.18654494 -0.41268554 0.0032373823
0003c0 69 00 4f 3c 12 b1 1e 3e 5c 20 85 bc 6a 43 9d bc
       0.012634375 0.15497234 -0.016250782 -0.019197185
0003d0 2f 86 7a 3e c8 73 a2 3e 27 60 94 3e cc 35 f5 3d
       0.2446525 0.3172896 0.28979608 0.119731516
0003e0 28 34 63 bd 7d 27 8f bc 75 4e 58 be 47 f8 f7 bd
       -0.055469662 -0.017474884 -0.21123679 -0.12107902
0003f0 37 78 99 bd 2c 52 aa bb b4 8d ac 3c d0 94 4c 3d
       -0.07493632 -0.005197784 0.021063663 0.049946606

t_conv2.bias f4 [3]
000000 87 51 52 bd f2 fe 08 3f 3a 7c 4e bc
       -0.05134728 0.53514016 -0.01260286
