models/cae2.pth (torch, 32335 bytes, 12 tensors)

conv1.weight f4 [5, 3, 4, 4]
00000000: c3ea 8a3d 7d24 f2bd 5a84 14be 89dc f63c
00000010: b6bb 853b da13 47b9 cced 13be 5c33 02bd
00000020: aae0 4a3d 59f1 01bd ee8c 78bd 5509 c4bd
00000030: 8017 61bc 43ea eabd 9473 afbd 3b60 4dbc
00000040: 0213 a6bc 0184 bb3d ef2e a0bd 04b4 a73d
00000050: 4346 793c d585 373d 948b 18be e19d 1bbd
00000060: ce61 bcbd e962 20bd c388 023c 1d19 433d
00000070: 84cc 77bb 7ec6 203d a096 0b3d e32f 24be
00000080: 18b2 c6bd bd77 72bd 9c1e 13bd 6717 09be
00000090: b295 8ebd 81bd 2abe b62a 163d da5c 0fbe
000000a0: 8620 84bd f80d 0cbd 1fca 82bd 7095 883d
000000b0: 717d f0bc 7216 29be 7255 a43d 3ccd acbd
000000c0: 42b7 42be 5b4f 7a3d d69b dabc 0bbb 00be
000000d0: d655 2b3d 1ee9 dc3d a2d3 1abe af66 02bd
000000e0: fcbb b2bd 2a9b a63d 95c2 753c 948d 03be
000000f0: 14ff d7bd 2e58 963d df4d 8dbd 0a6a 0b3d
00000100: f475 41be 93d1 163d e503 d03d b317 33be
00000110: adf0 b13d d63c 0abe 14d9 19be bfdd 46bc
00000120: 5274 d73c 1086 2bbe 804a 91bc 6f22 6a3d
00000130: a4ae 01be d088 86bd 2b7a 0dbc cf75 93bd
00000140: be27 2ebe 19b7 2ebd 637b b73d b035 5fbd
00000150: 0d80 3ebe 1b78 71bd 4559 c8bd 9290 ffbd
00000160: d465 01be 2198 d3bd 91dd bcbd b49f ab3c
00000170: bdb1 e53b 52f6 c5bd 58af fbbd 67e3 ecbd
00000180: 710e 04be 6796 45be 71ad 3ebd 75cb 6dbb
00000190: 7c9d d73c ad82 53bc c170 17be c334 56bd
000001a0: 1291 56be 9a3c 4fbd d1f3 81bd a096 c8bd
000001b0: 7468 953c c19b 32be c50d 173d d79a 5dbd
000001c0: 19bb 06bc f264 03be ed1e 83bd 5254 c2bc
000001d0: 96e1 70bd 0275 14be a927 48be b496 98bd
000001e0: 6c16 16bd de85 713b 8b64 abbb 49fc b63c
000001f0: 607e 373d d9ec 3ebe f9f0 3b3c e001 c1bd
00000200: 2905 95bd 5505 48be 231c e5bc 8ca5 8abd
00000210: 96d0 45be 276e 1bbe cd13 bfbd ca2f 29be
00000220: 1b96 27be 61d1 443d 869e 01bd 599a b23c
00000230: 8164 533d c3e1 123d ce7f 1bbe 9965 2fbe
00000240: 8a03 a1bc d649 553a 1a98 0bbd 0f81 f2bb
00000250: 36fe 333c 6aed 9ebd 6b68 42bb 042e 1fbc
00000260: 6da6 28bd 00eb 84bc 7c12 cd3c d353 8bbd
00000270: d26b 05bc eb91 cf3a e2a1 b6bd 5d2d 1a3d
00000280: 36f8 44bc 2660 11bd 2eb2 df3b 4a49 74bc
00000290: f8b2 f2bc 4e9a 213d 39bd 7abd 7147 c1bc
000002a0: e229 663b 7bc0 2bbd 1196 bebd 9999 5a3d
000002b0: d91c 5abc 59be 35bd 0582 8f3d d93e a2bd
000002c0: da48 14ba 7481 a9bc 2bb3 c4bc 9799 93bc
000002d0: 3fe3 f0bc 70eb 3cbd e5b1 b0bb a9ac 76bc
000002e0: a5c2 2fbc f512 01bd 5e03 32bc b19b 33bd
000002f0: d292 5bbc 2af1 b4bc e87b 08bd a026 44bb
00000300: 9a94 a83d ae43 1bbd 7d7b acbd 492e 4bbe
00000310: 9044 c03b 45f6 51bc 30e4 173d 4bbe f03b
00000320: d4a2 3fbe e1fd abbd 4642 823c 8d55 063c
00000330: ee7f 30be e8c0 1ebc a247 813b 0fba 13be
00000340: 7672 273d 4789 d4bd cde3 313d aafe c7bd
00000350: dec7 853d f69c 0abd 5fd0 36be 867a 5c3c
00000360: 6d77 cebd 21b0 33bd bd46 2abe a47f a5bc
00000370: e9c0 0ebe b9a0 2dbe d02e 11be 22e9 efbd
00000380: 5859 32be 0e62 95bc a446 20be dad2 343d
00000390: 3f17 47be 9b98 51bd 8260 1d3d c86b 123d
000003a0: ed20 573b 915f b7bc a19e 2bbe b284 f9bc
000003b0: 02ba 4cbe 4891 00be 3894 0cbe 0332 443d
0.067830585 -0.11823366 -0.14503613 0.030134456 0.004081215 -0.00018985514 -0.14446181 -0.03178726
0.049530663 -0.031724308 -0.060681276 -0.095720924 -0.013738513 -0.11470463 -0.08566967 -0.01253515
-0.020272736 0.09156037 -0.07821452 0.08188632 0.015214506 0.044805367 -0.14896995 -0.037992362
-0.09198342 -0.039156828 0.007967177 0.04763137 -0.003781111 0.039251797 0.034079194 -0.16033892
-0.097019374 -0.059196223 -0.035917863 -0.13387834 -0.06962146 -0.16673853 0.036661826 -0.14000264
-0.06451516 -0.03419301 -0.06386208 0.06669128 -0.02935669 -0.16512468 0.0802411 -0.08437583
-0.1901522 0.061110836 -0.026685636 -0.12571351 0.041829906 0.10786651 -0.15119794 -0.031836208
-0.087272614 0.08135064 0.015000005 -0.12846977 -0.10546699 0.07341038 -0.06899618 0.034036674
-0.18892652 0.03682096 0.10156993 -0.1748951 0.086884834 -0.1349977 -0.15024215 -0.012137829
0.026300583 -0.1675036 -0.01773572 0.057161745 -0.12664276 -0.06569064 -0.008635084 -0.072002046
-0.17007348 -0.042655084 0.08959081 -0.05449456 -0.18603535 -0.058952432 -0.09782652 -0.124787465
-0.126365 -0.10331751 -0.09221948 0.020950176 0.0070097134 -0.096661225 -0.122893035 -0.11566811
-0.12896134 -0.19295655 -0.046552125 -0.00362846 0.026320212 -0.0129095735 -0.14789106 -0.05229641
-0.20953777 -0.050594904 -0.063453324 -0.097943544 0.018238284 -0.17442228 0.036878366 -0.054102745
-0.0082233185 -0.12831476 -0.06402383 -0.023721848 -0.058808886 -0.1449776 -0.19546379 -0.07450619
-0.036642477 0.0036853473 -0.0052304915 0.022337096 0.044798255 -0.18645038 0.011471027 -0.09424186
-0.07276375 -0.19533284 -0.027967518 -0.06769857 -0.1931785 -0.15178739 -0.093299486 -0.16522136
-0.16365854 0.04805124 -0.03164532 0.021802114 0.05160952 0.035859834 -0.15185472 -0.171286
-0.019655008 0.00081363076 -0.034080602 -0.007400639 0.010985902 -0.07760127 -0.0029664289 -0.009715561
-0.04117434 -0.016225338 0.025033228 -0.068030976 -0.008143382 0.0015836334 -0.089175954 0.037640918
-0.012022069 -0.035492085 0.0068266606 -0.014910052 -0.029626355 0.039453797 -0.061215613 -0.023593636
0.003512018 -0.04193161 -0.09305967 0.05336914 -0.013312542 -0.044370983 0.07007221 -0.079221435
-0.00056566077 -0.02069161 -0.024011215 -0.018017573 -0.029405234 -0.04612297 -0.0053923004 -0.015055814
-0.010727559 -0.03151222 -0.010865061 -0.04384965 -0.013401704 -0.022087652 -0.03332129 -0.002993025
0.082314685 -0.03790634 -0.08421991 -0.19841875 0.0058675483 -0.012815063 0.03708285 0.0073469034
-0.18714458 -0.08398033 0.015900742 0.008199108 -0.17236301 -0.009689547 0.003945307 -0.14426444
0.040880643 -0.10377746 0.04343014 -0.0976537 0.06532262 -0.033841096 -0.17852925 0.013456946
-0.100813724 -0.04386914 -0.16628547 -0.020202465 -0.13940777 -0.16955842 -0.14178014 -0.117143884
-0.17416894 -0.018235233 -0.15651947 0.044146396 -0.19442461 -0.051170927 0.038422115 0.03574732
0.0032826022 -0.022384437 -0.16759731 -0.030458782 -0.19992831 -0.1255542 -0.13728416 0.047899257

conv1.bias f4 [5]
00000000: ac25 02be 46ed 28be a59c c1bd 76a1 653f
00000010: 31ef 12be
-0.12709683 -0.16496763 -0.09453706 0.89699495 -0.14349057

conv2.weight f4 [8, 5, 4, 4]
00000000: 6892 4dbd 0992 e4bd 3fe9 dabd ba89 463d
00000010: 8aa6 26be b217 c6bc 3efa 76bd fe75 b2bd
00000020: 09d4 903c 197d d3bc f32a b6bc 45cb f63c
00000030: 8dd2 d2bd ff6d b8bd f3ed 26be 821f 97bd
00000040: b56e a63c 0957 12be 867b 53bd 555e c1bd
00000050: 3d1b 7c3c 4745 1dbe 71c7 03be 25e1 08bd
00000060: 4942 0bbe 665f 22bd 1c80 3fbd ef3e 14bd
00000070: 80fb babc f72f 35bd 834c 13be 747e 10bd
00000080: f04a 82bc 9f31 d9bd 701f 2cbd 6588 f2bd
00000090: ef54 3ebd 0df8 86bc 7e5b e7bd 62aa 1bbd
000000a0: 2de6 dbbd 87a5 053d 1d19 32be 3973 2fbd
000000b0: 5e54 63bc 9bbb b7bd a608 f2bd e0db 3f3d
000000c0: 3283 79bd 3a0d 893d 3cdd 3e3d 667b 2cbe
000000d0: 6c64 d73d 9bd6 8fbe 0e6e 02bf ef1f e33d
000000e0: 09de 23bd 0712 113e deb7 7ebc c649 e63b
000000f0: 1801 b1bd ceba be3c 7153 923c 7ff3 aabd
00000100: 2b2f 9bbd 620d 4bbd 64ef 07be d060 523d
00000110: fd90 23be edd6 93bd 5504 fdbc 1c94 2a3d
00000120: a5e7 46bc 7f33 353d 6d6a 37bd 54de 593d
00000130: f203 acbd bbe1 d3bd 9c17 20be bb6c fb3b
00000140: d8ad 18be cb8f 28be 84ec 75bd e48f 9ebd
00000150: 0935 30be ec00 0a3d 2b41 d6bd b7d4 e5bd
00000160: 1e98 0abe 45a0 10be 3519 acbd 8842 633d
00000170: c47e b0bd ec86 d2bd 0946 bfbd 704e 7f3c
00000180: f2d5 02be 3911 a83d 808f fe3c 531b 74bc
00000190: 97a4 4fbc 397c 22bd 0035 dc3c 4ac2 773d
000001a0: 5a87 00bd 1858 d13d 0917 a73b 8c1c 893d
000001b0: 1466 203d cc8a 6e3d a50d 77bd 75f8 fbbc
000001c0: 3513 13be 0c6b 03be b76c 203d 69bc 963b
000001d0: d092 7bbd 42b7 16be 5219 97bd e56c 0bbe
000001e0: e71e f6bd bf23 263c 385b c0bd fb09 503d
000001f0: d4dc 05be 750a 17bc 847b 78bd 176b c23c
00000200: a086 1fbe cdf3 6dbd 01c7 94bd a8c0 c3bd
00000210: d557 a63e c40a 2f3e 290d 5e3e ca8d c13e
00000220: bdaa 5e3c a585 93bd a379 40be ab47 8e3d
00000230: 831d 023e f667 0c3e 73a3 1a3e c3af 923e
00000240: 5bfa 00bf 8dc3 3ebd a38c 18be db18 37bd
00000250: bb07 d73d dd69 adbe e3fb 38be e211 36be
00000260: a66f 06bf 5fbb 84be 392e e3be 12ec 20be
00000270: 2911 bdbe 2d1b 63bd bc0a 6abe 2a9b 82be
00000280: 75b1 103e e07a c63c d338 953d 515e c33d
00000290: 461a cabc ec63 53bb 92fa 123e 789b 903b
000002a0: 657f c33d b367 6d3c a7ce ca3d 2c68 1f3e
000002b0: c35c d0bc 92ad 4cbd 1ba4 773c 7ea0 0cbe
000002c0: 7f60 173e b08d 9e3d da88 193d cffb 203e
000002d0: 17c4 e4ba 83e2 adbc 54f6 003d c6e9 143e
000002e0: 6cff 003e 13b1 4ebc 3595 6ebd e2c3 653d
000002f0: 36d3 20bd 5816 263d 8610 873d 80c8 ce3d
00000300: a425 703c 6da8 cf3d b1c7 3bbc d1a4 893d
00000310: 6945 b1bd 3e07 023e 346b b23d 5849 7ebc
00000320: b63b 6abc 8f77 a4bd e967 babd 59bf 07be
00000330: f119 273d 27fa 13bd a6af 143d ebd8 d7bd
00000340: 6df1 a4be df31 a7be 6d01 a7be f158 0dbe
00000350: a588 bcbe cd86 a2be 272e 14be 4f8c 50be
00000360: c193 1dbe 70cd 82be a4c3 40be feff bbbd
00000370: 2cd8 e3bd eaee f5bd 81f5 21bd f316 bcbc
00000380: f614 0cbd 3e61 d83d 1b3a a63d b230 ed3d
00000390: a3c6 babc 7509 7cbd 427a 77bd 8733 6ebd
000003a0: 327c 2c3e 1f51 ec3d 943c eb3d 3ea4 9e3d
000003b0: 107d 00be 6f75 b1bd 5af0 e3bd de0c bfbd
000003c0: e345 06be 3d9c 73bd 8ead e0bd 9b31 1cbe
000003d0: 0e60 043d 9305 15bd 7a14 8bbd e747 443d
000003e0: dfe3 a3bd 52d1 563d 11ca 1dbe 4090 d13c
000003f0: da26 07bc fdc4 b4bd 185f 99bd 92c9 19be
-0.050188452 -0.111606665 -0.106890194 0.04847119 -0.16274467 -0.02418122 -0.060297243 -0.087139115
0.017679231 -0.025816487 -0.022237277 0.030126223 -0.102940656 -0.09005355 -0.16301708 -0.073790565
0.020316461 -0.14291014 -0.051631473 -0.094418205 0.0153873535 -0.15358458 -0.1286905 -0.03341784
-0.13599505 -0.03964176 -0.046753034 -0.03619283 -0.022825003 -0.044235196 -0.14384656 -0.035276845
-0.015904874 -0.106051676 -0.04202217 -0.118424214 -0.046467718 -0.016475702 -0.112967476 -0.038004287
-0.10737262 0.032628562 -0.17392392 -0.042834494 -0.013875095 -0.0897133 -0.11818056 0.04684055
-0.060916133 0.06691976 0.046597704 -0.16843948 0.10517201 -0.28093418 -0.5094918 0.11090075
-0.04000667 0.14167033 -0.015546767 0.0070278374 -0.08642787 0.023282435 0.017862054 -0.083472244
-0.07577356 -0.04957331 -0.13274914 0.05136186 -0.15973277 -0.07218728 -0.030885855 0.041645154
-0.012140189 0.044238564 -0.04477923 0.053190544 -0.0839919 -0.10345789 -0.15634006 0.007672874
-0.14910066 -0.16461103 -0.060040012 -0.07742289 -0.17207731 0.033692285 -0.104616486 -0.11222213
-0.1353459 -0.14123638 -0.08403245 0.05548337 -0.086179286 -0.102796406 -0.0933953 0.015582666
-0.12776926 0.0820641 0.031074286 -0.014899093 -0.012673519 -0.03966925 0.026880741 0.060488023
-0.03137908 0.10221881 0.0050991816 0.06694898 0.03915985 0.058237836 -0.060315747 -0.030758122
-0.14362796 -0.12833804 0.03916618 0.004600097 -0.06141931 -0.14718345 -0.07377876 -0.13615759
-0.12017613 0.0101403585 -0.093923986 0.050790768 -0.1307252 -0.009218802 -0.06066467 0.023732705
-0.15578699 -0.058093835 -0.072645195 -0.09558231 0.32488886 0.1709395 0.21684708 0.3780349
0.013590512 -0.07203225 -0.187964 0.06947263 0.1270657 0.13711533 0.15101413 0.2864972
-0.5038201 -0.04657321 -0.14897399 -0.04470144 0.10499521 -0.3386983 -0.18064837 -0.17780259
-0.5251411 -0.25924203 -0.44371203 -0.15715054 -0.36927155 -0.05544584 -0.22855657 -0.25509006
0.14130194 0.024228513 0.07286229 0.09539474 -0.024670731 -0.0032255603 0.14353397 0.0044130646
0.09545783 0.014490056 0.09902697 0.15567082 -0.025434857 -0.049970217 0.015114809 -0.13733098
0.14782904 0.077418685 0.037484027 0.15721057 -0.0017453459 -0.021226173 0.031484917 0.14542302
0.12597436 -0.01261546 -0.058247764 0.05609501 -0.039263926 0.040548652 0.065949485 0.10096836
0.014657412 0.101395465 -0.011461184 0.06720889 -0.08655817 0.12698075 0.087118536 -0.015520416
-0.014296463 -0.080306165 -0.091018505 -0.13256587 0.040796224 -0.036127236 0.036300324 -0.10539421
-0.32215443 -0.32655236 -0.32618275 -0.1380346 -0.36823002 -0.3174347 -0.1447073 -0.20366023
-0.15388395 -0.2554736 -0.18824631 -0.09179686 -0.11125216 -0.1200846 -0.03954077 -0.022960162
-0.034199677 0.105654225 0.081165515 0.115815535 -0.022799795 -0.061532456 -0.06041933 -0.05815461
0.16844252 0.1153891 0.11486164 0.077461705 -0.12547708 -0.08664977 -0.11129828 -0.09328626
-0.13112597 -0.059475172 -0.10970603 -0.15253298 0.032318167 -0.03638227 -0.06791015 0.047920134
-0.08002447 0.052445717 -0.15409113 0.02558148 -0.008249009 -0.08826635 -0.07488841 -0.15018299

conv2.bias f4 [8]
00000000: 1fd1 173f f18e 203e cd2d b5be e0a9 00be
00000010: e88e 2c3f 308b 7dbd e75b d0bd 2b40 0dbe
0.5930347 0.15679528 -0.35386506 -0.12564802 0.6740556 -0.061900318 -0.10173779 -0.1379401

conv3.weight f4 [10, 8, 4, 4]
00000000: 6983 8aba 508d bebd e49a 89bd 497b d1bd
00000010: 5fe6 ff3c a231 9ebd cc15 57bd ea24 debd
00000020: 9359 b7bc da54 153c 173e abbd 52d7 3ebd
00000030: d1d0 16bd 1cef 94bd 3e94 653d 5dbe ddbd
00000040: d359 893d b3ef 42bd fff6 4fbd 5dff cd3b
00000050: 5c16 29bc de99 07be 0f7d 16be a9bb 82bd
00000060: acde 78bd 4493 c7bc 3e15 17be 6861 563d
00000070: 1609 fe3c efcc a93b d21b bcbd 56e6 97bd
00000080: 13af 38bd d7ac 6d3c 23c5 83bd 5045 86bd
00000090: 8fed d6bc 76fa 9abb c479 ca3c 3289 8ebd
000000a0: 856d 8ebd b074 0ebe 0d70 75bd 19c2 553c
000000b0: b7d0 abbd a9f9 b5bc 9adc bcbc 6030 10be
000000c0: b11c 513d 0576 223d ee30 e93a 1be1 aa3c
000000d0: 17f7 c43c 58fb 663d 8c4a c1bc 69a2 b03d
000000e0: 9e34 a9bd 0f3e 7d3c 370e 093c f7bb 803d
000000f0: 4992 8dbd 2161 ddbc 26de 86bc 55f3 fc3d
00000100: b597 4fbd 0233 dbbd 79b8 ef3b a448 26bc
00000110: fa15 afbd 4031 29bd a8e7 803d 5724 9abd
00000120: 0a19 de3b 3588 44bc 3619 d9bd 0b14 36bd
00000130: 9a84 f3bc 018a 9b3c 9185 663d 977f f63c
00000140: b979 533d c2b0 9fba cce1 7d3c bd1d 1abc
00000150: 77be a8bd 4bbf 9cbc 802f 7dbc 193a 49bd
00000160: 0f02 35bd 5ab5 2c3d fc68 823c ec1d 1dbc
00000170: 2507 f7ba 6bf6 45bd 8477 f7bc 5f46 f7bd
00000180: 98f3 7ebd cc61 25bd 14a8 a3bd 11ec cfbd
00000190: 31d6 f2bd 9b67 02bd 16e9 16bd d6a8 00be
000001a0: 30a3 123d 91e3 02be 9299 9cbd b45a 6a3b
000001b0: 706e 453d 1500 62bc 04d8 84bd c4b0 02be
000001c0: e92e a43b 65d2 2dbd a253 d3bd 0d6f 23bd
000001d0: 7745 27bd fb3c a0bc 3b1b 113d 7479 b6bd
000001e0: 33d3 d4bd 86b3 fe3c 586f a5bd 0fd7 bb3b
000001f0: 1e17 e3bc 8ef6 9dbd 093a 81bd da66 89bd
00000200: bdb1 aabb 6257 433d 5b28 77bd 6f6b 22bc
00000210: 6378 a7bc 0383 ee3a f1a7 cfbd c245 a0bb
00000220: 83fb a93a d688 92bd 0652 d0bd 72d3 c2bc
00000230: ef92 1abd 300b c2bd fbe5 603c 4dd5 0abe
00000240: a938 e0bb 626e d8bd 130a 413b 06fe 93bd
00000250: c84a afbd a5ae f7bd 5bb9 abbd 67d9 2abd
00000260: 2f59 96bc 54b1 e5bd 41f4 65bd 706e 1dbe
00000270: 8d82 2dbc e6b3 e4bd 9e37 03be 8e6c cebd
00000280: c31b 21bd 367f d3bc 6fc4 ae3d 4892 493d
00000290: de0d c2bc 4892 0f3d 811c 953c 2a26 4dbd
000002a0: 17b5 48bd fbe9 87bd 6b4c 23bd 898d 8bbd
000002b0: 16b3 76bd a69f 93bd f7ba 183d e7be 2ebd
000002c0: ea76 38bb 6ca5 aabd 4b34 3abd 3580 cbbd
000002d0: fbf2 1bbd 90d4 61bd c7c3 9f3c 1aee ba3c
000002e0: 5301 8a3b 1dd0 e33d e439 e03d 0a5a b53d
000002f0: 12a3 993d 5bf5 f73d 21a1 d73c 0bc6 c73d
00000300: 263b 083c 51b0 0cbc 80a2 8fbc b8e3 bcbd
00000310: 1359 91bd 5d4f 2c3d 96b4 13bd a62e f1bd
00000320: 88e8 523c d362 c7bd 6ad2 0bbc 2beb 0ebd
00000330: 72d3 50bd b43e 73bd fe6c 01be 590a 37bd
00000340: d26c b83c ec45 a4bd 14cc 7cbb 95b1 acbd
00000350: 6319 1fbd 65fd 7fbd 2cdc 27bd 0e37 c7bd
00000360: 7af3 5dbd 08f4 03be 903c e1bd 2e3e 40bd
00000370: fdeb 713c ee2a 3abc 3356 1bbc 1e90 19bd
00000380: 043b b8bd ed1e 013d 4954 b8bc 5d86 473d
00000390: a9a8 553c 716c 1ebd 486e 44bb b843 92bb
000003a0: b5d8 ecbd a863 3a3c 729e 51bd a2eb 4f3d
000003b0: ada0 c6bc 0130 debd 990d 08be aa6b d4bd
000003c0: b15a 0d3c 0e1a 873c 39bd 0dbd bada bdbd
000003d0: 2a87 bebc e30f 143c 8178 d8bd 58f9 dcbb
000003e0: 61d7 0cbe c16f e3bc 4ffd a9bd 4efc ecbd
000003f0: 79a3 24bd f51e 19be 1239 68bc cf5c 13be
-0.0010567728 -0.09304297 -0.06718996 -0.10228593 0.03123778 -0.077243105 -0.05251102 -0.108468845
-0.02238158 0.0091144685 -0.08361452 -0.046592064 -0.036820237 -0.07272169 0.056049578 -0.108273245
0.06706586 -0.047591876 -0.050772663 0.006286545 -0.010320272 -0.1324229 -0.14696144 -0.063834496
-0.06075923 -0.024362214 -0.14754197 0.052338988 0.031010192 0.0051819007 -0.09184994 -0.0741698
-0.04508884 0.01450654 -0.06434085 -0.06556189 -0.026236324 -0.0047295643 0.024716265 -0.06959762
-0.06954483 -0.139117 -0.059921313 0.013046765 -0.083894186 -0.022213774 -0.02305441 -0.14080954
0.051052753 0.039663333 0.0017791071 0.020859292 0.024043603 0.056392044 -0.023595117 0.08624727
-0.08261989 0.01545669 0.0083652055 0.062858514 -0.06912667 -0.027023854 -0.01646335 0.123510994
-0.05068179 -0.10703088 0.007315692 -0.010149155 -0.085491136 -0.041306734 0.06294185 -0.075264625
0.006777887 -0.011995365 -0.10600512 -0.04445271 -0.029726315 0.018986704 0.056279723 0.030090136
0.051629756 -0.0012183415 0.015495729 -0.009406504 -0.08239453 -0.019134184 -0.015453219 -0.049127672
-0.044191416 0.042165138 0.015919201 -0.009589653 -0.0018846734 -0.048330706 -0.030208357 -0.12073969
-0.062244028 -0.04037647 -0.07991043 -0.10152448 -0.1185726 -0.031837087 -0.03684338 -0.12564406
0.03580016 -0.12782122 -0.07646479 0.003575963 0.048201025 -0.013793965 -0.06486514 -0.12762743
0.005010475 -0.042436976 -0.10318686 -0.03990083 -0.04083773 -0.019560328 0.03542636 -0.08909884
-0.103918456 0.031091463 -0.08077878 0.005732424 -0.027720984 -0.07713042 -0.063098975 -0.067090705
-0.0052091763 0.047690757 -0.06034122 -0.0099133095 -0.020443147 0.0018197004 -0.10139454 -0.0048911283
0.0012968633 -0.07155006 -0.10171895 -0.023782466 -0.037737783 -0.0947479 0.013726707 -0.1355793
-0.006842692 -0.10567929 0.0029455468 -0.072261855 -0.08559185 -0.12093858 -0.08384963 -0.041711237
-0.018353073 -0.11215463 -0.05614114 -0.1537416 -0.010590208 -0.111671254 -0.12814185 -0.10079299
-0.039333116 -0.025817495 0.085335605 0.04921177 -0.023688253 0.035051614 0.018202068 -0.050085224
-0.049000826 -0.06636425 -0.0398678 -0.06814105 -0.060229383 -0.07208185 0.03728768 -0.042662527
-0.002814705 -0.08332333 -0.045460027 -0.09936563 -0.03807352 -0.055134356 0.019502534 0.022818614
0.0042115836 0.11123679 0.10948542 0.08855064 0.07501806 0.12107345 0.02632195 0.097545706
0.008314883 -0.008586959 -0.01753354 -0.092231214 -0.07097068 0.042067874 -0.036060892 -0.117764756
0.012872823 -0.09735646 -0.008534053 -0.034892242 -0.0509829 -0.05938597 -0.12639233 -0.044687603
0.022512827 -0.08021149 -0.0038573788 -0.084323086 -0.03884257 -0.062497515 -0.040981457 -0.09727298
-0.054187275 -0.1288606 -0.109978795 -0.0469343 0.014765737 -0.011362774 -0.009481001 -0.037490956
-0.08995631 0.031523634 -0.022501128 0.048712123 0.0130407 -0.038677637 -0.002997296 -0.004463639
-0.11564771 0.011376299 -0.051176496 0.050761826 -0.024246538 -0.10849 -0.13286437 -0.10372098
0.00862758 0.016491916 -0.034604285 -0.092702344 -0.02325781 0.009036991 -0.10569859 -0.0067435913
-0.13754036 -0.02776325 -0.08300268 -0.11571561 -0.040194962 -0.14953215 -0.014173763 -0.14390872

conv3.bias f4 [10]
00000000: aa5b 05bc 7e10 ecbd 12f7 5c3f 5352 b33e
00000010: 08cf dd3c 4456 c83e f718 183f 46ea febd
00000020: 690e 14bd aa15 f0bd
-0.00813953 -0.11526583 0.863145 0.35023746 0.02707626 0.39128315 0.59413093 -0.12447028
-0.036146555 -0.11722882

t_conv1.weight f4 [10, 8, 6, 6]
00000000: 35f9 ddbd 3bf3 89bc 2c0b 65bc 2be2 80bd
00000010: 1622 1abd b1d4 38bd f78f 2a3d e856 82bd
00000020: 0ec6 d23c b81a babb d0e8 f6bb 3595 6bbd
00000030: ea51 c0bd 091a 82bd db46 b2bb 4ad8 8abd
00000040: f670 0ebd 8769 36bd d649 cabb e831 543b
00000050: c172 e13b c90b 53bd 5448 2c3c 39cf 96bb
00000060: 5d1e f2bc e748 353d 609b 1f3c 747e 073c
00000070: 1300 4dbd 3be4 063d 8d1b 313d 06fd d2bd
00000080: a734 b53d 1207 15bb 02bf d1bc 1f95 13bd
00000090: 31db a3bd 4820 2e3d 6310 ebbc 5c53 7cbc
000000a0: 46ac 80bd 19c0 463d e785 29bc 0f78 92bd
000000b0: e51c 33bc 9f8c 8b3c afbc 22bd fbcc 08bd
000000c0: b185 10ba 9b74 f03c e379 94bd 7e88 b7bc
000000d0: 1f42 bfbd 2f9f 52bd 285e 56bd e76a b9bd
000000e0: cf73 7abd ffd5 bdbd defd 6dbc ae9e c9bb
000000f0: 43cc d1bd 6704 4fbd 5b46 3f3c 602f 16bd
00000100: 2582 02bb edfe 623d d550 19bb 9962 b2bd
00000110: f211 8bbc 9413 86bd e37d d0bd 739d 14bd
00000120: ad2b 9d3a 0fa0 773a 2350 b73c 54d6 0dbd
00000130: 0428 abbd c469 94bd b1e4 a1bc 37bc 36bd
00000140: d613 4abd 2b64 653c e8f7 11bd c050 943c
00000150: 9864 c5bc 78c2 5fbd 1a25 28bd c234 29bd
00000160: 7e33 62bd 402d 96bd 24ae 83bc 4298 b43a
00000170: e75f b737 1a7d 6fbd 0990 9fbc c891 00bd
00000180: 5eb4 f23b 8566 46bc d6b8 44bd 1c4c 493c
00000190: f424 1dbc 8582 a0bd 424e eebc 095d c4bc
000001a0: f0f4 89bc e39b 743c 73ea c13c 1f9b 73bd
000001b0: 7540 cbbd bc4e 6abd 366b d9bc 786a c9bd
000001c0: cbfa 34bc a8c3 02ba 38b8 a9bd 0186 8c3b
000001d0: 1e25 e1bd ce11 68bd dd8d 9fbc 4110 cbbc
000001e0: 556a d1bd 5140 43bd d092 afbd a841 43bd
000001f0: 64c9 9ebd a84d 29bc e221 afbd 338a 8fbc
00000200: d93e 59bd 64ab 48bd d6d6 e6bb 902f 8f3c
00000210: 5147 b7bc 7cd4 43bb 115e c4bb 0ef8 cebb
00000220: c173 cd3c 5f7f 90bd b5dd 89bc cfd8 4c3c
00000230: 1eb8 f0bc 2d6c 54bb 4417 b6bd 7c17 82bd
00000240: efb2 b2bd 8867 173d 93a1 92bd 9c1c 903d
00000250: 4786 2c3b 83ed d1bd 17af 90bd cb36 a2bd
00000260: 66a7 82bd 647f 1a3b ead5 04bd 7b28 c0bd
00000270: 6cfb 56bd 9598 cb3c bc61 c4bd 129d 9d3d
00000280: 173e ffbc 6d85 cabd aad8 90ba 41b6 64bd
00000290: 0bf9 2fbd d5f1 073b daa7 aabd 99ec 89bd
000002a0: e605 c0bd ba69 1c3d 3e05 7abc 0137 483a
000002b0: 1a2b 25bd 528f 65bd 1b35 37bd c163 3ebd
000002c0: 27fa f8bc c366 a53b d671 1ebd 5df7 8ebb
000002d0: fe50 b6bd ca3b 59bd f8e7 c0bd d434 1bbc
000002e0: 0b13 dabc bb20 42bd 5c77 d0bd 04dd b4bc
000002f0: 9a22 39bd bfd8 79bc 18ac 62bc a33a 0dbd
00000300: 761a a2bb 2e32 d0bd 6a69 3cbd 0643 d1bc
00000310: 0b0c 35bd 72d3 92bd 35a3 413d aff6 8bbc
00000320: cd95 93bd 1622 cabd d8c8 b3bd 9cff a6bd
00000330: 5bd0 e6bd 0b77 933b a780 d6bd 2375 10bd
00000340: d587 1dbd a44f 9bbd 5804 41bd 3197 99bc
00000350: fa57 943c 142c 9ebd cb01 b0bc 89ae 6cbd
00000360: b367 a3bd ac25 4dbc a0f6 9dbd b0e1 bdbd
00000370: 6f71 04bd ae7c 9c3d 7257 98bc 83cd b3bd
00000380: a034 3bbc 0b75 c7bd df95 5fbc cb1e 50bd
00000390: cd0d 59bd f7ee 8cbc da5f dcbd 40a9 59bd
000003a0: 6a15 023d 0e80 3fbd ea52 62bd b2c9 6abd
000003b0: a794 3b3c 2ea3 6fbd 53cf 9ebd a43d 503d
000003c0: fced 60bd 7c7f 66bd 1675 88bd 7455 c9bd
000003d0: 3244 f43c 9dc5 46ba 5b72 e0bd f48d d8bd
000003e0: 16d0 8fbd fd72 9dbd fa23 2ebc 01bd 2fbd
000003f0: d19b fa3a b706 53bd 1d63 64bc f2cb 343c
-0.10838548 -0.016839614 -0.013979714 -0.06293138 -0.037630163 -0.045124713 0.0416412 -0.06364232
0.025729205 -0.0056794547 -0.0075350776 -0.05751534 -0.09390624 -0.06352622 -0.0054405755 -0.06779535
-0.034775697 -0.044534232 -0.0061733527 0.003237838 0.006880135 -0.05152491 0.010515291 -0.0046023396
-0.029555494 0.04425898 0.009741634 0.008269895 -0.0500489 0.0329325 0.043239165 -0.10302167
0.08847933 -0.002273981 -0.025603775 -0.036030885 -0.08000792 0.042511255 -0.028694337 -0.015400734
-0.062828586 0.048523042 -0.010346866 -0.071518056 -0.010932182 0.017034827 -0.039730724 -0.03339861
-0.00055130856 0.029352477 -0.072498105 -0.022403952 -0.093387835 -0.05142134 -0.05233589 -0.09053593
-0.0611456 -0.09269332 -0.014525859 -0.0061529493 -0.10244038 -0.050541308 0.011674489 -0.036666274
-0.0019913998 0.055418897 -0.0023394127 -0.08710212 -0.01697633 -0.06546703 -0.10180261 -0.036282968
0.0011991166 0.0009446153 0.02237708 -0.034628227 -0.08357242 -0.07246736 -0.019762369 -0.04461309
-0.049335323 0.014000933 -0.035636812 0.01810491 -0.024095818 -0.05462882 -0.041051008 -0.04131008
-0.055224888 -0.073328495 -0.016074248 0.0013778287 2.1859958e-05 -0.058468916 -0.019477861 -0.031389028
0.0074067554 -0.0121094035 -0.048027836 0.012286212 -0.00959133 -0.078373946 -0.02909005 -0.023970144
-0.016840428 0.014929744 0.023671364 -0.059474107 -0.099244036 -0.057203993 -0.02654038 -0.098347604
-0.011046122 -0.00049882615 -0.0828709 0.0042884354 -0.10993408 -0.056657605 -0.019476825 -0.024788024
-0.10225359 -0.04766876 -0.08572924 -0.047670037 -0.07753256 -0.010333456 -0.085513845 -0.017521953
-0.05303845 -0.048991576 -0.0070446534 0.017478734 -0.022372873 -0.002988129 -0.005992659 -0.0063161915
0.02507961 -0.07055544 -0.016829351 0.012502863 -0.029384669 -0.003241311 -0.08891156 -0.063521355
-0.08725535 0.03696397 -0.07159724 0.07036707 0.0026325153 -0.1025038 -0.07064646 -0.07920607
-0.06379585 0.0023574466 -0.032430567 -0.09382721 -0.05248587 0.02485303 -0.09588954 0.076959744
-0.031157536 -0.0988873 -0.0011050899 -0.055837873 -0.042962115 0.0020743508 -0.083327964 -0.067345805
-0.09376125 0.038186766 -0.015260039 0.0007637591 -0.040324308 -0.056044884 -0.04472838 -0.04648185
-0.03039272 0.0050476505 -0.03868278 -0.004362984 -0.08902167 -0.053035535 -0.094192445 -0.009473044
-0.026620409 -0.047394495 -0.10179016 -0.022078045 -0.045199014 -0.01524943 -0.013834976 -0.03447975
-0.004947002 -0.10165821 -0.04599897 -0.025544655 -0.04420094 -0.07169236 0.047274787 -0.017085401
-0.072063066 -0.098697826 -0.08778542 -0.08154222 -0.112702094 0.004500275 -0.10473757 -0.03526796
-0.038459618 -0.075835496 -0.047123283 -0.018748851 0.018108357 -0.07723251 -0.02148523 -0.057783637
-0.079787634 -0.012521189 -0.077130556 -0.09271562 -0.03233474 0.07640968 -0.018596385 -0.087794326
-0.011426121 -0.09739121 -0.013646572 -0.050810616 -0.052991677 -0.017203791 -0.1076047 -0.053139925
0.031758703 -0.04675298 -0.055254854 -0.057321258 0.011449016 -0.05850523 -0.07754388 0.050840035
-0.05491446 -0.056273922 -0.06662957 -0.09830752 0.029817674 -0.0007582547 -0.109593116 -0.105739504
-0.07022111 -0.07687948 -0.010628695 -0.042904858 0.0019119923 -0.051520076 -0.013939646 0.0110349525

t_conv1.bias f4 [8]
00000000: 7b58 adbe be77 88bd 7ad3 b2bd 6883 4bbf
00000010: 9f32 c63e a619 e13d 8566 d23e a428 0a3f
-0.33856568 -0.06663464 -0.08731742 -0.79497385 0.38710496 0.1099122 0.4109384 0.5396826

t_conv2.weight f4 [8, 5, 6, 6]
00000000: 1fc4 83bd 3d7b 273e c339 86bb 8eed cd3e
00000010: c70e 5bbd 9d5e 313e 8514 fc3d b08d cf3e
00000020: d129 8a3d 9fb7 793e a921 ccbd dadb d4bc
00000030: f003 15be bf19 343e 877a d23d 2f63 5ebe
00000040: e0e0 e83d 5632 5a3e f7c5 3dbd 7b2d 6c3f
00000050: 49f1 1fbb 305e e33d 7269 913d 9bcb 833e
00000060: a78b 9abb 3899 0b3f 2303 333e f06a 0b3d
00000070: 17cd 103d 5957 2d3e f874 f6bd acb1 e13e
00000080: 7e3e 743e f1f2 2c3f a502 873e c4c6 063e
00000090: 047e 0bbd 9f20 edbd 52e9 1bbd 2395 803c
000000a0: 9927 9ebd 3c5c 0abc 1f1a 4fbd fdcc e3bd
000000b0: 7240 113c a546 ebbd b48a eabd 8e23 00be
000000c0: 8421 f53b db17 26bc 9df4 ee3b 8c2c 823c
000000d0: 3c96 c3bc ecba 2ebd c07c dbbd 0b9c a6bc
000000e0: 519d 91bd f120 b4bc 8bda 1ebd 2b6b f0bd
000000f0: 2b8c 303c 81d0 e3bd f5ff 89bd 4b51 373c
00000100: c7a3 25bd ab0d ab3c 2908 8e3a 71f5 cbbb
00000110: fe75 c0bd 1481 d3bd 6ad1 95bd a1e8 acbd
00000120: b621 4a3d 4399 e9bd 48a3 22bf 063b abbd
00000130: 02c0 96be 32ca 9b3d e36b 9b3c 34d0 a0bd
00000140: 8109 343f 9112 c3be 1a80 2c3e 157b 933e
00000150: 2784 17be 6549 d13c e120 6bbe 266e 793d
00000160: 56bf c8bc 4ecd d6bc 9b56 e8bf c192 cabe
00000170: 5ca4 81c0 a2ff a4bf c8bd e7bf 97e7 c1bc
00000180: f4ca 2fbe e180 6f3e 551f e3be 4139 9c3e
00000190: 0610 42bf b472 28bd 9fcd 483f 4af8 503f
000001a0: 612f 34be 162f 973e 57d2 debd 8098 a8bd
000001b0: 4bfc 1a3e 244d 603d c2c4 06bf 58eb 1abf
000001c0: fc3a c7bf a376 4cbf 7104 f43e b212 40bf
000001d0: 8132 b3bf 0cc0 dfbf ba7a 703f ceda 17be
000001e0: d387 453e da92 0a3f cb76 d6be 6f22 75be
000001f0: 497b 1cbf 8169 673e 018c fabe 768a dd3e
00000200: 663a 1ab9 989c 0e3c 4856 223f fa1b 543c
00000210: 3325 583d 1ff8 4f3e 109e eb3d e7b6 7e3c
00000220: 3ee1 47be 61ca 6f3d 5b80 b43d 5dd0 8b3f
00000230: 1e3a 7d3d 231a 5c3f 2488 a73e a552 c43e
00000240: bbe0 843c 3b7a f6bd 5bf1 c1bd a904 12be
00000250: c6a9 0bbe c151 21bd cdd6 b3bd 9015 61bd
00000260: 0252 95bc 423c 3dbd ec98 373d a241 e3bd
00000270: 535d 9dbd 26c2 29be 36bd 69bd 04a5 86bd
00000280: 7b04 11be 81e4 1dbe e47a 71bd b217 c2bd
00000290: 40a6 97bc 4bca acbd a840 0e3c 5daf 1ebd
000002a0: 586f 4bbd 8820 efbd 8d3b 16be 7093 8bbd
000002b0: aba8 4fbe d363 27be 936e 43be 0622 a53b
000002c0: d8e9 b4bd d44f f7bd 19dc 91bd 00e0 d0bd
000002d0: e321 543d b167 e23d 718d 6d3d f4bd fc3d
000002e0: 87f2 7b3e d113 083b a81b c8bd a089 08be
000002f0: cd2e fcbd 437e 523a 786b 133b 2e73 50bd
00000300: 8c66 363d 894c 323d 8b83 b93d fe50 7e3b
00000310: 27f1 eb3d f71a b2bd 7746 383d a50c 0abe
00000320: 494e 043e 12e3 4e3d 5ece 72bd 79e1 acbd
00000330: ab6b 483e 46fa 893d de36 f53c aeeb 3cbd
00000340: 27a2 183e 777b e23c ae0c 973d 8466 00be
00000350: a882 ec3c c600 d93d 0989 3d3e 6061 57bc
00000360: 0062 99bd 065f cc3c e3d9 9bbb 2531 93bd
00000370: 75d6 96bd a666 6c3c 7e95 ddbd 9965 babd
00000380: 7ca7 d33c 3149 8c3c 2773 59bd 9113 5ebc
00000390: 9137 9abd b0bd ecbd e2bd 94bd 7677 e9bd
000003a0: ddac ffbc 7825 05bd ce6c 4bbd dfac b33c
000003b0: be18 a8bd 3be1 9dbd b944 f8bc 0544 d0bd
000003c0: 9a09 8fbc 42e0 5ebc 25e7 46bb e672 39bc
000003d0: 5ca4 57bd 7880 89bd c504 debb 0f21 d4bc
000003e0: 9215 37bd 2ca7 a0bd ecea c43c 4986 eabd
000003f0: ea7f ddbb d9cc 87bd 98db 0a3c e4f8 1e3b
-0.064338915 0.16355605 -0.004096241 0.40220302 -0.05348089 0.17321248 0.12308601 0.40537786
0.06746257 0.24386452 -0.09967358 -0.02598374 -0.14552283 0.17587946 0.102772765 -0.21717523
0.113710165 0.21308264 -0.046331372 0.922569 -0.0024405292 0.11101949 0.0710019 0.25741276
-0.004716355 0.5453067 0.17481665 0.03403753 0.03535184 0.16927852 -0.12034029 0.44080865
0.23851964 0.675582 0.26369205 0.1316176 -0.034055725 -0.115784876 -0.03806431 0.015696114
-0.077223964 -0.008444842 -0.05056202 -0.11123083 0.008865463 -0.11488084 -0.11452237 -0.12513563
0.007480802 -0.0101375235 0.007292344 0.015890382 -0.023875348 -0.04265873 -0.107171535 -0.020338079
-0.07110084 -0.021988364 -0.038782638 -0.11739191 0.010775606 -0.11123753 -0.06738273 0.011188815
-0.040439393 0.02088054 0.0010836172 -0.0062243273 -0.09397505 -0.10327354 -0.07315333 -0.08442808
0.049348556 -0.114061855 -0.635304 -0.08360867 -0.29443365 0.07606925 0.018972343 -0.078522116
0.70327 -0.38100103 0.16845742 0.28804842 -0.14796506 0.025547693 -0.22961761 0.06089606
-0.024505299 -0.026220944 -1.815143 -0.3956509 -4.0513134 -1.2890513 -1.8104792 -0.023670001
-0.17167264 0.23389007 -0.44359842 0.3051243 -0.758057 -0.041125014 0.7843875 0.8162886
-0.17596199 0.2952811 -0.10879963 -0.08232212 0.15135305 0.054761067 -0.5264398 -0.60515356
-1.5564876 -0.79868525 0.4765964 -0.75028527 -1.3999788 -1.7480483 0.93937266 -0.14829561
0.19290094 0.5413033 -0.41887507 -0.23938917 -0.6112562 0.2259884 -0.4893494 0.432697
-0.0001470834 0.008704327 0.63412905 0.012946123 0.05276985 0.20309494 0.115047574 0.015546537
-0.19519517 0.058542613 0.08813544 1.0922962 0.061823003 0.8597738 0.32721055 0.38344303
0.016220441 -0.12035032 -0.09469863 -0.1425959 -0.13638982 -0.039384607 -0.087812044 -0.054952204
-0.018227581 -0.046200044 0.044823572 -0.11096503 -0.07683816 -0.16577968 -0.05706521 -0.06574443
-0.14161865 -0.15419199 -0.05895509 -0.09477176 -0.018511891 -0.08437022 0.008682407 -0.03874146
-0.049666733 -0.11676127 -0.14671154 -0.06815231 -0.20279185 -0.16346674 -0.1908515 0.0050394563
-0.08833665 -0.12075773 -0.071220584 -0.101989746 0.05179013 0.11054934 0.057996217 0.12340918
0.24604236 0.0020763765 -0.097709 -0.1333375 -0.12313614 0.0008029679 0.0022494476 -0.050891094
0.04453139 0.04353002 0.09058293 0.00388056 0.115206055 -0.086965494 0.044989076 -0.13481386
0.12920488 0.05050952 -0.05927884 -0.08441443 0.19572322 0.06737189 0.02993339 -0.0461232
0.14905606 0.027646763 0.07375465 -0.12539107 0.028870896 0.10595851 0.18509306 -0.013145775
-0.07489395 0.024947654 -0.0047561987 -0.07187108 -0.07365123 0.01442877 -0.10819529 -0.091014095
0.025836699 0.017124744 -0.053088333 -0.01355447 -0.0753013 -0.115596175 -0.0726278 -0.113997385
-0.031210357 -0.032506436 -0.04966431 0.021933017 -0.08207844 -0.07708975 -0.030306207 -0.10169224
-0.017460633 -0.013603272 -0.0030350175 -0.011318898 -0.05264698 -0.067139566 -0.006775471 -0.02589467
-0.044698305 -0.078443855 0.0240378 -0.11451394 -0.0067596333 -0.066308685 0.008475207 0.0024257237

t_conv2.bias f4 [5]
00000000: a88f debd 5aca 88bd c177 2a3f c1c9 0e3c
00000010: a748 3cbe
-0.10867244 -0.066792205 0.6658898 0.008715094 -0.1838709

t_conv3.weight f4 [5, 3, 6, 6]
00000000: f270 f5bd 442c 81be 91a5 5fbe 885b c3bd
00000010: ec97 ae3c dfce 0d3d c466 6dbe 85b3 06bf
00000020: cfd4 fcbe 3e34 7abe 06ac 0ebc f696 493d
00000030: d7e1 56be 1797 febe c9a2 eabe 2288 45be
00000040: c5db 953c d013 5e3d 07a9 f1bd 969a 8abe
00000050: f000 52be 90f1 8fbc 7520 c23d d2a1 773d
00000060: 78eb e7bb fb31 4bbd 51c9 f83c ad8a 123e
00000070: 2a03 0f3e 1a8d 6a3d 70a2 903c 51e9 963b
00000080: 4b1e 793d 20b5 043e 592b d03d 13bf 243d
00000090: 8962 09be a4e5 87be 0a87 66be 40e0 d0bd
000000a0: 4762 2a3c 9d35 ac3c d745 6fbe 8505 08bf
000000b0: d71c ffbe 3cf1 79be 0976 debb e85d 413d
000000c0: 7ba4 55be 42aa fdbe 195a e9be 6def 41be
000000d0: b81f bb3c 6e74 6e3d 5786 f1bd f8ce 89be
000000e0: 8d7b 4cbe 7664 42bc 717f b83d 44ed 5f3d
000000f0: 11b8 70bc bc6d 59bd 58d1 0b3d 060c 133e
00000100: 3500 013e d9a9 2a3d 14ea a53b 3a41 3fbb
00000110: 3cf2 7a3d e4c9 003e 162b b03d 6d2a c93c
00000120: d290 09be 9f6d 88be 88b7 65be 6ba5 c7bd
00000130: e542 f83b 7777 6a3c 15dd 77be f3a0 09bf
00000140: c148 00bf 9894 79be 7e40 88bc f560 023d
00000150: af9d 61be b670 01bf e060 ebbe f50c 45be
00000160: 1ec0 383c c2e6 373d 0a1c 00be 048b 8cbe
00000170: 4d9a 4abe 2b8c 09bc 95f4 a83d ca3f 353d
00000180: cd3c c6bc 4d9a 84bd e1fa e23c e21f 133e
00000190: a749 f63d a6e0 ff3c 3328 bdbb aa8d 95bc
000001a0: e1a3 593d 3ed1 003e 65da ae3d 8688 a83c
000001b0: d09c cb3c b5b3 1e3d 06db ce3b b022 57bd
000001c0: dcb4 ccbb d5d4 083d cb97 683c 8cee bcbd
000001d0: 44ed c1bd 3400 1c3d fa05 7abd a731 9dbc
000001e0: 3ccd 573d a49b 2dbd cfe3 fbbd 7a27 e4bd
000001f0: 8e17 91bd 9b54 d1bd d358 8bbb 471c cd3c
00000200: 3e4a 1abe 1193 15bd 5a65 7a3b daa0 21be
00000210: 1360 8dbc 0d2d 15be ad06 abbd e978 bebd
00000220: ec11 18bd e0c6 de3b 9507 35bc 8416 b2bd
00000230: 9db4 1bbd 8173 05be c51f 03be a277 ce3b
00000240: ef49 113d 7aed 45bd a73e c53d 2f43 a23d
00000250: f9bc 873d 59bf 493d dcdb cabb 0991 523c
00000260: 8522 5cbd 00e4 26bc dab6 943d c313 f03d
00000270: 8be7 033e 6a9d 6dbd 8739 5c3c f729 b53d
00000280: 1427 d13a 92cf 003d 887d d43c 58cf e53d
00000290: 765b 933d d707 9fbb af5e 0f3c 7909 803d
000002a0: 9495 623d ecbb 61bd 02a5 a2bb 4715 a63d
000002b0: 9dd2 e33d 3fbf 02bd 1669 bd3b 4b0a 023d
000002c0: ec6e 003e 6b8a f93d 6e40 7ab8 6fe1 72bd
000002d0: 72da 33bd afdf f23d a70b 84ba 50bc 0dbd
000002e0: f199 9e3d 687f ca3d 8b9a b93d 829f 38bd
000002f0: d3c9 bf3d 094c 47bd 33b1 b43d ac42 353d
00000300: fd4f 933d 8b59 873d 8dff c43d 1438 40bd
00000310: 2a98 ad3c 5b83 10bd 83a1 35bd 7272 b63c
00000320: acf0 9f3c 0dd1 d23d b430 d93d fe03 49bd
00000330: 9ec4 ae3c 4837 b93d a2bd 18bc 7b40 463c
00000340: ec8f 63bd ce66 95ba b055 0a3d 50b2 97ba
00000350: 9123 7c3d 93ad a33d 4fed 943d 266d 6e3d
00000360: c64b 2f3d fc2f 1f3e 4b4a 2d3e 90df 0c3e
00000370: 4ff4 003e c453 853d 1d03 113e a476 9e3e
00000380: 67ca a13e faec 903e 5bcd 833e 7bb4 133e
00000390: 78e4 1c3e 06bb af3e 16df b53e 3f69 ae3e
000003a0: d6df 943e ce9e ff3d c9fd bf3d 0c54 923e
000003b0: 20b4 ac3e 7528 ab3e 41ef 863e bb6a ad3d
000003c0: e342 b93d 1c81 823e ba8f 923e 3c78 7b3e
000003d0: a4e2 313e 8577 833d d4c1 6c3d fe41 1c3e
000003e0: 4ed2 063e 6032 b33d 5e83 613d 7868 7dba
000003f0: 6598 9d3d 72b8 473e 659f 4e3e e4df 323e
-0.11984433 -0.25229084 -0.21840502 -0.095389426 0.021312676 0.034621116 -0.23183733 -0.52617675
-0.4938111 -0.24433991 -0.008708006 0.049216233 -0.20984589 -0.49724647 -0.4582732 -0.19290212
0.01829327 0.054218113 -0.117998175 -0.27071065 -0.2050817 -0.01757124 0.09478847 0.06045706
-0.0070776306 -0.049608212 0.030369433 0.14310713 0.1396605 0.05726347 0.017655581 0.00460545
0.060819905 0.12959719 0.10164518 0.040221285 -0.13416494 -0.2654239 -0.22512451 -0.10199022
0.010399408 0.021021659 -0.23366486 -0.5313342 -0.4982669 -0.2440843 -0.006788973 0.047208697
-0.20863526 -0.4954396 -0.45576552 -0.1893899 0.022842273 0.058216505 -0.117932014 -0.26915717
-0.19969006 -0.011864772 0.090086825 0.054669634 -0.014692322 -0.053083166 0.034135193 0.14360055
0.12597735 0.041665886 0.0050633047 -0.0029183165 0.06126617 0.12577015 0.08601968 0.024556363
-0.13434151 -0.26646134 -0.22433293 -0.09748348 0.007576334 0.014310709 -0.2420543 -0.53761214
-0.50111014 -0.2437309 -0.016632315 0.031830747 -0.22032808 -0.5056261 -0.45972347 -0.19243224
0.011276273 0.044897802 -0.12510696 -0.2744981 -0.19785424 -0.008395235 0.08249775 0.044250287
-0.024198914 -0.06474743 0.027707519 0.14367631 0.12025767 0.03123505 -0.0057726144 -0.018256027
0.053134803 0.1257982 0.08537749 0.020572912 0.024855047 0.0387456 0.0063127307 -0.052523315
-0.006247146 0.033406097 0.0141963465 -0.09225187 -0.09469083 0.03808613 -0.061040856 -0.019188715
0.05268596 -0.04238476 -0.122993104 -0.11140342 -0.07084571 -0.10221215 -0.004252532 0.025037898
-0.15067384 -0.036517207 0.0038207383 -0.15784016 -0.017257726 -0.14567967 -0.08350883 -0.093004055
-0.037126467 0.00679861 -0.011049171 -0.08695701 -0.038014043 -0.13032342 -0.12805088 0.0063008824
0.0354709 -0.04832218 0.096310906 0.079229705 0.066278405 0.04925475 -0.00619076 0.012851962
-0.053743858 -0.010186195 0.07261439 0.11722519 0.12881295 -0.05801145 0.01344145 0.08845895
0.0015957081 0.031447954 0.025938764 0.11221188 0.07195179 -0.0048532295 0.008750602 0.06251807
0.05531843 -0.055110857 -0.004963518 0.08109527 0.11124156 -0.031920668 0.0057803495 0.031748097
0.12542313 0.12184604 -5.966465e-05 -0.05929702 -0.043909498 0.118590705 -0.0010074273 -0.034603417
0.07744206 0.09887582 0.0906268 -0.045073994 0.09364667 -0.048656497 0.088228606 0.044253036
0.07192991 0.06608876 0.09619055 -0.04692848 0.021190722 -0.03528152 -0.044343483 0.022271369
0.019523941 0.102937795 0.106049925 -0.049076073 0.021333989 0.09043747 -0.009322556 0.012100334
-0.055557176 -0.0011398436 0.033773124 -0.0011573527 0.061557356 0.07992091 0.072718255 0.05820956
0.042796873 0.15545648 0.16922872 0.13757157 0.12593196 0.06510118 0.14161344 0.3094989
0.31599733 0.283058 0.2574261 0.14424317 0.15321529 0.34322375 0.35521764 0.3406467
0.29077023 0.124814615 0.093745776 0.28579748 0.33731174 0.33429304 0.2635441 0.08467623
0.09045961 0.25489128 0.2862528 0.24557585 0.17371613 0.06419281 0.057802036 0.15259549
0.13166162 0.08749843 0.055056922 -0.0009666751 0.076950826 0.19503954 0.20177992 0.1746822

t_conv3.bias f4 [3]
00000000: d617 573f d5a2 4a3f 55a0 143f
0.84020746 0.7915471 0.5805715
