models/cae2.pth (torch, 32335 bytes, 12 tensors)

conv1.weight f4 [5, 3, 4, 4]
00000000: fe4f 923d e2ce 5b3d f666 c9bb 5fa9 2fbe
00000010: 9a05 4bbe 529b 08be ad30 4d3d b40d 20bd
00000020: 6a52 9d3d d490 5b3d 803a bfbc ef7e 55bb
00000030: b9f1 91bd f9f5 edbb 0e7c 0fbe 9245 12be
00000040: d8ae 3dbe ba42 bdbc 9350 f6bd e36c df3c
00000050: 2883 803d e85a a6bd 2bf8 35be 48ed c0bd
00000060: c296 05be 9356 25bd 6884 5e3d 738c 5e3d
00000070: 3dec b8bd b0a2 84bd b396 f1bd 92a2 cebd
00000080: d8f9 ffbd 1698 0bbe 3b05 6bbd 2cfe 26be
00000090: 58cb f5bd fe61 debc 79a1 2fbe 6c29 f13c
000000a0: 04d4 12be fbe6 9fbb c83a 28be e855 febc
000000b0: 2c70 ab3d b9dd eebd 230b 5dbd 60a2 26bd
000000c0: e990 adbd 8f81 06bd f9ad 823d 3420 92bd
000000d0: b051 c93d 7554 ba3d 23ca 0dbe de77 b7bd
000000e0: 5712 f6bb 4ff2 b9bc e6a7 0cbe ad9d 88bd
000000f0: 4a84 bfbd b256 08bd c851 1dbe 0e40 e1bd
00000100: 35fe 25bd abde 72bd 0a52 673d 955b 023c
00000110: 523b dcbd b937 00be f4be 2bbd 0392 cf3d
00000120: ad75 d8bd ae2a d3bd 9ccd 103d 7af8 0ebb
00000130: 27bf 6ebd 6655 02be ec6b c23d 6c3d 1ebd
00000140: 099e 1fbd a7a9 ad3d 43e3 6fbd 6d65 c43b
00000150: 3e38 0dbe 3ea8 29be 2493 1fbb 7f08 ab3d
00000160: c6c4 2fbe 7b4c 8ebd 7c7f bf3c 842d 2e3c
00000170: 7981 c03d 6865 39bd e6e2 d9bd fb98 a23c
00000180: ff74 6d3d bd76 903d 99fd 3c3d fb64 33bc
00000190: 56f8 d83c eba0 db3c 867d 513d 29b1 823d
000001a0: 7388 013d 175f 043e b1cb 1b3d 2c63 d13b
000001b0: dad2 de3c 1253 19bd 3438 903d d8d7 afbc
000001c0: 1920 783b 9331 983d f9c4 9d3d 2e40 85bb
000001d0: 32bc b03d 29c4 cfbc 5390 003e 16ed cd3c
000001e0: ceed 9b3d 0d8f 4c3d 9f1b aa3d 12ce 933b
000001f0: 7afd 86bc 5c08 9f3d 39cb 2fbc 47a0 ebba
00000200: 6d7d 883d 908a 2e3c 15d2 4c3d 4adb 533d
00000210: 2c17 fd3c 8002 2c3e 6381 c03c 1ce0 a7bc
00000220: f2ce 2c3d ace0 c73b ba94 763d 4a9f b93d
00000230: 0a60 423d 41b7 913a 4962 2f3d 95da 5ebc
00000240: f475 55ba a10a 7cbd e43b 84bc fc99 313d
00000250: 6585 b5bd 8fd6 48bd 5c11 89bc 71c4 31bd
00000260: 7423 6dbd 3711 083d 5052 6dbd 6c8f 43bb
00000270: 4907 33be dcf7 72bd 8670 8cbd 6fab 7ebd
00000280: f188 5dbd 7d3e bf3c b976 55bd 3b35 803d
00000290: 57ef 1dbc aea3 89bd f301 07bd f133 17bd
000002a0: af84 0bbd 14da 0ebd 5048 193c cdbe 58bd
000002b0: 31c2 37be c610 aebd b568 1abd 1aa9 2fbd
000002c0: 9ca3 cbbc fa3f 8cbd 18a5 a2bc 4f01 db3b
000002d0: 845e bebd a3bc 133c 74f2 30bd 0b7c 62bd
000002e0: 60a9 9ebd 4a4f 6dbd d183 6db9 917c 22bc
000002f0: 4cff 36be 94d3 3bbd 635a b9bd f0df 9ebd
00000300: 0632 063c b662 093d db3c 113d 2240 003d
00000310: f975 07bc bf93 43be 2dc1 483d 423f 2abe
00000320: 4884 97bd be99 6dbc 7809 41bb 3e6b 7dbd
00000330: 348f 38bd ef14 d0bd 354f 33be b938 68bd
00000340: f4cf 2ebe 4d03 443d 1bf4 613c 5fd4 edbd
00000350: 3910 91bd 3772 6b3d 356f e8bb 8069 01be
00000360: 560a c9bd de7f 80bd ccba 9b3d 5904 edbd
00000370: 8cee 36be e3df fdbd 0665 013d 457d 57bd
00000380: db4d d1bd e40f 103d 0068 e1bd 06d1 88ba
00000390: 768e 54be f6ef 2abe ff4b b5bd 4fb0 e0bd
000003a0: bff8 263d 7a13 f3bd 3ac5 e5bd 212b 1bbe
000003b0: 5793 ecbd 0a0a acbd 9a04 d7bd 822a 0fbe
0.071441635 0.053664096 -0.006146307 -0.17154454 -0.19826356 -0.133405 0.05009525 -0.03907557
0.07681735 0.053604916 -0.023343325 -0.003257688 -0.07126183 -0.0072619882 -0.14012167 -0.14284351
-0.18523729 -0.023103107 -0.12027087 0.0272736 0.06275016 -0.08122808 -0.1777045 -0.09420258
-0.13045791 -0.040365767 0.05432549 0.05433316 -0.09029434 -0.06476343 -0.11796322 -0.100896016
-0.12498826 -0.13632235 -0.057378035 -0.16307896 -0.12001675 -0.027146336 -0.1715144 0.029438697
-0.1433869 -0.00487983 -0.16428673 -0.031046823 0.083710045 -0.11663384 -0.0539657 -0.040682197
-0.08474905 -0.0328384 0.06380839 -0.071350485 0.09830034 0.0909814 -0.1384664 -0.0895841
-0.0075095105 -0.02269855 -0.13735923 -0.06670699 -0.09351404 -0.033285804 -0.15363228 -0.109985456
-0.040525634 -0.059294384 0.056474723 0.007956405 -0.10753502 -0.12521257 -0.041930154 0.101352714
-0.1056932 -0.10310875 0.035352334 -0.0021815584 -0.058287766 -0.1272789 0.09493241 -0.038632795
-0.038969073 0.08479624 -0.058566343 0.005993536 -0.13790986 -0.16568086 -0.0024349177 0.0835123
-0.17164907 -0.06948181 0.023376219 0.010630969 0.09399695 -0.045262724 -0.106389806 0.019848337
0.057972904 0.070538975 0.046140287 -0.010949369 0.026485603 0.02681013 0.0511451 0.06381447
0.03162427 0.12926899 0.038036052 0.006389996 0.027200151 -0.037432738 0.0704197 -0.021465227
0.0037860929 0.074313305 0.07703585 -0.0040664887 0.086296454 -0.025362091 0.12555055 0.025137465
0.07613717 0.04994111 0.083060496 0.0045106495 -0.016478289 0.07765266 -0.010729604 -0.0017976844
0.06664548 0.010653153 0.050005037 0.051722802 0.030894838 0.16797829 0.023499196 -0.020492606
0.042189546 0.006099781 0.06020043 0.09063585 0.04745487 0.0011117236 0.04281834 -0.013601919
-0.00081428816 -0.061533574 -0.01614184 0.04335974 -0.088633336 -0.049032744 -0.01673191 -0.04340023
-0.05789514 0.033219542 -0.057939827 -0.0029840125 -0.17483248 -0.05931841 -0.068574 -0.06217521
-0.054085676 0.023345226 -0.052115176 0.06260153 -0.009639583 -0.067206725 -0.032960843 -0.03691477
-0.034062084 -0.034875944 0.00935562 -0.052916337 -0.17945172 -0.08499293 -0.037697513 -0.042885877
-0.024858288 -0.0684814 -0.019854113 0.0066835056 -0.09295371 0.0090171425 -0.04319997 -0.055294078
-0.077471495 -0.057936944 -0.00022651187 -0.009917394 -0.17870826 -0.045856073 -0.09050443 -0.077575564
0.008190637 0.033541404 0.035458427 0.03131116 -0.008267873 -0.1909933 0.04901235 -0.16625693
-0.073982775 -0.014501987 -0.0029455107 -0.061869852 -0.045058444 -0.10160243 -0.17510684 -0.05669472
-0.17071515 0.04785471 0.013791109 -0.11612772 -0.07083172 0.05748197 -0.007093335 -0.12637901
-0.098164245 -0.06274389 0.07603988 -0.11573095 -0.17864436 -0.12396219 0.031590484 -0.0526097
-0.10219928 0.035171404 -0.110061646 -0.001043827 -0.2075747 -0.166931 -0.08852386 -0.10971128
0.040764567 -0.11868949 -0.112192586 -0.15153171 -0.1155154 -0.08400352 -0.104989246 -0.13981059

conv1.bias f4 [5]
00000000: 67fb 27be e804 2cbe 8717 54bd 90e1 a93e
00000010: 8b4f 98bd
-0.16404496 -0.16798747 -0.05178025 0.33179903 -0.074370466

conv2.weight f4 [8, 5, 4, 4]
00000000: 99a5 b0bd 674e a1bd dd63 093e c86a f03d
00000010: 01e3 833d b304 533d 0651 7b3d 01ae 0c3d
00000020: 3691 66bc 9212 f1bc 9e97 df3a 72be 0a3d
00000030: 9149 8abd 587b 4cba ad56 66bd d81b 0f3d
00000040: ed42 a9bd c97f 873c 08a1 91bc 1363 eebd
00000050: 6656 a0bd fbc6 c2bd 67e1 27be dd46 cabd
00000060: 2e9f 25bd 69c3 97bd f1b9 1abe 7ba4 d83c
00000070: 4057 efbd 93c3 bdbd d751 eebc 85e2 c4bd
00000080: e9e2 2abd 0634 47bd b859 e1bc f252 66bd
00000090: e91f bdbd c5e7 d9bc 1a63 e4bd 8ca5 6ebe
000000a0: d8d5 a4bc 629a 86bd bcaf fbbd b2db 80bd
000000b0: d2f5 16be 6208 b53c 9ef1 34be 6fb8 22bd
000000c0: fa85 60bd d29c 28bd 4ca4 19bc d276 27be
000000d0: 2373 be3c 8967 28bb c97e d2bc 9490 dfbd
000000e0: ad1f d7bd 3ceb f7bd 20ec e7bd bd0b 0b3d
000000f0: 23da 09be 1947 d7bc c3f7 78bd 4d29 04bd
00000100: dd06 f0bd 0e71 8fbd 986f cabd 3f16 e2bd
00000110: 79f1 343d c5e5 dfbd 041a bbbb 4016 7b3d
00000120: 2134 11bd fd6b dc3d 104f 053e 2def 693c
00000130: dd92 c8ba 150e 933c ee11 283e cf32 ed3d
00000140: 669c 3b3d 2c5c 0cbe 035b 27bd 3c58 0fbe
00000150: 8178 a2bd c07d b83c 4544 02be b8ef 02be
00000160: 97cb e83d f9af 9f3d b0f8 49bc 0224 b43c
00000170: 3e8d de3d 3d45 783c d588 183e 8018 3e3d
00000180: 526c 16bd ed7d 533c 4a55 843c e0d8 863d
00000190: ae46 2c3c e8b3 55bd 22c3 1f3d 4ad9 0c3d
000001a0: 0b7d 71bd ab23 8e3d 22c5 953d a158 b1bd
000001b0: 1de3 18be 53e4 aabd 7c9f 07be 815a 8fbc
000001c0: 8709 7dbc b9c3 c63b 4aff 3abc e80c 3ebb
000001d0: e787 82bb ce9c d33c f5d0 303c 75bb 89bc
000001e0: 6655 543d fb2d f9be 4108 cf3c 65f6 3f3c
000001f0: 2ead 6bbd 1e9c 853c a6ee faba baf6 a7bc
00000200: 30f0 80bc 2f06 193c f4e5 093b ebf2 fabc
00000210: 66df 8f3b c886 263e 9d11 d73d 57fe b7bc
00000220: 1f14 193e d23e 7cbd bb8c 0b3e 5f91 a63c
00000230: 92e7 41bd bb1f 3a3e f1a0 0fbd 1cce eebb
00000240: 97cc 7c3c 82c9 9fbd cf84 09bd 1da9 78bd
00000250: 9556 8a3c 0428 d83d 2f73 8639 88b5 ec3d
00000260: 898c 02be e4e4 2dbc 3834 f93d 8200 033e
00000270: 760e 4a3b f051 97bd f5d7 f6bd 54d9 fdbd
00000280: 01e2 eabd 6c19 483d 76fd 423b ca0c f13c
00000290: 5755 fbbc 690a 1abe cbec 5bbd 1619 57bd
000002a0: 02fb 2bbe 2835 fcbc 206a 63bd 8bb2 e8bd
000002b0: 8bcc 383d a618 8dbc 6408 f13b 275f 9cbd
000002c0: 0752 f0bc 72d5 18be d8e3 563d 3373 f63c
000002d0: a648 6bbd b698 7ebd 76c9 86bc 0cef 523c
000002e0: 29c9 f6bd 22d5 cdbd b999 4e3d 7746 7e3c
000002f0: 2d05 4dbb 9b11 9dbd 4795 0cbe 5b80 8fbc
00000300: 64c6 0abe 383c 07be b2de 34be f6ff 28bd
00000310: 967c 2e3c 1ae4 3abd 5c86 24bd b252 30be
00000320: 3138 9b3c cc06 c1bc feaa 56bd d556 11bd
00000330: f614 80bb 3cac d5bd dc8e ccbd 8986 8bbd
00000340: 6c22 ebbc 0aff 0c3e b437 7abd 3a52 03be
00000350: b126 98bc d0d6 1bbd cd46 4fbd 2a64 01bd
00000360: 306f eb3c e418 65bd 78d3 ffbc 1a98 b5bc
00000370: 2033 b5bd d1eb 1fbc 807d 50bd f0f8 0bbe
00000380: cb4a 07be 5dab 52bd 15b1 ffbd 97b5 30bd
00000390: f313 d6bd 6081 12be 8d6b 3abe ff34 b8bd
000003a0: 8a87 f9bd a91d ccbd 9e22 eabd 5b84 123c
000003b0: d9d9 05be ab6c 29bd 6276 a2bd 8c25 b8bd
000003c0: fc78 ed3c 95e4 db3c 263f 19bd 920b 82bc
000003d0: ad7a 11be 6306 573d 54eb e4bd d651 793d
000003e0: 6bc3 64bb 76ef 083e 7a39 3c3d 6a89 113e
000003f0: 4b05 283c d12b b1bb 0be0 d13d 5022 c63d
-0.08625335 -0.07876282 0.13417001 0.11739117 0.06439782 0.051518153 0.061356567 0.03434563
-0.014072707 -0.0294278 0.0017058735 0.03387303 -0.06752313 -0.0007800362 -0.056235004 0.034938663
-0.08264718 0.016540425 -0.017776981 -0.11639991 -0.07828979 -0.09510609 -0.16394578 -0.09876797
-0.04043501 -0.074103184 -0.15109994 0.026445618 -0.116865635 -0.092658184 -0.029091759 -0.09613518
-0.041720305 -0.048633598 -0.027508602 -0.056231447 -0.09234602 -0.026599774 -0.111517146 -0.23305339
-0.0201215 -0.06572415 -0.12289378 -0.062919036 -0.1474221 0.022098724 -0.17670295 -0.03972667
-0.05481527 -0.04116518 -0.00937755 -0.1635392 0.02324826 -0.0025696477 -0.025695221 -0.10916248
-0.105040886 -0.12105414 -0.11324334 0.03394674 -0.13462119 -0.02627902 -0.06078316 -0.03226595
-0.11720059 -0.07003985 -0.09884566 -0.11039399 0.0441756 -0.10932497 -0.0057098884 0.061300516
-0.035450105 0.10762785 0.13018441 0.014278215 -0.0015302558 0.01795105 0.1641309 0.115819566
0.04580345 -0.13707036 -0.04085828 -0.13998502 -0.079331405 0.0225209 -0.12721355 -0.12786758
0.11366957 0.07797236 -0.012327358 0.021989826 0.108667836 0.015153226 0.14895947 0.046410084
-0.036724396 0.012908441 0.01615395 0.065843344 0.010514898 -0.052173525 0.039004453 0.03438691
-0.05895714 0.06940397 0.07312991 -0.08659483 -0.14930387 -0.08344331 -0.13244432 -0.01749921
-0.015444166 0.0060658124 -0.011413405 -0.0028999392 -0.003983486 0.025831606 0.010792007 -0.01681302
0.051839255 -0.48667893 0.02527249 0.01171646 -0.057538204 0.016309794 -0.0019144609 -0.02050339
-0.01573953 0.009339853 0.0021041604 -0.03063341 0.004390645 0.16262352 0.10501406 -0.022460146
0.14949082 -0.061583348 0.13627903 0.02033299 -0.047339983 0.18176167 -0.035065595 -0.0072877537
0.015429637 -0.078021064 -0.03357392 -0.060708154 0.016886989 0.105545074 0.0002564429 0.11558062
-0.12748922 -0.010613654 0.12168163 0.12793162 0.0030831373 -0.07388675 -0.12052909 -0.12394968
-0.11468888 0.04885237 0.0029753125 0.029425044 -0.030680342 -0.15043034 -0.05369262 -0.05251416
-0.1679497 -0.030787066 -0.05552113 -0.11362179 0.045116942 -0.017223667 0.0073557366 -0.07635336
-0.029335989 -0.14925173 0.052463382 0.030084228 -0.05744233 -0.062157355 -0.016453486 0.012874376
-0.12050087 -0.100504175 0.05043957 0.01551973 -0.0031283603 -0.076693736 -0.1372882 -0.01751726
-0.13552243 -0.13206565 -0.17663077 -0.04125973 0.010649821 -0.04562769 -0.040167198 -0.17219046
0.018947693 -0.023562811 -0.052409165 -0.0354832 -0.0039087487 -0.10433242 -0.09988186 -0.0681277
-0.028702937 0.13769165 -0.06108828 -0.12824336 -0.018573137 -0.038046658 -0.05060463 -0.031589665
0.028739542 -0.05593194 -0.031228766 -0.022167254 -0.08847642 -0.009760813 -0.050900936 -0.13669181
-0.13212125 -0.051432956 -0.124849476 -0.043141928 -0.10453024 -0.14307165 -0.1820509 -0.08994483
-0.12184055 -0.09966595 -0.11432384 0.008942689 -0.13071384 -0.0413634 -0.07932736 -0.089915365
0.028988354 0.026842395 -0.03741374 -0.015874658 -0.14206953 0.052496325 -0.11177698 0.06086906
-0.0034906517 0.13372597 0.04595325 0.14212576 0.010255168 -0.0054068347 0.10247811 0.09674513

conv2.bias f4 [8]
00000000: e1f0 4abd 074d 553f c70e 8abd 059d 07be
00000010: 94bf 0f3e 2e54 a4bd 79e8 afbd 8553 573f
-0.049546126 0.8332066 -0.067411 -0.13243492 0.14037925 -0.080238685 -0.085892625 0.84111816

conv3.weight f4 [10, 8, 4, 4]
00000000: 249c f43c 0b0d c5bd e99b 01be edb5 0dbd
00000010: b5e7 363c e80b 6cbd 0c14 6bbd 0e60 0d3c
00000020: 8396 9a3c c100 c7bd 0c26 71bc bd83 0abe
00000030: 6c1c a2bd 4485 0ebe a0a9 b13c 3203 debd
00000040: b94a 31bd ce4d 38bc d426 8dbc 1a9a 1cbe
00000050: 505a 77bd 2ac9 15be 5575 6b3c 6a99 10be
00000060: c44a 5fbd 9367 63bc 6b69 dfbd f7a8 84bd
00000070: 8a29 91bd 4b23 d4bd ca1f 1e3c a41b 0abe
00000080: 1013 83bd 69c2 0fbe 250c 9cbd 66e4 5dbd
00000090: 6585 12be 3f00 ffbd 5937 eebd 7650 94bd
000000a0: c484 5dbd f645 96bd d485 a5bd 41c1 40bd
000000b0: 3c43 babd d543 bcbd 3e31 0fbe ee6a adbd
000000c0: 1a96 44bd ad08 d6bd 2980 ddbc b04f 10be
000000d0: 4e4e 93bd b0b5 99bc 7fd3 f0bd 14ae 84bd
000000e0: 5aec 50bd 47fd c5bd 1e78 a53b fe80 05be
000000f0: a29a edbd a7c5 f2bc 281d 84bd 5938 c9bc
00000100: a72a 63bd 2216 f3bd 4e55 04be 0119 57bd
00000110: d9e0 ecbd 65a7 68bc 6910 abbd 517e 26be
00000120: 36a8 39bd 7e01 10be 0457 22be 4b07 14be
00000130: 0cdc 8f3c af40 32be 946e cdbc eaeb 09be
00000140: 9ce1 953c 1b89 9cbd 963f 87bd 8d17 dc3c
00000150: 9ba0 c7bd eb4e f0bc 6218 c13c 795c 91bc
00000160: aec2 38bd 6720 7ebc 3d00 6fbd c6b8 b33c
00000170: 6644 aebd c523 d8bd 444c 9bbd 88dc cfbd
00000180: 2abc c3bd c6e2 c63c be9c 8bbd 488f 20bc
00000190: fc38 bc3c a2ae 00be 71f6 c7bd 8c8f e3bc
000001a0: 8268 39bd 6647 72bd dd94 05be 00e5 0fbe
000001b0: 4ef0 b73c 42ce 11bd c4ae 1fbd de77 bdbd
000001c0: da40 093d 7a4b 543b 90da f6bd a251 85bd
000001d0: 7a76 d8bd 532e d7bd 2d9a bd3c 9475 9bbc
000001e0: 6d2a 10be 7b1c 1dbe d5b9 96bd 9a4a dd3c
000001f0: 90d6 b3bd da1b d3bc ec43 cfbd be63 02be
00000200: d147 f13b c443 c3bd ca05 d1bd a8b2 05be
00000210: cc8a a3bd 80d0 12be 0455 00be 1acc c2bb
00000220: 7c82 bbbd 9eec b9bd 30d7 f0bd a385 01be
00000230: 2d61 d5bd 4625 24bd 3c81 843b 841e e53c
00000240: 0b30 4ebc 1ba5 773c 6e30 ebbc 705c 47bd
00000250: 2652 ab3c 77e4 e3bd 1255 30bd 36aa 4dbd
00000260: acf8 0dbe 7d49 03bd e35e c4bd 0663 51bd
00000270: 9b2e 4abd 4875 7439 3de2 c9bd 3af3 f3bd
00000280: b5e8 82bc 0be2 6cbc 2c56 cdbc 13ae 8cbd
00000290: 819f eebc da69 bfbd 3c58 523c 590e eabc
000002a0: a890 853c 5168 14be f440 893c e414 52bd
000002b0: ced4 b4bd 76e4 f3bc a52f ae3b 6798 873b
000002c0: be61 0d3c 94c9 c13c 1b30 c7ba bff9 51bd
000002d0: 2059 babd 6871 543a 6444 afbd c9e7 a4bd
000002e0: 1d57 babd 4bea 8dbd 821e 0cbd ba28 b538
000002f0: 20bf b0bd 44b8 adbb 3d7c 783a f2d1 20bd
00000300: d2cc db3c 52fc 7c3c 23de 81bd 6397 ca3c
00000310: 1f02 743c ea09 d9bd a0f5 18bd b243 a33b
00000320: 04fc 92bd 2152 a1bd c4d7 b6bd 7d9e b4bc
00000330: eefd febd a9b7 0ebe 7176 56bd 5621 3fbd
00000340: d535 a9bd 22e3 92bd 77d8 76bd 3d33 3abd
00000350: 4049 8c3c 8539 19bb 8b03 f8bd bb33 39bd
00000360: 53d9 67bc 078b 17be 7d63 c93c 2925 e3bd
00000370: 9a67 81bd 49ff 88bd 9cd6 05be 1c39 fdbd
00000380: 334b a3bd c15a 6bbc e614 babc 57bd b6bd
00000390: 0fcf 593c 39d9 6a3c d63b 2abd 4864 d6bd
000003a0: a372 c9bb 7859 27bc ddc5 12be dca0 20bd
000003b0: 39b7 e8bc 80b8 08be 0109 35bd e946 81bd
000003c0: c592 c7bc 6df9 acbd 936a a1bd 5d01 88bb
000003d0: e02a a6bd 1812 aebd 0ab5 16bb 98ba ebbc
000003e0: 7791 cebd 105f a9bd 2b4f d0bd 7f72 acbd
000003f0: e63f 6f3d 2d7a e7bb 4734 0b3e 35a2 b43d
0.02985961 -0.096216284 -0.12657131 -0.034597326 0.011163642 -0.057628542 -0.057392165 0.008628858
0.018870598 -0.09716941 -0.014718544 -0.13526817 -0.07915577 -0.13918024 0.021687329 -0.10840453
-0.04328415 -0.011249019 -0.017230429 -0.1529316 -0.060388863 -0.14627519 0.014371236 -0.14121023
-0.05451466 -0.0138796745 -0.10908779 -0.0647754 -0.07088001 -0.10358294 0.009651134 -0.13487107
-0.0640012 -0.14039005 -0.07619504 -0.054172896 -0.14308698 -0.12451219 -0.116316505 -0.07241909
-0.054081693 -0.07337563 -0.08082166 -0.0470593 -0.09094855 -0.091926254 -0.13983628 -0.08467661
-0.04799471 -0.104508735 -0.02703865 -0.14092898 -0.0719267 -0.018763393 -0.1175909 -0.06478515
-0.051006652 -0.096674494 0.0050497195 -0.13037488 -0.116017595 -0.029635264 -0.064508736 -0.024563001
-0.0554606 -0.11869456 -0.12923166 -0.05251408 -0.11566324 -0.014200066 -0.08352739 -0.16259123
-0.045326434 -0.14063069 -0.15853506 -0.14455907 0.017560981 -0.17407487 -0.025077142 -0.134689
0.018296055 -0.07643338 -0.06603925 0.026866699 -0.0974743 -0.029334506 0.023571197 -0.01774429
-0.045107536 -0.015510655 -0.058349837 0.021938693 -0.0850914 -0.105536975 -0.07582906 -0.10149485
-0.09557374 0.024278056 -0.068170056 -0.009799786 0.022976391 -0.12566617 -0.09763802 -0.02777841
-0.045265682 -0.059150122 -0.13045068 -0.140522 0.022453453 -0.035597093 -0.03898503 -0.092513785
0.033509113 0.003239362 -0.12053406 -0.06509711 -0.105694726 -0.105068825 0.023144806 -0.018976964
-0.14078684 -0.15342896 -0.073596634 0.027013112 -0.08781159 -0.025770117 -0.10120377 -0.12733361
0.0073632975 -0.0953441 -0.10206182 -0.13056433 -0.07985458 -0.14337349 -0.12532431 -0.005944741
-0.09155747 -0.09078334 -0.11759794 -0.12648635 -0.104189254 -0.04007461 0.0040437263 0.027968653
-0.0125846965 0.015115048 -0.028709617 -0.04867214 0.020913195 -0.111275606 -0.04304988 -0.050211154
-0.13864392 -0.032052506 -0.09588411 -0.051119827 -0.049360853 0.00023313344 -0.09857605 -0.11911626
-0.015980104 -0.01445819 -0.025065504 -0.068691395 -0.029128792 -0.093463615 0.0128384195 -0.028571295
0.016304329 -0.14492919 0.016754605 -0.051289454 -0.08829652 -0.029772025 0.0053157383 0.004138041
0.008629261 0.02365569 -0.0015196832 -0.051263567 -0.090990305 0.0008104057 -0.08557966 -0.08052022
-0.09098647 -0.069294535 -0.034208782 8.6383385e-05 -0.08630204 -0.005301507 0.0009478962 -0.03926272
0.026831064 0.015441017 -0.06341197 0.02473039 0.014893084 -0.10597594 -0.03734362 0.004982435
-0.071769744 -0.07876993 -0.08927873 -0.02204823 -0.12450777 -0.13937248 -0.05235905 -0.04666265
-0.08262221 -0.071722284 -0.06026503 -0.04545902 0.017124772 -0.0023380232 -0.12110051 -0.04521535
-0.014150935 -0.14799128 0.024583573 -0.11091072 -0.063185886 -0.06689317 -0.13070148 -0.123644084
-0.079733275 -0.014364899 -0.022715043 -0.089228325 0.0132939955 0.0143340165 -0.04156097 -0.10468346
-0.006147699 -0.010214202 -0.14333291 -0.039215907 -0.02840768 -0.13351631 -0.04419804 -0.06312353
-0.024361977 -0.08446012 -0.078816555 -0.004150553 -0.081136465 -0.08499545 -0.0022996091 -0.028775498
-0.10086339 -0.08270085 -0.1017135 -0.08420276 0.058410548 -0.007064125 0.13594161 0.08820001

conv3.bias f4 [10]
00000000: da93 98bd cf38 15bd 6133 67bd 475a abbc
00000010: 2fee fa3c 1de6 afbe b932 1b3c 03a0 cabd
00000020: fd4a f43d 80b4 dcbe
-0.074500754 -0.03643113 -0.056445483 -0.020917071 0.030631153 -0.3435525 0.009472542 -0.09893801
0.119283654 -0.4310646

t_conv1.weight f4 [10, 8, 6, 6]
00000000: fb95 8dbd cc6d 133c cd44 9ebd 3676 af3c
00000010: 9eab 4abd f669 c83c a29f 3bbd 237c 08bd
00000020: 19ef 103d c587 38bd 1d0e 143d 2894 6dbd
00000030: 362b 6fbd 00c0 c4b6 c315 5fbd cbc6 023d
00000040: 492f 27bd b402 65bd d029 e5bb 4049 9dbd
00000050: d820 87bb 4ede f1bc 0806 12bc 2eed 9cbc
00000060: 1ea7 f3bc e8e7 15bd ff9d b6bd 80af 59bd
00000070: a5bf 14bd 0627 d63c 00f9 4fbd b4b6 3dbd
00000080: 0fc8 f6bc 40f6 7ebd e058 b2bb 027d 8bbd
00000090: b842 96bb e1e3 373d ad72 d13b 866a 8c3d
000000a0: ecdd 7ebd 19a9 aa3d 783b e03c 0485 803b
000000b0: ee66 653d 6d4c 803d 399f 553d 51ee a93d
000000c0: e04f 32bb 654c 6d3d 53aa 3a3d 2aed 9b3d
000000d0: 714b 3b3d fb97 013d c02c 5abd 6317 453d
000000e0: 8479 5e3c cad3 b13d 6ada b23c 579a 933d
000000f0: 3796 123d bea8 533d d1fd 3a3d aa14 4f3d
00000100: fba4 3abd a506 0d3d af0b 6abd 58fe 1c3c
00000110: 8c18 38bd 2c3c 123d 186e 01bd c026 b2bb
00000120: 5313 983d f564 863d 29ca 5b3d 01c6 ef3b
00000130: 349e 6c3d cb21 b13c b45a 963d 5021 d63d
00000140: 43fd 403d 3299 cd3d edb5 ed3d 1298 d23d
00000150: e694 253d 3bac 3f3d 26cc 603d 0ff6 1abd
00000160: 85f5 ccbc 986b dabc a706 cfbd a239 d4bc
00000170: d40c 4ebd 90d4 453b 56ee 7fbc ce26 e73b
00000180: ff19 cdbd f3ad 3ebc e8a5 4bbd f684 9ebd
00000190: 8704 f6bc 9473 f939 da19 6b3d 7b8a 853d
000001a0: 59fb 453c d321 173d 8183 62bd 8530 81bc
000001b0: 8c71 183c ab79 1a3d 44ce 7bbc 571f 453b
000001c0: 87fa eebc ce8e 8cbc d509 d3bc c002 5e3b
000001d0: fcc4 fb3c 5cf7 95bc d37b a23c 047f 85bc
000001e0: b1a1 343d 00ec 3fb8 544d 21bc b686 14bd
000001f0: 416d 313d a4d5 34bd 8651 fa3c a49b e8bc
00000200: ea9f 883c 4090 1d3a 7eb9 20bd 81ee 6a3d
00000210: 4112 2a3d 1be0 6d3d 84b3 08bd 08a6 44bd
00000220: d0fb c8bc d294 b63c dcd9 303c ba19 9cbc
00000230: 20f7 81bc dc90 0f3c f08b 003b 4f80 5b3d
00000240: e6a4 fd3c 080e fcbb b1f0 0abd e6f1 91bd
00000250: f896 7e3b d862 eb3b bba0 6fbd 2f35 5ebd
00000260: 287e 5bbc 6c27 e5bc 0893 05bc 8f4b a439
00000270: 2271 76bc 5669 ad3c cded 84bd 15bc 2bbd
00000280: 44e8 46bc 22f9 8b3c e88d aabb 31a0 d1bd
00000290: e1fe f2bc 5738 c2bd e39e 3dbd 0ed5 6bbd
000002a0: 5d9e 70bd ca0f 04bd 58f4 93bd a55e ec3c
000002b0: 02b4 19bd bf9a 66bd 53a9 263d cc20 c9ba
000002c0: 521b b7bc 384a dabc 15f1 483d a451 50bd
000002d0: 7fc2 96bd 78c4 8cbc 69e0 a9bd 29f6 58bc
000002e0: 7d7c d0bd 0878 75bd 5d67 a7bd 3f5b e1bc
000002f0: 1954 23bd fc94 acbd 4fd3 10bd 2724 68bd
00000300: d101 18bc 6c1a 3fbd a2cc b7bc dda5 b5bd
00000310: e9cd 41bd 7fcf a4bc fb98 b5bd e96f 9e3b
00000320: a2f0 98bd 1ef4 9fbc a006 1cbd 3f4c 5cbd
00000330: ae79 6abb a291 42bd 7b87 1fbd e335 96bd
00000340: cf42 d1bd 7f86 f0bc ec5e 7cbd 8c5f a7bd
00000350: e03c 64bd 1785 25bc 20ea cabd bc42 a13c
00000360: 5cb6 11bd 71bd 503d 98ff 803b 0f4e 61bd
00000370: 63e1 703d 170e fdbc 2262 3cbd 7f49 4a3d
00000380: fcf0 20bc 849d 72bc ae98 61bd b0c0 69bd
00000390: f3bf 35bd 15f6 633d 6b60 293d 0842 9b3b
000003a0: 0d32 70bd 88ca 52bc ec81 2b3c b095 17bb
000003b0: a421 2c3c cf1c 713d 480f a4bc fa92 b6bc
000003c0: 106b 6abd 3c94 52bc 4f0a 52bd d4b5 3b3c
000003d0: 3474 8bbc 0011 dd39 480c 87bc 889c ae3b
000003e0: 079e 4fbd 4f89 063d 745e c7bc 9018 753b
000003f0: a9f2 2f3d 14b4 48bd d11d 483d 900a 483b
-0.06913372 0.008998346 -0.077279665 0.021418672 -0.049480073 0.024464589 -0.045806535 -0.03332151
0.03538427 -0.045051355 0.036146272 -0.05800262 -0.05839082 -5.863607e-06 -0.054464113 0.031927865
-0.04081658 -0.05591078 -0.00699351 -0.07679987 -0.0041237883 -0.029524948 -0.008912571 -0.019156065
-0.029742774 -0.036598116 -0.08916854 -0.053145885 -0.03631558 0.026141655 -0.050774574 -0.046316817
-0.030124692 -0.06224656 -0.0054427236 -0.06810953 -0.00458559 0.044895057 0.0063918442 0.06856255
-0.06222336 0.08333034 0.027372107 0.0039221067 0.056006365 0.06264577 0.0521538 0.08297408
-0.0027208254 0.057934184 0.04557259 0.07613595 0.045726243 0.03163908 -0.053265333 0.048118006
0.013578776 0.08682974 0.021832664 0.07207172 0.035787787 0.051674597 0.045652214 0.050556816
-0.045567494 0.034430165 -0.05714005 0.009582125 -0.044945285 0.035701916 -0.031599134 -0.0054367483
0.07425561 0.06562225 0.05365959 0.007317305 0.05776806 0.021622559 0.07341519 0.104555726
0.04711653 0.10038985 0.11606965 0.10282911 0.040425204 0.04679511 0.05488219 -0.037832316
-0.025019417 -0.026662633 -0.10108691 -0.025906388 -0.050305203 0.0030186512 -0.015620789 0.0070541864
-0.10014724 -0.011638152 -0.049718767 -0.07740204 -0.030031456 0.00047579093 0.0573977 0.06520554
0.012083852 0.03689749 -0.055301193 -0.015770206 0.009304415 0.037713688 -0.015369002 0.0030078494
-0.029172195 -0.017157938 -0.025761524 0.003387615 0.030733578 -0.018306427 0.019834435 -0.016295917
0.044099513 -4.575774e-05 -0.009845097 -0.036261283 0.043317083 -0.044149056 0.030556452 -0.028394528
0.016677815 0.00060105696 -0.0392394 0.05735636 0.041521315 0.05807505 -0.033374324 -0.048009902
-0.024534136 0.02228776 0.010794129 -0.019055236 -0.015864909 0.0087625645 0.001961466 0.05358916
0.030962419 -0.0076921023 -0.033920947 -0.071262166 0.0038847309 0.007183414 -0.058502894 -0.05424994
-0.013396777 -0.0279729 -0.008152731 0.00031336813 -0.015041621 0.021168392 -0.064906694 -0.041927416
-0.012140337 0.01708657 -0.005204905 -0.10235632 -0.029662551 -0.09483402 -0.046294104 -0.05757623
-0.058744777 -0.03224162 -0.07224339 0.028853724 -0.037525184 -0.05629992 0.040688824 -0.0015344857
-0.022351895 -0.026646718 0.04905804 -0.05085911 -0.07361316 -0.017183527 -0.08294756 -0.013242283
-0.10179994 -0.059928924 -0.08174012 -0.02750933 -0.039875124 -0.08426854 -0.03535777 -0.056675103
-0.009277777 -0.046656057 -0.022436444 -0.088695265 -0.04731551 -0.020118473 -0.08867069 0.004835118
-0.07467772 -0.019525584 -0.038092256 -0.05378365 -0.0035778093 -0.047502168 -0.038947564 -0.07334497
-0.10217821 -0.029361008 -0.061613962 -0.08172521 -0.055722117 -0.010102532 -0.09907937 0.019685142
-0.035574302 0.050961915 0.003936719 -0.055006083 0.058808696 -0.030890508 -0.045992024 0.049386498
-0.00982308 -0.014808062 -0.055077247 -0.057068527 -0.04437251 0.055654604 0.041351717 0.004738096
-0.058641482 -0.01286567 0.0104679875 -0.0023129992 0.010506067 0.058865365 -0.020026818 -0.02228688
-0.05723101 -0.012852725 -0.051279362 0.011456925 -0.017023183 0.0004216507 -0.016485348 0.0053287186
-0.050687816 0.03284579 -0.024337031 0.0037398674 0.042956028 -0.04899986 0.04885656 0.0030523874

t_conv1.bias f4 [8]
00000000: 8ee6 c6be 5798 aebd 0932 b1bd f771 1cbe
00000010: 6609 11bc 5654 ab3e 801e cfbd 2e8b 39bd
-0.38847774 -0.0852515 -0.086521216 -0.15277849 -0.008852338 0.3346278 -0.10113239 -0.045298748

t_conv2.weight f4 [8, 5, 6, 6]
00000000: f860 4abd 2b5f 9bbc 9c29 113d b77a b8bd
00000010: 0853 b4bc 2be6 c03c a3f2 7dbd a092 423b
00000020: efcb cfbc b2af 5dbd 2607 843b c0b6 fd3b
00000030: 98c6 3dbc 4ca0 bcbd 85a1 5fbd 7640 44bc
00000040: b4a4 96bd f1db 55bd 3918 c83b 0e07 b2bc
00000050: ae94 173d def8 713d 96a0 b93c e0ac 6ebd
00000060: caf2 e7bc 8f39 cbbd b4f5 e8bc b32a d2bd
00000070: 142f 97bc bcb5 093b d802 44bd f09b 003d
00000080: f2f6 1dbd 009a 46b9 6d03 623d fe2c 7f3d
00000090: 2603 923e 79c3 573e d8e0 9e3e 4615 4f3e
000000a0: e83a a53e 42ce 7c3e cd2b 373e 061d 533e
000000b0: a625 6a3e 56b9 903e 4cc0 653e 96b9 9f3e
000000c0: 6d5b 8c3e 4859 443e c4f9 8b3e b633 913e
000000d0: 39d8 763e f3b6 523e f5f0 9f3e fbfa 903e
000000e0: fb08 453e 4fce 5f3e e4dc 793e d5f4 5f3e
000000f0: 7406 783e 451d 963e 9d19 903e fa8e 9f3e
00000100: 7a82 9b3e 8640 633e 0e77 833e a8c8 8a3e
00000110: 1f60 933e c4a0 9c3e 1fdd 673e 59c2 853e
00000120: 073d 75be 7170 3ebe e90b 95be 0dea 57be
00000130: e7ef 71be 7326 89be dc80 a2be b893 46be
00000140: aec5 45be 2eeb 93be 381e 78be 182e 3dbe
00000150: 02b3 87be a931 8dbe beca 92be 5412 6bbe
00000160: 9417 a1be 3454 9cbe 3929 88be 1149 57be
00000170: e89e 41be 9cc8 91be d98d 7dbe 2703 66be
00000180: 9627 8dbe f297 72be a623 75be 1383 a8be
00000190: 11c1 a4be dd4c 40be 9b16 3fbe d8ab 53be
000001a0: d808 95be 7802 85be 9d6b 97be 8056 44be
000001b0: ea8f a93e cb25 8d3e e058 8e3e 439f 823e
000001c0: 27e8 803e b6af 9a3e f5e7 633e c484 3d3e
000001d0: ff9b 903e f954 5a3e 043d 923e 5991 a93e
000001e0: d883 a83e 0009 943e 0391 883e 3db3 533e
000001f0: df93 a33e 837c 833e f022 8d3e cc04 963e
00000200: 0f3b a53e 0c68 893e 902c 893e 678b 4f3e
00000210: 7437 8a3e 6376 513e 7a5b 673e 1694 553e
00000220: c597 8c3e b75e ad3e 5a83 9a3e 790a e33e
00000230: fa1f 9e3e deed ab3e faf5 da3e bf44 cd3e
00000240: bc51 c7bd b2ad e8bd 910d 7abd 22d3 d0bd
00000250: 3210 87bd c4ad efbd 812f 81bc 014d 10bc
00000260: 0124 debd 31fb fabc 1a3f b9bd ce9e 4c3c
00000270: 2043 c9bd 3096 41bc 4363 71bd c5d4 b3bd
00000280: b0bb efbd 409c 9abd aae9 9fbd ed80 1fbd
00000290: 3b0a 7ebd ab6d b7bd ec36 2e3c fec8 3c3c
000002a0: 76b3 6dbc d4b0 c6bd 63ed bbb9 ba35 35bd
000002b0: 8e50 91bb c123 0cbd a77e 76bd 2fd3 50ba
000002c0: 57ff aebc e19b 00be 793e dfbd f66a aebd
000002d0: 4036 58bd 3202 2fbd ebce 28bd 788e fabc
000002e0: 0e98 93bc 1785 30bd 5b96 a4bc ab4b 0bbd
000002f0: 72e0 62bd 654d 8fbd 5d56 abbc 0252 87bc
00000300: 5429 013d ee9b 28bd 44cc d63c d844 4d3c
00000310: 1092 49bd 1b1f 8b3d d268 49bc 85bc 69bd
00000320: 24e7 193d c00a aa3b 0b72 9b3c d89b 8dbd
00000330: 5458 cd3a f61c 57bd 2223 a9bd 00b6 df3a
00000340: 0a3d 87bc 3976 923d c4fe b23d 8056 2c3d
00000350: 9372 a7bb 2131 8cbd 951e 203d 6497 813c
00000360: 40c2 8e3d 71be 81bd 6931 453d 22f5 b8bd
00000370: 5bc7 c9bc c68b 4cbd c1e0 69bd 053b a13c
00000380: 47fb 3ebd a819 c4bd 5e9f 7fbd 5989 3bbd
00000390: 9d1f 423c 5b9e b93d bd1d d5ba e30b 2d3d
000003a0: 1cbb 3abd cbac d5ba 31b4 6e3c 2237 fb3c
000003b0: eae0 9e3c 2b10 d73d 691a c03a 5687 6ebd
000003c0: 5e22 e53c 6d63 f03d de4b d23c b5ef 1f3d
000003d0: d477 103d 77ac 5b3d a7f7 f53d 7487 313d
000003e0: 7575 2b3d 9779 773d 5058 033d 677d 0e3d
000003f0: 432a dabd 6321 7d3c bae6 e03c d8b2 8abd
-0.049408883 -0.018966278 0.035440072 -0.09007781 -0.022012249 0.023547253 -0.061998975 0.0029689446
-0.025365798 -0.054122634 0.0040291725 0.0077427328 -0.011582993 -0.09210262 -0.054597396 -0.011978259
-0.073556334 -0.052211706 0.006106403 -0.02173188 0.037007026 0.05907523 0.022659581 -0.058270335
-0.028314013 -0.09923088 -0.028437473 -0.102620505 -0.018455066 0.0021012863 -0.047854275 0.031398714
-0.038565584 -0.00018940121 0.05517905 0.062298767 0.28518027 0.2107066 0.31030917 0.20222959
0.32271504 0.24688056 0.17887802 0.2061654 0.22865924 0.282664 0.22436637 0.31196278
0.27413502 0.19174683 0.27338994 0.28359765 0.2410592 0.20577602 0.31238523 0.28316483
0.19241707 0.21856044 0.2440067 0.2187074 0.24221212 0.29319206 0.2814454 0.3116377
0.30372983 0.22192582 0.2567677 0.27106214 0.28784272 0.30591404 0.22642945 0.26124838
-0.23949061 -0.1859758 -0.2911065 -0.21085377 -0.23626672 -0.26787147 -0.31738937 -0.19392288
-0.1931369 -0.28890365 -0.24230278 -0.18474615 -0.2650376 -0.2757695 -0.28670305 -0.2295621
-0.314633 -0.30532992 -0.2659395 -0.21023966 -0.18908274 -0.28473365 -0.24761142 -0.2246214
-0.27569264 -0.23690775 -0.2393938 -0.32912502 -0.32178548 -0.18779321 -0.18660967 -0.20671022
-0.2910831 -0.25978446 -0.2957429 -0.19173622 0.3311761 0.27567896 0.2780218 0.25512132
0.25177118 0.30212182 0.22256453 0.18507677 0.28244016 0.21321477 0.28562176 0.33118704
0.3291309 0.28913116 0.26673135 0.20673843 0.31948754 0.25680932 0.27565718 0.29300535
0.3227162 0.26837194 0.2679181 0.20268022 0.26995432 0.20455317 0.2259349 0.20857272
0.2745954 0.33861324 0.30178338 0.44343928 0.3088377 0.33579916 0.4276579 0.40091512
-0.097323865 -0.11361255 -0.061048094 -0.101965204 -0.06594886 -0.11703065 -0.015769722 -0.008807422
-0.10846711 -0.030637356 -0.09045239 0.012489034 -0.09827256 -0.011815593 -0.058932554 -0.08780817
-0.117057204 -0.075493336 -0.0780824 -0.038941313 -0.062021475 -0.089564644 0.010633212 0.01152253
-0.014508119 -0.09701696 -0.00035844286 -0.04424069 -0.0044346517 -0.034213785 -0.06017938 -0.0007966039
-0.02136199 -0.12559463 -0.109005876 -0.08516495 -0.05278611 -0.042726703 -0.041212957 -0.030585513
-0.018016841 -0.043095674 -0.020091226 -0.03400771 -0.05538983 -0.06997184 -0.020915205 -0.016518597
0.031533554 -0.04116433 0.026220448 0.012528621 -0.04921156 0.06793042 -0.0122930575 -0.05706455
0.03757395 0.00518927 0.018975278 -0.069144905 0.0015666583 -0.052517854 -0.08258654 0.001706779
-0.016508598 0.071514554 0.08739999 0.04207468 -0.005110094 -0.06845308 0.039091665 0.015819259
0.06970644 -0.06335152 0.048142824 -0.090311304 -0.024631193 -0.049937986 -0.057099108 0.019681463
-0.046626355 -0.09575206 -0.062407844 -0.04578528 0.0118483575 0.09063407 -0.0016259473 0.042247664
-0.045588598 -0.0016302107 0.014569328 0.030665938 0.019394357 0.10501131 0.0014656308 -0.058234535
0.02797049 0.11737714 0.025670942 0.03904696 0.035270527 0.053631272 0.120101266 0.04334207
0.041860063 0.06041869 0.032066643 0.03478756 -0.10652592 0.015449855 0.027453769 -0.06772393

t_conv2.bias f4 [5]
00000000: 7959 01be a4fe 9dbd 08f7 883e 3aa7 1e3d
00000010: 9b38 05bd
-0.12631787 -0.077145845 0.2675097 0.0387337 -0.032524686

t_conv3.weight f4 [5, 3, 6, 6]
00000000: 19da a6bd a841 a6bc 7e11 9e3c e6ea c53d
00000010: f8a8 22bd 10f5 633d 9a61 643d b362 b8bd
00000020: fe69 e83c ddb9 c73c 9595 3a3d 62d3 203d
00000030: 3bb3 ecbd aa1b f8bd 0434 39bd a07e 09bc
00000040: be5a db3c ada3 053d 8b8d 87bd c214 b2bd
00000050: 36ba a1bc 8a3c f23c 4716 e23c c915 293c
00000060: 6e75 f43c a516 cabc e10e 9bbd 7fd7 8dbd
00000070: c369 c23d 44e8 2a3c 4769 a0bd ff1a 503c
00000080: 26d2 173d cae2 623d 9717 103d 1c14 8bbd
00000090: aee8 983d 0366 903c 29f0 a4bc 51fb 443d
000000a0: 203d 383d 797a 063d 601d e83c ac48 193b
000000b0: 14a5 23bd 5d46 c2bd 0e1f 8ebd 87e0 39bd
000000c0: 3ace 893c a4cd ecbd a5a2 cb3d a6fc a23c
000000d0: 357b dd3d fb7f 43bd 554f d63c f183 81bc
000000e0: 322a c23d 421f 71bd 8539 a23d ae8c ae3a
000000f0: 7b20 62bc 32ce c5bd f6c9 743c fe45 a5bd
00000100: 5a42 79bd 83f0 863d 0bb9 01bd d68e 0c3d
00000110: 91b0 1d3d 0374 283d 212d 8cbd 56c5 343d
00000120: a636 42bd 005d cabd c495 0bbd 019e 7bba
00000130: 308c 213d 4635 a8bd 3c10 0cbe e27c 54bd
00000140: 904e a3bd 5592 9ebc 4e6e 8bbd bb60 b33c
00000150: c92f 14bc 1f77 baba 2b96 b93d 555d e63d
00000160: 538c ad3d 0795 d03d 9ec3 02be 295b 06be
00000170: c182 bbbd beb7 53bd b06c d4bc 9349 853c
00000180: 9f67 e4bb a7e4 8dbd a5f1 e0ba 0039 0dbd
00000190: c0f5 93bd 78b4 a8bd 578b a33b 1b94 94bd
000001a0: ae7f a33b 414a 933c d8a3 1f3d c51f 053d
000001b0: 95dd f6bd 3522 5bbe c691 6dbe 5381 8bbe
000001c0: c756 8ebe a68e d6bd 27ac 60be 5478 9ebe
000001d0: b124 babe ea65 d8be 167f f4be 7273 8cbe
000001e0: 9fcd a0bc 3ecd 86bd 6420 89be fe63 e0be
000001f0: 74dc 06bf d107 9fbe febb 0c3e c374 d93d
00000200: 365c 1abe c32d d4be d190 05bf 6213 9ebe
00000210: 4c31 4d3e 9288 363e 1b0d a5bd acb7 94be
00000220: be84 e3be 6df8 a1be 014e 123e 9bd8 f73d
00000230: e319 97bd 718d 0dbe a5dd 5cbe 5fab 32be
00000240: 9d58 00be 01db 68be a21f 7abe 3421 92be
00000250: c303 96be 3d52 cbbd 9ed7 5bbe 89ec 9fbe
00000260: 0727 b8be 49ff d8be f1f5 fbbe 9f5d 8abe
00000270: 1b50 2cbc b24f 7abd 3204 86be 1365 e2be
00000280: 9028 08bf 8be2 9ebe 5146 203e 179d df3d
00000290: 0f56 1dbe 0d9c d5be a868 07bf 6c05 9ebe
000002a0: 1c58 663e b0c4 433e 39d3 9dbd 948a 96be
000002b0: 2f8f e6be 651b a1be 2326 343e 41ce 093e
000002c0: 93cf 54bd aaa1 fabd cc45 53be f4eb 21be
000002d0: 5cc2 0fbe b0c2 74be 7222 83be 3e74 9fbe
000002e0: f716 a7be a302 03be 4ede 68be 00e4 a6be
000002f0: 6f24 bebe 3ef4 e1be 5b30 05bf 786f 99be
00000300: cdf8 95bc b8bd 93bd 9fd1 91be dde4 f4be
00000310: aa87 11bf 66c5 abbe 028b 253e 52d4 cb3d
00000320: 8a7e 35be a56e e6be a6c3 0fbf 4745 a5be
00000330: 0d45 6f3e 673c 423e 1c40 bebd 5f50 a4be
00000340: e27b f0be 85a1 a5be 64a5 423e b122 0c3e
00000350: f793 56bd c943 06be 0e77 5bbe e162 27be
00000360: 0830 c83e 1e71 bc3e abf0 1c3e 6255 503e
00000370: 5ca2 a03e de0b 963e 1607 b43e 9d30 9d3e
00000380: f85c 3a3e f920 923e aa66 d23e 786b b73e
00000390: c829 e73d b0a6 8e3d 09c2 bd3c eace 0e3b
000003a0: 20da 903d 1d2a 143e 199f 7e3e 7d18 563e
000003b0: a0bc 343d 110c c5bd bd12 a8bd 7115 6f3d
000003c0: 65ec b93e 552d b83e d555 e13d 990f a9bc
000003d0: 9a19 c23d 746c 943e ab3a 903e 089b 943e
000003e0: b7a0 b63d 7af2 0a3d f94c 3f3e 15d8 a73e
000003f0: 9e4c d83e e459 ca3e b46b 1b3e 5bce 603e
-0.081470676 -0.02029498 0.01929545 0.09663944 -0.039711922 0.05565363 0.055757143 -0.090032004
0.028370854 0.024380619 0.04555281 0.03926409 -0.11557623 -0.121146515 -0.04521562 -0.008392006
0.026776668 0.032626797 -0.06618794 -0.086953655 -0.019742113 0.029569883 0.027598513 0.010320135
0.029841151 -0.024669 -0.07571197 -0.06925868 0.09492829 0.010431353 -0.0783258 0.012701749
0.037065648 0.055392064 0.035178747 -0.06790945 0.07466255 0.017626768 -0.020134049 0.048091237
0.04498017 0.032831643 0.02833432 0.0023389263 -0.039952353 -0.09486077 -0.06939517 -0.04538014
0.01682197 -0.1156266 0.09943131 0.019895863 0.108145155 -0.047729474 0.026160875 -0.015809985
0.09480704 -0.0588677 0.07921127 0.0013317072 -0.013801689 -0.09658469 0.014940729 -0.080699906
-0.060854293 0.06588843 -0.03167061 0.034315906 0.038498465 0.041126262 -0.06844545 0.044133507
-0.047415398 -0.098810196 -0.034078375 -0.00095984346 0.039440334 -0.08213286 -0.13678068 -0.05187691
-0.07973969 -0.019356886 -0.06808148 0.02189671 -0.009044596 -0.0014226175 0.090618454 0.112482704
0.0847403 0.10184675 -0.12769935 -0.13120712 -0.09155799 -0.051688902 -0.025930732 0.016270434
-0.0069703604 -0.069283776 -0.001716186 -0.034478188 -0.072246075 -0.08237547 0.004990976 -0.072548114
0.004989586 0.017979743 0.038974613 0.032501 -0.12053982 -0.21399768 -0.2320014 -0.27247104
-0.2780058 -0.10476427 -0.21940671 -0.30951178 -0.36356118 -0.42265254 -0.4775321 -0.27431828
-0.019629298 -0.065821156 -0.26782525 -0.43826288 -0.52680135 -0.3106065 0.13743588 0.10617974
-0.15074238 -0.41441163 -0.521741 -0.30874163 0.20038337 0.17825535 -0.0805914 -0.2904638
-0.44437212 -0.31634846 0.14287569 0.12101861 -0.073779844 -0.13823487 -0.21568926 -0.17448185
-0.12533803 -0.22739793 -0.2442613 -0.28540957 -0.29299745 -0.09927795 -0.2146897 -0.3123515
-0.35967276 -0.42382267 -0.49211076 -0.27024552 -0.0105171455 -0.06111116 -0.26175076 -0.44217739
-0.53186893 -0.31032214 0.15651824 0.109186344 -0.1536486 -0.4172062 -0.5289407 -0.30863512
0.22494549 0.19117999 -0.07706303 -0.29402602 -0.45031115 -0.31466213 0.17592673 0.13457586
-0.05195577 -0.12237866 -0.20632094 -0.15812665 -0.14038986 -0.23902392 -0.25612217 -0.31143373
-0.32634708 -0.12793975 -0.22741053 -0.32595825 -0.37137172 -0.44131655 -0.5202691 -0.29967856
-0.018307114 -0.0721392 -0.2848024 -0.4783086 -0.5684763 -0.3354904 0.16166309 0.09952606
-0.17724052 -0.4500629 -0.5615791 -0.32279417 0.23366185 0.18968354 -0.09289572 -0.32092568
-0.46969515 -0.32349792 0.19008404 0.13685109 -0.052387204 -0.13111795 -0.21432135 -0.16346313
0.39099145 0.36805052 0.15326183 0.20345071 0.3137387 0.2930593 0.35161656 0.30701151
0.18199527 0.2854078 0.4109395 0.3582418 0.11287266 0.06965387 0.023163812 0.002179081
0.07072854 0.1446919 0.24865378 0.20907779 0.0441252 -0.09621442 -0.08206699 0.058370057
0.36313167 0.35972086 0.11002699 -0.02063732 0.09477539 0.28988993 0.2816976 0.2902453
0.08917373 0.03392265 0.18681706 0.32782045 0.42245954 0.39521706 0.15177804 0.21953718

t_conv3.bias f4 [3]
00000000: 10b3 1f3f abf5 323f 5820 123f
0.623826 0.6990611 0.570806
