models/cae2.pth (torch, 105023 bytes, 10 tensors)

conv1.weight f4 [5, 3, 3, 3]
00000000: 36c4 613d 64ed 093e 420c c13d 37d3 b1bd
00000010: 7544 80bd 8b31 383e d1ca 163e 8ac0 803e
00000020: 43d6 4d3d c3ed fa3d 9edd 4f3d 31a5 253e
00000030: fd60 83bd 1c3b 083c 5692 67bc f944 2e3e
00000040: f599 b7bd 6f8f 093e 16e1 0dbd aec9 a2bc
00000050: 9fce 573e 1294 603e 8d68 93bd 9cfc 8bbd
00000060: f72b aabd 4aa5 883e dae0 f3b9 a2e9 6bbc
00000070: c4f8 9a3d a47b 433d 91ec 4d3b e12e a03d
00000080: ffc8 55be e184 c8bd 4bbb f6bd 0006 86bc
00000090: 7eb7 2abe b56d 1dbd 2f53 14be 95d9 7cbe
000000a0: 468e d63d 31cc 75bb b6a4 37be 042e 3d3d
000000b0: 8c7b 53bd e992 e9bd a82f 98bd ac78 1bbe
000000c0: f98c 52be 8c48 e5bd 7eb8 73be a961 11be
000000d0: f844 583d e7e5 fabd 5395 88bd b0bb 81bd
000000e0: 76c4 cc3c 18c5 90bc ec84 0abe 883b 3d3d
000000f0: 9476 91bc aace a7bd 0016 c53c 628c f43d
00000100: 550a 22be dc7a 39be a177 24be 7604 14bd
00000110: da73 48be 8d1a 0a3e 7444 073e 5008 033e
00000120: 361c 1ebd b0a6 013e 5b88 65be 9b5a f5bc
00000130: de1d 033d c271 15be b2fd 0b3e c797 66bd
00000140: f16a 63be 29d5 9f3c 7aff 51be c18d 39be
00000150: 6a50 f23d a8a7 e03d a1d7 ed3d 24f7 d3bd
00000160: 6dfc 6abe 7432 33be e962 1ebd 0c4d 2bbe
00000170: 399c 8dbd ce12 573d 173c e63d c5d6 11be
00000180: 927b 82bd be8a 17be 69a8 7dbd 68df dc3d
00000190: c086 163d 47e6 953b 8a0c b83d 548b f43d
000001a0: b3bb 543d ea8a 5fbd 1b15 74be 9a9d 47be
000001b0: ddfc 71bd d616 b1bd 49f2 f8bd bc51 5bbc
000001c0: 314f 65be 65ed ec3d 7f69 72bd 7b46 41be
000001d0: ff98 1b3d 9e9a 9c3d 6bdb f0bd d714 4e3d
000001e0: 20f3 883d 6bde ffbd 8f24 afbd a00a cd3d
000001f0: 2ba1 0cbe 4e4c 273d 5de4 d7bd a2c0 ee3d
00000200: c847 70be de0d 9b3d 0451 b03c ed6c 483d
00000210: 77a1 06be 9acb 0dbe cdc8 17be
0.055118762 0.13469464 0.09426166 -0.08682864 -0.06263057 0.17987649 0.14725806 0.25146896
0.050253164 0.12252381 0.05074846 0.16176297 -0.064149834 0.008314874 -0.01413401 0.17018498
-0.08964912 0.13433622 -0.034638487 -0.019871559 0.21074913 0.21931484 -0.07197676 -0.06835291
-0.08309167 0.26688606 -0.000465161 -0.014398964 0.075669795 0.047725335 0.0031421522 0.078214414
-0.20877455 -0.0979097 -0.12047442 -0.016360283 -0.16671559 -0.038434703 -0.14484857 -0.24692376
0.10476355 -0.003750574 -0.17933926 0.046186462 -0.051631495 -0.11404974 -0.07430965 -0.15182751
-0.2056159 -0.11195478 -0.23800847 -0.1419741 0.05280015 -0.12250882 -0.06669106 -0.06334627
0.024996024 -0.017672107 -0.13527268 0.04619935 -0.017756738 -0.08193715 0.024058342 0.119408384
-0.15824254 -0.18113273 -0.1606126 -0.036137067 -0.19575444 0.13486691 0.13209707 0.1279614
-0.038601123 0.12661242 -0.22415297 -0.02995043 0.032010905 -0.14594176 0.13670996 -0.05629709
-0.22208764 0.019510822 -0.20507613 -0.18120481 0.11831744 0.10969478 0.116133936 -0.10349873
-0.22947855 -0.17499715 -0.038668547 -0.1672861 -0.06914563 0.052508168 0.1124193 -0.14242084
-0.063712254 -0.1479902 -0.061928187 0.10784799 0.0367496 0.0045745703 0.08986767 0.11940637
0.051936816 -0.05457584 -0.23836176 -0.19493714 -0.05907904 -0.08646934 -0.12155587 -0.013386186
-0.2239349 0.11568717 -0.05918264 -0.18874542 0.037987705 0.076466784 -0.11760601 0.050312843
0.066869974 -0.12493595 -0.08551895 0.10011792 -0.13733356 0.040844254 -0.10541604 0.116578355
-0.23464882 0.07571004 0.021523006 0.048932005 -0.13147531 -0.13847199 -0.14822693

conv1.bias f4 [5]
00000000: 71f7 11be 38f1 903c 190d 04be 5b70 88bd
00000010: dd79 e73b
-0.14254548 0.017693147 -0.12895621 -0.06662055 0.007064088

conv2.weight f4 [8, 5, 3, 3]
00000000: a9f4 aebc 1f80 b63d a405 253e 7230 d73d
00000010: 1396 27bd 500e 80ba 95a0 c43d 4c11 18be
00000020: a39f 003d 206a dabd 2892 34be 054d b13d
00000030: dff9 be3d 624b 35bb 9c3a e4bc 78ec ccbd
00000040: 4162 0ebe bf21 bdbd d696 2a3d 98fa a3bb
00000050: fc1c b9bd b2db 463c 2894 4abc 38ee 86bd
00000060: 47dd 86bd f307 fe3c 6146 8b3d 2364 7a3d
00000070: 924c d0bc c58f 11bd d4a8 98bd 8f57 7f3d
00000080: a895 c93d 65e3 00bd 74bd ac3d 5679 f73b
00000090: df9e 2e3c 4568 52bd a8ba 513d 016e c03c
000000a0: fffe 18bc ce68 c4bc ecc3 18be 271b 313d
000000b0: d83a 28bd 920a 4fbd 2847 c63d 46fa de3d
000000c0: 6eed 2abe fc10 59be 3b02 8dbd 9c72 0dbe
000000d0: a587 88bd e71a 68bd 7bf4 1dbe 71ba b0bd
000000e0: df31 8dbd 8708 d73b 0afc 05bd b31b 3bbe
000000f0: ced4 e0bd b956 f3bd 429a 7abd f325 043c
00000100: 292b 82bd 5515 80bd 08fb ba3d 68a0 47bd
00000110: 5fe8 0a3d bb61 2abe 1a08 d33b f181 91bd
00000120: b7c4 cabb be7f 1ebe dbe6 f9bd 6f5e 9fbc
00000130: 2c49 643d f1c4 05be f0a6 dc3b 2277 24be
00000140: c20d debd d609 8c3d 024f 22bd 26c8 19be
00000150: 5b72 e7bd 3af7 0d3c 82f3 ba3d ed05 d13d
00000160: 90c5 dabd 8bf9 8a3d 7fd6 fdbd cfa5 eabd
00000170: ac52 ac3d 3e23 923d f820 37be de56 273e
00000180: 651d 29be 712c a83d 78e2 b9bd 6531 0a3d
00000190: 0781 663b 22c0 9d3c 1707 b43d 052a ee3c
000001a0: 94f0 8f3c f62c 3cbe 2761 e1bd 1bae 95bd
000001b0: 0f2b 06be 5d40 a4bd 33bc 783d 3176 09be
000001c0: d7d8 33be 53a7 8bbd edd1 b9bd dfe3 053c
000001d0: 62a6 033c 13d5 2dbe 1ac5 c43d c4b4 0abe
000001e0: fba9 0abe 8e62 013d 7359 2dbe a460 cf3d
000001f0: e844 0d39 64e8 cabd f87b c73c 6afc c63d
00000200: 4be4 45bd ece6 b5bc 90f2 2dbd 4964 0dbe
00000210: 70f8 0ebc 1498 e9bd 468c 15be 9c83 dcbd
00000220: 6c2d 99bd 8039 ba3d 45d3 003e a108 253e
00000230: 702b a9bc cda2 ee3d 2080 e13d 561f 90bd
00000240: cb1c 8e3b cb4a dabd 028d 2f3e 8561 313e
00000250: 4d15 253e 3da9 a5bc dfca 053c 0648 003e
00000260: 5a9b e2bc a108 a93d 1703 173d 4fc5 cabd
00000270: 5b8f ab3c a1b3 063e 09e7 aa3d a4f7 a6bc
00000280: 0e39 84bd d4af e53d 5151 3b3e f93b 283e
00000290: ff41 333e bd75 f03d bbbc c03d 2af3 bdbc
000002a0: d016 b63b f60c c23d ada1 99bd b0c5 653d
000002b0: 1e92 e23a 8097 0bbd 4aed e43d 3e92 2f3e
000002c0: c115 993c b05a 04bc 9410 58bb cb7b 003e
000002d0: 44bd c6bc 5c54 dfbd 2154 0ebd 29bc 33be
000002e0: b579 fdbd 9ffe 48bc dfdd 03b9 82e8 37bd
000002f0: 2bfe 95bc f90d bebc 9906 0cbe 205f 16be
00000300: 93e1 153e 6149 47bc 7d01 b0bd e1fc 113d
00000310: da14 1abe 8f58 723d ed5a 2fbd 5afe abbd
00000320: 0d15 4ebe d23c 633c ccd0 3a3c 6778 a6bc
00000330: d150 403e e0de 1b3e 19f1 5dbb 5194 49be
00000340: 7745 64bd 14c1 43be a372 933c 46c6 1d3e
00000350: ac27 e53b 82ea 2c3e 4a55 aebd 11bf 3f3d
00000360: 4191 21be b136 73be a18a 49bd 203b 003e
00000370: 5954 3e3e 3513 8cbd 0dd4 493d f2c7 a8bc
00000380: 679f b93d 2c78 0fbc 029e 533b 59a1 b53d
00000390: 753f 7bbd d20a ef3b 4783 833d 863d fa3c
000003a0: 15fb 993d da4c cfbd 73eb 903d c463 11be
000003b0: 7111 1ebe 8ad3 913d 6314 96bd bafe 17bd
000003c0: 055e 413d a453 a6bd 640a d7bc ce2a a2bd
000003d0: 13f3 e7bc b09a 24be 57ae 20bd dc89 85bd
000003e0: 472a a7bc bae6 c5bd 11b2 b8bd f3fe 1bbe
000003f0: 8041 eb3c d3af 9c3d 26b7 40be 41f6 86bd
-0.021356897 0.08911156 0.16115433 0.10507287 -0.040914606 -0.000976989 0.09600941 -0.14850348
0.03140224 -0.10664773 -0.17633879 0.086572684 0.09325003 -0.002766334 -0.027859978 -0.1000604
-0.13904668 -0.09234952 0.041647755 -0.0050042383 -0.090387315 0.01213734 -0.012364425 -0.06588405
-0.06585174 0.03100965 0.06800533 0.061130654 -0.025427137 -0.0355375 -0.074540764 0.06233936
0.09842998 -0.03146686 0.08434573 0.007552306 0.010657995 -0.05136897 0.0512034 0.023489954
-0.00933814 -0.023975756 -0.14918488 0.043238785 -0.041071743 -0.05054719 0.09681541 0.108875796
-0.16692135 -0.21197885 -0.06885191 -0.13813251 -0.06666497 -0.05666628 -0.15425293 -0.08629311
-0.06894278 0.006562296 -0.032711066 -0.18272285 -0.10978089 -0.118817754 -0.061182268 0.008065688
-0.063558884 -0.06254069 0.09129912 -0.04873696 0.033913013 -0.16638844 0.0064401748 -0.071048625
-0.006188001 -0.15478417 -0.12202235 -0.01945421 0.055733845 -0.13063408 0.0067337677 -0.1606107
-0.10842468 0.068378136 -0.03962613 -0.15017757 -0.113011084 0.0086649 0.09128477 0.102062084
-0.10682213 0.06785878 -0.123944275 -0.11457407 0.08414206 0.07135628 -0.1788367 0.16341731
-0.1651512 0.082116015 -0.090763986 0.033738513 0.003517212 0.019256655 0.08790415 0.02907277
0.017570771 -0.18376526 -0.110048585 -0.073085986 -0.13102363 -0.08020089 0.060726356 -0.13423993
-0.17563187 -0.06819024 -0.09073243 0.0081720045 0.008035274 -0.16975813 0.09607907 -0.13545519
-0.13541405 0.03158813 -0.16928653 0.101258546 0.00013472477 -0.09907606 0.024351105 0.09716113
-0.04831342 -0.022204839 -0.042467654 -0.13807787 -0.008726224 -0.1140596 -0.14604291 -0.1076729
-0.07479367 0.090929985 0.12580593 0.16116573 -0.020650595 0.116521455 0.11010766 -0.07037227
0.0043369285 -0.10658797 0.17143634 0.17322357 0.16121407 -0.0202223 0.008166044 0.12527475
-0.027661968 0.08253599 0.03686818 -0.09900915 0.02094238 0.1315446 0.08344848 -0.020381756
-0.06456195 0.11215177 0.18292738 0.16429128 0.17505644 0.11741207 0.094109975 -0.023187239
0.0055569187 0.09475128 -0.0750154 0.056096733 0.0017285978 -0.03408003 0.11178072 0.1714563
0.01868713 -0.008078262 -0.0032968866 0.12547223 -0.02426017 -0.10904762 -0.0347482 -0.17552246
-0.123767294 -0.012267738 -0.00012575787 -0.04489947 -0.018309673 -0.023200022 -0.13674392 -0.14684725
0.14636831 -0.012163491 -0.08594034 0.035641555 -0.15047017 0.059166487 -0.042811323 -0.08398123
-0.20125218 0.013869481 0.01140232 -0.020321084 0.18780829 0.15221739 -0.003386563 -0.19685484
-0.05573031 -0.19116622 0.017998999 0.15407667 0.0069932546 0.16886333 -0.08512361 0.046813074
-0.15778066 -0.23751332 -0.049204472 0.12522554 0.18586864 -0.06839601 0.049274493 -0.020603154
0.09063607 -0.008756679 0.0032290225 0.08868665 -0.061339814 0.007294991 0.064215235 0.030546915
0.07518593 -0.1012208 0.070761584 -0.14198214 -0.15436341 0.07120426 -0.07328107 -0.03710816
0.047208805 -0.08121422 -0.026250072 -0.079183206 -0.028314149 -0.16074634 -0.039228763 -0.06520435
-0.020405902 -0.09663148 -0.090183385 -0.15233974 0.028717756 0.07650723 -0.18819866 -0.06589938

conv2.bias f4 [8]
00000000: 27a1 28ba 20cc 4c3d 66c2 00bd 9c5d e13d
00000010: e3fd 683d 717b 6bbd 743e fbbd e08b cc3c
-0.0006432705 0.049999356 -0.031435393 0.11004183 0.05688275 -0.05749077 -0.12267771 0.024969041

conv3.weight f4 [10, 8, 3, 3]
00000000: bcca c2bd 49ff b4bd 0c87 5fbc 5346 a4bc
00000010: 43b4 fabd 4595 8b3d 88ea 03be d5f5 423d
00000020: 2691 e6bd 2150 cabb 1e72 febd b104 01bd
00000030: 0a85 5f3d d320 f7bd b6f6 15be afe7 a73c
00000040: 3e74 883d 6b47 34bd 4b6e efbd 673a 643d
00000050: 408d 393d 7329 203d 42c8 923b 2154 d7bd
00000060: 439b f6bc 6f8d eebd 91e4 5f3d 1e0d a6bd
00000070: 3232 a33c 3a7f fdbd d48f 22bc da50 01be
00000080: ee58 e6bd f4fb 94bd d8ae 103c 28d9 0ebe
00000090: d83b ebbd fde4 e2bd 48be ac3c b5ef b2bd
000000a0: 8cbf 313c 05d3 bfbd 1af6 6e3c dcab 9b3c
000000b0: f9be 243d 39aa 71bd 6337 72bb b6fc 06bd
000000c0: 5150 09be 4d01 c53c 1c9b d63c ef70 e83b
000000d0: 515f 803d c9d8 cfbd be3a 9dbd 133b 46bd
000000e0: 349c f2bd 95f5 edbd 03d3 833d 9628 833b
000000f0: 609f 5ebd edfe d0bd 379e 3ebc a9f7 2bbd
00000100: 00b0 ebbd 96bd 1abe 8eef 0b3d 4cc9 8bbd
00000110: 1be4 e33c cf2b c0bc 12b9 e4bd 3557 1abc
00000120: a44f f43d 1566 36bc b645 16bd 35a6 173e
00000130: 0572 d03d b003 82bd a8ce debd 4303 fcb9
00000140: 510b f3bd da07 b53d e935 84bd 2718 05be
00000150: 33d7 a4bc 577b fc3d da61 023d cb63 9abb
00000160: 7278 853c 11eb 9dbc 3e4a 53ba 9870 0ebd
00000170: 1e7f 5b3d 8ff1 043d da4d fc3d bba3 aabd
00000180: eb21 18be 127f e23c a4ef b3bd de04 96bd
00000190: b68c 093e 8e1d 23be 7d1a f7bd 87cb 6dbd
000001a0: 8be1 8dbd 6629 123d 70bc 84bc 5e19 cebd
000001b0: b9e5 dbbd 2f4c 933d 78c8 f6ba 08b8 bcbc
000001c0: c47e 0bbe f083 f23d 1a03 d13d fa49 803d
000001d0: 5db5 b33d 3598 aebd 12d3 0d3d 47b1 4dbc
000001e0: 44b8 e3bd 3ed5 bfbc f7fc 86bd 5fc6 d5bd
000001f0: 1e39 5e3d 0395 e33d 4038 5abc bdfd 023e
00000200: 1954 5b3d 5b31 a13b ac04 ee3d b148 eabd
00000210: 042e 47bd e432 02be bada 743d 8416 8dbb
00000220: f9c2 a3bc c469 b7bd fd48 fe3d f27e 94bd
00000230: 7342 cd3c 3846 8a3d 1100 d8bb 840e febc
00000240: 98b8 bfbd 6912 9cbc fcda 96bd 7d4a 7bbd
00000250: 5203 a3bd 0ce7 d8bd 5aa9 9dbd bc67 62bd
00000260: 5c5e 08bd bafd 16be a2c1 223d ebf1 a1bd
00000270: eae8 41bd d4bc a8bd 4b20 e8bd e35a 46bd
00000280: 99fd 0cbe 5d6e 003d 4e7a cabd a470 26be
00000290: f95b 1bbe 7b3c 393d ceed c6bd 14f6 d1bd
000002a0: 1c3e 1fbd 2520 92bd f0eb 83bd dfc2 e9bd
000002b0: baa2 10bd 0334 1ebe 6412 14be 5f60 c6bd
000002c0: 2485 1bbe a48b 233d 629d 0fbe bc2d 45bc
000002d0: 9e20 c43b 12f3 19be f93b 26bd 391b 0abe
000002e0: a32f 80bc 09d4 6a3b 48a6 2bbe a99e f83c
000002f0: 83c1 e0bd af1a 68bd 79a1 a7bd e123 f8bd
00000300: 0b9a 6fbd 14a0 85bd 2042 2d3d dc3b cabd
00000310: 401a d0bc 23c1 903d 188b 1ebe 38d2 edbd
00000320: 2e5f b7bd 3075 ddbd dfbb 32bd 7dd7 25be
00000330: 5397 743b 0fab 30be b972 a13c ead0 3cbd
00000340: 6c8b a1bd f6e0 61bd 5a35 6fbc 35de 29bd
00000350: f78d ecbd 67d1 a8bd 9259 c7bd 9a3a 843d
00000360: 62ad 9ebb c8ca 01be 44e2 f4bd 74cb b1bd
00000370: 81f0 17be 2ada e1bd d0fe a4bc ae02 a3bd
00000380: ec63 703d b851 23be dd56 d33c 4f0e 843d
00000390: ae22 69bd 997a 2fbb b970 4fbd 94e1 84bd
000003a0: e775 a3bd f5ba 3c3d fadf c1bd 412c 623d
000003b0: e93f 9cbd edf4 133d 55c7 b9bd ed5a 9fbd
000003c0: f1d7 683d a35f 74bd 0d91 453d 3a4e 9d3c
000003d0: 64ab 1fbe 9637 11bd 4464 9ebc 96f1 0a3d
000003e0: d7f5 c1bd 3d9e 083d 291c d4bd 17a8 aebc
000003f0: 92b8 f7bd 6b21 e5bd 4472 2c3d efde d3bd
-0.09511325 -0.08837754 -0.0136430375 -0.020053064 -0.122414134 0.0681558 -0.12882435 0.047597725
-0.112581536 -0.006174103 -0.1242411 -0.031498615 0.054570235 -0.120668076 -0.14644894 0.020496218
0.066627964 -0.044013422 -0.116909586 0.05571976 0.045300722 0.03910203 0.004479439 -0.10514093
-0.030103331 -0.1164807 0.054661337 -0.08107971 0.019921396 -0.12377782 -0.009921987 -0.12628499
-0.11247431 -0.07274619 0.0088307485 -0.13950026 -0.11486024 -0.11078832 0.021086827 -0.08737127
0.010848891 -0.09366421 0.014585042 0.019002847 0.04022119 -0.059000228 -0.0036959283 -0.032955848
-0.13409545 0.024048472 0.026197009 0.007093541 0.0626818 -0.1014877 -0.0767722 -0.04839618
-0.118462 -0.11619107 0.06436732 0.004002641 -0.05435121 -0.10204873 -0.011634401 -0.041984234
-0.11508179 -0.15111384 0.034164004 -0.06825504 0.02781873 -0.02345839 -0.11168112 -0.009420206
0.11929253 -0.011132737 -0.036687575 0.14809497 0.101779975 -0.063483596 -0.1087926 -0.00048067616
-0.11867393 0.08839388 -0.06455595 -0.12997495 -0.020122146 0.12328213 0.0318316 -0.0047116033
0.016292784 -0.019277127 -0.0008060074 -0.034775347 0.053588025 0.03245693 0.123195365 -0.0833201
-0.14856689 0.027648482 -0.08785942 -0.07325147 0.13432583 -0.15929243 -0.12065599 -0.058055427
-0.069277845 0.035684012 -0.016203135 -0.10063432 -0.107371755 0.07192265 -0.0018828055 -0.023036972
-0.13622576 0.11841571 0.1020567 0.0626411 0.08774827 -0.08525125 0.03462512 -0.012554473
-0.1111913 -0.023417111 -0.06591218 -0.10438227 0.05425369 0.11112406 -0.013319075 0.12792106
0.053547 0.0049192137 0.11621985 -0.11439646 -0.04862787 -0.12714726 0.059778906 -0.0043056626
-0.019990431 -0.0895572 0.12416265 -0.072507754 0.0250561 0.067516744 -0.006591805 -0.031012781
-0.0936138 -0.019051747 -0.07365987 -0.061350334 -0.07959618 -0.10590944 -0.07698317 -0.05527471
-0.033293113 -0.14745227 0.039735444 -0.0790747 -0.047341265 -0.08239141 -0.113342844 -0.04842652
-0.13768615 0.03135525 -0.09886609 -0.16253906 -0.15171804 0.045223694 -0.097133264 -0.10252014
-0.03887759 -0.07135037 -0.06441486 -0.11414122 -0.03531144 -0.15449528 -0.1446014 -0.0968635
-0.15187508 0.039928094 -0.1402488 -0.01203483 0.0059853336 -0.1503413 -0.040584538 -0.13486947
-0.015647715 0.003583195 -0.1676265 0.030349093 -0.109744094 -0.056666072 -0.08185095 -0.12116218
-0.058496516 -0.06524673 0.04229939 -0.098746985 -0.025403142 0.07068088 -0.15482748 -0.11612362
-0.08953701 -0.10813367 -0.0436362 -0.16195484 0.0037321642 -0.17252754 0.019708024 -0.046097673
-0.07887921 -0.05514618 -0.014600122 -0.04147168 -0.11550515 -0.08243065 -0.09733881 0.0645649
-0.004842446 -0.12675011 -0.11957219 -0.08681384 -0.14837839 -0.110279396 -0.020141035 -0.079594955
0.058689043 -0.15949142 0.025798256 0.06448042 -0.05691784 -0.0026775955 -0.05064461 -0.06488338
-0.079814725 0.046076734 -0.09466548 0.055217985 -0.076293774 0.03612225 -0.09071223 -0.077810146
0.056846563 -0.05966152 0.048234034 0.01920234 -0.15592724 -0.0354534 -0.01933492 0.0339218
-0.09470718 0.033354033 -0.103569336 -0.021320386 -0.12095751 -0.111880146 0.04210116 -0.103452556

conv3.bias f4 [10]
00000000: a3ea 00bc 7f9e 80bd f4a0 403c 540e 5b3b
00000010: 5715 33bb fe52 3a3d 8a16 87bd 8109 46bd
00000020: 31fe 803d b78d b4bd
-0.007868442 -0.06280231 0.011757124 0.0033425288 -0.0027325952 0.045489304 -0.06596096 -0.048348907
0.06298483 -0.088160925

t_conv1.weight f4 [10, 8, 15, 15]
00000000: 418e 13bd ae92 31bd f953 59bd 2a92 15bd
00000010: 6a0d 6cbd 5619 c4bc 0711 20bd 2c41 21bd
00000020: d055 84bd 4897 c7bc 0749 4ebd 53ec 57bd
00000030: 08b3 89bd bf94 88bd 7952 89bd f7e8 6cbd
00000040: b03a c7bc 040b dabc a41f 07bd 81d7 46bd
00000050: 016f 7dbd f325 2abd 23ae 83bd 7ebf 85bd
00000060: f633 54bd f295 28bd b202 c3bc d9a0 3dbd
00000070: 9ed4 87bd 0adb 18bd bcb8 2ebd 24f6 27bd
00000080: 98b0 7abd 0588 87bd ece7 45bd 30dc edbc
00000090: 4b4b 04bd 2a52 05bd 4a81 85bd b6d5 f8bc
000000a0: 9282 59bd 033e 30bd 05b2 01bd 99ca 80bd
000000b0: c989 b8bc 5923 b7bc f88f 7ebd 9b60 60bd
000000c0: 695b 5fbd 8641 28bd 18b7 3bbd de00 fbbc
000000d0: be2e 61bd 6020 88bd a234 4abd dadc 6ebd
000000e0: 7371 e1bc 94ed 84bd f68c 1ebd 141b 4cbd
000000f0: 053f 6cbd 5351 abbc 0025 0dbd c26f 3fbd
00000100: 94c9 0dbd af5a 1dbd 31a1 1abd 81ad 45bd
00000110: d373 b4bc 0ac3 27bd 981a 7fbd e39e cebc
00000120: 2b18 1ebd dc60 b9bc ff49 5ebd db5c 1abd
00000130: 2230 c9bc 3a65 65bd 89ac 5fbd f661 c6bc
00000140: 7069 f0bc c357 37bd c464 36bd 3c3b 33bd
00000150: 55e3 7cbd 88f0 f3bc 3c7f 82bd 3ccb 41bd
00000160: 2b52 2abd eac3 4dbd 5c08 36bd 16b5 71bd
00000170: bb50 33bd e216 b1bc c3f0 d9bc 3b55 a8bc
00000180: 21aa 87bd c8a9 f1bc 3d32 45bd 5b40 c4bc
00000190: 2be5 03bd 0b28 07bd ee10 11bd dc04 0cbd
000001a0: 5bb5 e4bc 71bc 0dbd 8d16 3fbd 4616 cabc
000001b0: b4ef f9bc 481a 1fbd a177 7dbd ffeb 6abd
000001c0: 9fc6 04bd 40ec 64bd 070a aebc 0619 1cbd
000001d0: de4a b3bc 59b2 6ebd 6563 03bd dafa 76bd
000001e0: acfe 36bd 9f57 acbc ca5a 09bd 874c 47bd
000001f0: 6d9e e1bc b365 83bd 71be 4fbd 92ca 6cbd
00000200: 83fa 46bd 17fe b5bc 4cc3 b5bc 1416 b8bc
00000210: d118 76bd f37e 1dbd 99e5 36bd d0ef 7abd
00000220: 9889 3abd e79f 57bd ed7a 86bd e76d f6bc
00000230: b721 64bd 8476 28bd 0035 07bd 9dbd 3dbd
00000240: 954b e7bc c8c6 cdbc 13fc 12bd 7f98 76bd
00000250: 5a6d 5cbd b824 55bd 5b91 84bd 439a 0dbd
00000260: ebd1 0dbd b187 06bd 17e8 fabc 37cf e8bc
00000270: 7280 eabc 411d 88bd 0e07 8abd 879d 19bd
00000280: 11e6 0cbd 7e0f 4fbd 0bf5 18bd a986 d6bc
00000290: cc8c 09bd 3dfb 5fbd 112d 4abd 0d10 38bd
000002a0: e942 2bbd ff19 55bd edd5 60bd 997a 84bd
000002b0: 4c25 ccbc 845f 6bbd 2183 35bd 4839 afbc
000002c0: e3cd e0bc 0861 41bd 76dd 0fbd 47dd 01bd
000002d0: a4af 2abd 48f3 45bd 0d8f 3bbd 0d7f 14bd
000002e0: d285 09bd 51e7 60bd 015b 4ebd aa78 0ebd
000002f0: 2eb3 14bd ebab 70bd 8ece 17bd bfe5 86bd
00000300: f84f 40bd 6429 a3bc 3716 e6bc 8d82 58bd
00000310: cc9a 2bbd 50de e8bc 7f78 34bd 8ef1 81bd
00000320: 9440 2cbd 2010 26bd e70c babc d5da 61bd
00000330: 816e 3dbd dd21 63bd ed77 7ebd 46b1 4bbd
00000340: 5bb5 50bd f757 05bd 351b 18bd d913 4bbd
00000350: 600f 25bd c7c2 e1bc 39e2 55bd 1ecc 22bd
00000360: 1112 a1bc c98a 16bd 2317 20bd 092e 22bd
00000370: 83e4 a7bc d0ce 08bd 292e 64bd bd9c 6fbd
00000380: fd82 7dbd 0b25 43bd 29e8 2fbd b31a 48bd
00000390: 0b22 6bbd b47e adbd 9456 7ebd c2be 83bd
000003a0: bf4c 2ebd b5de 70bd 1d92 70bd 7aae aebd
000003b0: c391 a3bd de69 5abd ece7 b6bd 4f7d a3bd
000003c0: b25c 6fbd 8fbe 95bd b79b 8bbd 1fa8 78bd
000003d0: 3740 8ebd 2b62 77bd 8f4b 88bd 954e abbd
000003e0: f93a 2dbd 3137 31bd f10b 7ebd 3251 adbd
000003f0: c127 71bd aa66 68bd 38a3 2ebd 6126 62bd
-0.036024336 -0.043352775 -0.0530586 -0.036516346 -0.05762998 -0.023937862 -0.03907874 -0.039368793
-0.0646168 -0.024364129 -0.050362613 -0.05271561 -0.067236006 -0.06668996 -0.067051835 -0.05783936
-0.024319977 -0.02661658 -0.03298916 -0.048545364 -0.06187344 -0.041540097 -0.06429698 -0.06530665
-0.051807366 -0.041158624 -0.023804996 -0.046295974 -0.066323504 -0.037318267 -0.042656645 -0.041006222
-0.06120357 -0.066177405 -0.04831688 -0.029035658 -0.032298367 -0.03254906 -0.065188006 -0.030375343
-0.053103037 -0.04302789 -0.031663913 -0.062886424 -0.022526639 -0.022355722 -0.062149018 -0.05477963
-0.054530535 -0.041078113 -0.04582891 -0.030640062 -0.054976217 -0.066468 -0.0493666 -0.05831609
-0.027519917 -0.06490627 -0.03870865 -0.04983051 -0.057677288 -0.020912802 -0.034459114 -0.04673744
-0.034616068 -0.03841656 -0.03775138 -0.04826117 -0.022027886 -0.040957488 -0.06228122 -0.025222247
-0.038597267 -0.022629194 -0.054269787 -0.03768621 -0.024559084 -0.05600474 -0.0546079 -0.024216633
-0.029347152 -0.04476143 -0.04452969 -0.043757662 -0.06174024 -0.02977778 -0.06371924 -0.04731296
-0.041582268 -0.050235666 -0.044441566 -0.059010588 -0.043778162 -0.021617357 -0.026604062 -0.020548454
-0.066242464 -0.029499903 -0.048143614 -0.023956468 -0.032200973 -0.032997172 -0.035416536 -0.03418432
-0.027918508 -0.03460354 -0.046652365 -0.024668824 -0.030509807 -0.038843423 -0.061881665 -0.05735397
-0.032415982 -0.055889368 -0.021245016 -0.0381098 -0.021886285 -0.058275554 -0.032077212 -0.060297824
-0.044676468 -0.021037875 -0.03353385 -0.048656967 -0.027541364 -0.06415882 -0.05071873 -0.057810374
-0.04857875 -0.022215886 -0.022187851 -0.022471465 -0.06008226 -0.038451146 -0.044652555 -0.06126386
-0.045541376 -0.05264273 -0.06566415 -0.030081702 -0.055696215 -0.04112865 -0.03300953 -0.046323407
-0.028234283 -0.0251192 -0.035884928 -0.060204025 -0.053815223 -0.05203697 -0.06473037 -0.034570944
-0.03462402 -0.03284425 -0.030628247 -0.02841912 -0.0286257 -0.06646205 -0.06739627 -0.037503745
-0.034399096 -0.050551884 -0.037343066 -0.026187258 -0.03358154 -0.05468296 -0.049359385 -0.044937182
-0.041811857 -0.052026745 -0.054891516 -0.06468696 -0.024920128 -0.057464138 -0.044314507 -0.021389619
-0.027441924 -0.047211677 -0.03512331 -0.031705167 -0.04167141 -0.048327714 -0.04579072 -0.036253978
-0.033574887 -0.0549081 -0.050379757 -0.034783043 -0.03630369 -0.058757704 -0.03706222 -0.06586789
-0.046951264 -0.019917198 -0.028086765 -0.052858878 -0.041895673 -0.02842632 -0.044060227 -0.06344901
-0.042053774 -0.04054272 -0.02271123 -0.055140335 -0.046247963 -0.055452216 -0.06212609 -0.049729608
-0.050954204 -0.032554593 -0.03713532 -0.049579475 -0.040297866 -0.027558697 -0.052217696 -0.039745443
-0.019661935 -0.03675345 -0.039084565 -0.039594684 -0.020494705 -0.033400357 -0.055708084 -0.058499087
-0.0618925 -0.04764275 -0.042946015 -0.048853587 -0.057405513 -0.08471432 -0.062094286 -0.064328685
-0.04255366 -0.05880614 -0.058733094 -0.085293725 -0.07986786 -0.05332362 -0.08930954 -0.07982885
-0.05843801 -0.07311737 -0.068168096 -0.060707208 -0.06945842 -0.060396355 -0.06655037 -0.08364598
-0.04229257 -0.043265525 -0.062023107 -0.084627524 -0.058875803 -0.056738533 -0.042636126 -0.055212382

t_conv1.bias f4 [8]
00000000: f090 fbbc 31fd 53bd a155 70bd 7260 2cbd
00000010: 94c6 88bd 32fd a3bd d57c 75bd f75f 9bbd
-0.03070876 -0.051755134 -0.058675412 -0.042084165 -0.06678501 -0.080072775 -0.059933502 -0.07586663

t_conv2.weight f4 [8, 3, 16, 16]
00000000: c400 ebbc a4bd 62bd a3f6 8fbc 1c6c 3cbd
00000010: be4e 81bd 1901 86bd 0842 95bd 4ce0 95bd
00000020: 04f5 3bbd 41df b5bc 405a 1dbc 358c 23bd
00000030: cdc6 17bd 09a1 93bd 20a8 52bc 5605 49bd
00000040: e1d9 a5bc 6122 8bbd d4d6 1cbc 8001 a1bd
00000050: ca4c 94bd d436 04bd 33b5 72bc 3230 32bd
00000060: 12ea 98bd 50cd 0fbc 3d5b 55bd cc8f 1ebd
00000070: 056d 62bd 44b4 7bbd 78f6 f3bc 8e4b a4bc
00000080: f7e2 d8bc 38f8 8fbd 70d5 42bd 4e19 4ebd
00000090: fee9 2dbd 6865 f4bc bbf4 8fbc a407 f7bc
000000a0: 349d 1dbc 674e 78bd c906 8dbd d762 44bd
000000b0: d095 9ebd 9338 19bd 5d1a 62bd ffb2 acbc
000000c0: e5cc 75bd 0f0b 64bd 3e8f 8bbd f340 e4bc
000000d0: 0de8 28bc 9b5b efbc 347b 32bc 2dd7 57bd
000000e0: ba2a 8ebd 1161 d5bc 341c 60bc c160 b1bc
000000f0: 5901 2dbd 4c44 7dbc 37f4 93bd d5f0 40bd
00000100: 7335 27bd 5741 73bd 2295 79bc 624d 3ebd
00000110: af1e 74bd 7d88 16bd 797e 9ebd 7e9d 47bd
00000120: 8a3f 27bd 31ea d0bc 1f9a 65bc 046c 23bd
00000130: 0a18 17bd 4ded 15bd ce9f 81bc 0e4c eebc
00000140: 2230 0fbd 6c53 7cbd a932 91bd 7c60 4fbc
00000150: 5ee3 83bd b6e8 80bd f7d5 e3bc f361 11bd
00000160: 3a85 8ebc 53e4 a1bc 5efc 25bd a63d 9ebd
00000170: 10c1 edbc 00b7 79bd 2382 82bd c495 c6bd
00000180: c2f7 b9bd 9b67 6bbd 5b05 a1bd a856 13bd
00000190: 2dd3 21bd 055b 1ebd b7e2 3cbd 0f8f 28bd
000001a0: 5abf 5cbd d73c 9cbd f6ee 8ebd 0b15 9bbd
000001b0: 1b6a 5cbd e1c4 3ebd b99e 06bd e499 b9bd
000001c0: 8341 63bd ed35 0dbd 0366 5dbd e0f6 86bd
000001d0: d987 1ebd 7f0a 97bd e0e3 c9bd 1508 a2bd
000001e0: 68df b6bd 307e c9bd c40a 27bd 961a 18bd
000001f0: 33ce 04bd 91b7 1cbd c16c 01bd d209 b5bd
00000200: 66df 0bbd d5dc b3bd fdbd 2dbd 0ca1 c0bd
00000210: 8fe2 c5bd 78af a9bd f4c6 c7bd 29a1 31bd
00000220: 7480 c6bd 7479 52bd b0d1 99bd 361e 86bd
00000230: adcf 7bbd 22d6 9cbd dafd fcbc e67d 51bd
00000240: e07e 1fbd ce37 c2bd 0ead 40bd 2843 23bd
00000250: 363a 8bbd bc7b 47bd 391c afbd 40d7 91bd
00000260: 96cd 2abd 8f7d 6fbd 863c c3bd 0592 4abd
00000270: 7d27 6dbd 9e4f 58bd 0bef 93bd b523 65bd
00000280: e3d6 d1bd e305 c9bd 240a b7bd 6a6c 43bd
00000290: 24ff 11bd 38a0 82bd dfac 1cbd 4fc7 7abd
000002a0: 8181 c0bd 7aa1 bfbd 8426 a4bd c5cb 49bd
000002b0: 776c 78bd 7b37 80bd 612c 5dbd ed91 97bd
000002c0: 398a b5bd df35 33bd 2cf4 62bd 70e0 b3bd
000002d0: 64a1 b1bd 73bd c9bd e3ec aebd e2ac 29bd
000002e0: b0fc 93bd 49d1 01bd f78d 50bd ad84 10bd
000002f0: c7e6 cebd 1bc6 a1bd 888e cabd 1508 6fbd
00000300: 907c aebd 6d02 76bd 14cf a6bd f58a 7bbd
00000310: f72c 40bd 1729 6fbd a635 79bd ea0f 82bd
00000320: 3d72 a8bd cc36 27bd a3e6 bdbd 33bf b7bd
00000330: b140 37bd 2208 91bd c614 8cbd 6705 d2bd
00000340: c222 22bd ed85 60bd 1546 9ebd 026e 41bd
00000350: 062e 95bd 2928 25bd e093 31bd d260 97bc
00000360: fd2e b0bc b21a cfbc fe25 53bd 88bb 8abd
00000370: ef91 51bc 682c 17bd 8816 8dbc c3b7 27bd
00000380: 0067 5bbc edff b7bc 37b9 4abc 1532 d1bc
00000390: 0a41 aabd e7f3 3fbd 23b9 86bd c20d c7bc
000003a0: 2df6 57bd 04eb a0bd 0808 c6bc da75 68bd
000003b0: ca2a 9dbc 96b6 c3bc c5b5 9abc 28f6 08bd
000003c0: 3cdb 56bd 56fa 90bc 7297 31bd 864e a9bd
000003d0: 32a2 2fbd 7b0b 15bd b510 85bd 3ae0 94bd
000003e0: c410 abbc 952a b0bc c9a7 86bc 9d74 41bc
000003f0: 43b0 18bd b3c0 a9bd 0450 b2bc f291 da3c
-0.028686889 -0.055356637 -0.01757366 -0.04600154 -0.06313847 -0.06543178 -0.07287985 -0.07318172
-0.045887962 -0.022201182 -0.009604037 -0.039928634 -0.037054826 -0.072084494 -0.012857467 -0.049077354
-0.020245494 -0.06793667 -0.009572703 -0.07861614 -0.07241209 -0.03227885 -0.014813709 -0.043502994
-0.0746652 -0.008776978 -0.052088965 -0.038711354 -0.05527975 -0.06145121 -0.029780611 -0.020055559
-0.026475413 -0.07029766 -0.04756683 -0.0503171 -0.04245948 -0.02983351 -0.017572751 -0.03015501
-0.00962 -0.060621645 -0.0688606 -0.047945824 -0.07743418 -0.03740747 -0.055200923 -0.021081446
-0.060009856 -0.05567461 -0.06814431 -0.027863001 -0.0103092315 -0.029218486 -0.010893632 -0.052695442
-0.06941743 -0.026047261 -0.013678599 -0.021652581 -0.042237613 -0.015458178 -0.07224315 -0.047104675
-0.040822458 -0.059388485 -0.01523331 -0.046460517 -0.059599575 -0.03675126 -0.077389665 -0.04873418
-0.04083208 -0.025502296 -0.014013796 -0.039897934 -0.03688816 -0.03660326 -0.015823271 -0.029089
-0.034958012 -0.061602995 -0.07089741 -0.012657281 -0.06439851 -0.06294386 -0.027811987 -0.035493802
-0.017397512 -0.019762194 -0.04052388 -0.07726602 -0.029022723 -0.060965538 -0.06372478 -0.09696534
-0.09080459 -0.057471853 -0.078623496 -0.035971314 -0.039508034 -0.03866102 -0.04611465 -0.041152056
-0.053893425 -0.07628792 -0.06979172 -0.07572373 -0.053812128 -0.046574477 -0.032866213 -0.090625554
-0.0554824 -0.034475256 -0.054052364 -0.065900564 -0.038703773 -0.07375049 -0.09857917 -0.07911698
-0.0892933 -0.098385215 -0.04078175 -0.03713473 -0.03242321 -0.038261 -0.031597856 -0.08839764
-0.034148596 -0.08782355 -0.042417515 -0.09405717 -0.09662353 -0.08285421 -0.09754744 -0.043366585
-0.09692469 -0.051385358 -0.07510698 -0.06548731 -0.061477352 -0.0765803 -0.030882765 -0.051145457
-0.038939357 -0.094833 -0.047040038 -0.039858967 -0.06798212 -0.048701987 -0.08550305 -0.07121134
-0.04169997 -0.05846935 -0.09533028 -0.04945566 -0.057898987 -0.052810304 -0.07223328 -0.055942256
-0.102460645 -0.09815576 -0.08937481 -0.047710814 -0.03564371 -0.063782156 -0.0382508 -0.06122523
-0.09399701 -0.09356971 -0.08015159 -0.049266595 -0.060650315 -0.06260582 -0.0539974 -0.0740088
-0.088642545 -0.043752547 -0.05540864 -0.087830424 -0.08673361 -0.09850588 -0.08541276 -0.04142464
-0.07225931 -0.03169373 -0.05091664 -0.03528278 -0.10102611 -0.07899114 -0.09890467 -0.058357317
-0.08519852 -0.060060907 -0.08144966 -0.061411817 -0.04691788 -0.058388796 -0.06084218 -0.063506916
-0.08224914 -0.040823743 -0.09272506 -0.08972015 -0.04473943 -0.07081629 -0.068399 -0.10254937
-0.03958393 -0.05481522 -0.07728211 -0.047224052 -0.07284169 -0.040321503 -0.043353915 -0.018478785
-0.02150678 -0.025281284 -0.051549904 -0.0677405 -0.012791141 -0.036907583 -0.017222658 -0.040946733
-0.013391256 -0.022460902 -0.01237326 -0.025536576 -0.083131865 -0.046863463 -0.06578281 -0.024298552
-0.052725006 -0.07857326 -0.024173751 -0.056753017 -0.019185442 -0.023890775 -0.018885503 -0.033437878
-0.052455172 -0.017697494 -0.04335732 -0.0826693 -0.04287929 -0.0363879 -0.06497327 -0.0726933
-0.020882018 -0.02150468 -0.016437428 -0.011807588 -0.03727747 -0.082887076 -0.02176667 0.02668092

t_conv2.bias f4 [3]
00000000: 459c c83b a498 13bd 19af 41be
0.0061221444 -0.03603424 -0.1891445
