models/cae2.pth (torch, 32335 bytes, 12 tensors)

conv1.weight f4 [5, 3, 4, 4]
00000000: 34a2 73bc f68d cdbc 80c8 06bd 702d ba3c
00000010: ddff 93bd fa34 6e3c 6b30 38bd bc72 9ebc
00000020: 3d4e d43c 29bf efbd dbb0 e33c 20ef 8cbc
00000030: 56ef 1cbc 186a 153d 61a1 b2bc c53f 423d
00000040: 6004 8dbc 6602 4dbd 8357 a5bc e320 cd3c
00000050: 6166 163c 5bd9 20bd 745a b8bb 842c 07bd
00000060: 3659 cbbd 3f1f c13c e412 95bd 2cfa 193d
00000070: 6092 223d 1ea5 8fbc 0b5e 653c 8f82 6f3c
00000080: 138d 83bc 2121 2a3b 2071 aabc ec47 abbb
00000090: 07f4 0abd dd5e a3bd 520c 18bd 69f6 afba
000000a0: 5898 42bc b244 6d3c 7831 6fbc d753 c5bc
000000b0: 7d55 893c 77ed 4dbd febd 8b3b d67b 413c
000000c0: 6d83 fbbc 1e01 aebd 911d 933d 5177 8fbd
000000d0: 8ab6 6dbd d9dc e1bd 13d2 d4bd ec1c 9b3d
000000e0: fedd 993d 2c8b 833d bad7 073e 3fd0 f43d
000000f0: fe52 a53d b71c b6bc 319f eebd fd8e 15bd
00000100: c452 043e 5703 c6bb 4522 a6bd 7e69 15be
00000110: 9082 11be 22cf 2cbe a253 81bc 6348 28be
00000120: 63fe 97bd 7b4a c8bd 6a43 a93d bdfc e7bd
00000130: c861 1fba a6c7 54be 7561 9ebd caf5 2e3d
00000140: d3a8 fa3d 47bf 3cbd 564a ad3d ff02 76bd
00000150: 1eb1 f9bc cb69 f7bd 5b6c d6bc fb3c 41be
00000160: 73b4 93bd bbdd acbd a29f c2bc b4f8 03be
00000170: 42b8 68bd 5f2f 983c 4b8c 12be 4dfc c4bd
00000180: a979 013c 172e 5d3d e2cb d2bc 0d03 e5ba
00000190: ea13 3c3b 3ebf 593d 69c4 113d 3a94 943d
000001a0: cca9 de3c 44d2 a43d e7fa 153e 23dd 91bc
000001b0: b777 b43b 54ed 643d 1bfa 473c c99d 413d
000001c0: 7f02 4fbc 848d 243b 8414 663d ac8f e0ba
000001d0: ec30 a4bc 9a14 183e 29ba b93c 7f8b 033d
000001e0: 94e8 6a3d ed69 a33d 9eff 323c 8e1b d23d
000001f0: be3e b83c 4f1d 8c3c e9d8 d73d a071 a0bc
00000200: 716f 2b3d 6cee 263c cb98 6a3c 9312 263d
00000210: 13eb 973d 75a6 59bb 6de2 163e 3d6c b7bb
00000220: ba4b 0cbb d962 b83d 704e ae3d ab65 633d
00000230: 1788 0d3d 923e 953d 01cb 063d 55ca 453d
00000240: f315 c6bd 08b2 3ebd cd01 4ebe 2139 3ebe
00000250: e1ed 99bc bb7b 0abe 4cb0 4b3d 3561 26be
00000260: c2bf 0abe 9751 2c3c 7ab1 2abd 9439 d6bd
00000270: 47e1 e5bd 670f 8cbd 408f 0abe a6c2 efbd
00000280: 3713 46bd fd92 2bbe 7d5b 00be d7ba dabd
00000290: 2d13 57bd 763a e93c 6405 32bd 8569 a8bd
000002a0: 3a0a 88bd 9c5c 2f3c 327d d3bc d31f f3bd
000002b0: 9800 22bd 0bc5 19be 638e b2bc cde6 30be
000002c0: 5eed d7bb 4f1d 02be c886 8cbd 6754 24be
000002d0: fa8a 25be d0da 39bc 01e4 c7bb 6b0d 23be
000002e0: 8fd2 e2bd ceac bebc ad15 0abe 282e 6dbd
000002f0: eff6 bfbd 15a2 23be 4c8b 5cbd e0c3 f3bd
00000300: 0cb4 073a 78cb 97bc a301 bd3c 8172 24bd
00000310: ba99 c33a 8377 dfbc 82cb babd 5588 563c
00000320: 78b0 1abc e1e8 03bd d78f 5ebc 33fc 93bd
00000330: 71e0 79ba 3e19 7cbd 43ba e7bc f23e 19bd
00000340: 5a2a 89ba dcec 183d 760a fcbc f5b7 253c
00000350: 1d56 c1bc 623b 24bd 2b71 ecbb 513b 67bd
00000360: c535 823c 68f5 a7bc 26dd bfbd d686 493b
00000370: c896 b4bb 02a2 f0bc 9a07 f5bc 298f 37bd
00000380: 753a 533d 0d63 b63b 7eb1 903c 79ea 5e3d
00000390: ac8f 133d 39c1 f4bc 2716 e8bc 73a6 f3bc
000003a0: 555d 063c 2d1f 85bd 83a1 33bd 0df9 34bc
000003b0: 271b 083d 12c7 ce3c 301b bcbc 5a7b 043d
-0.014870215 -0.025092106 -0.032906055 0.022726744 -0.072265364 0.014538998 -0.04496805 -0.019341819
0.025916213 -0.11706383 0.027794292 -0.017203867 -0.0095785465 0.036478132 -0.021805467 0.047424097
-0.017214 -0.050051115 -0.02018333 0.025040096 0.0091796825 -0.039269786 -0.005626017 -0.033001438
-0.09929125 0.02357447 -0.07278994 0.037592098 0.039690375 -0.017534789 0.013999472 0.01461853
-0.01605848 0.0025959688 -0.020805895 -0.0052270796 -0.03392413 -0.07977078 -0.037121125 -0.0013424876
-0.011877142 0.01448171 -0.014599197 -0.02408783 0.016764397 -0.050275292 0.004264592 0.01180931
-0.030702317 -0.08496307 0.07183374 -0.0700518 -0.05803541 -0.110284515 -0.10391631 0.07573876
0.07513045 0.06423029 0.13265887 0.11953782 0.0807247 -0.02223049 -0.11651457 -0.036513317
0.12922198 -0.0060428786 -0.08112005 -0.14591023 -0.14209962 -0.1687589 -0.01578695 -0.16433863
-0.07421567 -0.09779831 0.08264811 -0.11327503 -0.0006079939 -0.20779285 -0.07733432 0.04271487
0.12239232 -0.046080854 0.08461444 -0.06006145 -0.030479964 -0.12080725 -0.026174715 -0.18870918
-0.07212152 -0.08440729 -0.02375776 -0.12887841 -0.056816347 0.018577276 -0.1431133 -0.09618435
0.007902541 0.053999033 -0.025731985 -0.0017472223 0.0028698393 0.0531609 0.035587702 0.072548345
0.027180575 0.080479175 0.14646493 -0.017805642 0.005507435 0.055890396 0.012205626 0.047269616
-0.012634872 0.0025108764 0.05617191 -0.0017132661 -0.020042859 0.14851609 0.022671776 0.032115456
0.05735071 0.07979188 0.010925202 0.10259162 0.022490855 0.01710382 0.10539419 -0.01958543
0.041854326 0.01018868 0.014318655 0.040545058 0.07417884 -0.0033210788 0.14734812 -0.00559762
-0.0021407441 0.09003229 0.085110545 0.05551688 0.034553614 0.07287325 0.032908443 0.048288662
-0.09672155 -0.046556503 -0.20117874 -0.1857648 -0.018790187 -0.13523762 0.049728677 -0.16248019
-0.13549712 0.010517499 -0.04167316 -0.10460201 -0.11224609 -0.06838875 -0.13531208 -0.11707048
-0.04835817 -0.1675529 -0.125349 -0.10680168 -0.05250852 0.02847026 -0.043462172 -0.08223251
-0.066425756 0.010703232 -0.025816534 -0.11871304 -0.039551347 -0.15016572 -0.02179641 -0.17275544
-0.0065895757 -0.12706493 -0.06861645 -0.16047822 -0.16166297 -0.011343673 -0.006100178 -0.15923087
-0.11075317 -0.02327576 -0.13484831 -0.057905346 -0.09373271 -0.15979798 -0.05384378 -0.119025946
0.00051766704 -0.018529639 0.02307207 -0.040148262 0.0014923133 -0.027278667 -0.09120847 0.0130940275
-0.0094414875 -0.032204513 -0.013584099 -0.072258376 -0.00095320406 -0.06154751 -0.028287059 -0.037413545
-0.0010464892 0.03733526 -0.030766707 0.01011466 -0.023600632 -0.040095694 -0.007215639 -0.056453053
0.01589478 -0.020502761 -0.093683526 0.0030750534 -0.0055111386 -0.029374126 -0.029910851 -0.044814263
0.05156942 0.005566007 0.01766276 0.05442283 0.036025688 -0.029877292 -0.028330876 -0.029742455
0.008200963 -0.06500087 -0.0438552 -0.011045706 0.03322902 0.025241408 -0.022962183 0.0323442

conv1.bias f4 [5]
00000000: c9ed 153f 6248 04be 34b6 29be a163 9a3e
00000010: af4f 183f
0.58565956 -0.12918237 -0.16573411 0.30154136 0.5949659

conv2.weight f4 [8, 5, 4, 4]
00000000: a04f 47be 6275 ae3d 2ddb e5bd 2b24 443d
00000010: 834d a6bd cf62 4e3e e142 bf3d 81b9 aebe
00000020: cb6c a13d dc8a c13e bc8e ee3d 5250 283e
00000030: bea2 adbd ebb8 44be 39c9 2cbe 852c 7abe
00000040: f618 df3d 3fcc cf3c eb55 0abc 0448 97bc
00000050: b069 3f3e 8710 e0bc 0126 8fbd 77ea 2a3e
00000060: 090a 03bd de1a 0abd ddc1 c23b f0f3 91bd
00000070: 17b5 01be 0c4d 323e 4d09 843e c8a3 4f3e
00000080: 289b 84bd 549b 68bd d1f6 d83c d7b3 5cbd
00000090: 0131 043d 342e 293c cdb9 8e3d 8654 263c
000000a0: c2a5 9f3c dd89 cfbd 41cd 82bf d438 4f3e
000000b0: 327f e9bb 6c89 e1bd b804 c03d df16 1abe
000000c0: 193e 97be 21bc 2abe 9428 a9be 9b1b 49ba
000000d0: cf39 463e fbb8 c33e 6df3 463f 05d9 a0bc
000000e0: d3fb c13d de94 b63e b7cc b13d d317 943e
000000f0: 5beb 373e f1dc 45bd 0da6 263e 269d b53d
00000100: 0be7 543d 06f5 ecbc 6045 8bbd 7b27 ba3d
00000110: 5840 42be 0edb 97bd 0c90 263d 5959 86be
00000120: 92c4 323d f38f aa3e 37ae 123f 80b6 403e
00000130: 626a 673c 3d44 00be 5e69 4c3c 7bc9 59be
00000140: d808 a13d 77c8 0ebe a717 46be 4b63 04be
00000150: 1021 e6bc cb3e 733e ff99 bcbc dec6 b53e
00000160: eed0 283e 7070 3b3e f543 7ebe 4ce9 a73d
00000170: f4c9 6a3d 08ff 81bc 294d 913c 5df4 85bd
00000180: b36f 203e cd6e 8e3d 89f7 2d3e 44da b03d
00000190: fc2f 5b3d a09a 2b3d a0fa 1a3e 2733 82bc
000001a0: 4b2e 08be cf6e 02be 223b 143d 754d df3d
000001b0: 837f 823c 9907 5ebd 431b c9bd 8e4c 0f3d
000001c0: 3472 31bd 6876 6ebd 31f0 f03d 9c05 18b9
000001d0: ad44 ec3c 4271 61bd d0a0 bcbe 93c8 0bbb
000001e0: d97e f83c 124e 1ebd 85f6 b2bd 3cd3 973d
000001f0: 4db8 fcbc 34a7 96b8 1033 113d 328f a13b
00000200: 2115 15bb e491 01be e2cc cabe e89d 4fbe
00000210: 9dbb 41bf 0d36 373f e435 963e 34a7 2e3e
00000220: 332b 1ebf 0bb3 273f ff91 063e fefe 133e
00000230: 2f77 8c3b 3092 3e3c 9ed2 0a3e 547d 183e
00000240: b325 67be 797a 47be 29cf cd3c 30ab 2abe
00000250: 8494 cdbe a3cf b63b 71df 943d cbb3 babd
00000260: 82c4 c4be 1db4 073e d532 713e d1e6 ccbc
00000270: c58e 57bd eecf 95bc d767 fabc 03ea e63d
00000280: cf93 113d 7157 883d b54b 09bd b6f9 e6bd
00000290: 1446 92bd 0a7a 323e 6236 443d aafa 9a3d
000002a0: f8d1 bcbd 85d7 383d 42ca d5be 18b0 85be
000002b0: df00 aa3c 9ae5 883e 130f 3c3e ce89 08bd
000002c0: 5fbe 643c 409e 423c b9b7 e73d 3c87 f4bc
000002d0: d087 933d 269e 103e 64a6 073e a0ae b33a
000002e0: 7887 883d 9b48 9e3c ba10 5a3c bc20 1ebd
000002f0: 54b2 aabd 196e 93bd 3de8 e23d 9c65 afbd
00000300: c53f 4b3d 315d 063c ef87 483d 0be5 853c
00000310: 7c34 643c 0a85 d2bd fc70 66be 941a 07bd
00000320: a2de f23b e5c1 da3c 3cee c0be 44c5 a53c
00000330: 262d 823d 5cb6 d4bc cd0c b23d 55f1 923c
00000340: 182c ad3d 0c1f 40be 6a74 d53d afbb 5ebe
00000350: 6b57 82bd ab59 deba 0da1 8e3d 533f c7be
00000360: cd01 0b3e 505e 0b3e 91d1 1c3e ce21 c5bd
00000370: 899b 6a3d f967 8c3c 91f5 ab3e f0c0 a1be
00000380: 4383 8abc 0f7f ccbd 9dee 053e 5ba2 9dbd
00000390: 12aa 163e ae73 cebb b1dc b63d 9e3f 01bd
000003a0: 4f74 5c3d 927a a63d f302 823e 57df b23d
000003b0: c891 fabc 2a6f 62be 4d60 3e3d 0856 2fbe
000003c0: b181 45bd ee14 bd3c 7645 633c 6394 453c
000003d0: e0d7 cb3c 01fb 1ebe 63b9 493d 52bf c7bc
000003e0: 5f89 d53c 6632 ccbd f1d1 863d b63c 92bc
000003f0: 12c4 70bd e277 4fbe a89f 8a3d 2439 73bd
-0.19463968 0.08518483 -0.11223445 0.047886055 -0.08120253 0.2015488 0.09338928 -0.34125903
0.07882079 0.37801254 0.11648318 0.1643689 -0.08478306 -0.19211166 -0.16873635 -0.24431045
0.10893433 0.025365947 -0.008443336 -0.018466957 0.1869266 -0.02735163 -0.069896705 0.16691004
-0.031991992 -0.03371703 0.0059435205 -0.071266055 -0.12666737 0.17412204 0.25788346 0.20277321
-0.06474906 -0.056788757 0.026484879 -0.053882446 0.032273296 0.010325957 0.069690324 0.010151988
0.01948822 -0.10133717 -1.0218889 0.20236522 -0.0071257586 -0.11012539 0.093759 -0.15047787
-0.29539564 -0.16673328 -0.3303877 -0.0007671655 0.1935799 0.38227066 0.7771519 -0.019634733
0.0947186 0.35660452 0.086816244 0.28924426 0.17960875 -0.04830641 0.16274281 0.08867864
0.051978152 -0.02892543 -0.068003416 0.090895616 -0.18969858 -0.07414828 0.040664718 -0.26240042
0.043644495 0.3331295 0.5729708 0.18819618 0.014124485 -0.12526031 0.012476293 -0.21268265
0.07863015 -0.13943659 -0.1934496 -0.12928502 -0.028091937 0.23754422 -0.02302265 0.35503286
0.1648595 0.1830461 -0.24830611 0.08198795 0.057321504 -0.015868679 0.017736988 -0.06540749
0.1566761 0.06954727 0.16988958 0.08635381 0.05351256 0.04189551 0.15134668 -0.015893532
-0.1329891 -0.12737583 0.036189206 0.10903446 0.015929943 -0.054206464 -0.09819653 0.034985118
-0.043321803 -0.05821839 0.11764563 -0.00014497939 0.02884134 -0.05503965 -0.3684144 -0.0021329268
0.030333923 -0.038648672 -0.08738426 0.07413337 -0.0308496 -7.1837014e-05 0.035449088 0.0049304003
-0.002274819 -0.12653309 -0.39609438 -0.2027508 -0.756769 0.7156685 0.2933799 0.1705597
-0.61784667 0.6550757 0.1314163 0.1445274 0.0042866687 0.0116315335 0.13556907 0.14891559
-0.22572975 -0.19480313 0.025123196 -0.16666865 -0.4015237 0.0055789514 0.072691806 -0.09116324
-0.38431174 0.13252302 0.23554547 -0.025012406 -0.05262639 -0.018287625 -0.030567093 0.11275103
0.035541352 0.06657303 -0.033519465 -0.11278097 -0.071422726 0.17429367 0.047903426 0.075673416
-0.09219736 0.04512741 -0.41755873 -0.2611091 0.020752368 0.26737672 0.18365125 -0.033334546
0.013961404 0.01187855 0.11314339 -0.029849641 0.072036386 0.14122829 0.13247067 0.0013708659
0.066664636 0.01932173 0.013309652 -0.038605437 -0.08334795 -0.07198734 0.11079452 -0.08564302
0.049621362 0.0082009295 0.04895776 0.016344568 0.013928529 -0.102792814 -0.22504038 -0.03298433
0.007411794 0.026703784 -0.37681758 0.020235665 0.06356268 -0.025965862 0.08693848 0.017937342
0.08455676 -0.18761843 0.10422595 -0.21751283 -0.0636433 -0.0016963979 0.06964312 -0.389155
0.13574906 0.13610196 0.15314318 -0.09625588 0.057277236 0.017139422 0.3358579 -0.31592512
-0.016908294 -0.09985172 0.13079305 -0.076969825 0.14713314 -0.006300411 0.08928812 -0.03155481
0.053821858 0.08128847 0.25392875 0.08734005 -0.030587092 -0.22112718 0.04647856 -0.17122662
-0.048219386 0.02308127 0.013871541 0.012059304 0.02488321 -0.15525438 0.049249064 -0.02438322
0.02606648 -0.0997055 0.06583012 -0.017851215 -0.058780737 -0.20260575 0.06768733 -0.059380665

conv2.bias f4 [8]
00000000: e404 a53e 4e59 333f fb44 3a3f baa5 833f
00000010: 9121 b5bd 07a8 513f 2d95 773f 0fbb 3c3f
0.32230294 0.70058143 0.72761506 1.0284951 -0.08844293 0.81897014 0.96712 0.7372293

conv3.weight f4 [10, 8, 4, 4]
00000000: 52de a3bd 3511 a2bc 21b4 223d 5ec3 58bd
00000010: 4e6a 883d 16b1 5b3e 930f ba3e 8db1 ebbd
00000020: ff37 253e a1b8 333e db8b 9b3e 38b5 543e
00000030: d67e 2cbd c387 233d 4624 43bd 6a56 6cbc
00000040: 1113 d9bd 672f f53d a44d 733e ae92 02be
00000050: 51bc 7cbd b034 2dbe 6e0a a63e 8278 86be
00000060: 10d2 dcbd b922 22be c018 1f3f 089f 95be
00000070: e126 bcbb a881 b7be 0fc7 aa3d 5286 14be
00000080: 8a32 9cbc b677 90be bc6a ccbd 550d 853e
00000090: 989e c73d f691 a93e 6305 d33e f34a 0f3d
000000a0: 9441 21bc 2baf 01bd 3cdc 823e 2804 6e3e
000000b0: 537f d53d 3d34 55bd b0fc e63d cca2 223e
000000c0: d8a0 bfbd b39e c73d 16a6 49bf 559f 123e
000000d0: 0294 a6be 9dcb 7c3f c800 773d 1bc3 35be
000000e0: 0521 4dbe ecad 9abe 1036 dabe d0b9 2d3e
000000f0: 3a88 afbd 6076 c03e 6b8f b9bd adcc 1a3e
00000100: 5583 f3bd 4f2a 8e3c 1be3 023e 69b0 1d3b
00000110: 2485 f738 2920 01bc 69ff dc3d be9a 673d
00000120: d017 2bbd 0d0b a63d 3785 053e e257 6e3c
00000130: 0f6c 0c3d 51f9 d93d b399 f03d a18b 233b
00000140: e715 973d 5167 bdbc a602 f6bd f22e ab3e
00000150: 5261 823e 46af 39bf ba33 9abd 1d3b 0abf
00000160: 5873 de3d a8bf 0ebf 3659 353f ec8e 9ebe
00000170: 7a88 24bd 2818 d13c 8196 1cbe 4e34 67be
00000180: 511d 5fbe f34d 0e3e 0491 c33e 1d64 8fbe
00000190: 323e b03e aa78 89bf c82a 0e3e 3917 d43c
000001a0: 3ff9 b6be a7ca 2d3f 5b10 0a3f eb8a 33bd
000001b0: a5c4 1dbc fa88 84be 645d bd3b 3c83 f43d
000001c0: 6dd4 4b3b a9df f93d ec59 623d a571 d4bd
000001d0: 5a11 4abd 69ef 643e b8fc b63d 965d f73d
000001e0: 3798 7c3c 3eb2 d83d fa2a 21be d939 4fbe
000001f0: 5486 8dbd b7be 453e eb5e 2dbe 66c1 97bb
00000200: 6156 d03c 5e31 46bc c3e8 943c ed1f 20bd
00000210: bb20 debd ee18 5ebd c2da bb3c 903e c23c
00000220: 238f 66bc abfe debd c85f 92bc 4ffa 1abd
00000230: 100d 51bc b4ba 08be ad49 7e3b 44a4 da3c
00000240: 3133 2bbd abd0 9cbc 19d1 f1bc f007 b13c
00000250: 92ef 44bd 2e7c 08be ef14 55bd 3308 10be
00000260: 6dcf 9c3b ae19 9cbd 4f74 61bd 27f3 85bc
00000270: d90a 4a3d f3c1 75bd 7a09 e3bd 231b 763d
00000280: ff45 013d b0e8 843d 6d6f 07bd 2bb1 6abc
00000290: 7b24 76bd 8884 ec3b 98ee 0e3d 941a 9abc
000002a0: 7f99 1bbd e1d6 163b bab7 4c3d d2d3 a43c
000002b0: ec35 45bd 04ef 0e3d c879 ccbd f54f 8bbd
000002c0: 3204 0fb9 6ef8 65bd 1125 01bd 6223 84bd
000002d0: fa38 56bd b429 52bd b282 d3bd c805 5638
000002e0: 34d1 cabd 4557 4abd 124c 1b3d 374c cdbc
000002f0: 709c a1bd 0cc6 debd 72f7 46bd 5d5f a23c
00000300: 8065 623d c2b9 7cbd 506f 0abd 3223 1bbd
00000310: 2863 9c3d 30ff 0a3d fa16 03bc 7345 9c3d
00000320: a429 eb3a 603c e1bc ef89 933c c721 2cbc
00000330: 5ff6 4d3b 65c3 bebd 0dec 123d 163c ad3c
00000340: 31a8 b1b7 a211 e9bd 90c4 91bb 55a7 86bd
00000350: 76fc 1fbd f225 3a3c 8351 c83c 4703 b5bd
00000360: 5939 88bb a8b9 31bc 8223 aebd da13 09bd
00000370: 80af 75bb eca6 8abc 62ea 6ebd 70c2 6dbd
00000380: 2f66 44bc f799 fabd d942 95bd 3356 42bd
00000390: 9ea9 bfbd 96ba 13be 4615 8ebd 3629 16be
000003a0: 83fa 73bd ed9e a338 3c2a 5ebd c410 3ebc
000003b0: 3078 8bbc 9b7a bbbd 6c06 00be a024 70bd
000003c0: 3d04 06bd f450 40bd 9a21 fbbd bc4d dbbd
000003d0: 8577 65bb 4f09 6bbd 6c08 eabc 0ec6 95bd
000003e0: 2b71 183d c25e a6bd 7ea1 c8bd ff94 5fbd
000003f0: bd8d 68bc 56c4 b13c 9f94 ed3c 2dd3 9dbd
-0.080013886 -0.019783596 0.039722566 -0.05292069 0.06660901 0.21454272 0.36340007 -0.115084745
0.16134642 0.17550899 0.3038014 0.20772254 -0.042113148 0.039924394 -0.047642015 -0.0144249
-0.1059934 0.11971932 0.23760086 -0.12751266 -0.06170303 -0.1691463 0.32429832 -0.26263815
-0.10782254 -0.15833558 0.6214714 -0.29222894 -0.0057419394 -0.35841107 0.08338749 -0.14504364
-0.019067068 -0.28216332 -0.099812955 0.25986734 0.09747046 0.33119172 0.41215047 0.034983587
-0.009842295 -0.031661194 0.2555865 0.23243773 0.10424676 -0.05205177 0.11278665 0.15882415
-0.093568504 0.09747066 -0.7876905 0.14318593 -0.32534796 0.9874819 0.06030348 -0.17750208
-0.20032127 -0.30210817 -0.4261937 0.16965413 -0.08570905 0.37590313 -0.09060558 0.1511714
-0.11890284 0.017354159 0.12781946 0.0024061447 0.00011802677 -0.007881203 0.10790903 0.056544058
-0.041770756 0.081075765 0.13039099 0.01454732 0.03428274 0.106432565 0.11748066 0.0024955051
0.073772244 -0.023120554 -0.12012224 0.33434254 0.25464875 -0.7253307 -0.07529397 -0.5399645
0.10861844 -0.55761194 0.7083925 -0.30968416 -0.040169217 0.025524214 -0.15291788 -0.22578546
-0.21788527 0.13896923 0.38196576 -0.28006068 0.3442245 -1.0739949 0.13883507 0.02588998
-0.35737035 0.6788735 0.53931206 -0.043833654 -0.009629403 -0.25885755 0.0057789553 0.119390935
0.0031101957 0.12200863 0.055261537 -0.103732385 -0.049332954 0.22356953 0.08934921 0.12078397
0.01541715 0.10580872 -0.1573905 -0.20236911 -0.06910387 0.19311033 -0.1693074 -0.004631209
0.025431814 -0.012096731 0.018177396 -0.039092947 -0.108460866 -0.054222994 0.02293146 0.023711473
-0.014072212 -0.10888418 -0.017867938 -0.03783637 -0.012759462 -0.13352472 0.0038801238 0.026689656
-0.041796867 -0.01914247 -0.02951865 0.02161023 -0.048080035 -0.13328621 -0.052021917 -0.14065628
0.0047854693 -0.076220855 -0.05504256 -0.016351296 0.04932675 -0.059999418 -0.11085792 0.060084473
0.031560894 0.06489694 -0.03306525 -0.014324467 -0.060093384 0.0072179474 0.03489551 -0.018811502
-0.037988182 0.0023016261 0.049979903 0.020120535 -0.048147127 0.03489591 -0.099841654 -0.0680236
-0.00013639106 -0.056145124 -0.03152949 -0.06452061 -0.05230043 -0.051309302 -0.103276625 5.102696e-05
-0.099031836 -0.049399633 0.037914343 -0.025060756 -0.07891166 -0.10877618 -0.048575826 0.019820863
0.05527258 -0.06170059 -0.033797562 -0.03787536 0.076361 0.033934772 -0.0080010835 0.07630434
0.0017941487 -0.02749461 0.018010108 -0.0105061 0.0031427366 -0.09314612 0.035869647 0.021146815
-2.1178364e-05 -0.11380316 -0.004448481 -0.06574885 -0.039059125 0.011361586 0.02445293 -0.08838516
-0.004157227 -0.010847487 -0.08502866 -0.033466198 -0.003748864 -0.016925298 -0.058328994 -0.05804676
-0.011987253 -0.12236398 -0.07288141 -0.047445487 -0.09358524 -0.14426646 -0.06937651 -0.14664158
-0.05956508 7.802048e-05 -0.054239497 -0.011600677 -0.017025083 -0.091542445 -0.1250245 -0.05862868
-0.032718886 -0.046952203 -0.12262268 -0.10708186 -0.0035013866 -0.057381924 -0.028568469 -0.073131666
0.0372173 -0.08123542 -0.09796427 -0.054585453 -0.014193949 0.021700066 0.029001532 -0.07706294

conv3.bias f4 [10]
00000000: 4305 c73e 8fd3 a9bd 4b4d 2fbd 3112 333d
00000010: 32eb 4fbc d9d4 adbd 1508 ba3d 3904 07bd
00000020: de25 5abe 0f35 cabd
0.38871202 -0.08292305 -0.04279832 0.04371852 -0.012690352 -0.08487863 0.09083573 -0.03296301
-0.21303508 -0.098734014

t_conv1.weight f4 [10, 8, 6, 6]
00000000: 7a54 f2bd 4bdb 4e3d f6c1 a13c 0238 41be
00000010: 3702 d8bd 88f5 ed3d 918d 17be 902a 593e
00000020: 77fc 95bd 4119 183f 5ead 89bd 0111 73be
00000030: e9fa 75bd 11a4 323d 7a05 54bd 4a34 773e
00000040: ec84 afbd 624d 4dbe 84d4 e8bd bbff c1be
00000050: b0e8 00be 3347 ebbe 244d 04be 9659 a3be
00000060: 4902 cfbd 82bb 2bbe bd8f f7bd 1fc8 9c3e
00000070: 2640 f9bd 3706 13be af8c f1bd 5e96 e6be
00000080: 4f6e 3abd 9301 0ebe 150b 92bd 3a0a 02be
00000090: a559 01bd 5d46 a1bd 7354 debc 9e35 90bd
000000a0: ca93 cfbc cf9f 92bc 35b7 86bd 3163 9dbd
000000b0: 985d a3bd d5b6 99bd 15cc 1ebd 656b 23bc
000000c0: e9fa 373d d2e6 98bd 0d59 49bd b852 73bd
000000d0: f01c 953d 39f2 52bd 80ce 90bc edf1 c4bc
000000e0: b9c7 5ebd bf93 bdbc d56f b8bb 8343 89bd
000000f0: f0b5 80be 0016 b0bc ef4c 96be 8375 6cbd
00000100: 0892 64be 590d c5bd 99da d6bd e053 cbbc
00000110: 3426 bfbc c8ed c0bd 5939 1ebc 7e20 f0bd
00000120: c533 05bf 28b8 84bd 5eb4 37bf b604 ce3e
00000130: b726 cd3d fdef 82bf ff23 a13e c1d5 ef3e
00000140: 2fae 523e 6fab ae3d dc5a 923e 3156 d53e
00000150: 763f adbe dd45 15bd 1f85 b1be 8d30 efbc
00000160: 89fe b93e 4abc adbe 4e80 4cbf b621 5a3e
00000170: aeb1 56bf 08e0 adbc 9e79 f43d 72d8 79bf
00000180: 22d1 9ebe 9461 1a3f 0139 1b3f d430 7d3d
00000190: e026 01be c755 7bbf 1b2b b1be 3c7d b5be
000001a0: 3da7 07bf 466c 07bd 5dcb 89bf d6d5 4c3e
000001b0: 3655 a93b bd86 c9bd 189d afbd 789b 9f3d
000001c0: 33e1 0fbe be39 c23d 25fd 2bbe 99e4 7c3e
000001d0: d869 6dbe 3fda 96be e124 debe 4c5f a2be
000001e0: 88f4 8cbe 05dc 20be 3e13 173f 3a81 c13d
000001f0: a1ba 8b3d 2f48 51be 9d35 e4bd 8164 b5be
00000200: 4c2a 79be c51f 37be dd40 56be e009 c7bd
00000210: f492 dd3d 34d1 c6be 6ee6 07bd 9fbd c9be
00000220: f65d a1be ef5d 95bd cc5d 08bd adbc 1ebe
00000230: 6829 9cbd da9e 29bd 1956 3cbc a1db b9bd
00000240: 8f3a 75be b4c6 203e 5b3e 10be 0909 39be
00000250: a585 05bf 7208 2dbe 0644 12bf fb18 6abd
00000260: fa14 46bf 9c97 363e 25dc dbbd ea07 553d
00000270: e1b7 19bf f5ef 82bd ff52 6ebf 5824 6ebe
00000280: 4556 37bf c07a 58be ec2a 08be b83b dc3c
00000290: 41fa 68be 008e ae3e 8458 4d3c 52a2 f1be
000002a0: 9e8c 7d3d 3d0e 31be 5c13 f73d fed5 edbe
000002b0: 0ad7 523e c854 cabe e2e5 51be 3634 0a3e
000002c0: 0546 4cbe 0d04 28be 872e 9b3d 24cc 003f
000002d0: 55f2 bbbe c4ff f1bd 90e8 dcbe 78c7 41bd
000002e0: 7488 22bf d6b6 eabd b81c 30bd dfcb 58be
000002f0: 9013 2b3e f8c2 86bd 7a46 2f3f f6bd ddbd
00000300: ab93 e9be 634a 2cbe b3f9 ffbe 15a7 dabc
00000310: 32c4 3ebf 0823 cfbd 6971 80be cb42 2cbe
00000320: 2ef6 c8be 4b22 67bc b172 b4bd 271c 13be
00000330: 8718 b33e d4c4 1bbe 59d6 aebe 89b1 75be
00000340: 9676 06bf 2661 b7bd e87e 37be 1039 cbbd
00000350: 301b 1dbe dd0f 7cbd 539f f4bb c153 31be
00000360: e085 96bd dda8 cab9 cd55 b8bd 65b9 e4bc
00000370: 975c ccbc e3d8 8ebd a382 a2bc 0bd9 8dbd
00000380: 3a8d c4bc e836 80bb f5c5 2ebd 7091 a7bd
00000390: cb3e b7bd eeac 4bbd 180c 753c abb9 f73a
000003a0: d869 44bb b372 b6bd d56f 63bd 9a8b 29bd
000003b0: 3e0c deba c53a 8cbd fa25 a7bc bd85 82bd
000003c0: 4fe4 9cbd 3c2c fdba cac4 89bd d9f8 a7bd
000003d0: 7f22 86bd c805 23bd a96f bebc 994c 41bd
000003e0: 7f2b f93a 363f 96bc 0db8 7dbd 91f9 6b3c
000003f0: df5b 773c be57 b1bf b3b2 e83e f3e1 69bf
-0.11832519 0.050502103 0.019745808 -0.18869022 -0.105472974 0.11619097 -0.14800097 0.21207643
-0.073235445 0.59413534 -0.0672252 -0.23736955 -0.06005374 0.043613497 -0.051763035 0.2414104
-0.08570275 -0.2004905 -0.11368659 -0.3789042 -0.12588763 -0.45952758 -0.12920052 -0.31904286
-0.10107858 -0.16770747 -0.12087963 0.3062143 -0.121704385 -0.1435784 -0.117944114 -0.45036596
-0.045515355 -0.13867788 -0.0713102 -0.12699214 -0.031579632 -0.07874749 -0.027139878 -0.07041477
-0.025339026 -0.017898468 -0.06577913 -0.07684935 -0.07976836 -0.075055756 -0.038768847 -0.009974335
0.04491702 -0.074659005 -0.04915719 -0.05940506 0.0728091 -0.051500533 -0.017676592 -0.02404114
-0.05438969 -0.02314174 -0.005628566 -0.0670233 -0.25138807 -0.021494865 -0.2935557 -0.057729255
-0.22321332 -0.096216865 -0.10490913 -0.024820268 -0.023333646 -0.09420353 -0.009657227 -0.117249474
-0.5203212 -0.064804375 -0.71759593 0.4023797 0.1001715 -1.0229489 0.31472775 0.4684277
0.20574258 0.08528792 0.28584945 0.4166732 -0.3383748 -0.03644358 -0.34671876 -0.029197956
0.36327007 -0.33932716 -0.7988328 0.21301922 -0.8386487 -0.02122499 0.11937259 -0.97595894
-0.3101893 0.6030514 0.60633856 0.061814144 -0.12612486 -0.9817776 -0.346032 -0.3544711
-0.5298956 -0.033062242 -1.0765187 0.20003447 0.0051676286 -0.098401524 -0.08574885 0.07793325
-0.1405075 0.0948367 -0.16795786 0.24696578 -0.23184907 -0.29463384 -0.4338751 -0.3171333
-0.27530313 -0.15708931 0.59013736 0.09448476 0.06822706 -0.20437692 -0.111430384 -0.3542824
-0.24332541 -0.17883213 -0.20923181 -0.097186804 0.10819045 -0.38831484 -0.03317874 -0.39402482
-0.31517 -0.07293307 -0.033292577 -0.15501662 -0.07625085 -0.04141126 -0.011495137 -0.09075094
-0.2394812 0.15700799 -0.14086287 -0.18069853 -0.5215705 -0.16897753 -0.57135046 -0.05715273
-0.7737576 0.17831272 -0.107353486 0.0520095 -0.600462 -0.063934244 -0.9309539 -0.23256052
-0.7161601 -0.21140575 -0.13297623 0.026883945 -0.22751714 0.34092712 0.012533311 -0.47194153
0.06190168 -0.17290588 0.120642394 -0.46452326 0.20589843 -0.39517808 -0.2049785 0.1349648
-0.19948585 -0.16407795 0.07577234 0.50311494 -0.36708322 -0.118163615 -0.4314618 -0.04730937
-0.6348946 -0.114606544 -0.04299614 -0.2117152 0.16706681 -0.06580156 0.68466914 -0.10827248
-0.45620474 -0.16825251 -0.49995193 -0.026690999 -0.7451812 -0.101141036 -0.25086525 -0.16822354
-0.3925032 -0.014107297 -0.08810938 -0.14366208 0.3497965 -0.15211803 -0.3414791 -0.23993506
-0.525247 -0.089540765 -0.17919505 -0.09922993 -0.15342402 -0.061538566 -0.007465282 -0.17317106
-0.073497534 -0.00038654255 -0.0900074 -0.027920434 -0.024946494 -0.069749616 -0.019837683 -0.06926163
-0.023993123 -0.0039127953 -0.042669255 -0.08182037 -0.08947524 -0.049725465 0.014956497 0.0018899938
-0.0029970314 -0.08908596 -0.055526573 -0.0413929 -0.0016940904 -0.06847147 -0.02040385 -0.06373165
-0.07660734 -0.0019315551 -0.06726988 -0.08201761 -0.06549548 -0.039800435 -0.023246603 -0.04719219
0.0019010155 -0.018340688 -0.061943103 0.014402763 0.015097587 -1.3854902 0.45448837 -0.91360396

t_conv1.bias f4 [8]
00000000: 6236 11bd a0a5 22be f364 203f fe22 853e
00000010: 3fd8 02be 3b09 0c3e a1b1 0ebd b2f9 d03e
-0.035452254 -0.15883493 0.62654036 0.2600326 -0.12777804 0.13675396 -0.03483737 0.40815502

t_conv2.weight f4 [8, 5, 6, 6]
00000000: 9fee 3dbd 1b54 50be b6a0 a4bb 66df 4abe
00000010: 6297 cebd 9c48 2dbe 34b4 c7bd e175 b5bd
00000020: c47e 88bd fcdf 33be dae0 ee3c 41dc c5bc
00000030: e979 d8bd b833 21be b852 48bd d5dc a3bd
00000040: 2c30 afbd af01 3fbd 15a5 b7bd 5d5a 1dbe
00000050: 4427 ccbd 5abc aebd 44ba 79bd 06ef 76bd
00000060: 958f d6bd 2ca5 d0bc 8b6a 74bd e71c fc3b
00000070: 79dc f3bd ccfe d43b 466a afbd fd36 dcbd
00000080: 8336 16bc 6c4c 77be 30be ae3b afb9 16be
00000090: 12b3 debd 37dd 69be f628 923d 5bdc fa3c
000000a0: 2bfc b7be f393 a13d 0515 b83d 9aea 373e
000000b0: 0567 9e3e e926 753e cf1c 0c3f 5b43 933e
000000c0: faec 9dbd dc15 4a3d 096b 8e3e 66eb 42bd
000000d0: b633 ddbe 8cbf 0b3e b9e0 a0bd 58be aa3e
000000e0: 2083 213d 06ad 96be 3cbb dfbe 6008 b53d
000000f0: a1d7 cebd a481 48bd 34c7 403e dc00 5abe
00000100: b26c ea3d d03c 4e3e 4233 8ebd 6b3e 5abe
00000110: 9771 24bc 912d afbe d2ef 973e e222 a8bc
00000120: 9068 033d 98fe 89be 1c5b f4be 9e8a 8fbd
00000130: 96be c03e 07b8 2f3e 52be 02bd ecbc 933d
00000140: 4911 7dbe 6613 49bd 3e87 0bbe 7cf3 07be
00000150: 0ae0 9f3e 69cd e7be e29e 89bf 0d45 26bf
00000160: 0f3a 6cbf af15 a6be 1295 9b3c 2124 b6be
00000170: 8d9d b1be 7bf1 babf 1be3 71be 328b 2abf
00000180: 4221 303e 0944 6cbd 6e00 17be 1882 67be
00000190: a5f1 64be 67fe 89bd 7160 ab3c c3f5 c73c
000001a0: dd28 f9bb c700 bebe 4fc6 cabc e2bb bd3e
000001b0: 41d8 35bd 4e26 1abc a03c 113e ccdd 293e
000001c0: 1ab0 853d a83e bfbc 162f 4ebd 207f 2c3d
000001d0: d41e 3a3e 8708 753e 0fc4 8a3d 18b6 a0bc
000001e0: e7da 21bd 77a8 e43d 8624 213e f838 9a3e
000001f0: 3a6c 493e d9c6 95bd d5ae ba3c d64d 683d
00000200: b6d2 db3d e12e 213e e255 da3d a751 be3d
00000210: 4915 e73b 8570 163c a64a 113d 7a64 28bc
00000220: a103 7f3c d498 ff3c 080b a9bc 253f 013c
00000230: 25e5 773d d1d6 a1bc f507 84bd 4f9e 39bc
00000240: df7a 20bd 2a87 b4bc 6738 35bf 7634 4b3d
00000250: ec74 32be 4d99 b9be e2a7 533e 452e 5bbf
00000260: 4642 f0be f780 5e3d 1ad4 9e3b fb6b f23e
00000270: 4e79 333d 1e28 5a3e b1bd d23e 7621 64bf
00000280: 4a47 06bf df7c 5b3e 587c 6e3e 9727 143f
00000290: 1660 70be 659b 9ebf a707 05be 320d b7bd
000002a0: ff39 75bc 5c5f 14be fbee 873d dbd9 32c0
000002b0: 4b9a c3bd 957d cabd d804 b7bd d81e 49be
000002c0: 12ef 97be 1036 35bf ddef 95be f3dd d0bd
000002d0: 55b7 75bd 5306 12bd 10fc d6bb acac f13c
000002e0: c4b8 c93c d9c2 95bd 941a 263d 2ce9 a83c
000002f0: 00bc 14ba 507e e1bb 2a6a a4bc cba6 32bd
00000300: 3bb9 64bd cde3 883d b71a 1ebd 3a6d af3d
00000310: 7d54 813d f4e2 a93d 7731 433c 3c8e f1bc
00000320: 1fbc ee3c f044 f0bc 2505 0e3d c03e 953a
00000330: d359 84bd 97f4 83bd 6c87 dcbc 6169 18bd
00000340: 6a99 e3bc cbe2 8abd 4e3f 5abd 7f0d 8ebd
00000350: 24ea 40bd f50f 973d eea6 1cbd eaf9 17bd
00000360: 2828 393d 7c63 6a3d 0987 ba3d 126b 5fb8
00000370: f76d 893d 7a28 3cbc e2c3 913d d970 113d
00000380: d054 eb3d da0d 64bc 357d 043e 0f2e df3b
00000390: df5d e83d 6252 7e3d c445 ac3b 26da f93d
000003a0: 2152 a83c 8488 4abc b7a3 353d 63b2 793d
000003b0: c63d 2d3c 4bd8 003e 9143 f53d 7452 c63c
000003c0: 7a59 f53c 2e3e 283d 3db2 073e b0c9 c63b
000003d0: 3d2a 6b3d 8c69 ef3d 4b6f 09bc 719c 1a3d
000003e0: 1556 f239 52bf 443d 18bc 033e f62c 383c
000003f0: dd11 613e 6f63 6a3d 5c1d d7bd d80d 07bc
-0.046370145 -0.20344584 -0.005024041 -0.19811782 -0.10087468 -0.1692223 -0.09751168 -0.08860374
-0.066648036 -0.17565912 0.029159952 -0.024152877 -0.105701275 -0.15742385 -0.04890701 -0.08001105
-0.0855411 -0.046632465 -0.08967034 -0.15366502 -0.09968427 -0.08532019 -0.060968652 -0.060286544
-0.10476605 -0.025469385 -0.05967192 0.007693875 -0.11907286 0.0065001007 -0.08565192 -0.10752676
-0.00916827 -0.24150246 0.0053327307 -0.1471927 -0.10873999 -0.22838293 0.07136719 0.030622652
-0.35934576 0.07889547 0.08988384 0.17960587 0.30937973 0.23940624 0.5473146 0.28762326
-0.07711215 0.049337253 0.27816036 -0.047587775 -0.43203515 0.13647288 -0.078553624 0.33348346
0.03943169 -0.2942888 -0.43697536 0.08839488 -0.10099722 -0.04895176 0.1882599 -0.2128939
0.11446513 0.20140386 -0.069433704 -0.21312873 -0.010036848 -0.34214452 0.29675156 -0.020524446
0.03208214 -0.26952052 -0.4772576 -0.07008861 0.37645406 0.17160045 -0.031919785 0.07213768
-0.24713625 -0.049090765 -0.1362581 -0.13276476 0.31225616 -0.45273903 -1.0751612 -0.64949113
-0.9227609 -0.32438418 0.01899198 -0.3557444 -0.34690514 -1.4604944 -0.2362179 -0.66618645
0.17200187 -0.05768207 -0.14746258 -0.2260822 -0.22357805 -0.067379765 0.02092001 0.02440918
-0.0076037482 -0.37109968 -0.024752764 0.37057406 -0.04439569 -0.009408547 0.14183283 0.16588515
0.06527729 -0.023345307 -0.050337873 0.042113423 0.18175822 0.23929034 0.067756765 -0.019618079
-0.039515402 0.111649446 0.15736589 0.3012159 0.19670191 -0.07313318 0.022788445 0.056714855
0.10733549 0.15740539 0.10660912 0.09292918 0.007052098 0.0091821 0.03547158 -0.010277862
0.01556483 0.031200804 -0.020635143 0.00788859 0.060521264 -0.019755753 -0.0644683 -0.011329248
-0.03917968 -0.022037107 -0.7078919 0.049610578 -0.17427415 -0.36249772 0.20669511 -0.85617477
-0.46925563 0.05432221 0.004847062 0.47348008 0.043816857 0.21304366 0.41160348 -0.8911356
-0.5245253 0.21434353 0.23289621 0.5787291 -0.23474154 -1.2391173 -0.129912 -0.08938064
-0.014967441 -0.14489502 0.06637379 -2.7945468 -0.095509134 -0.09887234 -0.08936471 -0.19640672
-0.29674584 -0.7078562 -0.29284564 -0.101985835 -0.059989292 -0.035650562 -0.00656081 0.029501282
0.024624236 -0.07312555 0.04055269 0.020618998 -0.0005673766 -0.0068815127 -0.020070154 -0.043616097
-0.055840712 0.066840746 -0.038599696 0.08565755 0.06314943 0.08295241 0.011913649 -0.029486768
0.029142438 -0.029329747 0.034672875 0.0011386499 -0.06462445 -0.06443136 -0.026920043 -0.037209872
-0.027783114 -0.067815386 -0.05328303 -0.06936168 -0.047098294 0.073760904 -0.038245134 -0.03710357
0.04520431 0.057223782 0.09107787 -5.326706e-05 0.06710427 -0.01148426 0.0711744 0.03550801
0.11490786 -0.013919318 0.12938388 0.0068109105 0.113460295 0.062090285 0.00525734 0.12199812
0.020546975 -0.012361649 0.044345584 0.06096114 0.01057381 0.12582509 0.11975778 0.024209239
0.029949892 0.041074924 0.13251586 0.0060665235 0.05741333 0.11690053 -0.008388351 0.03774685
0.00046221973 0.04803402 0.12864721 0.011241188 0.2197947 0.057223734 -0.10503647 -0.008243047

t_conv2.bias f4 [5]
00000000: 30d1 1bbe 25ae 9f3d 6ed9 f23e 35e3 aabd
00000010: 6e0f 5dbd
-0.15216517 0.07796887 0.4743151 -0.083441176 -0.053969793

t_conv3.weight f4 [5, 3, 6, 6]
00000000: 4f29 6abd 2afa 94bd fead 7cbd 5bb0 30bd
00000010: c640 1fbc b62e ad3d ffda c53a 24ae 933d
00000020: b2d7 2fbd c019 9a3d 14c3 863d 6d0b 0cbd
00000030: 49a2 74bd 5d9d 433c 70dc fd3c 05bf 7e3d
00000040: ec0a 983d c0b6 a43c f066 bc3d ff65 f63c
00000050: 34c1 8fbd 17b1 643c afc4 023d 02f5 e23c
00000060: df9a 0fbd ae47 043e 3e08 e13d 4e2b 0cbd
00000070: a96a ccbb c1dc 733d a88a be3d 6af0 dc3b
00000080: 2350 193d a252 133d a160 1b3d ec73 083b
00000090: f9d3 68bb 388e abbd 082b 483d 0fed 933c
000000a0: 2992 3c3d 3e42 ae3d b97c 35bd 8ca9 1abc
000000b0: 0f84 8fbd 491c 86bd 5a14 8cbd 2f06 c13d
000000c0: d2aa 1bbd f2f7 a23d c07d 0abd 5c2c 9f3d
000000d0: 1268 bb3b e6a0 eb3d a024 1fbd 057c 183b
000000e0: 8e08 033e 881a e33d cf6f d03d 4978 673d
000000f0: 6814 c33d 574a e6bc d678 0d3d aa55 32bc
00000100: 2f08 ed3d 0976 743d 57ac 963d 48d5 6a3d
00000110: 4969 f53d 2176 e53b 7533 0a3d d608 023d
00000120: dfad b0bd 40fb 6fbd d969 90bd c106 80bb
00000130: b864 cb3c 08f1 a03d e430 883d f8a7 de3b
00000140: 997d ae3d c7e9 b8bd 24c2 92bd 36d0 a03d
00000150: e6eb 2f3d 02e3 a53d 3e2b 363c 5ed5 e33c
00000160: c9d6 2f3c b1db 9e3d 2194 573d a56c d73d
00000170: eef9 4cbd 75a1 743d e012 ac3d 712b a53d
00000180: 362f d63d 6b46 67bd 45df 823c b034 353d
00000190: 44b7 0f3d fae9 a43b a88d 653d f1ca 943d
000001a0: f880 033e ff04 a93d 34bc 9bbc 1ff8 c43c
000001b0: 4453 31be 79bf 9ebe 7c92 a0be 8848 59be
000001c0: 222e fcbd f8ae 84bd 08b7 9abe 65bc 1abf
000001d0: 8add 11bf 942d b2be 67b2 14be 2209 8fbd
000001e0: 48c1 79be 4527 06bf 4204 f1be e497 60be
000001f0: e6da 113d 3415 813d 94cd 08be 8eac 9ebe
00000200: aeef 4dbe 799a 3c3d ce2e 893e fa99 303e
00000210: 7ee6 31bd 6a99 2abe 0212 b6bc d569 4d3e
00000220: 9704 b53e b779 463e bad0 43bd ded3 9dbd
00000230: c04d 4cbc feb7 ba3d 44fd 203e 5ba9 ab3d
00000240: 50ba 0cbe 3c62 9bbe c131 9abe 2aba 55be
00000250: f48e e4bd 66ab 6ebd 49bd 8fbe b02a 1bbf
00000260: 76ff 12bf 1584 b6be c359 15be 7bce 92bd
00000270: 3445 66be e734 07bf 966a f7be 4c1a 6ebe
00000280: 42bc 023d 9cd8 843d 850d d0bd 84d1 a3be
00000290: fa23 53be 5c2d 203d ecd8 8a3e 86be 323e
000002a0: 6b03 33bc 109d 2dbe 0f67 babc 55b8 4a3e
000002b0: 3ab8 b23e 226e 4a3e 54b1 d83b cb0c 82bd
000002c0: 26f6 00bc a351 be3d 41f9 1c3e 5912 b93d
000002d0: 88e5 86bd eb60 90be 2f13 93be 295a 4fbe
000002e0: fd8f e7bd 2905 8abd 90fc 97be f449 20bf
000002f0: 83b5 17bf 01d3 c4be 1812 35be 459a cfbd
00000300: 2e90 7dbe b679 0cbf bd4a 02bf 69cc 83be
00000310: 66ed a63b 9fee 333d 1e79 eebd bdda b0be
00000320: fc30 6cbe 5a14 6b3c 5c3f 7a3e db42 1a3e
00000330: f15c b0bc 4b66 38be b62a 1ebd 0439 303e
00000340: 0d19 a03e eee2 263e 9c30 0c3d 4eb8 6dbd
00000350: 94dd 61bc 2c59 aa3d 4dec 063e 8c95 963d
00000360: e054 e23d 6e34 293e ffe8 a63d 9e71 dd3d
00000370: 014e 0b3e fd03 1d3d 355b e33d 0f04 783e
00000380: 6d63 803e 2db1 963e 8712 8d3e 7223 a73d
00000390: 1cad 813d a19d 863e ad19 c23e 13dd c93e
000003a0: c36f a73e b262 e23d e778 613d f45c 8b3e
000003b0: 15b2 ce3e 1622 cd3e 21b7 a43e 1894 d53d
000003c0: dbf9 793d fa54 573e 4b14 933e 43e0 963e
000003d0: 5040 683e 4bef 8b3d 337f 173c 2aab 983d
000003e0: a5c2 8f3d 1f20 b93d 6600 8e3d 03d7 f63a
000003f0: 169d ab3d cf72 2d3e 6f54 ba3d 700f eb3d
-0.0571683 -0.072742775 -0.06168937 -0.043136936 -0.009720033 0.08456175 0.0015095173 0.07210949
-0.042930312 0.07524443 0.06580177 -0.034190584 -0.05972508 0.011939374 0.030988902 0.06219389
0.07423958 0.020106673 0.09199321 0.030077932 -0.070192724 0.013958237 0.031925853 0.02770472
-0.035059806 0.12917969 0.109879 -0.034220986 -0.006238301 0.0595367 0.0930379 0.006742527
0.03742994 0.035967477 0.03793395 0.0020821048 -0.0035526736 -0.083767354 0.048869163 0.018057374
0.046037827 0.085087284 -0.044308398 -0.009439837 -0.0700761 -0.06548364 -0.06839819 0.094250076
-0.038004704 0.07957448 -0.03381133 0.07772133 0.0057191933 0.11505298 -0.038853288 0.002326728
0.12796232 0.11089045 0.10177576 0.056511197 0.095253766 -0.02811162 0.034539066 -0.010884682
0.115738265 0.05968288 0.0735709 0.057332307 0.11982972 0.0070026075 0.03374048 0.031746708
-0.08626913 -0.05858922 -0.07051439 -0.003907055 0.0248283 0.07858473 0.0664995 0.006794926
0.085200496 -0.090289645 -0.07165936 0.07852213 0.04294958 0.08099939 0.011118708 0.027811702
0.010732361 0.077567466 0.0526315 0.10518769 -0.05004304 0.05972429 0.084020376 0.080649264
0.104582235 -0.05646364 0.015975604 0.0442397 0.035086885 0.005032775 0.056043297 0.072652705
0.12842166 0.08252906 -0.01901064 0.024044095 -0.1731692 -0.31005457 -0.3136176 -0.21219075
-0.12313487 -0.06478685 -0.30217767 -0.6044372 -0.56978667 -0.34800398 -0.1452118 -0.06984164
-0.24390137 -0.5240367 -0.4707356 -0.21932942 0.03560915 0.06302872 -0.13359672 -0.30991024
-0.20110962 0.046045754 0.26793522 0.17246237 -0.043432705 -0.16660085 -0.022225384 0.20059903
0.35355064 0.19382368 -0.04780648 -0.07706426 -0.012469709 0.09117125 0.15721613 0.08381911
-0.13742948 -0.30348384 -0.30116084 -0.20871797 -0.11160079 -0.058268927 -0.280741 -0.6061201
-0.5742105 -0.35647646 -0.14585023 -0.07168289 -0.22487336 -0.528151 -0.48323506 -0.23252219
0.031917818 0.064866275 -0.10158829 -0.31995785 -0.20619193 0.039105758 0.27118623 0.17455491
-0.010926108 -0.16954446 -0.02275422 0.1979688 0.3490618 0.19768575 0.006612936 -0.06350096
-0.007871186 0.09292915 0.15329458 0.09036703 -0.06586748 -0.28198943 -0.28725573 -0.20249237
-0.113067605 -0.067392655 -0.29684877 -0.62612844 -0.5926134 -0.38442233 -0.17682683 -0.101368465
-0.24762031 -0.54873216 -0.5089529 -0.2574189 0.005094218 0.04392874 -0.11644195 -0.34541884
-0.23065561 0.014348114 0.24438232 0.15064566 -0.021528693 -0.18007772 -0.03861495 0.1720925
0.31269112 0.16297504 0.034226045 -0.058037095 -0.0137857385 0.083177894 0.13176079 0.073527426
0.11051345 0.16523907 0.08149909 0.108126864 0.13603975 0.03833388 0.11101381 0.24220298
0.25075856 0.2943205 0.27553198 0.081610575 0.06331846 0.26292136 0.37910214 0.3942648
0.32702455 0.11053981 0.055046942 0.27219355 0.4037024 0.40065068 0.32170966 0.10428637
0.061029296 0.2102851 0.2872642 0.29467973 0.22680783 0.06832751 0.009246635 0.07454522
0.070195474 0.0903933 0.0693367 0.0018832389 0.08379571 0.16938327 0.09098136 0.11477554

t_conv3.bias f4 [3]
00000000: 2c74 783f adb2 693f 9da6 233f
0.97052264 0.9128826 0.63926107
