models/cae3.pth (torch, 208399 bytes, 12 tensors)

conv1.weight f4 [16, 3, 3, 3]
000000 d1 b4 42 bc 63 ba cc bd 19 e8 92 3d 3f fc 55 3d
       -0.01188393 -0.09996488 0.07173175 0.052242514
000010 49 6c e7 bd 5c 67 54 be 1a 26 8b 3d 5b 84 56 bd
       -0.11299951 -0.20742553 0.06794377 -0.052372318
000020 c6 02 62 be af 31 8c 3d 66 42 05 be ed b0 b2 3b
       -0.2207137 0.06845414 -0.1301361 0.00545322
000030 96 60 44 be e9 a2 13 3d 57 80 90 bd 19 c2 48 3c
       -0.1917747 0.036044035 -0.07055729 0.012253308
000040 26 22 06 3c ff d5 01 3d 4a 75 5f be a4 09 99 3c
       0.008186853 0.031698223 -0.21822086 0.018681355
000050 82 c9 77 be a9 05 b7 bd 3f 80 f0 3c c0 41 21 3e
       -0.24197963 -0.089366265 0.029358028 0.15747738
000060 16 23 89 bd 34 5d 0c 3e ed ab 8f 3d de d4 6c be
       -0.06696145 0.13707429 0.07015214 -0.23128077
000070 24 73 78 3d 88 8a 35 be b9 14 f0 bd 62 25 07 bd
       0.06065668 -0.17728627 -0.117227025 -0.032994635
000080 80 9f 2c 3d 44 4a 11 bd 49 c6 65 3d a4 e3 1b 3d
       0.0421443 -0.035471216 0.056097303 0.038058892
000090 6c d2 3a be be af 51 3e 68 91 60 be 0d 81 e7 bd
       -0.18244332 0.20477197 -0.21930468 -0.11303911
0000a0 08 47 a5 bd 6d bd 70 bd 54 da 60 bd f2 02 b2 3d
       -0.08070189 -0.0587744 -0.054895714 0.08691968
0000b0 b0 37 81 bd 5c ac 04 3e 06 c2 31 3e f0 48 db bb
       -0.0630945 0.12956375 0.1735917 -0.0066920444
0000c0 d3 39 b5 bd e2 24 8e 3e e9 07 83 be 81 da 0c 3e
       -0.0884892 0.27762514 -0.25591972 0.13755228
0000d0 97 a9 4f 3d 21 aa df bb 08 55 11 be 25 f3 b3 bd
       0.050698843 -0.006825701 -0.14192593 -0.087866105
0000e0 86 76 9e bc e1 03 5a bc f8 1d 7a bd 99 6f ed bd
       -0.019343626 -0.013306589 -0.061063737 -0.11593551
0000f0 65 17 06 3b f7 9d e3 bd 2c 45 09 bd df b4 60 3d
       0.0020460722 -0.11114114 -0.033513233 0.054859992
000100 b1 a4 05 be aa 3f 0c be 9a 26 88 bd 7d bd 74 be
       -0.13051106 -0.13696161 -0.06647988 -0.23900409
000110 11 ad 08 be 02 9e 78 bd c2 5a fe 3d 0e f1 42 be
       -0.1334727 -0.060697563 0.124196544 -0.19037268
000120 b9 65 6f bb d7 e9 6e 3d 8d 86 98 3d 28 2e 2c be
       -0.0036529137 0.058328476 0.074475385 -0.16814482
000130 e5 d5 f1 bc 2f 53 a5 3c 59 ec 32 be 56 ef 8a 3d
       -0.029520938 0.020181267 -0.17472972 0.06783931
000140 fa 32 25 be 54 0e da bd 41 e7 36 3e 3e f8 e7 be
       -0.16132727 -0.10647264 0.17861654 -0.4530658
000150 6e 46 39 3e 02 b4 a0 3e 69 4e 34 3d 44 41 a9 bd
       0.18093273 0.31387335 0.04402009 -0.082644016
000160 d3 4a fb 3d 5f 82 1a bf 02 4c 13 be 73 5f 27 3e
       0.12270131 -0.6035518 -0.14384463 0.16345005
000170 8b f0 02 bf 55 cf c2 3d ad de 58 3e 31 61 ce 3d
       -0.5114829 0.09512202 0.21178694 0.100771315
000180 ff c9 08 be 51 58 a6 3d aa e9 a4 be 9c bf 0a be
       -0.13358305 0.08122314 -0.32209522 -0.13549656
000190 c0 5a 7e bd 95 87 a4 be ba 5a 05 3c b2 5c 64 3e
       -0.062098265 -0.3213469 0.008139307 0.22300985
0001a0 28 85 04 3e d7 68 e1 bd b3 af 90 ba 44 ae 5e be
       0.1294142 -0.11006325 -0.001103869 -0.21746165
0001b0 99 31 c6 3d 2e c4 d2 3c 22 5d b9 bc a0 a2 13 bd
       0.09677429 0.025728311 -0.022627417 -0.036043763
0001c0 15 89 b4 3c 78 e3 88 bd be 5e 94 bc fa da a5 3d
       0.022038022 -0.06684011 -0.018111583 0.08098407
0001d0 a5 fc c9 bd 1a af 6b 3d 4b 2b 00 3e 05 8c 7e 3d
       -0.09862641 0.057540037 0.12516515 0.06214525
0001e0 76 db ab bb 7b 7e 49 3d b4 89 07 be 2b 4b 29 3e
       -0.0052446676 0.049192887 -0.13236123 0.1653258
0001f0 9a 93 aa bd c9 4a 26 3e f2 bf 64 3e 3b 7e 34 3d
       -0.08328934 0.16239466 0.22338846 0.044065695
000200 d1 0b d9 3d 5e 0c b0 bc b6 fb 87 3e 7d eb a8 3d
       0.10597957 -0.021490272 0.26559228 0.08248041
000210 e9 ca 5c 3e 7e 2f 84 bd 16 a3 f9 3d 80 ef db bd
       0.21561779 -0.06454371 0.12189309 -0.107390404
000220 5a 5a 3c b9 88 d0 79 bc 71 f8 e2 3d f1 8e 0e 3c
       -0.00017962736 -0.015247472 0.11082543 0.008701072
000230 c4 3d 63 3d 76 31 fc ba 62 34 f2 bd b6 cd f1 3d
       0.055478826 -0.0019240815 -0.118263975 0.118068144
000240 a4 ed f2 3d 66 0c ac bd 84 01 9f 3d 1b e0 13 be
       0.118617326 -0.08400802 0.07763961 -0.14440958
000250 ce fd a7 be 44 28 33 be d4 d0 bf bd b6 d5 0a be
       -0.32810825 -0.17495829 -0.09366003 -0.13558087
000260 34 7d 33 be 4d 0d 62 3d 8c 86 ae bb fc 74 79 b8
       -0.1752823 0.055188466 -0.005326098 -5.9475176e-05
000270 a3 67 c1 bd 5f 44 31 bf 27 f8 7a be 1c e8 88 3d
       -0.09443595 -0.6924495 -0.24508725 0.06684896
000280 af 9d de be 46 6a 4e 3d 23 d8 2f 3e 7d eb dc 3d
       -0.43479678 0.05039432 0.17172293 0.10787103
000290 1a 80 31 bc 52 e9 fc 3e 56 0c 2e 3e ad d9 20 bc
       -0.010833764 0.4939676 0.16996893 -0.009817523
0002a0 fb 83 53 3c a2 56 b2 3d dc c5 06 3d 28 28 5e 3d
       0.012909885 0.0870793 0.032903537 0.054237515
0002b0 3f a5 61 bd 86 b3 9b 3d d9 ca 92 3e 95 b5 bd 3c
       -0.05508923 0.07602601 0.28670385 0.023157874
0002c0 04 f6 58 bc 32 c8 ef 3c c2 5b ea 3c 7a f9 34 bd
       -0.013242248 0.029270265 0.028608207 -0.044183232
0002d0 35 d6 42 bd a5 56 91 bc b2 18 64 bd f1 36 c8 3d
       -0.047567565 -0.01774151 -0.055687614 0.09776104
0002e0 80 e4 e7 bd db fb d9 bc 05 c0 de bd 59 d5 a6 bd
       -0.1132288 -0.026609352 -0.108764686 -0.081461616
0002f0 5a b3 9c 3c 12 52 cc be a8 ed a5 be 90 ca 09 bf
       0.01912849 -0.39906365 -0.3240788 -0.5382471
000300 04 7b 95 be f4 38 3c be 4e 2a e3 be 2b aa 06 bf
       -0.29195416 -0.18381101 -0.44368213 -0.52603406
000310 09 f2 ae be ad c0 15 bf c5 de 8c be 64 7a 8a be
       -0.34169033 -0.58497125 -0.2751371 -0.27046502
000320 f3 d5 7a be 2b f1 77 be a2 46 8d be 49 e4 9f be
       -0.24495678 -0.24213092 -0.2759295 -0.31228855
000330 5d 35 44 be b3 90 86 be 4e 6a ba be e3 d8 07 bd
       -0.19160981 -0.26282272 -0.3640923 -0.033165824
000340 7b ca 6d be 34 39 c7 be df 7a 1c be 52 41 5c 3d
       -0.23221771 -0.3891083 -0.15281247 0.05377323
000350 cf 5e d8 be 79 a3 f1 bb 6f e5 2c be cb 19 00 be
       -0.42259833 -0.007374224 -0.16884397 -0.12509839
000360 02 20 22 be 38 01 c1 3c 49 72 29 be 25 30 44 be
       -0.15832523 0.023560151 -0.16547503 -0.1915899
000370 d0 e2 30 bc cd f4 0a be 83 22 a3 bd 53 19 a3 bd
       -0.010796264 -0.13569947 -0.07965567 -0.079638146
000380 ba 98 1c be a1 be 17 be 27 61 29 be dd 7b ef bd
       -0.15292636 -0.14818813 -0.16540967 -0.11693547
000390 83 a7 99 bd 0c c6 7b 3d ef 3e 2e 3e 20 4e ac bc
       -0.075026534 0.06146817 0.17016195 -0.021033347
0003a0 4e 57 38 be 34 a9 6f bd 99 51 04 be ef 1e 0c be
       -0.18002054 -0.058510974 -0.12921752 -0.13683675
0003b0 d4 1d 37 be 3e 3b 86 3d 82 7c a2 3d fe 9c e2 3d
       -0.17882472 0.06554268 0.07933904 0.110651
0003c0 53 b4 20 3e 3d 86 2c be ee a9 11 be e9 99 00 3d
       0.15693788 -0.16848083 -0.1422498 0.03139678
0003d0 27 a1 ec bd 0f 71 0d 3e 3e 62 77 bd 43 11 e4 3d
       -0.11554175 0.1381266 -0.060396425 0.11136105
0003e0 e5 03 fd bc d2 a8 08 bd 35 eb 6e bd 17 ee 18 bd
       -0.030885646 -0.033364125 -0.05832978 -0.037336435
0003f0 82 ea 62 3d c8 2f 9f be a7 e6 4e bc dc a9 02 bd
       0.055399425 -0.31091142 -0.012628234 -0.03190027

conv1.bias f4 [16]
000000 5d e2 54 bd 16 e7 03 3e 7d e9 f5 bd c6 a5 fa bd
       -0.05197369 0.12881121 -0.12007425 -0.1223865
000010 49 6f 25 be 02 7a 57 3e 07 00 17 be 1c bf 1d 3e
       -0.16155733 0.21042636 -0.14746104 0.15404934
000020 3c b3 2a be ce 25 e0 3e 97 cf 8b 3e 6f ef 19 be
       -0.16669935 0.43778843 0.27306816 -0.15032743
000030 c6 aa 78 3e 6a 9b ff bd 8c 80 68 3e 9e 16 6f 3d
       0.24283895 -0.12480815 0.22705287 0.05837118

conv2.weight f4 [32, 16, 3, 3]
000000 68 94 97 bd 04 68 56 3c 2d d3 18 3c 39 1f b2 bd
       -0.07401353 0.013086323 0.009327692 -0.086973615
000010 47 0d 84 bd f9 8b 88 bd af 93 4d bd 67 b7 2d bd
       -0.06447845 -0.06667323 -0.05018967 -0.042411234
000020 a7 ec 1d bc 5b bd 2e bd 06 7e 3a bd b0 2d 51 3c
       -0.009638942 -0.042661052 -0.04553034 0.01276724
000030 69 75 db bd de 3c e8 bd 36 70 90 bd 6e f0 a8 bd
       -0.107157536 -0.113397345 -0.070526525 -0.08248983
000040 bd 70 b9 bd f2 c9 7a 3c 4d 0b 1b bb 64 27 0b 3c
       -0.09054706 0.015306937 -0.002365786 0.008493278
000050 34 b1 07 be f9 3f 77 bd df 31 75 bc a5 05 eb bd
       -0.13251191 -0.060363743 -0.0149655035 -0.11475686
000060 59 e3 a6 bd 3d 5e c1 bd eb 7d 29 bc 6b 2f a2 3c
       -0.08148832 -0.09441803 -0.010344963 0.019798001
000070 14 dd d2 bd 7d ad cc bc 83 6a f6 bd b4 64 f3 bd
       -0.102960736 -0.02498507 -0.12032034 -0.11884442
000080 7c d9 11 3c 44 67 58 bd ee f3 fa bc 10 f5 d8 bd
       0.00890195 -0.052832857 -0.030633893 -0.10593617
000090 2d 68 c7 bd 53 75 c0 bd 33 a0 f7 bd cb 90 16 bd
       -0.09736667 -0.09397378 -0.120911025 -0.03675918
0000a0 16 a7 d5 bd 07 58 6c bd b6 50 9c 3c c7 ef bd bd
       -0.1043226 -0.057701137 0.019081455 -0.092742495
0000b0 c5 a1 8c 3b 8f b8 54 bd 8f f4 35 bd 72 e3 27 3c
       0.0042917454 -0.05193382 -0.044422682 0.010247098
0000c0 58 57 73 3c 04 6d 1f bc 5b 93 0f bc 22 0f 8a 3b
       0.014852367 -0.009730581 -0.00876316 0.0042132298
0000d0 4c 3f c8 bd 73 8f 8d bd 1a f2 45 3c 12 97 84 bd
       -0.09777698 -0.069121264 0.012081647 -0.06474127
0000e0 23 c5 0c be e5 b5 db bd 1c a9 8f bd 99 0a 00 be
       -0.13747077 -0.10728053 -0.07014677 -0.12504043
0000f0 19 bd 6c bd b0 3f 02 bd ea 05 ad bd 89 55 23 be
       -0.057797525 -0.03179902 -0.08448394 -0.15950598
000100 46 7b bc 3c 1b 29 9b bd bc a4 87 ba 48 62 80 3c
       0.023008 -0.075761996 -0.0010348777 0.015671864
000110 d8 74 c7 bd 53 64 b3 3c 15 f8 6d bd cc c3 4a 3c
       -0.09739083 0.021898424 -0.058097918 0.012375783
000120 16 4f bf bc 7c 79 8e 3c b8 2d 5a bc f6 a8 13 3d
       -0.02335314 0.017391913 -0.013316564 0.036049806
000130 e0 12 5d bd 03 48 62 bd 5e 22 4e bd 00 f3 d8 3b
       -0.05397308 -0.055244457 -0.050325744 0.0066207647
000140 16 e4 cf bc a4 3e 4e bd 3c d6 18 be da 01 e4 bd
       -0.025377315 -0.050352708 -0.14925474 -0.11133166
000150 ab d3 a2 bd c5 d0 d0 bd c7 06 ff bd a5 c8 0d be
       -0.07950529 -0.1019607 -0.124524646 -0.13846071
000160 08 b2 95 bd 7d 6e 82 bd 7c d5 a6 bd a3 d5 b3 bc
       -0.073093474 -0.0636873 -0.08146188 -0.021952456
000170 ea dd 27 3c 7e 09 00 bd 54 63 96 bd 16 38 16 bc
       0.0102457795 -0.031259052 -0.07343164 -0.009168645
000180 9c 61 ec bd f1 3a da bc e0 a3 b9 3b 2b 46 21 bd
       -0.11542055 -0.026639434 0.0056652874 -0.039373558
000190 80 aa 66 3b 92 4f 25 3d 7a c0 39 3d d4 32 b2 3c
       0.003519684 0.040359087 0.045349576 0.021752752
0001a0 f2 80 6b 3d 2b 64 9b 3d c9 e8 83 3d e0 23 d8 3c
       0.05749602 0.07587465 0.064408846 0.026384294
0001b0 27 5a be bd 86 9f 27 bd d4 83 1f be 60 db b3 bd
       -0.09294539 -0.040923618 -0.15577632 -0.08782077
0001c0 d8 cf 35 bc 52 63 22 be 98 95 2f bd 7b 8f 86 bd
       -0.011096917 -0.158582 -0.042867273 -0.065703355
0001d0 6e 78 02 be 04 82 38 bd db 63 2a bd 90 44 a9 bd
       -0.12741253 -0.045045868 -0.041599136 -0.082650304
0001e0 c4 d8 c4 bd ae ad a5 ba c2 8e 09 3b 72 13 e7 bc
       -0.09611657 -0.0012640262 0.0020989631 -0.028207514
0001f0 2c 18 dd bd df ef ef bd d5 52 82 bd 79 60 3f bd
       -0.10795626 -0.11715674 -0.06363455 -0.046722863
000200 74 b9 7e 3c a8 d9 b1 bd f1 4f f6 bd d1 de 12 be
       0.015547145 -0.08684093 -0.12026966 -0.1434281
000210 20 ea 24 be 56 8d f8 bd 77 5d 8e bd 69 5c 0c bd
       -0.16104937 -0.12136333 -0.06951421 -0.034267817
000220 96 14 1d be 96 3e 7b bd bf 05 56 bc 24 1a 0a be
       -0.15339884 -0.061338983 -0.013062893 -0.13486534
000230 2d f2 0e be 64 b6 7c bd 39 02 62 bd a4 04 ae bd
       -0.1395957 -0.06169738 -0.0551779 -0.08496979
000240 9b 7b 5c bd fa 9b 8d bd c3 e1 05 3d 67 78 f4 bd
       -0.053828817 -0.06914516 0.032686006 -0.119370274
000250 ca 7d 22 3b a8 48 e5 bd 67 19 94 3c 21 8c 0c bd
       0.0024794214 -0.11195499 0.018078519 -0.034313325
000260 1d a7 8a bd 91 b4 e6 bd 45 05 e2 bd a8 1f a2 3c
       -0.067701556 -0.11264909 -0.11036161 0.019790486
000270 46 80 a7 bd 7d c0 13 be 17 86 63 bb f4 07 86 bd
       -0.08178763 -0.14428897 -0.0034717375 -0.06544486
000280 2d a2 e0 bc fe bd 0a bd 77 cd 72 bd 2f ac 93 3b
       -0.027421081 -0.033872597 -0.059277978 0.00450661
000290 83 26 e1 bd b4 f7 0e bd 84 40 d6 bd 72 84 dc bd
       -0.10993674 -0.034904197 -0.10461524 -0.107674494
0002a0 aa f0 c0 3c 63 d3 c7 3b 1e 86 71 bc 2d 11 15 be
       0.023552258 0.0060981973 -0.014741449 -0.14557333
0002b0 a0 ad 61 bd e9 02 94 ba 1b 3c 90 bd 77 ce 10 be
       -0.055097222 -0.0011292371 -0.07042714 -0.1414126
0002c0 a1 8e f2 bc 50 f0 65 bd 72 58 2f bd 20 8b f7 3a
       -0.029609026 -0.056137383 -0.042808957 0.0018886067
0002d0 6b 00 54 3b 6e df f9 bd f3 a0 7d bd b2 7b d4 3c
       0.0032348882 -0.12200819 -0.06192107 0.025937889
0002e0 d1 9b 84 bd 9c 52 bf bc 2c d9 74 bd 61 ff 6e bd
       -0.06475032 -0.02335482 -0.059777424 -0.058349017
0002f0 f3 9d ba 3c 14 d3 3c bd 7e 88 06 be 2c ae a4 3b
       0.022780394 -0.046099737 -0.13138005 0.0050256457
000300 d7 c5 11 be d1 e1 c0 bd 2c 3e 93 bd c3 94 17 bd
       -0.14235626 -0.09418071 -0.07189593 -0.037007105
000310 3e 45 df bd 17 94 0e be fe ab b8 ba d2 66 30 bd
       -0.10901879 -0.1392368 -0.0014089344 -0.043066807
000320 df 31 bb bd 9f 8e 1b bd e8 68 ee bd 01 ba e2 bd
       -0.091403715 -0.03797781 -0.11641103 -0.11070634
000330 7f 9c 8d 3c 3c 8b ad bc 67 97 87 bd 52 76 f7 bd
       0.017286537 -0.021184556 -0.066206746 -0.12083115
000340 21 93 8b bd 77 15 a7 3c 8e 41 83 3b 00 c1 d2 bd
       -0.06815172 0.020395977 0.0040056175 -0.10290718
000350 8c 74 fc 3c 0d fd 34 bd 6d c4 17 be aa cc e9 3b
       0.030817293 -0.04418664 -0.14821024 0.0071349936
000360 70 93 68 bd 20 30 27 bb f1 7a 98 3d 7e 64 40 bd
       -0.056781232 -0.0025510862 0.07445324 -0.046970837
000370 d4 a3 ed 3c f0 0a a2 bd 40 ee a4 bb 08 82 16 3d
       0.029008783 -0.079122424 -0.0050332844 0.0367451
000380 a2 1c 3a 3d 2f 7f f4 bd 93 e2 af bb c0 4c 03 bc
       0.045437463 -0.11938321 -0.005367586 -0.008013904
000390 eb 4c 26 bd b4 a0 81 3c 2c 3e 7d bd 8c e5 a8 bd
       -0.0406007 0.0158237 -0.06182687 -0.082469076
0003a0 ec 69 72 3d 37 1e 68 bd 6a ec 47 bb ac f5 c3 bd
       0.059183046 -0.05666944 -0.0030505904 -0.095683426
0003b0 1e 1c b7 bd d8 2e d3 bc a6 8c 26 bd e8 06 c8 bd
       -0.0894091 -0.025779173 -0.040661477 -0.09766942
0003c0 54 11 a4 bd f4 4e f3 bd 65 24 51 bd 80 44 35 3c
       -0.080111176 -0.118802935 -0.0510601 0.011063695
0003d0 7c 4a c2 bc 84 9d d8 3c 50 ec bc bb 90 46 8a 3c
       -0.023717158 0.026442297 -0.0057654753 0.01687935
0003e0 ef c9 86 bd 03 c5 3a bd b3 d1 83 3d 3c e6 89 bc
       -0.065814845 -0.04559804 0.06436481 -0.016833417
0003f0 db d8 42 bd 13 f4 22 bd 1d 29 e6 3b 60 77 30 bd
       -0.04757009 -0.03978355 0.007023944 -0.043082595

conv2.bias f4 [32]
000000 29 a0 e2 bd e6 80 7b bd fe 38 93 bd 1f 8c 61 bc
       -0.110657044 -0.061402224 -0.07188605 -0.013766318
000010 0b 31 fe bd c3 6b fb 3c 96 39 88 bd 39 10 f8 bc
       -0.12411698 0.030691033 -0.06651609 -0.030281173
000020 6d f7 50 bd 18 57 7c bc 12 2a 85 bd d2 76 c9 bd
       -0.051017214 -0.015401624 -0.06502165 -0.09837116
000030 42 d4 a4 bd fd c8 dc bd 5f d3 01 3d d7 88 13 be
       -0.080482975 -0.10780523 0.03169572 -0.14407669
000040 ae 35 e3 bc ca fc d8 bd 19 4c 61 bd f5 2e 9a bd
       -0.027735557 -0.10595091 -0.055004213 -0.075284876
000050 a4 9d 00 be 2f e6 91 3e 82 cf fb bc 56 59 d1 bd
       -0.12560135 0.2849593 -0.030738596 -0.102221176
000060 65 fc 1a bd 61 ab b5 bd b5 48 19 bd dd c7 2f 3c
       -0.03783836 -0.088705786 -0.037422854 0.010728803
000070 39 47 3d bd 7a 61 b4 bd dd e3 c0 bd 5a b4 44 3f
       -0.0462105 -0.08807655 -0.094184615 0.76837695

conv3.weight f4 [64, 32, 3, 3]
000000 24 76 f3 bc af e8 0d bd 32 8f 44 bd a0 48 d2 bd
       -0.02971942 -0.034645732 -0.047988124 -0.10267758
000010 32 e6 49 bd f0 4b 0a be 22 7e ca bd 69 3c 8f bd
       -0.049291797 -0.1350553 -0.09887339 -0.06993944
000020 b5 35 2f bd 54 b6 62 bd 1c ba a4 bd 15 0c 88 bd
       -0.04277583 -0.055349663 -0.0804331 -0.066429295
000030 bc f1 e2 bd 82 08 86 bd 6b 21 a3 bd 4c 78 df bd
       -0.110812634 -0.065445915 -0.07965358 -0.10911617
000040 7e f0 59 bd c0 73 05 be 4b 97 1a bd d6 b5 80 bd
       -0.053207867 -0.13032436 -0.03774194 -0.062846825
000050 cb 77 54 bc 6c ca c0 bd 04 a3 36 bd 78 91 69 bd
       -0.012968014 -0.09413609 -0.044589058 -0.057023495
000060 8c e8 41 bd 65 a8 a2 bd 1c 7d d1 bc 40 1b b7 bd
       -0.047340915 -0.07942275 -0.025572352 -0.089407444
000070 7d 3c bc bd df ad a5 bd b8 41 a0 bd 39 82 b8 bd
       -0.09191225 -0.08089804 -0.07825035 -0.09009213
000080 31 7b 50 bd 82 7b ab bd dc d5 e0 bd 62 60 e3 bd
       -0.050898734 -0.083731666 -0.109782904 -0.11102368
000090 a9 be a7 bd a0 06 78 bd 83 03 d6 bd c4 84 cf bc
       -0.081906624 -0.060553193 -0.104498886 -0.025331862
0000a0 56 ac cf bd 4a d3 b2 bd ea 50 5c bd 04 98 32 bc
       -0.10140292 -0.087317064 -0.053788103 -0.010900501
0000b0 72 ac 8a bd e0 fd 0f bc 47 79 ea bd 8f 39 91 bd
       -0.067711726 -0.008788556 -0.11448913 -0.070910566
0000c0 59 b6 d2 bd 45 7f 39 bd f3 1d f8 bd 62 e6 9d bc
       -0.10288686 -0.04528739 -0.12115087 -0.019274894
0000d0 92 70 50 bd cd e5 eb bd 82 1d 51 bc c0 91 f6 bc
       -0.050888605 -0.115184404 -0.012763383 -0.030098796
0000e0 ff e2 21 ba bd f5 24 bd c1 dc 2f bc 19 4b af bd
       -0.00061754877 -0.040273417 -0.010733784 -0.085592456
0000f0 f1 7a ed bd 39 05 9b bc 6b a1 b1 bc 06 d0 0c 3d
       -0.11595715 -0.018923389 -0.021683415 0.034378074
000100 3c 0e 55 3d 51 1e 80 3d 58 f1 0b 3d b7 c9 6b 3d
       0.052015528 0.062557824 0.03416571 0.057565417
000110 bc 05 e9 3d 21 6d 79 bd 1c bc b1 bd b6 06 43 3d
       0.11378047 -0.06089509 -0.08678457 0.047613822
000120 3d 84 9e 3c 88 ec 97 3d 88 76 3a 3d f9 88 90 3d
       0.019350166 0.07418162 0.045523196 0.070573755
000130 6a 11 15 3c d0 61 7d 3d d8 d8 0e bc fc b6 a8 3b
       0.00909839 0.06186086 -0.008718692 0.0051487666
000140 a8 32 11 3d 48 22 4a bd 6c 42 e7 bd 65 d1 0a bd
       0.0354487 -0.0493491 -0.11291966 -0.0338911
000150 48 c5 ac bc d8 3d 93 bd a1 e1 85 bd 5f 01 17 bc
       -0.021090165 -0.0718953 -0.06537176 -0.0092166355
000160 9e 77 88 bc b0 84 40 bd 16 ee b4 bd 93 26 ee bd
       -0.0166586 -0.04700154 -0.08834474 -0.11628451
000170 00 b3 80 bd 35 56 cc bb ae 27 a3 bd ea d6 fb bb
       -0.062841415 -0.0062358626 -0.07966553 -0.007685532
000180 5a aa 01 bd 2f e1 87 bd e9 44 bc bd 36 df 18 bc
       -0.0316566 -0.06634747 -0.09192831 -0.009330561
000190 cc 5e 37 bd d1 34 ba bd 8d e7 29 bb 14 95 bc bd
       -0.04476814 -0.09092105 -0.0025925369 -0.09208122
0001a0 95 20 d2 bd 8c 51 56 bd 3b da 5b bd 14 71 93 bd
       -0.10260121 -0.052323863 -0.053674918 -0.07199302
0001b0 64 16 00 be 54 2d de bd 6b ec 0f bd 6f 33 ec bd
       -0.12508541 -0.108484894 -0.035137575 -0.11533248
0001c0 1a 4a dd bd f9 74 18 be a3 f0 0d bd 52 89 12 be
       -0.108051494 -0.14888372 -0.034653317 -0.14310196
0001d0 6e 9a 84 bd fd 66 2f bd 9d c6 ca bc 35 89 6c bd
       -0.064747676 -0.042822827 -0.02475291 -0.05774804
0001e0 60 38 5d bd aa 51 06 bd ea e3 3c bd 92 fd f1 bd
       -0.05400884 -0.032792725 -0.046115793 -0.11815943
0001f0 3b 6c 0a be e3 9e 61 bd c7 9f ce bd 7a 09 a0 bd
       -0.13517849 -0.055083167 -0.10089069 -0.078143075
000200 c4 4d 95 bd 51 3a 40 bd 7e 0d c3 bd a4 ed c1 bd
       -0.07290223 -0.046930615 -0.09524058 -0.094691545
000210 09 e5 5b bd b9 6d 8f bd 64 50 32 bd 84 75 bf bd
       -0.05368522 -0.0700335 -0.043533698 -0.09348586
000220 5e 0a 51 bd 14 ef e9 bc 7e 6a 0a be 1d c1 eb bd
       -0.051035278 -0.028556384 -0.13517186 -0.11511443
000230 22 4d c1 bc 45 77 99 bd 49 fe eb bd b6 99 fe bd
       -0.02359635 -0.07493452 -0.115231104 -0.12431662
000240 e9 ae 47 3c ae 24 24 bd 59 b1 38 bd cc c2 f3 3d
       0.012187698 -0.040074043 -0.045091007 0.11902389
000250 c3 ab 3f bd 41 a5 8f bd ba c8 47 bd 04 70 9d bc
       -0.046794664 -0.070139416 -0.048775412 -0.019218452
000260 0a a1 14 bd 84 ba a6 3d 94 a9 7a 39 f8 12 a9 3d
       -0.03628639 0.08141044 0.0002390503 0.08255571
000270 3e 8f 38 bc 3b fb 04 3d b2 b3 8b 3d 28 77 d8 3d
       -0.01126462 0.032466155 0.068213835 0.10569602
000280 90 e5 8b 3d 96 c5 96 3c 8e 1d 44 bd ab de 90 bd
       0.06830895 0.018404763 -0.047879748 -0.070737205
000290 24 b1 dd bd 06 e4 33 bd b1 e8 08 be 48 1a b4 bc
       -0.108248025 -0.043918632 -0.13370015 -0.021985188
0002a0 e9 56 b7 bd 4e c1 c9 bd 5b 05 99 bd 29 fd ea bd
       -0.08952124 -0.09851323 -0.074717246 -0.11474068
0002b0 65 72 be bd 40 b3 8d bd dc e9 b9 bd 41 fd 2d bd
       -0.09299163 -0.06918955 -0.09077808 -0.04247785
0002c0 d0 f0 f8 bd 3e 61 44 bd 99 de 8e bd 31 e3 10 be
       -0.12155306 -0.0479443 -0.06976051 -0.14149167
0002d0 12 26 a4 bd 35 d8 32 bd 58 4f 49 bd 5f 77 24 bd
       -0.08015074 -0.043663222 -0.049147934 -0.040152904
0002e0 b6 e4 d3 bd 18 38 21 3b 67 4c 17 3d 24 9c 03 3b
       -0.103463575 0.0024600085 0.036938097 0.002008208
0002f0 be f2 82 bc f3 14 27 bc bd 6e 83 bd ce bc c7 bc
       -0.01598489 -0.010197866 -0.06417606 -0.024382021
000300 82 4c b5 3c be 83 5a be 2e d3 91 bd 6c 84 a0 bc
       0.022131208 -0.21339318 -0.071203575 -0.019594394
000310 1f f9 96 bd 59 93 6b 3c ab ce 86 bc ef a7 6d bd
       -0.07371735 0.014378392 -0.016455969 -0.058021482
000320 0b be 75 bd 01 4f fc bc 1a f3 be bc 7d 1a db bc
       -0.059995692 -0.03079939 -0.02330928 -0.026746029
000330 3c c6 1d bb 37 a9 b9 bd 27 0d 29 bd 8c fc 2d bd
       -0.0024074456 -0.09065478 -0.04127231 -0.042477176
000340 af db f5 bd ea 1e 15 bd 72 a7 bd bd 84 7c 43 bd
       -0.12004792 -0.036406435 -0.09260453 -0.04772617
000350 f0 83 63 bd 46 c3 da bd 50 e9 7e bd a8 83 08 bd
       -0.055545747 -0.10681777 -0.062234223 -0.033328682
000360 3c 68 9a bd 98 9a e6 bd 66 1b e9 bd 8b 68 d9 bd
       -0.075394124 -0.11259955 -0.11382179 -0.10615643
000370 d9 f9 4c bd da 20 76 bd b5 35 fd bc 23 00 46 bd
       -0.05004296 -0.060089923 -0.030909399 -0.048339974
000380 1b e3 91 bd e2 5c 8f 3d ea 7f 75 3d 23 cd a0 3c
       -0.07123395 0.07000138 0.05993644 0.019629067
000390 82 7f d8 3c 7c 40 4b 3d c1 ec 96 3d 5a ea 65 3d
       0.026427988 0.049622044 0.07369376 0.0561317
0003a0 86 3f 88 3d f3 50 eb 3d 7e 81 be bc d5 5c 99 bd
       0.06652741 0.11490049 -0.023255106 -0.074884094
0003b0 df 9a 94 bd 7a f9 95 bd 0c 35 a7 bd 3d 59 e6 bc
       -0.07256102 -0.073229745 -0.08164415 -0.028118724
0003c0 90 8a 0c 3d d2 ea bf bd bb ae 88 bd 38 86 08 bd
       0.03431183 -0.0937096 -0.06673952 -0.033331126
0003d0 13 fc 9f bc d7 8b ec bb 7f 06 fb bd ed f0 b1 bd
       -0.019529378 -0.0072188186 -0.122570984 -0.08688531
0003e0 61 f8 e2 bc d0 dc 78 bc 9a 78 1a bd 0f 9b e6 bc
       -0.027706327 -0.015189365 -0.03771267 -0.02815011
0003f0 68 52 93 bd 3a e2 11 be 07 90 87 bd 3b 9a 83 bd
       -0.07193452 -0.14246455 -0.06619268 -0.064259015

conv3.bias f4 [64]
000000 de 26 e0 3e 5f 05 41 bd 9d f3 51 bd 0b c6 51 3d
       0.43779653 -0.047124263 -0.05125772 0.05121426
000010 ae e8 13 bf 8a 6d a9 bd b6 ba c0 bd 52 ca 71 bd
       -0.57776916 -0.08272846 -0.09410612 -0.05903084
000020 4c 5e 2e bd 44 91 17 3e a5 a8 84 bd b7 1d 8e 3c
       -0.042570397 0.14801508 -0.06477479 0.017348154
000030 f2 f6 a0 bd 67 25 3c 3e 25 51 8a bd fd 2b c7 bd
       -0.07859601 0.18373643 -0.06753758 -0.09725187
000040 f2 77 3f bd d2 fc e1 bd cb 68 97 bd 27 6c 7b bd
       -0.04674525 -0.1103455 -0.073930345 -0.06138244
000050 df b2 94 bd 51 5d 92 3e 90 16 2d be c8 58 95 3e
       -0.072606795 0.2858682 -0.16903138 0.29169297
000060 8a 14 aa 3e 61 78 fa be 04 2f e5 bd 83 43 71 3d
       0.33218795 -0.48919967 -0.11190608 0.058902275
000070 24 63 41 bd 83 c2 33 bd fe cb a4 bd 17 bc e9 bc
       -0.04721369 -0.043886673 -0.08046721 -0.028532071
000080 ed a5 78 bd 45 16 9c bd 42 44 dc bd 70 1c 1d bd
       -0.060705114 -0.07621435 -0.10755207 -0.0383572
000090 15 ad 13 bf 41 50 11 bd aa cd c0 bd ef cc a2 bd
       -0.5768598 -0.035476927 -0.09414227 -0.07949244
0000a0 7c d5 d0 3e 36 09 d0 bd 07 fe 13 3d a3 6b ce bd
       0.40787876 -0.10158007 0.03613093 -0.10079124
0000b0 27 34 fb bc 66 2b 96 bd f6 1b 2f bd 67 39 7f bd
       -0.030664517 -0.07332496 -0.042751275 -0.062310603
0000c0 0b a2 58 bd fc 81 d7 bd ad 49 80 bd 13 1a 9b 3d
       -0.05288891 -0.105228394 -0.062640525 0.07573333
0000d0 26 be 04 be aa 91 9f bd 8f 9a 43 bd 13 09 9a bb
       -0.12963161 -0.07791455 -0.04775482 -0.0047007888
0000e0 0d ce f8 3d d8 c7 4f 3d d6 76 65 bd 41 95 61 bd
       0.12148676 0.050727695 -0.056021534 -0.05507398
0000f0 ac e3 a3 bd 82 6d 0e be bc 11 79 3c fd 91 80 bd
       -0.08002409 -0.13908961 0.015201982 -0.06277845

t_conv1.weight f4 [64, 32, 3, 3]
000000 87 c7 dd 3c 7e 08 66 3e 04 f8 bb bd e0 08 e8 bd
       0.027072681 0.22464177 -0.091781646 -0.11329818
000010 4e 79 4a 3f a4 c4 ca 3d 95 c8 fb 3d b8 e9 b6 3d
       0.79091346 0.099007875 0.12294117 0.08931297
000020 af 32 2e bc 51 7c 8d bd 3c 1c 82 bd d8 5d 44 bd
       -0.010632201 -0.06908477 -0.063530415 -0.04794106
000030 fb b6 c5 bd 66 0c ad bd 24 2a 3a bd 54 7f 2d bb
       -0.096540414 -0.084496304 -0.045450345 -0.0026473599
000040 46 03 cb bc ca a2 22 bd 67 80 f3 bb 9d 0d b4 bd
       -0.024781834 -0.03970603 -0.0074310782 -0.08791659
000050 8d 43 b8 bd 42 86 b3 bc 69 4d 8e bd 31 6a cf 3c
       -0.08997259 -0.021914605 -0.069483586 0.02531919
000060 f6 10 1f 3d 72 ea 89 bd 19 2e d7 bc 7d 09 4b be
       0.038834535 -0.0673417 -0.026267098 -0.19827838
000070 86 3b ed bd fd ba 4a 3e 08 97 f1 3e c3 6c 6a 3d
       -0.11583619 0.19797893 0.4718554 0.05723263
000080 a5 6d a3 be 33 3c 06 bf 55 8e d0 3e 0f dc 0a 3e
       -0.3191959 -0.52435607 0.4073359 0.13560508
000090 0a 42 ec bd 83 51 cd bc a4 a3 68 bc b1 d0 0e bd
       -0.115360335 -0.025063282 -0.014199171 -0.034866992
0000a0 3e b4 18 bd c6 d3 4e bd 96 43 17 bc ad 05 65 bc
       -0.037281267 -0.05049493 -0.009232422 -0.013978404
0000b0 14 06 d3 bd 0c 88 67 3d 2d be 08 3c c6 a1 c0 3d
       -0.10303894 0.05652623 0.008346123 0.09405856
0000c0 24 55 e4 3c 85 f8 86 3d ea 46 bf 3d 9a e3 e9 3c
       0.02787263 0.0659037 0.09339698 0.028550912
0000d0 17 91 2c be ae 9d f2 bd 99 d2 8b bd 28 37 da bd
       -0.16852222 -0.11846481 -0.06827278 -0.106550515
0000e0 14 b9 b6 bd 7a 7f ab bc d6 62 cc 3c 05 15 c3 3d
       -0.089220196 -0.020934809 0.024949472 0.095254935
0000f0 56 b9 c2 3d 18 a8 c9 3d 4f 09 a3 3d 3e d8 96 be
       0.09508006 0.098465145 0.0796076 -0.29461855
000100 33 4b a2 bd 53 fe 27 be 06 1b 5b be a5 3d 91 3d
       -0.07924499 -0.1640561 -0.21397027 0.07091836
000110 0f 57 eb bd 60 01 5b be 92 3f 2f be 88 ee 3e be
       -0.114912145 -0.21387243 -0.17114094 -0.1864568
000120 14 05 b2 bd 37 45 07 be 2d 75 2b be 71 67 91 be
       -0.08692375 -0.13209997 -0.16743918 -0.28399232
000130 1a 87 5f be 69 d7 68 be 4f 17 c9 bd 5f 5f b4 bd
       -0.21828881 -0.22738422 -0.09818899 -0.08807253
000140 ed 29 29 bd 3f 8c 17 bc 2b d2 39 3e cb e1 3d bd
       -0.04129975 -0.009249746 0.18146579 -0.04635791
000150 bc 21 7a be 23 bc 0b 3e ff 56 a4 bd ef 16 ad bd
       -0.24426931 0.13645987 -0.08024406 -0.0845164
000160 c3 65 ad be 69 b2 c3 bd ea f5 9b bb 8a 15 e4 bc
       -0.338667 -0.095555134 -0.00475954 -0.027842302
000170 83 cc 6b bd f5 da d8 bd a0 45 87 bc 5c b1 ab bd
       -0.057568084 -0.10588638 -0.016512692 -0.08383438
000180 71 f6 b8 bd a9 48 d6 bd 75 71 b0 bc 63 97 5c be
       -0.0903138 -0.104630776 -0.021538476 -0.21542124
000190 dd 8b 0a be d4 57 f0 bd 72 23 3c be be 40 3b be
       -0.13529916 -0.11735502 -0.18372896 -0.18286416
0001a0 75 10 3b be 58 df 67 be d7 91 86 be 68 0b 7a be
       -0.18267997 -0.22643793 -0.26283142 -0.24418414
0001b0 2b ad db bd 89 ec 1a bc d9 e3 13 bc 9f f0 dc bc
       -0.107263885 -0.009455808 -0.009026491 -0.026970206
0001c0 9a 2b 48 bd 62 0e ae ba e4 09 46 bd 1d 5e 8f bd
       -0.048869707 -0.0013279433 -0.048349276 -0.070003726
0001d0 2c 1d 94 bd d2 c5 cd 3a 9d 3c 2c bd 03 36 f9 bd
       -0.072321266 0.0015699214 -0.042049993 -0.12168505
0001e0 8e a0 88 bd a0 f1 36 be 94 ba 94 3b b4 5f ea 3b
       -0.066712484 -0.1786561 0.0045388434 0.007152522
0001f0 82 db b7 bc 70 f1 c5 3d 45 51 80 bd cf 06 9e be
       -0.022443537 0.09665191 -0.06265501 -0.3086457
000200 86 ba b1 bd 27 0a b6 be 0d b2 ed be ea 44 ff be
       -0.08678155 -0.3555462 -0.46424904 -0.49857265
000210 69 8a 9d be db f0 ad be d7 ad 91 be 07 03 c7 bc
       -0.3076966 -0.3397282 -0.28452942 -0.024293436
000220 17 d1 5a 3c c0 d7 5f bd 30 ee 6d bd 04 09 50 bd
       0.013355515 -0.054649115 -0.05808848 -0.050789848
000230 03 2b 7b bc c4 4e 08 3d 38 d3 70 3e 44 af 36 3e
       -0.015330079 0.03327824 0.23518074 0.17840296
000240 fe 4e 81 bd 5c ca bd ba 49 b7 58 bd f9 8b 5e bc
       -0.06313895 -0.0014479863 -0.05290917 -0.013583177
000250 83 82 40 bc 57 52 43 3a b8 ef a7 bc 26 d2 48 bd
       -0.011749866 0.0007450929 -0.020500049 -0.04902854
000260 b0 82 a8 bd fa 77 88 3e ea 9d 8f bd b5 09 15 3e
       -0.08228052 0.26654035 -0.070125416 0.14554484
000270 ed c7 60 bc 53 d9 73 be 4e c5 fe 3d 3b 86 05 be
       -0.013719541 -0.23813371 0.12439977 -0.13039486
000280 2f 15 25 3e 16 4c 89 3e a3 9b a3 be 72 f8 73 3e
       0.16121362 0.2681586 -0.3195468 0.23825243
000290 71 8a e6 bc 9f c5 be bd 4d c7 90 3e 31 57 6e 3e
       -0.028142186 -0.09315037 0.28277054 0.23275448
0002a0 20 60 9c be 7a 46 1c be 11 d9 3c be 50 f1 b3 3b
       -0.30542088 -0.1526126 -0.1844218 0.005491413
0002b0 96 fd 83 3c 2d 7b 90 3d a9 ed c7 bd 84 2d 8c 3d
       0.01611213 0.07054744 -0.09762127 0.06844619
0002c0 35 fd b9 3d 3d 82 5b bd c9 4f ac bc 60 5b d9 3d
       0.090814985 -0.053591 -0.021034138 0.106131315
0002d0 2f 71 62 be ef ac 19 be 78 87 43 bd 95 8d b3 3d
       -0.22113489 -0.15007375 -0.047736615 0.08767239
0002e0 13 0c 30 3f cd c4 ef 3e 5b 0e 8c be c6 7c 98 39
       0.68768424 0.46829835 -0.27354702 0.00029084663
0002f0 ac b7 79 3e e9 43 87 3e 19 ea 72 3e bb 06 ee 3e
       0.24386472 0.26419 0.23722114 0.4648951
000300 0a 65 5a bd 4d a9 cf b9 af a9 0f bd 33 54 ea be
       -0.053319015 -0.00039608256 -0.035073932 -0.45767364
000310 2a b6 85 bf 6c 49 1b 3f 05 a5 0e bc 0b e2 af be
       -1.0446217 0.6065891 -0.008706336 -0.34352145
000320 b6 e5 b1 3e 5e 76 19 bd c6 43 10 be 1d a3 ad 3c
       0.34745568 -0.0374664 -0.14088354 0.021195943
000330 e2 e5 4f bd 52 32 4d 3d 00 1e b2 bd cf 34 b8 be
       -0.050756343 0.050096817 -0.08697128 -0.3597779
000340 6f 07 08 3e 59 90 0f be 82 c4 38 bd f0 f1 e1 3e
       0.13284086 -0.14019908 -0.04510928 0.44129896
000350 5b b3 8a be 07 cd 71 be bf 45 d4 be 33 e9 33 be
       -0.27089962 -0.23613368 -0.41459462 -0.17569427
000360 fd 24 a7 bf 04 cb 9e bf dc 6c 20 bf 20 4a c3 bd
       -1.3058163 -1.2405705 -0.62666106 -0.095356226
000370 b2 64 27 bd cb 98 ce be 63 1a 0b 3e f0 f0 1d 3e
       -0.040867515 -0.40350947 0.13584284 0.15423942
000380 69 89 f6 3e 8f 7d 32 bd 72 c7 86 bd 71 0a e4 bd
       0.4815171 -0.043576773 -0.0658101 -0.11134804
000390 9f 1d d8 bd 44 10 d6 bd 48 c6 53 bd c0 e6 1d bd
       -0.10552525 -0.10452321 -0.051702768 -0.03855014
0003a0 16 27 90 bd b9 42 e8 bc 13 6f 8c bd 79 4d d3 bd
       -0.07038705 -0.028352128 -0.06857123 -0.10317511
0003b0 91 41 ca bd ba af ae bd 8a 8c 3c bd 2d 00 ea bd
       -0.09875787 -0.08529611 -0.046032466 -0.11425815
0003c0 7e b6 46 bd df 51 8f bc 87 19 52 bd d3 29 f4 be
       -0.04851388 -0.017495094 -0.051293876 -0.4768816
0003d0 78 19 73 be a0 39 aa be 76 c5 94 3e 36 1a aa bf
       -0.23740184 -0.3324709 0.290569 -1.3289249
0003e0 18 d9 e0 bf 3d 97 4a bd 0a c5 eb 3e d0 f1 1d be
       -1.7566252 -0.04946064 0.46048766 -0.15424275
0003f0 73 9c 01 be fd 81 6b 3d 63 b4 96 3c 30 29 82 be
       -0.12657337 0.057497013 0.018396562 -0.2542205

t_conv1.bias f4 [32]
000000 1c ea 27 3e cf 77 3b be 5f 1f 6b bd b9 96 e8 bc
       0.163979 -0.18307422 -0.057402965 -0.028392183
000010 65 6b d3 bd fd 6f 60 3b 2d e4 87 bd 9c cb 0d be
       -0.10323218 0.0034246438 -0.06635318 -0.13847202
000020 22 16 c0 be 9f 63 9e bd 63 c9 a3 bd f2 3f 9d bd
       -0.37516886 -0.07733845 -0.07997396 -0.07678212
000030 5d b1 27 bd ae 5d 18 3d e2 40 39 be 2e 97 9d bd
       -0.04094063 0.037198715 -0.18091157 -0.07694851
000040 2b b4 16 be a4 0a 5c be 2f a5 d8 bd 13 0b 0d be
       -0.14717166 -0.21488434 -0.10578381 -0.13773756
000050 e9 8b 83 3d 58 dc 4d bd ef 92 67 be 03 52 99 3d
       0.0642317 -0.050258964 -0.22614644 0.074863456
000060 c0 22 37 3b 4d 93 b9 bd ae 66 af bd ec 3e 7d be
       0.0027944297 -0.090612985 -0.085645065 -0.24731034
000070 f6 c3 b3 be df 3e 65 be af 80 a7 bd 0e 4d 7b be
       -0.35110444 -0.22387265 -0.08178841 -0.24541113

t_conv2.weight f4 [32, 16, 4, 4]
000000 63 62 0e 3e 03 d2 f2 bc da 70 4a 3e 7a 60 db bc
       0.13904719 -0.029641157 0.19769612 -0.026779402
000010 02 54 89 bd 0f 70 33 be 75 81 eb 3c f7 10 a2 bd
       -0.06705476 -0.17523216 0.028748253 -0.07913392
000020 71 d9 77 3d 08 01 fa 3a 7b 6d ec 3c 8c aa 2b be
       0.060510103 0.0019073794 0.028860798 -0.16764277
000030 f5 5d f2 3d 39 cf 54 bd ef f9 52 bd 26 41 8b bd
       0.11834327 -0.051955435 -0.051507886 -0.067995355
000040 7c 6d 21 3e fe b6 06 bb 99 14 97 3c 8f d7 53 3e
       0.15764421 -0.002055585 0.018442439 0.20687698
000050 db dd bc be 32 92 01 bf 05 75 2c bf 29 5a 75 be
       -0.36888012 -0.506137 -0.6736606 -0.23960175
000060 dc e6 f2 bc 4b f6 13 be ed ca b3 be 94 12 9c 3d
       -0.029651098 -0.14449422 -0.35115758 0.07620731
000070 5e 26 66 be 41 38 73 be 6b 16 c0 be 2b 34 48 be
       -0.22475573 -0.23751928 -0.37517104 -0.1955115
000080 72 57 4d bd 2b b9 f9 bc aa 2a 9c bd 50 b9 25 be
       -0.050132222 -0.030483803 -0.07625325 -0.16183972
000090 f2 76 53 bd 2d 98 96 3e fa a7 bd 3e 39 d2 cb 3d
       -0.051627107 0.29412976 0.37042218 0.09952206
0000a0 6c 3c e3 ba 01 ca b8 3e 3b 6f 97 3e 53 be f7 3d
       -0.0017336733 0.36091617 0.2957705 0.12096848
0000b0 60 9f da bd fe 7c e9 3d 22 fa 5c 3e b9 75 a5 bd
       -0.106749296 0.114007935 0.21579793 -0.080790944
0000c0 17 c1 8c 3c 5c 26 d9 3d 6f 64 87 bc 7f db fc 3d
       0.017181916 0.106030196 -0.016527383 0.12346553
0000d0 1c a5 2b 3e 7f e9 a6 3d 74 2d 82 be da b4 0f 3d
       0.16762203 0.081500046 -0.25425303 0.035084583
0000e0 80 cf a8 be 30 a2 b0 bd 53 7b 53 be 43 94 1b be
       -0.3297081 -0.08624685 -0.20652513 -0.15193276
0000f0 7f 96 2e 3e 87 92 8b 3e 10 da 43 be d5 52 5d bc
       0.17049597 0.2726023 -0.19126153 -0.013508518
000100 bb a7 03 3d d6 d7 66 bc 0a 9a 3e bd d0 75 07 3d
       0.032142382 -0.014089545 -0.04653362 0.03307134
000110 d4 54 e7 bc 2c 14 3a 3c e3 f1 ac 38 da 6e 6a bd
       -0.028238691 0.011357348 8.246654e-05 -0.057234623
000120 48 f6 5b bd 15 c8 d6 bd 14 39 88 bd a5 40 8d 3d
       -0.05370167 -0.10487381 -0.06651512 0.068970956
000130 33 21 27 bd 7c c3 99 bc e3 de 21 3c 04 58 89 3d
       -0.040803146 -0.018769972 0.0098798005 0.06706241
000140 d0 17 7e bc d5 d8 0f bd 8c 97 06 3e 56 5d 03 be
       -0.015508607 -0.035118897 0.13143748 -0.12828574
000150 f7 cd 4e be 6b e2 59 3d ee 83 9c 3e ea 8b 0b 3e
       -0.20195757 0.053194445 0.30569404 0.13627592
000160 df a2 f0 be 0d 94 b9 bd 27 de bf 3e 0e a5 92 3e
       -0.4699926 -0.090614416 0.37474176 0.28641552
000170 ec 74 25 be 62 76 e3 bd 91 e7 1f bd 77 89 85 bd
       -0.16157883 -0.11106564 -0.0390392 -0.0652036
000180 04 31 8b bd 07 66 14 bd d8 44 4b bd 20 2b c3 bc
       -0.06796458 -0.036230113 -0.0496262 -0.023824275
000190 38 4b fa bc 8d 69 ea bd ad 89 6b bd 09 21 13 bc
       -0.030553445 -0.114459135 -0.057504345 -0.008980044
0001a0 49 1a cf bd bb d9 8b bd 27 d8 7a bd 13 15 9c bd
       -0.10112435 -0.06828638 -0.061241295 -0.07621207
0001b0 2e a1 c7 bd a7 2b 6f bd 4a 69 78 bd 32 4f 44 bd
       -0.097475395 -0.05839124 -0.060647286 -0.04792709
0001c0 85 19 69 bd e8 f1 6c 3c 39 b2 a5 bd 94 4c c1 bd
       -0.056909103 0.014461972 -0.08090634 -0.09438434
0001d0 d1 b1 b0 bc 23 6b b1 bd c5 0d 83 bd 6e 01 d7 bd
       -0.021569164 -0.08663013 -0.06399111 -0.104983196
0001e0 e7 b6 1e bd 1a 2e 2b bd 0b 47 a4 bd 56 3f c4 bd
       -0.038748648 -0.041792013 -0.08021363 -0.09582393
0001f0 7a e7 be bd 2d 45 97 bd e2 67 8f bd 12 f2 2b bc
       -0.093214944 -0.07386241 -0.07002236 -0.010494726
000200 08 99 55 3b 73 80 a0 bd de 80 e8 bc 2a 33 c0 bd
       0.0032592434 -0.07837 -0.028381761 -0.09384759
000210 94 2e a7 bd 55 ee 63 bd d4 84 ce bc 34 82 f1 bb
       -0.08163181 -0.055647213 -0.025209822 -0.0073702578
000220 77 da fc bc b5 ab bf bb 46 ac 22 3b e3 e9 d2 bd
       -0.03086589 -0.0058493265 0.0024821921 -0.102985166
000230 cd 5f cb bd cf 5a 2a bd b1 1b b5 bd 2d 5a 43 bd
       -0.09930382 -0.041590508 -0.08843172 -0.04769342
000240 2c 2a 73 3d bc e2 38 bd fd 31 f2 bd eb 3d 92 3d
       0.05936639 -0.045138106 -0.11825941 0.07140716
000250 03 0f 6e 3b 68 4e ed 3c f7 2b bf 3e aa 9d 8e be
       0.0036324866 0.028968051 0.3733823 -0.27854663
000260 18 30 d3 bc ab 77 1c bc be fe 80 3e 62 98 92 be
       -0.025779769 -0.009550015 0.25194353 -0.28631884
000270 5c 38 be 3d 78 a9 f8 bb ed a6 4e be be 31 b1 3d
       0.092880934 -0.0075885616 -0.20180865 0.08652066
000280 f1 25 62 3e 37 7e 28 be 06 5f 16 be e3 d8 f9 3d
       0.22084786 -0.16454397 -0.14684686 0.12199571
000290 71 c3 11 3d fd 94 16 bf 30 90 e8 be d7 47 98 be
       0.035586778 -0.5882109 -0.45422506 -0.2974231
0002a0 a7 fa 8c 3e 34 c0 0c bf 02 41 8d be b3 36 6c be
       0.27534983 -0.5498078 -0.2758866 -0.23067741
0002b0 dd 20 51 3e c5 eb 0f be 1b 0c 41 3d dc 56 8b 3d
       0.20422693 -0.14054783 0.047130685 0.068036765
0002c0 fd 0d cb bb bd 47 5e bd d1 51 fc bd 3b c9 31 be
       -0.006196736 -0.054267634 -0.12320293 -0.1736192
0002d0 9d 50 18 bd 5c b7 2c bd 83 a8 14 3e 89 46 12 3e
       -0.037186254 -0.042167053 0.14517407 0.1428472
0002e0 2e f8 2c 3e 05 7b d9 bc 27 36 94 bd ff 57 6a be
       0.16891548 -0.026547918 -0.07236891 -0.2288513
0002f0 25 d7 c4 bd e3 e4 95 be 4e 10 03 be ea fc 13 be
       -0.09611348 -0.2927619 -0.12799188 -0.14451948
000300 cf 21 a5 bd bc 67 57 be 0a 41 9a 3d 69 c0 57 be
       -0.08063089 -0.21035665 0.075319365 -0.21069492
000310 98 c6 59 39 4b 81 43 3d 0a 87 dc 3e 89 0b 2c 3e
       0.00020768715 0.047730725 0.43071777 0.16801275
000320 5f 15 82 3d db c4 ab 3c cf f2 89 3e 94 f4 cb 3d
       0.063517325 0.020967891 0.2694306 0.09958759
000330 84 0c 3b 3d bf 89 f2 bd 2c aa 12 3e 97 7a 52 bd
       0.045666233 -0.11842679 0.14322728 -0.051386442
000340 6e 80 c6 bd 91 78 d3 bd 84 b9 7c bc fa 16 a8 bd
       -0.09692465 -0.103257306 -0.01542509 -0.082075074
000350 0f 68 b9 bd db 29 15 bd 9e ad 88 bd 24 96 ec bd
       -0.09053051 -0.03641687 -0.0667374 -0.115520746
000360 8e e6 e2 bd d1 0f bd bc 0f 30 7e bd fd e2 c3 bd
       -0.11079131 -0.02307883 -0.06205755 -0.09564779
000370 64 10 d1 bd ae d5 9f bc a1 ef c1 bd 83 31 b6 bd
       -0.102082044 -0.01951107 -0.09469534 -0.08896162
000380 57 f3 ae be 5e bf 22 3f fe b1 89 be f8 e4 c8 be
       -0.3417003 0.63573253 -0.2689361 -0.3923719
000390 08 a3 ed bd 5c 83 5e 3e 32 7a 2b bf b8 8e 45 bf
       -0.11603361 0.21729797 -0.6698333 -0.77170897
0003a0 ee 9e 32 3d 6a f5 d2 3e a4 1a 17 bf 62 64 04 bf
       0.0436086 0.4120286 -0.59025025 -0.5171567
0003b0 32 15 7f be 1a be 93 3e f8 37 66 3c 9c 51 a6 3c
       -0.24910429 0.28855973 0.01405143 0.020302586
0003c0 a0 95 b9 bd 49 8a 4d bd 2c 69 00 be 40 a4 8e bd
       -0.09061742 -0.050180707 -0.1254012 -0.06964922
0003d0 1b 3e ef bd 16 c6 de bd 8b c8 d5 bd d2 76 e2 bc
       -0.116817676 -0.10877626 -0.10438641 -0.027644549
0003e0 18 c4 82 bd d2 3b b7 bc 3b cf 83 bd c5 c4 d7 bd
       -0.06385058 -0.022367392 -0.064360105 -0.10535578
0003f0 d2 66 a1 bd de c9 cc bc 39 c4 ae bd 15 bf ef bc
       -0.078809395 -0.024998602 -0.0853352 -0.02926592

t_conv2.bias f4 [16]
000000 fa 6f a1 bc ed 5e a4 3d 37 07 01 bd 41 21 e2 bc
       -0.019706715 0.08025918 -0.03150102 -0.027603747
000010 46 be 2c 3e 3a b9 29 bc 29 45 a8 bd 7d aa 0a bd
       0.16869459 -0.010359103 -0.08216316 -0.033853997
000020 f5 8b 80 bd f4 51 de 3d a4 1c 18 be bd c3 65 3e
       -0.06276695 0.10855475 -0.14854676 0.2243795
000030 f3 b6 4e be ca ff d4 bd 2f 3f 29 3e 97 9a 70 3c
       -0.20186977 -0.104003504 0.16528009 0.014685295

t_conv3.weight f4 [16, 3, 4, 4]
000000 0c c0 90 3d e9 72 94 bc 99 1e 56 3d ed dc ad 3d
       0.0706788 -0.0181212 0.052275274 0.08489404
000010 4e 3d 8f bc 21 34 4f be 11 fd 84 be ed d2 15 be
       -0.017485287 -0.2023473 -0.25974324 -0.14631243
000020 8a 26 02 bb 3d ab b8 bd cd 8f e6 bd 45 fb e8 bd
       -0.0019859397 -0.09017036 -0.112578966 -0.11376051
000030 09 48 9d 3c 17 ec b6 bd d6 81 40 bd 83 96 1e be
       0.019199388 -0.08931749 -0.04699882 -0.15487103
000040 db d5 a1 3d 3a 9b d0 bc 7f 65 fe 3c 21 2e 6b 3d
       0.07902118 -0.025464643 0.031054256 0.05741704
000050 ee fb 55 bd ae d4 48 be ef ba 7b be 8a f7 c0 bd
       -0.052242212 -0.19612381 -0.24583028 -0.09422214
000060 9a ff 09 bc 0f 82 18 be 16 a7 bd bd 42 27 b5 bd
       -0.008422757 -0.14893363 -0.09260385 -0.088453785
000070 35 6d 5c 3c 4b 2e c8 bd 14 3c 50 bd 5a 22 ca bd
       0.013453771 -0.09774455 -0.050838545 -0.09869833
000080 ce ff ac 3d 8f 2f 73 bc 25 0b 48 3c 1f 11 f8 3c
       0.08447228 -0.014842882 0.012209688 0.030281601
000090 be 83 31 bd 3d e2 4b be 26 7f 51 be 77 2c 63 bd
       -0.04333853 -0.19910522 -0.2045866 -0.055462327
0000a0 89 45 6e bd 20 cf 20 be a1 5d 8e bd a3 55 83 bd
       -0.058171783 -0.15704012 -0.06951452 -0.06412818
0000b0 67 ab 07 3c e4 d4 10 be f0 41 15 bd 69 62 8a bd
       0.008280612 -0.14143711 -0.036439836 -0.067570515
0000c0 6c 57 28 bd 13 58 15 bd 07 03 6a bd a0 c1 ea bd
       -0.041098997 -0.036460947 -0.057131793 -0.11462712
0000d0 32 f8 75 3d 57 d4 32 3d 39 a3 ab bc fb c4 a0 bc
       0.06005115 0.043659534 -0.020951854 -0.019625178
0000e0 3b d7 8e bd 20 3a be bd b1 26 16 be 61 3d 8f be
       -0.06974646 -0.0928843 -0.14663197 -0.27976516
0000f0 87 29 24 bd a4 2a 86 bd 23 f9 70 bd 40 ef 86 bd
       -0.040078666 -0.06551102 -0.058831345 -0.06588602
000100 d7 67 92 bd bf 69 8b bd da 3e 7c 3c c2 b9 ac bd
       -0.07148712 -0.06807279 0.015395844 -0.08433868
000110 b8 8d 95 bc 68 7e 5e 3d 76 bc ee 3d 77 ba 1c 3c
       -0.018256053 0.05431977 0.1165704 0.009565941
000120 91 b7 29 bd 9e 36 03 bd f6 69 93 3c aa be 14 be
       -0.04143483 -0.03203451 0.017994862 -0.14525858
000130 cf f6 5c bd 0f b7 3d bc 18 5c 35 3c dc 82 a0 3c
       -0.053946313 -0.011579289 0.01106932 0.019593649
000140 4f d2 11 bc ab d8 f2 bb ec c8 54 3e d2 6b 51 3b
       -0.008900239 -0.0074110827 0.2077977 0.0031955135
000150 f0 c6 60 bd f5 82 33 3e 58 82 d7 3e 59 1d b7 3d
       -0.05487722 0.17530425 0.42091632 0.089411445
000160 44 50 94 3d 41 e3 30 3e f0 2c bc 3e 8d 12 8e 3d
       0.07241872 0.1727419 0.36753035 0.06937132
000170 36 3a 46 bd 2f be 3f 3d ff bb 26 3e 6d 6e a2 3c
       -0.048395358 0.046812233 0.16282652 0.019828046
000180 02 f5 61 3d 30 01 d8 3c 02 a4 2f 3e cd 9c 93 bc
       0.0551653 0.026367754 0.17152408 -0.018019104
000190 ef aa dc 3b d6 1f b6 3e 28 15 25 3e 3c 53 8a 3d
       0.006734244 0.35571164 0.16121352 0.06754157
0001a0 08 08 51 3d fa da 28 3d 02 59 48 3e 91 77 85 3c
       0.05103305 0.041224457 0.19565204 0.016292365
0001b0 58 12 72 3d 21 3f b3 bc 41 eb 8e bd c2 ac 7b 3d
       0.059099525 -0.021880688 -0.06978465 0.06144405
0001c0 5c f5 71 3d 7e 6a 42 bd 7c 2d f5 3c 31 0e 8b 3c
       0.059071884 -0.04746484 0.029928915 0.01697454
0001d0 ff 72 54 3c 4a e9 e7 3d 67 c6 b6 3c b0 64 ee bc
       0.01296687 0.11323793 0.022311402 -0.029100746
0001e0 4d 88 54 bd 4f 89 a3 bd ea b1 d4 bd cc 76 3d bd
       -0.0518878 -0.07985174 -0.10385497 -0.04625587
0001f0 8d 18 a9 3d 4d 42 4e bd aa c2 8e bc 22 7b d3 3c
       0.08256636 -0.050356198 -0.017426807 0.02581555
000200 bf 34 9f 3d dc ea dc bd 3b ad da bc 51 23 b0 3c
       0.077737324 -0.10786983 -0.02669393 0.021501215
000210 60 f4 18 3d 87 e6 61 3d 1d 2a f9 bd a6 92 87 bd
       0.03734243 0.05515149 -0.121662356 -0.06619768
000220 0d df 23 bd 8f e1 57 be 44 36 9c be f5 56 51 bd
       -0.04000764 -0.21082138 -0.3051015 -0.05110832
000230 32 0c 4d 3d aa 0d ac 3a d9 a4 36 bd 1a 0c f3 3c
       0.05006046 0.0013126631 -0.044590805 0.029668856
000240 47 9f b7 3c 58 9d 61 3d 50 34 20 be 90 7b 59 bd
       0.022414817 0.055081695 -0.15644956 -0.053096354
000250 f0 63 a1 3d 6c 65 e4 bd e9 f6 35 bd 6d d4 d0 3d
       0.0788039 -0.11152157 -0.044424925 0.10196767
000260 95 e8 41 3c bd 7f 8e bd b0 a2 03 be b0 91 41 be
       0.011835237 -0.06957958 -0.12855029 -0.18903232
000270 c5 81 ac bc 07 67 5f bd d6 7a 30 bd 39 d9 ab 3d
       -0.021057973 -0.054541614 -0.043085895 0.08391041
000280 28 ae 70 3c dd c8 75 3d 51 ac 04 be 86 94 f5 bd
       0.01468996 0.06000601 -0.12956358 -0.11991219
000290 fb c9 d8 3d fb 0b 2e bd a0 18 00 bd c1 7e 06 3d
       0.105854 -0.042491894 -0.031273484 0.032835726
0002a0 c0 13 f3 3c ee 4a c3 3c d8 d0 04 be 36 3b 42 be
       0.029672503 0.02383944 -0.12970293 -0.189679
0002b0 7d 4e 23 bd 91 a1 99 bd 14 3c 11 bd b0 60 b3 3b
       -0.039869774 -0.075015195 -0.035457686 0.0054741725
0002c0 50 0a d8 3d 00 1f 06 3e 2b fc e7 bc d9 71 c7 bc
       0.10548842 0.13097763 -0.028318485 -0.024346279
0002d0 3d d4 49 3e c5 f5 75 3d 63 83 44 3d 39 3b 99 3d
       0.19709869 0.060048837 0.047976863 0.07481999
0002e0 8f 80 22 3e b6 8c d4 3d 8f 2a f4 bb c2 c5 ba bd
       0.15869354 0.10378401 -0.0074513624 -0.091197506
0002f0 fd 43 57 3d 8d 66 c7 ba d8 c3 fa 3c 72 b1 c3 3c
       0.052555073 -0.0015213058 0.030610964 0.023888323
000300 19 81 aa bb 17 d8 39 3d ee 46 2c 3d 23 65 e8 3c
       -0.005203378 0.045372095 0.04205983 0.028368538
000310 bc d5 b6 bb 55 c2 10 3e 97 30 91 3e 0d 26 b9 3d
       -0.0055796783 0.14136632 0.28357384 0.09040461
000320 5d 43 b8 3c 89 c8 03 3c dc 3e 52 3e 65 db 18 3e
       0.022493059 0.008043417 0.20531791 0.14927442
000330 f1 e0 61 bd fd 93 5d bd 79 ba bb 3d e1 58 b7 bc
       -0.05514616 -0.05409621 0.09166426 -0.022381248
000340 98 70 eb bb 38 b3 71 3d 85 53 13 3d 65 b5 ce 3a
       -0.007185053 0.059008807 0.035968322 0.0015770613
000350 79 f0 21 3d dd 42 35 3e ba ad 9c 3e 9a e6 aa 3d
       0.039535973 0.17701288 0.30601293 0.08344765
000360 cb af c4 3c e6 64 67 3d 73 9b 47 3e 6a c0 05 3e
       0.024009606 0.05649271 0.19492893 0.13061681
000370 ee 0b a8 bc d4 03 66 bd b4 ff b5 3d 65 ad 69 bd
       -0.020513501 -0.056155995 0.08886662 -0.057050128
000380 e4 3f c9 bb 69 ac 92 3d c3 c3 b9 3d 6d 77 05 3c
       -0.0061416496 0.07161791 0.09070542 0.008146149
000390 51 cc 4a 3d 93 dd 8f 3e 7b 1f a0 3e 6d 27 0f 3e
       0.049511258 0.28098735 0.31274018 0.13979883
0003a0 cc ee 50 3d c6 5c bc 3d a9 8a 70 3e 36 2f 0b 3e
       0.051008984 0.09197383 0.23490395 0.13592228
0003b0 b6 f4 1c bc b7 b5 0c bc 8b 69 d7 3d 70 9f 0d bd
       -0.009579828 -0.008588246 0.105181776 -0.03457588
0003c0 07 03 91 3c 3d 8a 46 3b b6 87 28 3d 4e ae 70 3d
       0.017701639 0.0030294799 0.04114505 0.05875998
0003d0 ce 62 0b 3d 70 46 a8 3c ac cd 34 bd a4 99 26 3d
       0.034029774 0.0205414 -0.044141456 0.040673867
0003e0 9d 0e cd 3c 0d 74 96 3b 49 64 9f bd 88 bd 2c 3d
       0.025031382 0.004591471 -0.077828 0.04217294
0003f0 48 01 5c 3c f9 a2 45 3c 5c 91 ca 3c f6 09 47 3d
       0.01342804 0.0120627815 0.024727516 0.048593484

t_conv3.bias f4 [3]
000000 b0 e3 64 3d 54 c9 85 3e 9f 18 61 be
       0.055881202 0.26130164 -0.21982048
