models/cae3.pth (torch, 208399 bytes, 12 tensors)

conv1.weight f4 [16, 3, 3, 3]
0.09150349 -0.032311365 0.022407837 -0.07081295 -0.16836809 0.033179097 0.07435259 0.021921692
-0.016866688 0.11265607 -0.095489204 0.1959143 0.0682652 -0.20702316 0.047024477 -0.05980414
0.08561131 0.08949728 -0.48161757 -0.55912906 -0.9300146 0.07466208 -0.37381497 -0.2012989
-0.076917484 -0.025961481 -0.1460209 0.057259843 0.06284948 -0.14420463 0.19157952 0.17535079
0.14931345 -0.052408595 0.02502976 0.018995753 -0.025170837 -0.104351826 0.061376367 -0.05623309
0.12228972 0.04378701 0.030595314 0.01274759 -0.08735431 0.07210482 -0.37883735 -0.08673213
-0.16794585 -0.16605532 -0.11792637 -0.051934857 0.03670921 0.058971073 0.081492014 -0.16083685
0.09786013 -0.15252137 0.05451176 -0.14409684 -0.3269142 -0.3717314 0.012922024 0.013031124
-0.03834986 -0.0456407 -0.25274116 -0.083537966 -0.18423449 -0.67705864 -0.21321328 -0.14138725
0.05719533 0.020727886 0.0012865104 -0.25659457 -0.12477506 -0.04710054 -0.467164 0.13858022
-0.0065866713 0.06195659 0.086373195 -0.13680321 -0.021291375 -0.293401 -0.27002478 0.0024616153
-0.053009633 -0.19870566 -0.07453513 -0.14420116 -0.08500579 0.11110124 0.09203409 -0.07286943
0.010499199 -0.052131467 0.114876896 -0.009385396 0.071848206 0.026854618 -0.06697159 0.25166202
0.12320623 -0.049779005 0.14757413 0.11354937 -0.23269814 -0.14847603 0.16079248 -1.1306963
-0.12772393 0.1583201 -0.35899457 -0.04100557 0.0419019 0.097558245 -0.09268273 0.08982524
-0.62933356 -0.2504121 0.24303606 0.4879201 0.013178296 0.06772884 -0.03181714 -0.1156272
0.05885485 -0.8522375 -0.22548278 0.04365195 0.060487814 -0.052774496 -0.06193736 -0.024170985
-0.024093227 -0.053427506 0.17831309 -0.38672647 0.04173333 -0.04049406 -0.05273641 -0.063636705
0.1649019 0.07285254 -0.011764998 0.06911902 -0.22878587 0.00902618 0.014666681 0.09721754
-0.011197403 0.040656023 -0.1924585 -0.07106635 -0.013791322 -0.2559519 -0.02175621 0.16474693
0.18815261 -0.0036173179 -0.3247776 -0.14616722 -0.29346973 -0.32179043 -0.13346344 0.059034456
0.12990148 -0.051702622 -0.14347702 0.08998847 -0.14878584 -0.16105519 0.065934554 -0.21651682
-0.19631404 0.08546523 -0.04987117 0.13492627 -0.29930875 -0.23250453 -0.0952803 -0.011754863
-0.23779558 -0.31308812 -0.09990331 0.09764637 -0.18718255 -0.22760805 -0.19016987 -0.06293733
-0.18274398 -0.23762089 -0.15535311 -3.34057e-05 -0.20085691 0.08337451 0.0005758627 -0.15397285
-0.0046605724 -0.06726723 0.06690619 0.020653313 -0.023535697 0.115762174 -0.18283957 -0.052006252
-0.025504023 -0.053556852 -0.08343924 0.10032422 0.022532905 -0.12229179 -0.14766267 -0.204902
-0.04196204 -0.20255761 0.116800405 -0.15238912 -0.12190053 -0.006313465 0.07676632 -0.013423837
-0.026599344 -0.048783522 0.012565306 0.09054092 0.055773214 0.0072844485 -0.19825873 -0.24977024
-0.1900839 0.037331376 -0.096523434 0.10904703 -0.10251177 -0.19093695 -0.20519143 -0.14905533
-0.011338672 -0.16148399 -0.018542295 -0.08093202 -0.13358736 -0.099781156 -0.09453614 0.14364032
0.27250865 0.074163266 -0.13254449 -0.18328282 0.14489588 0.08060561 0.12549077 0.014313388
00000000: 2f66 bb3d ec58 04bd a490 b73c 6106 91bd
00000010: af68 2cbe cee6 073d 2c46 983d 1f95 b33c
00000020: 022c 8abc 3ab8 e63d d88f c3bd c29d 483e
00000030: a0ce 8b3d e1fd 53be bd9c 403d 30f5 74bd
00000040: fc54 af3d 5a4a b73d 9496 f6be 1523 0fbf
00000050: 7015 6ebf 6fe8 983d ad64 bfbe 4d21 4ebe
00000060: ea86 9dbd 2cad d4bc 8186 15be 4c89 6a3d
00000070: 3ab7 803d 61aa 13be 6c2d 443e 288f 333e
00000080: a0e5 183e 65aa 56bd 360b cd3c fb9c 9b3c
00000090: 1233 cebc 69b6 d5bd c965 7b3d ab54 66bd
000000a0: 0873 fa3d 025a 333d 06a3 fa3c 45db 503c
000000b0: d1e6 b2bd b1ab 933d f8f6 c1be 9da0 b1bd
000000c0: fff9 2bbe 680a 2abe 6183 f1bd a5b9 54bd
000000d0: 665c 163d a78b 713d 49e5 a63d 6ab2 24be
000000e0: e46a c83d 902e 1cbe b947 5f3d 1f8e 13be
000000f0: 4c61 a7be 9453 bebe e6b6 533c 7f80 553c
00000100: be14 1dbd bef1 3abd 4a67 81be f415 abbd
00000110: f7a7 3cbe b753 2dbf 9554 5abe d2c7 10be
00000120: a645 6a3d 87cd a93c 20a0 a83a 5d60 83be
00000130: 118a ffbd 7fec 40bd 1f30 efbe f9e7 0d3e
00000140: 01d5 d7bb 31c6 7d3d 6ee4 b03d 2416 0cbe
00000150: 406b aebc a838 96be b040 8abe 0d53 213b
00000160: a120 59bd 7f79 4bbe e0a5 98bd 78a9 13be
00000170: 8417 aebd 0c89 e33d 5e7c bc3d 913c 95bd
00000180: d504 2c3c ce87 55bd 9444 eb3d 34c5 19bc
00000190: 2725 933d 37fe db3c 6728 89bd d8d9 803e
000001a0: 8c53 fc3d 12e5 4bbd ac1d 173e 928c e83d
000001b0: 6c48 6ebe 1a0a 18be c9a6 243e a8ba 90bf
000001c0: 10ca 02be aa1e 223e 23ce b7be 75f5 27bd
000001d0: 54a1 2b3d 9ecc c73d 71d0 bdbd 4cf6 b73d
000001e0: 011c 21bf 0436 80be 72de 783e aad0 f93e
000001f0: c8e9 573c 6bb5 8a3d b052 02bd f4cd ecbd
00000200: c811 713d 3d2c 5abf f5e4 66be 63cc 323d
00000210: 12c2 773d 122a 58bd 07b2 7dbd 3b02 c6bc
00000220: 295f c5bc cdd6 5abd b597 363e 0301 c6be
00000230: 91f0 2a3d 19dd 25bd 2202 58bd f653 82bd
00000240: 0bdc 283e b633 953d fac1 40bc 468e 8d3d
00000250: d846 6abe 8be2 133c 854c 703c fd19 c73d
00000260: 5075 37bc ee86 263d d713 45be 3c8b 91bd
00000270: fff4 61bc 210c 83be 143a b2bc 6bb3 283e
00000280: 14ab 403e 8610 6dbb 4049 a6be dcac 15be
00000290: aa41 96be b7c1 a4be a4aa 08be 1dce 713d
000002a0: e504 053e 21c6 53bd a4eb 12be e04b b83d
000002b0: 515b 18be a7eb 24be b208 873d 96b6 5dbe
000002c0: 8c06 49be 6508 af3d b645 4cbd 1d2a 0a3e
000002d0: ff3e 99be ab15 6ebe 5122 c3bd 7897 40bc
000002e0: af80 73be 164d a0be 1b9a ccbd d2fa c73d
000002f0: c8ac 3fbe 1612 69be e4bb 42be 49e5 80bd
00000300: 3d21 3bbe e452 73be e314 1fbe 191d 0cb8
00000310: 6fad 4dbe 41c0 aa3d 7ef5 163a 0fab 1dbe
00000320: b7b7 98bb 67c3 89bd 1d06 893d 2331 a93c
00000330: efcd c0bc b814 ed3d 4c3a 3bbe 8204 55bd
00000340: d0ed d0bc 6e5e 5bbd 31e2 aabd c976 cd3d
00000350: ed96 b83c 1e74 fabd e234 17be d4d1 51be
00000360: 63e0 2bbd 436b 4fbe 0d35 ef3d e50b 1cbe
00000370: fca6 f9bd 2fe1 cebb a937 9d3d a7ef 5bbc
00000380: dee6 d9bc 3bd1 47bd b7de 4d3c 856d b93d
00000390: 7472 643d 62b2 ee3b 5604 4bbe c5c3 7fbe
000003a0: 5ba5 42be c9e8 183d 14ae c5bd 0d54 df3d
000003b0: b1f1 d1bd fa84 43be b41d 52be f6a1 18be
000003c0: d6c5 39bc 0f5c 25be 03e6 97bc b0bf a5bd
000003d0: 20cb 08be 105a ccbd 2a9c c1bd 7316 133e
000003e0: 4186 8b3e e9e2 973d beb9 07be 7eae 3bbe
000003f0: 965f 143e 8e14 a53d a780 003e b382 6a3c

conv1.bias f4 [16]
0.27486882 0.38747242 0.28454277 0.4676991 0.1813976 0.34939668 -0.22198701 -0.2278695
-0.17752934 -0.17643112 -0.14396332 0.16280727 -0.038953483 -0.6215024 0.08465578 -0.118572146
00000000: 9bbb 8c3e c962 c63e 97af 913e 4276 ef3e
00000010: 4bc0 393e 1fe4 b23e 9050 63be 9f56 69be
00000020: 40ca 35be 5caa 34be 1f6b 13be f3b6 263e
00000030: b08d 1fbd c81a 1fbf 0260 ad3d f4d5 f2bd

conv2.weight f4 [32, 16, 3, 3]
-0.01586461 0.011468024 -0.034244817 -0.0011356905 0.115752414 -0.04516325 -0.10813471 0.010888784
-0.061443556 0.001557833 -0.052710287 0.023603097 0.078195006 0.033515293 0.003426186 -0.04082729
0.086762235 -0.008202725 0.14902592 0.2256219 -0.016299246 0.037910864 0.14634049 0.0511288
-0.013353869 -0.017667642 -0.012181912 0.023129253 0.023761049 0.010887973 0.17598084 0.07121383
0.036227413 -0.04666511 0.062338095 -0.03878521 0.015204976 -0.015173431 0.014356013 -0.0439658
-0.02225371 -0.13006474 -0.017650714 -0.008389899 0.00071152166 -0.07663394 0.03354572 -0.09967736
0.04788801 -0.062936515 -0.0076355673 0.00084077835 0.09000377 -0.022942128 0.019566603 0.037618384
0.052954145 -0.14643596 -0.08758398 0.028618418 -0.06015925 -0.05544218 -0.23819616 0.1272714
0.04727972 0.025171949 0.027564924 0.062593184 -0.05521526 0.00064126484 -0.07722124 0.06713013
0.113674134 0.012407737 0.06440342 0.019287834 0.039219886 0.018758716 0.01770871 -0.015662674
0.12574492 0.08135004 -0.0054098098 -0.01326743 -0.38811433 -0.08107109 0.03682351 0.12791415
0.024341382 0.00817606 0.012463986 0.037352014 0.016985547 0.034531455 -0.51895386 0.075897485
-0.03292732 -0.06967202 0.021513537 0.021115588 -0.060895104 -0.012359084 -0.033140033 0.012966948
-0.026120855 0.06420175 -0.0046490007 0.023440335 -0.08441083 0.016611854 0.03975315 0.04100558
-0.064129665 0.051258743 -0.012796768 -0.07512889 0.044380426 0.007476922 -0.056539115 -0.12701355
0.05500304 0.06372322 -0.25079852 -0.020463325 -0.018273357 0.053087775 0.0053003654 0.02044017
-0.050624385 0.015070677 0.021470046 0.009072922 -0.008332134 -0.013186324 -0.07590641 -0.004629935
-0.011748146 -0.051449146 -0.0476395 -0.15106356 -0.15955074 -0.046957757 -0.030366553 -0.0850787
-0.020392 -0.025752205 -0.07948283 -0.11119265 -0.05742292 -0.06562125 -0.0087337205 -0.0977751
-0.017791636 -0.046682477 -0.015530153 0.028574603 -0.007790341 -0.07588574 -0.022271981 -0.11614007
-0.092108876 -0.068475835 0.023300271 -0.089414716 0.018415127 -0.029082896 -0.056358196 -0.09348932
0.0035706465 -0.00013857525 -0.05201082 -0.020221703 -0.07038271 -0.016814968 -0.086719275 -0.029202627
-0.018891478 -0.00479383 0.019937491 -0.090838335 -0.07212362 -0.014169344 0.024611259 -0.12305421
-0.046773784 -0.042161793 -0.015840245 0.008606839 -0.023572506 -0.034087393 0.046224996 -0.059840936
-0.070441164 0.05941045 -0.05072778 -0.02848265 0.052489057 -0.05636288 -0.061374605 -0.0005782172
0.072792165 -0.053964972 -0.018187948 -0.039043367 -0.04613474 0.017109133 0.052139334 0.11783424
0.02725875 0.038964145 -0.0034063405 0.043911368 0.009983316 0.06905546 0.102735385 0.07517045
0.0077131796 0.122883365 -0.0059062317 0.005995435 -0.0030769324 0.13063137 -0.08406483 -0.061647896
0.0015169684 -0.12082467 0.0007689003 -0.09243846 -0.038236137 0.0073441714 0.010190218 -0.097381145
-0.11440514 -0.059875004 -0.0712023 -0.02116988 -0.068312876 -0.015847413 -0.008926685 -0.11931404
-0.07180993 -0.108189955 0.022345668 -0.04512216 0.031944785 -0.10257089 -0.04534371 -0.061799087
-0.014348362 -0.055068117 -0.039799172 -0.029161604 -0.103617266 -0.087484814 0.036549743 -0.033762984
00000000: 80f6 81bc 61e4 3b3c 4b44 0cbd 73db 94ba
00000010: 9a0f ed3d 1afd 38bd bb75 ddbd df66 323c
00000020: 3dac 7bbd 3430 cc3a bee6 57bd 485b c13c
00000030: b424 a03d 5547 093d dd89 603b 843a 27bd
00000040: 66b0 b13d b964 06bc 409a 183e 6d09 673e
00000050: ff85 85bc 6c48 1b3d 48da 153e 6f6c 513d
00000060: 30ca 5abc bbbb 90bc a496 47bc 8f79 bd3c
00000070: 88a6 c23c 7863 323c 5234 343e 8ed8 913d
00000080: 3263 143d ea23 3fbd 3b56 7f3d 3edd 1ebd
00000090: 4b1e 793c fb99 78bc 7c35 6b3c 7c15 34bd
000000a0: 6a4d b6bc b12f 05be 3b98 90bc c975 09bc
000000b0: 6985 3a3a 41f2 9cbd 3d67 093d a523 ccbd
000000c0: 3826 443d dce4 80bd c833 fabb ae67 5c3a
000000d0: e653 b83d 21f1 bbbc 244a a03c bc15 1a3d
000000e0: 72e6 583d 4ff3 15be 3b5f b3bd 2c71 ea3c
000000f0: 8c69 76bd 5717 63bd b2e9 73be 6f53 023e
00000100: 61a8 413d 6735 ce3c d6cf e13c db30 803d
00000110: 6529 62bd 8e1a 283a 2b26 9ebd 867b 893d
00000120: fccd e83d d249 4b3c f1e5 833d 8501 9e3c
00000130: 08a5 203d e1ab 993c db11 913c 024f 80bc
00000140: 47c3 003e da9a a63d c644 b1bb a25f 59bc
00000150: ecb6 c6be 9a08 a6bd 40d4 163d edfb 023e
00000160: 9467 c73c e2f4 053c bf35 4c3c 6dfe 183d
00000170: 4625 8b3c db70 0d3d 29da 04bf 2470 9b3d
00000180: ccde 06bd 34b0 8ebd 283d b03c 99fa ac3c
00000190: 256d 79bd c17d 4abc d8bd 07bd 5273 543c
000001a0: 67fb d5bc 357c 833d a556 98bb f205 c03c
000001b0: 96df acbd 9515 883c 33d4 223d 78f5 273d
000001c0: 6a56 83bd b0f4 513d 89a9 51bc 2ddd 99bd
000001d0: 40c8 353d f800 f53b 8f95 67bd d70f 02be
000001e0: de4a 613d 5281 823d aa68 80be b4a2 a7bc
000001f0: 02b2 95bc 9172 593d b0ae ad3b 2572 a73c
00000200: 845b 4fbd 00eb 763c f3e1 af3c 98a6 143c
00000210: 8183 08bc 740b 58bc d274 9bbd b6b6 97bb
00000220: 4c7b 40bc 57bc 52bd a321 43bd 68b0 1abe
00000230: 4561 23be c756 40bd 47c3 f8bc be3d aebd
00000240: 200d a7bc 4af6 d2bc e5c7 a2bd f9b8 e3bd
00000250: 4c34 6bbd 6f64 86bd e117 0fbc 503e c8bd
00000260: c4bf 91bc 2036 3fbd 2f72 7ebc 4915 ea3c
00000270: 1e46 ffbb fc69 9bbd bb73 b6bc d8da edbd
00000280: 94a3 bcbd 0f3d 8cbd 36e0 be3c 101f b7bd
00000290: 52db 963c 413f eebc dad7 66bd 5477 bfbd
000002a0: 8201 6a3b 834e 11b9 4c09 55bd fca7 a5bc
000002b0: cf24 90bd 8bbf 89bc e099 b1bd 593a efbc
000002c0: 4dc2 9abc 9015 9dbb f353 a33c 7309 babd
000002d0: 8cb5 93bd 8926 68bc 8d9d c93c d803 fcbd
000002e0: de95 3fbd d8b1 2cbd 67c3 81bc b303 0d3c
000002f0: 211b c1bc 399f 0bbd 6c56 3d3d c51b 75bd
00000300: 7543 90bd 5f58 733d efc7 4fbd 7254 e9bc
00000310: c4fe 563d c3dc 66bd f063 7bbd 8093 17ba
00000320: 0f14 953d 600a 5dbd e4fe 94bc f0eb 1fbd
00000330: c8f7 3cbd 7428 8c3c 0e90 553d 1453 f13d
00000340: be4d df3c de98 1f3d e93c 5fbb 68dc 333d
00000350: 1091 233c f36c 8d3d ee66 d23d f7f2 993d
00000360: d7be fc3b 46aa fb3d 1089 c1bb 5b75 c43b
00000370: 5ca6 49bb 3bc4 053e 2e2a acbd 8182 7cbd
00000380: 03d5 c63a ed72 f7bd 0790 493a 6050 bdbd
00000390: 7f9d 1cbd 60a7 f03b dff4 263c c46f c7bd
000003a0: 3e4d eabd 7e3f 75bd 83d2 91bd 756c adbc
000003b0: 9fe7 8bbd 6fd2 81bc 3b41 12bc eb5a f4bd
000003c0: 1611 93bd b292 ddbd 430e b73c 04d2 38bd
000003d0: 89d8 023d b010 d2bd 53ba 39bd 0a21 7dbd
000003e0: 6415 6bbc 1b8f 61bd 7504 23bd 51e4 eebc
000003f0: 4a35 d4bd 3d2b b3bd 2fb5 153d 0e4b 0abd

conv2.bias f4 [32]
0.83192146 -0.06164941 0.17040724 -0.03311474 -0.0749022 -0.03583839 0.42515254 -0.1143933
-0.13701786 -0.11450964 0.34827024 0.004202966 0.3002443 -0.04999746 -0.05436688 -0.060901247
-0.004388301 0.13489525 -0.017566007 -0.1075348 -0.053972293 0.09732618 -0.10519951 -0.03872229
-0.14284821 -0.009374118 -0.04006283 -0.038515747 -0.002548751 -0.11454016 0.0019381174 0.40098122
00000000: cef8 543f 1784 7cbd 3c7f 2e3e 52a3 07bd
00000010: 5366 99bd 47cb 12bd 98ad d93e 0947 eabd
00000020: 694e 0cbe 0884 eabd 7a50 b23e 09b9 893b
00000030: 9fb9 993e 23ca 4cbd ceaf 5ebd 9673 79bd
00000040: bdcb 8fbb fb21 0a3e 96e6 8fbc 353b dcbd
00000050: 0d12 5dbd f352 c73d d772 d7bd 449b 1ebd
00000060: cd46 12be e795 19bc ec18 24bd b0c2 1dbd
00000070: f208 27bb 0894 eabd 6e08 fe3a 694d cd3e

conv3.weight f4 [64, 32, 3, 3]
-0.15085639 -0.13873832 -0.12895325 -0.134017 -0.06392643 -0.055105407 -0.08471442 -0.124342486
-0.094063476 -0.10239215 -0.0851153 -0.12433144 -0.034508284 -0.06340751 -0.09283367 -0.075019166
-0.09212369 -0.08146551 -0.07266278 -0.12232651 -0.08193205 -0.09293148 -0.11170175 -0.05681603
-0.01732013 -0.029556066 -0.046986416 -0.12435149 -0.13690689 -0.03775786 -0.08455618 -0.09408626
-0.016811525 -0.10618293 0.0017165975 -0.059724685 -0.015138585 -0.063543744 0.01908672 -0.056575365
-0.018025288 -0.08681682 -0.048877362 0.038978048 -0.0038099755 -0.0010487268 -0.0094431285 -0.05842795
-0.03238496 -0.025096633 -0.004670212 -0.015346167 -0.117058665 -0.087504946 0.004109755 -0.07475947
0.0011692888 -0.045026764 -0.07562143 -0.054423172 -0.10782078 -0.08776922 -0.025199383 -0.116521776
-0.034352325 0.00308967 -0.0634491 -0.028429156 -0.07835608 -0.042435553 0.06063839 -0.0655624
-0.0009470802 0.038980257 -0.022681491 -0.020821853 0.026640099 -0.024840664 0.014436837 -0.04324714
0.0017970654 -0.048372064 -0.02418457 -0.045461845 -0.060394756 -0.06310558 -0.023426201 -0.039724015
0.027295373 -0.076771945 -0.033359725 -0.08408552 -0.0477102 -0.054895613 -0.103457235 0.006058767
-0.085062705 -0.0967865 -0.07204185 -0.042546835 -0.024168814 -0.07192913 0.016500525 0.0353146
-0.0015762672 -0.009112191 0.04160996 -0.060092054 -0.002506929 -0.042108674 -0.03619942 0.0023123054
-0.03599692 -0.06622908 -0.027170274 -0.07673933 -0.0038857774 -0.034135126 -0.0057342225 -0.07072741
-0.081374034 -0.0031272036 -0.02581608 -0.094974466 -0.017768776 -0.119245745 -0.093255065 -0.09097132
-0.013986739 0.047640298 0.070024215 -0.008953792 0.078821 0.023794841 0.026514102 -0.040021908
-0.016695265 0.016392825 0.04594744 0.040476043 0.09676132 0.10087368 0.09377287 0.0050790617
0.043794468 -0.0036672815 0.001237744 -0.016672736 -0.0043020956 0.0331876 -0.03137062 0.0043001664
0.017559962 -0.010488839 -0.055809498 0.0029264148 -0.038006045 -0.016334087 -0.06270824 -0.106612004
-0.071313284 -0.041059434 0.06438563 0.017371975 0.06458706 0.095340386 0.1124349 0.12228097
0.025442276 0.076715976 0.05510113 -0.07079857 0.0037608643 -0.0432772 0.002302878 0.02281628
0.036675394 -0.033428244 0.061885875 0.019549875 -0.110960126 -0.103254564 -0.12976612 -0.072064206
0.006394057 -0.042057753 0.04527339 0.09561158 0.06318453 -0.12284415 -0.19211908 -0.22488151
-0.1927385 -0.27205238 -0.11168655 -0.1102151 -0.16998489 -0.1427408 -0.009860499 -0.05471208
-0.036337018 -0.06792657 0.03359373 0.031251114 0.023408433 -0.008695561 -0.020016171 -0.07000409
-0.0849353 -0.11054499 -0.13363054 -0.0448746 -0.050427843 0.00050803955 -0.0005533136 -0.011349769
-0.050116714 -0.10935866 -0.12798572 -0.021026 -0.09535643 -0.023192868 -0.08242936 -0.08660474
-0.014706556 0.0023955877 -0.005873293 0.058213934 0.015812688 0.046732724 0.040928487 0.03099504
-0.0033738574 0.031692896 -0.016087204 -0.051939838 0.0072457534 0.09409629 0.06617282 0.03561548
0.011960045 -0.07039204 -0.058956478 0.008178249 0.019869601 -0.03342989 0.030116571 -0.031118428
-0.074108325 0.02105231 -0.03595374 0.032032132 -0.07657714 -0.023733078 0.011192968 0.00043460427
00000000: 197a 1abe 6b11 0ebe 520c 04be c13b 09be
00000010: dceb 82bd 35b6 61bd c17e adbd 46a7 febd
00000020: 5aa4 c0bd fab2 d1bd ee50 aebd 7ba1 febd
00000030: 8f58 0dbd ccdb 81bd 941f bebd a6a3 99bd
00000040: 58ab bcbd 64d7 a6bd 39d0 94bd 5286 fabd
00000050: fecb a7bd dc52 bebd e3c3 e4bd edb7 68bd
00000060: f2e2 8dbc 901f f2bc d474 40bd feab febd
00000070: 5231 0cbe fca7 1abd ca2b adbd 4cb0 c0bd
00000080: 53b8 89bc 7076 d9bd 74ff e03a dfa1 74bd
00000090: d407 78bc 3923 82bd c15b 9c3c 92bb 67bd
000000a0: c5a9 93bc 04cd b1bd a133 48bd 72a7 1f3d
000000b0: c8b0 79bb 6f75 89ba 5ab7 1abc 2552 6fbd
000000c0: 18a6 04bd 7497 cdbc 9408 99bb 7d6e 7bbc
000000d0: 74bc efbd cb35 b3bd 20ab 863b 7e1b 99bd
000000e0: d242 993a fc6d 38bd 69df 9abd d5ea 5ebd
000000f0: 24d1 dcbd 59c0 b3bd f06e cebc f8a2 eebd
00000100: 06b5 0cbd 107c 4a3b 9af1 81bd 43e4 e8bc
00000110: 2779 a0bd e7d0 2dbd f65f 783d 9445 86bd
00000120: 7a45 78ba c3a9 1f3d 89ce b9bc 9792 aabc
00000130: 563c da3c a67e cbbc 7c88 6c3c ea23 31bd
00000140: 828b eb3a c921 46bd b81e c6bc 3336 3abd
00000150: 7e60 77bd 803d 81bd 4ee8 bfbc a6b5 22bd
00000160: 8c9a df3c 9c3a 9dbd 35a4 08bd 0735 acbd
00000170: c56b 43bd 39da 60bd 63e1 d3bd 9f88 c63b
00000180: 5b35 aebd 0038 c6bd ad8a 93bd 9745 2ebd
00000190: adfd c5bc 944f 93bd 1c2c 873c 0ba6 103d
000001a0: c09a ceba 4d4b 15bc 356f 2a3d 1623 76bd
000001b0: 4a4b 24bb 257a 2cbd d845 14bd 0c8a 173b
000001c0: 8271 13bd 1da3 87bd 3294 debc 8329 9dbd
000001d0: 87a8 7ebb 46d1 0bbd 25e6 bbbb 88d9 90bd
000001e0: 6ea7 a6bd c5f1 4cbb 3e7c d3bc f981 c2bd
000001f0: d38f 91bc 1d37 f4bd 83fc bebd 2c4f babd
00000200: a328 65bc 7922 433d db68 8f3d edb2 12bc
00000210: e86c a13d 66ed c23c 1a34 d93c 03ee 23bd
00000220: 82c4 88bc 3f4a 863c 6233 3c3d 35ca 253d
00000230: cd2a c63d dc96 ce3d fe0b c03d 426e a63b
00000240: d461 333d c656 70bb cc3b a23a 4395 88bc
00000250: 98f8 8cbb b9ef 073d 7b7e 00bd 69e8 8c3b
00000260: e9d9 8f3c 61d9 2bbc 8098 64bd 18c9 3f3b
00000270: 3aac 1bbd 10cf 85bc 2d6d 80bd 6557 dabd
00000280: b30c 92bd f02d 28bd 9ddc 833d ac4f 8e3c
00000290: 3846 843d d241 c33d 4544 e63d 726e fa3d
000002a0: 526c d03c 441d 9d3d b9b1 613d d7fe 90bd
000002b0: d578 763b 6f43 31bd e2eb 163b 35e9 ba3c
000002c0: f038 163d 0eec 08bd 0b7c 7d3d 0f27 a03c
000002d0: 103f e3bd 2177 d3bd 69e1 04be 6696 93bd
000002e0: 3d85 d13b c044 2cbd 9770 393d 01d0 c33d
000002f0: e466 813d b795 fbbd ddba 44be 5747 66be
00000300: 3e5d 45be 734a 8bbe ebbb e4bd 74b8 e1bd
00000310: 8510 2ebe a52a 12be ee8d 21bc c619 60bd
00000320: 20d6 14bd 161d 8bbd 9499 093d 2b01 003d
00000330: 0bc3 bf3c d477 0ebc f4f8 a3bc 4e5e 8fbd
00000340: 8ff2 adbd 6965 e2bd 72d6 08be 6ece 37bd
00000350: 6d8d 4ebd f52d 053a 3f0c 11ba 62f4 39bc
00000360: 2f47 4dbd 6ff7 dfbd b00e 03be b83e acbc
00000370: 3b4a c3bd f8fe bdbc b9d0 a8bd d35d b1bd
00000380: c4f3 70bc 4bff 1c3b c174 c0bb bc71 6e3d
00000390: 9c89 813c d06a 3f3d a1a4 273d 4fe9 fd3c
000003a0: ef1b 5dbb 69d0 013d 50c9 83bc debe 54bd
000003b0: c96d ed3b 8eb5 c03d 9e85 873d 8ae1 113d
000003c0: 11f4 433c b429 90bd 597c 71bd 10fe 053c
000003d0: 93c5 a23c c8ed 08bd 07b7 f63c 13ec febc
000003e0: 1bc6 97bd e575 ac3c 3b44 13bd 2034 033d
000003f0: 7ad4 9cbd df6b c2bc b662 373c 99db e339

conv3.bias f4 [64]
-0.2064154 0.18788463 -0.054935887 -0.42408293 -0.086136416 -0.0513955 0.37247297 0.031335697
-0.096762046 -0.1648397 -0.054556113 -0.0686942 -0.039997403 -0.108610034 0.005307645 -0.07381007
-0.064560555 -0.0866442 -0.12271255 0.13135274 -0.075488515 -0.11078481 -0.07621062 -0.11915666
-0.1385997 0.113279626 -0.041374233 -0.055017017 -0.036640853 -0.16439885 -0.23941307 -0.007248312
-0.085217156 -0.082611844 -0.036600783 -0.074986786 -0.104394466 -0.010518301 -0.06656062 -0.1104251
-0.053480893 -0.11368125 -0.10486601 0.72629446 -0.102770545 -0.07213299 -0.26087204 -0.25862202
-0.03950674 -0.08710567 -0.097634844 -0.06523261 -0.0036821447 -0.09121463 0.09894204 -0.044653334
-0.0387277 -0.058413856 -0.25556698 -0.16804372 -0.023957787 -0.100213 -0.0868682 -0.10013019
00000000: 8f5e 53be d464 403e 7404 61bd 6621 d9be
00000010: 4a68 b0bd 1684 52bd c7b4 be3e dc59 003d
00000020: 2e2b c6bd bdcb 28be 3b76 5fbd 8baf 8cbd
00000030: 51d4 23bd f06e debd c1eb ad3b bc29 97bd
00000040: 5338 84bd 8472 b1bd b850 fbbd 5581 063e
00000050: b999 9abd 25e3 e2bd 5014 9cbd 6808 f4bd
00000060: 14ed 0dbe 26ff e73d 0778 29bd 8659 61bd
00000070: b814 16bd 2c58 28be b328 75be 3f83 edbb
00000080: 5586 aebd 6630 a9bd b4ea 15bd ac92 99bd
00000090: c4cc d5bd f454 2cbc ef50 88bd 8e26 e2bd
000000a0: c80e 5bbd b7d1 e8bd fec3 d6bd 6fee 393f
000000b0: 5d79 d2bd 76ba 93bd 0591 85be 1b6a 84be
000000c0: d2d1 21bd 7564 b2bd c7f4 c7bd ad98 85bd
000000d0: 2350 71bb bcce babd 20a2 ca3d 6ae6 36bd
000000e0: f0a0 1ebd 5e43 6fbd add9 82be a713 2cbe
000000f0: 1f43 c4bc 793c cdbd f4e7 b1bd 0f11 cdbd

t_conv1.weight f4 [64, 32, 3, 3]
-0.022772493 -0.064665265 -0.07102957 0.0026594135 -0.11030902 -0.016409706 -0.0660536 -0.08654807
-0.043209624 0.06326274 0.04294464 0.095079765 -0.013766481 0.09120579 0.048564218 -0.07788327
-0.048970908 -0.08669767 0.05231922 0.0852374 0.029617185 0.051542636 0.058011703 0.0021926784
0.06330631 0.08168492 -0.0014920051 -0.05427832 0.055575624 0.04904692 0.127116 0.108892426
0.1834528 0.1419727 0.12506616 0.1485025 0.04495002 0.04039706 0.058672626 0.025272567
0.09339761 0.05809825 0.08692302 0.07750182 0.023726191 0.020845126 0.058668196 0.0126168765
-0.016679907 0.0636012 0.07701777 0.07436163 0.04406744 0.101124175 0.049347255 -0.017509334
0.05763186 -0.037238695 -0.053901374 -0.047026534 0.022738148 -0.010427497 -0.005321361 -0.05962379
-0.04908338 -0.028940814 0.0052309865 -0.09548395 -0.047999978 -0.022925144 0.00089120836 -0.028778914
0.04104248 0.107103705 0.058892857 0.043693036 0.08347612 0.041896492 0.07562951 0.021434795
-0.005273626 0.06777432 0.05492673 0.06828118 0.07136998 0.09442134 0.06356047 0.018126698
0.07679425 0.050441436 0.09292705 0.08005392 0.102741584 0.0060705286 0.08916166 0.0659132
-0.07397082 -0.099550605 -0.0039176634 0.046937298 -0.01114447 -0.009289075 -0.015834536 0.006810393
0.02431618 -0.04393582 0.019517455 0.02221131 -0.024913238 -0.04883927 0.003792052 -0.008229497
0.013882939 -0.00789723 0.058616754 0.057201702 0.035232913 -0.088930026 -0.0038065193 -0.091987975
-0.057424724 0.0003331783 -0.060673643 -0.037244618 -0.06233828 -0.092359416 0.043800697 0.099016786
0.11588312 -0.0452 0.007276094 0.0077971164 0.09741107 0.08204483 0.04562419 -0.02277011
0.016145691 0.053778514 -0.0635944 -0.020662945 0.015823176 0.052634772 -0.007391265 -0.055451687
0.066377446 0.07413007 0.03861566 0.004188765 0.06746015 0.09345214 0.057386264 0.079911225
0.042102613 0.026240608 0.08837857 0.041939348 -0.0028840671 0.07097113 0.04839364 -0.007848585
0.03716401 0.05042962 0.10613591 0.11425613 -0.020486327 0.06817073 -0.040148515 -0.009272566
-0.081086546 -0.09854129 -0.012053563 0.014927002 -0.04970485 0.017418748 0.025348978 -0.0108797345
-0.0006662646 0.018078867 -0.016873637 -0.085706614 -0.007191593 -0.07398542 -0.060183123 -0.012566572
0.051135674 0.08224625 -0.02827992 0.04461082 -0.00086284196 -0.031369768 -0.04100869 0.0031945407
0.0037353002 0.044760365 0.0570773 -0.031082591 0.00878549 0.008220118 -0.031426005 -0.002536529
-0.03541642 -0.006240435 -0.0039763427 -0.091433 -0.027429739 -0.038204942 0.02309356 0.084406346
0.1280299 0.12793386 0.11149164 0.16589 0.05981123 0.057370156 0.12309476 0.1733863
0.032809474 -0.060687497 -0.045368053 -0.035151478 0.050268184 -0.017959151 0.005007796 0.014407438
0.044675086 0.036550585 -0.04251378 -0.03976289 -0.004472605 -0.053553768 0.0019450538 0.0020627668
0.08788513 -0.015176113 0.013880143 -0.06729864 -0.07864593 0.0042949086 -0.08645857 -0.024055477
-0.033188894 -0.01516051 -0.06613243 -0.022570208 -0.012649618 0.039001096 0.031096738 0.04403766
0.0272003 0.00987703 0.018240836 -0.0028719492 -0.025588823 0.03358898 -0.030244214 -0.010870967
00000000: 618d babc 396f 84bd f477 91bd 8e49 2e3b
00000010: b2e9 e1bd a66d 86bc 1c47 87bd 1d40 b1bd
00000020: 93fc 30bd e58f 813d b8e6 2f3d 2eb9 c23d
00000030: ce8c 61bc 1aca ba3d 46eb 463d 4481 9fbd
00000040: b895 48bd 8c8e b1bd ae4c 563d f290 ae3d
00000050: bd9f f23c 5f1e 533d ae9d 6d3d 0ab3 0f3b
00000060: bda6 813d 6c4a a73d 628f c3ba f252 5ebd
00000070: 44a3 633d 6ce5 483d b22a 023e fe02 df3d
00000080: 0ddb 3b3e 4b61 113e 5811 003e 0a11 183e
00000090: 831d 383d 6377 253d b552 703d 6a08 cf3c
000000a0: 3f47 bf3d 6ef8 6d3d b204 b23d 46b9 9e3d
000000b0: 6e5d c23c 66c3 aa3c 104e 703d 04b7 4e3c
000000c0: 4da4 88bc 5941 823d 7ebb 9d3d e94a 983d
000000d0: 0f80 343d 311a cf3d 5920 4a3d bc6f 8fbc
000000e0: 630f 6c3d 9a87 18bd b0c7 5cbd e59e 40bd
000000f0: 5a45 ba3c 18d8 2abc d05e aebb 1338 74bd
00000100: a70b 49bd 4915 edbc b268 ab3b 178d c3bd
00000110: a09b 44bd 83cd bbbc fb9f 693a c2c1 ebbc
00000120: 291c 283d 3059 db3d a339 713d 78f7 323d
00000130: 87f5 aa3d a89b 2b3d a5e3 9a3d 0698 af3c
00000140: 62ce acbb 43cd 8a3d dafa 603d 01d7 8b3d
00000150: 6d2a 923d fa5f c13d fe2b 823d 717e 943c
00000160: 4e46 9d3d ae9b 4e3d 8a50 be3d 4ff3 a33d
00000170: 2e6a d23d 49eb c63b 639a b63d 80fd 863d
00000180: 037e 97bd 30e1 cbbd be5f 80bb 5341 403d
00000190: 4c97 36bc 3431 18bc 6eb7 81bc b829 df3b
000001a0: ba32 c73c 0cf6 33bd 12e3 9f3c 7ef4 b53c
000001b0: d916 ccbc b00b 48bd 1384 783b 03d5 06bc
000001c0: 4475 633c 6263 01bc 1f18 703d 554c 6a3d
000001d0: 6350 103d f220 b6bd cc76 79bb 3164 bcbd
000001e0: 3036 6bbd 6fae ae39 ed84 78bd d08d 18bd
000001f0: 6d56 7fbd ef26 bdbd 5c68 333d 50c9 ca3d
00000200: 2154 ed3d a323 39bd 4d6c ee3b f47e ff3b
00000210: 747f c73d 1f07 a83d 6ee0 3a3d 6288 babc
00000220: f843 843c dc46 5c3d c83d 82bd 5645 a9bc
00000230: 9b9f 813c 8f97 573d 6d32 f2bb 4f21 63bd
00000240: e6f0 873d 82d1 973d 742b 1e3d e841 893b
00000250: 8c28 8a3d d663 bf3d dc0d 6b3d 7fa8 a33d
00000260: ca73 2c3d 8bf6 d63c d3ff b43d 98c8 2b3d
00000270: 9e02 3dbb 5059 913d 6938 463d 5a97 00bc
00000280: 4a39 183d 4a8f 4e3d c95d d93d 1eff e93d
00000290: f1d2 a7bc 189d 8b3d c572 24bd f6eb 17bc
000002a0: b410 a6bd 04d0 c9bd 4f7c 45bc 6290 743c
000002b0: 5097 4bbd c3b1 8e3c a9a8 cf3c ea40 32bc
000002c0: 43a8 2eba 221a 943c 953a 8abc f386 afbd
000002d0: 74a7 ebbb ab85 97bd 9482 76bd 06e4 4dbc
000002e0: a473 513d b970 a83d 4aab e7bc d6b9 363d
000002f0: 5830 62ba 967d 00bd baf8 27bd 805b 513b
00000300: f0cb 743b a556 373d e3c9 693d eba0 febc
00000310: 04f1 0f3c acad 063c 8eb8 00bd e53b 26bb
00000320: cf10 11bd 907c ccbb fb4b 82bb 3a41 bbbd
00000330: 55b4 e0bc c97c 1cbd b52e bd3c 3cdd ac3d
00000340: 451a 033e 1801 033e bb55 e43d 11df 293e
00000350: 9ffc 743d f8fc 6a3d 1b19 fc3d 2e8c 313e
00000360: 3a63 063d 7493 78bd dad3 39bd fffa 0fbd
00000370: 03e6 4d3d 121f 93bc 7018 a43b 2d0d 6c3c
00000380: 39fd 363d 11b6 153d ee22 2ebd 6ade 22bd
00000390: ee8e 92bb 325b 5bbd 2df1 fe3a 7c2f 073b
000003a0: 1efd b33d 3ba5 78bc 8a69 633c dfd3 89bd
000003b0: 1e11 a1bd 4ebc 8c3b 3111 b1bd fe0f c5bc
000003c0: 14f1 07bd ca63 78bc 7170 87bd 28e5 b8bc
000003d0: 5840 4fbc 9dbf 1f3d 96be fe3c d560 343d
000003e0: 2ad3 de3c 44d3 213c ce6d 953c 5037 3cbb
000003f0: a79f d1bc 9994 093d b7c2 f7bc 241c 32bc

t_conv1.bias f4 [32]
-0.32296926 -0.11268082 -0.028967747 -0.5231592 0.07263775 -0.23097615 -0.16290183 -0.083658874
-0.088297956 -0.05309971 -0.050772905 -0.08867542 0.15405384 -0.19896382 0.39461324 -0.085121594
-0.08379095 -0.115720056 -0.10717476 -0.13520734 -0.06529365 -0.09600853 -0.0036845817 0.24030863
-0.090660825 0.13633741 0.077051386 -0.23460306 -0.058697823 -0.01829851 0.35319152 -0.13744138
00000000: 3a5c a5be 34c5 e6bd c54d edbc c3ed 05bf
00000010: 1ac3 943d 0385 6cbe bdcf 26be 5855 abbd
00000020: 8fd5 b4bd 157f 59bd 40f7 4fbd 759b b5bd
00000030: 4ac0 1d3e 2cbd 4bbe bf0a ca3e 3b54 aebd
00000040: 979a abbd a3fe ecbd 717e dbbd cb73 0abe
00000050: adb8 85bd 1fa0 c4bd 0679 71bb 7713 763e
00000060: 62ac b9bd 099c 0b3e 1ecd 9d3d c93b 70be
00000070: 216d 70bd c2e6 95bc 85d5 b43e 6fbd 0cbe

t_conv2.weight f4 [32, 16, 4, 4]
0.08448141 0.026807161 -0.09390889 0.10552036 -0.11389168 -0.060021758 -0.18378289 0.038765594
-0.06484864 0.26277968 -0.06353906 0.065138444 0.055823103 -0.19545723 -0.5071569 -0.14643507
-0.2530423 0.039459094 -0.075237714 0.1308524 0.31052536 0.5097684 0.109812535 0.71983945
-0.02348164 -0.44252673 -0.57835656 0.3164098 0.13987108 -0.12503015 0.6407707 0.27879688
-0.036784854 -0.03811107 -0.04141599 -0.18486337 -0.14197934 0.18764822 0.08075172 0.41038552
0.016677666 0.18629734 -0.026921226 0.03351469 -0.021366825 0.008807984 -0.15474847 0.06508262
-0.04147513 -0.044979975 -0.010196075 0.0039399914 -0.051645815 -0.066690214 -0.09861848 0.0029961916
-0.036239192 -0.009783921 -0.025585847 -0.029579928 -0.044039283 -0.026827475 -0.06464093 -0.013383449
-0.012565876 0.07809157 -0.13053638 -0.005442767 0.043080997 -0.066090636 0.30737755 0.07082085
0.1096104 -0.1964185 0.24276839 -0.35960165 -0.05978797 0.14933866 0.25801563 0.38135096
0.05829803 -0.011669099 0.02785527 -0.016722389 -0.0577501 -0.029272877 -0.050293326 0.02250193
-0.055919208 0.015097141 -0.012547664 0.0106609985 0.04622735 -0.058024757 0.0054630786 0.052186042
0.21292756 0.02043717 -0.16321415 -0.06884038 0.015193067 0.019438237 0.10435867 -0.3670475
-0.061549358 -0.08853841 -0.35163867 -0.028147833 0.11875138 -0.045308303 -0.07673743 -0.06574807
-0.029766023 0.011719629 -0.019638866 0.01702375 -0.059831798 -0.039616585 -0.03089229 -0.04749967
-0.053142786 0.0048008263 0.03700064 -0.057412826 0.043655932 0.0066055655 -0.0617494 -0.03105826
0.29472724 0.076528184 0.0006510673 -0.26691088 -0.20183124 0.008068054 -0.084214084 -0.33328485
-0.11045988 0.119101584 -0.23559207 0.3623574 -0.16329388 -0.04276726 -0.3862639 -0.015528594
0.05229352 -0.0049599037 -0.09164293 -0.0068280697 0.01898811 0.034997914 -0.0014973258 -0.05461185
0.016326897 -0.006228175 -0.06300289 0.010163305 -0.04907216 0.0033375397 -0.11300195 -0.0812703
0.050773602 -0.013794419 -0.120999426 0.07550884 -0.25115302 0.2233702 -0.11636291 -0.11397916
-0.15032297 0.46837467 -0.18652238 0.26052025 0.26414508 -0.19099173 0.14289281 0.34545782
-0.017125497 0.5163602 0.028570853 0.08458069 0.033381302 -0.09139794 -0.15001471 -0.13164675
-0.026489351 -0.15088673 0.14528227 -1.0618621 -0.070331134 -0.05242547 0.09281463 -0.115888976
0.23412794 -0.04494351 0.062142145 -0.001714012 -0.2517269 -0.53111637 -0.22787352 -0.60552984
0.2715154 0.72155565 0.61124957 1.4199103 -0.27166027 -0.20750323 -0.4304924 -0.11996135
-0.00551069 -2.6408863 0.33429733 -0.17771612 0.044089794 -2.8247955 -0.13513567 0.43335986
-1.6255343 1.381216 0.80285203 -0.12269311 -0.19553907 -0.41385248 -0.014051933 -0.15058385
-0.3429767 -1.3397872 -0.102527164 -0.109265305 -0.601948 0.18278871 0.23606494 0.5416209
0.31808594 0.20459682 -0.26528245 0.17577013 0.075305566 0.38328263 -0.07693253 -0.27189812
-0.16023713 0.30978566 -0.08435672 0.07591126 -0.28146943 0.3173202 0.049041647 -0.26431808
1.0566719 -2.8851895 -0.3120728 -0.28409305 -0.4479592 -2.4162095 0.18339297 -0.23013255
00000000: 9704 ad3d b19a db3c 4e53 c0bd 0f1b d83d
00000010: 0b40 e9bd 60d9 75bd 9531 3cbe acc8 1e3d
00000020: 5dcf 84bd 0f8b 863e c420 82bd 4e67 853d
00000030: c4a6 643d f125 48be 09d5 01bf 13f3 15be
00000040: c38e 81be dc9f 213d 3b16 9abd 2cfe 053e
00000050: 2efd 9e3e 2f80 023f 65e5 e03d 6647 383f
00000060: 915c c0bc dd92 e2be 2d0f 14bf 7700 a23e
00000070: 5d3a 0f3e e707 00be 8c09 243f 77be 8e3e
00000080: b7ab 16bd 5a1a 1cbd d0a3 29bd d34c 3dbe
00000090: 0863 11be db26 403e 2861 a53d 0d1e d23e
000000a0: 9a9f 883c bbc4 3e3e e789 dcbc b346 093d
000000b0: 7b09 afbc 5d4f 103c 6276 1ebe 094a 853d
000000c0: d3e1 29bd ec3c 38bd 700d 27bc 0b1b 813b
000000d0: 908a 53bd e194 88bd 7cf8 c9bd c15b 443b
000000e0: 8c6f 14bd bd4c 20bc 6999 d1bc 9b51 f2bc
000000f0: 8962 34bd 4bc5 dbbc 7762 84bd 4146 5bbc
00000100: 1be1 4dbc 79ee 9f3d 54ab 05be 3d59 b2bb
00000110: b375 303d 875a 87bd 9760 9d3e 860a 913d
00000120: 6b7b e03d ee21 49be 4798 783e b51d b8be
00000130: 3be4 74bd 3cec 183e a01a 843e 6f40 c33e
00000140: eac9 6e3d c02f 3fbc bc30 e43c 64fd 88bc
00000150: 5e8b 6cbd accd efbc 6000 4ebd f855 b83c
00000160: 8a0b 65bd 005a 773c b894 4dbc 78ab 2e3c
00000170: e458 3d3d 5eab 6dbd a003 b33b 08c1 553d
00000180: af09 5a3e da6b a73c 9c21 27be 2ffc 8cbd
00000190: 57ec 783c f03c 9f3c 00ba d53d a6ed bbbe
000001a0: 2e1b 7cbd a053 b5bd fc09 b4be 4996 e6bc
000001b0: ec33 f33d 3395 39bd 8428 9dbd eda6 86bd
000001c0: e0d7 f3bc b003 403c b0e1 a0bc 6475 8b3c
000001d0: 3012 75bd 0045 22bd d411 fdbc 048f 42bd
000001e0: 40ac 59bd 4050 9d3b fc8d 173d b629 6bbd
000001f0: 90d0 323d 8073 d83b f0ec 7cbd e46d febc
00000200: 7de6 963e cfba 9c3d 63ac 2a3a 8ba8 88be
00000210: d9ac 4ebe df2f 043c 6f78 acbd 50a4 aabe
00000220: ca38 e2bd 88eb f33d 0c3f 71be e986 b93e
00000230: 8336 27be b92c 2fbd 62c4 c5be a56b 7ebc
00000240: bb31 563d b086 a2bb 4aaf bbbd 00be dfbb
00000250: f48c 9b3c f959 0f3d eb41 c4ba adb0 5fbd
00000260: fcbf 853c b815 ccbb a907 81bd fe83 263c
00000270: e4ff 48bd a0ba 5a3b 916d e7bd 0b71 a6bd
00000280: fbf7 4f3d fd01 62bc 8cce f7bd 61a4 9a3d
00000290: 2197 80be 28bb 643e ad4f eebd e86d e9bd
000002a0: 44ee 19be cece ef3e b9ff 3ebe e962 853e
000002b0: 063e 873e 5693 43be 7e52 123e d9df b03e
000002c0: c54a 8cbc 2f30 043f 6c0d ea3c a438 ad3d
000002d0: d5ba 083d d82e bbbd 759d 19be 68ce 06be
000002e0: 3200 d9bc 0d82 1abe e0c4 143e 19eb 87bf
000002f0: c509 90bd 17bc 56bd 9915 be3d 3357 edbd
00000300: 3cbf 6f3e b016 38bd c388 7e3d b3a8 e0ba
00000310: 59e2 80be 3ef7 07bf ad57 69be 0104 1bbf
00000320: 1104 8b3e dfb7 383f da7a 1c3f 9fbf b53f
00000330: 0e17 8bbe ba7b 54be 8069 dcbe 4cae f5bd
00000340: 0593 b4bb 4804 29c0 0529 ab3e 37fb 35be
00000350: 8097 343d 73c9 34c0 0161 0abe 58e1 dd3e
00000360: 8211 d0bf b0cb b03f b687 4d3f 8646 fbbd
00000370: 653b 48be 79e4 d3be 143a 66bc a732 1abe
00000380: a49a afbe 267e abbf c3f9 d1bd 7dc6 dfbd
00000390: 4419 1abf f72c 3b3e 02bb 713e aba7 0a3f
000003a0: 29dc a23e d481 513e 1ad3 87be 16fd 333e
000003b0: ce39 9a3d 9f3d c43e cd8e 9dbd 3b36 8bbe
000003c0: 3415 24be 3a9c 9e3e 37c3 acbd 5d77 9b3d
000003d0: c31c 90be cb77 a23e e5df 483d b354 87be
000003e0: 0641 873f f2a6 38c0 02c8 9fbe a574 91be
000003f0: e95a e5be 2da3 1ac0 5ecb 3b3e dea7 6bbe

t_conv2.bias f4 [16]
0.030198075 -0.13777429 0.062426347 -0.047056764 -0.0718438 -0.10550978 -0.024990655 -0.13357343
0.060865425 -0.13918737 -0.2214967 0.008705481 0.19705592 -0.28796855 0.30763733 0.2720083
00000000: f461 f73c b414 0dbe c5b2 7f3d 98be 40bd
00000010: d822 93bd 8315 d8bd 34b9 ccbc 79c7 08be
00000020: 064e 793d 2287 0ebe 08d0 62be 6fa1 0e3c
00000030: 07c9 493e 9d70 93be a482 9d3e ac44 8b3e

t_conv3.weight f4 [16, 3, 4, 4]
0.012825032 -0.063738845 0.0049998886 -0.0435707 0.08652099 0.25586176 0.12332779 -0.044269037
0.0059107235 0.20123003 0.06671679 -0.030629853 0.0068149776 0.06402383 0.06031345 -0.026539262
-0.042078257 -0.06611463 0.0017783156 -0.061744202 -0.034451295 0.14881775 0.00981189 -0.05999079
-0.14518626 -0.013351277 -0.015496922 -0.06867759 -0.058721803 0.032114234 -0.038285557 -0.014348428
-0.040712316 0.09372565 0.013815484 -0.02741779 0.11793924 0.23086756 0.16533118 -0.048642363
-0.041928373 0.23912321 0.040858522 0.046599783 0.00017919998 0.010276021 0.0071868286 -0.02723054
-0.005827004 -0.038102213 -0.036454797 -0.02052801 -0.017304482 -0.23371424 -0.120682456 -0.014626454
-0.04304872 -0.13389589 -0.14052917 0.031423103 0.010458037 0.039691307 0.0364514 0.016195806
-0.015982205 -0.06565957 -0.026499864 -0.024690766 -0.07157165 -0.28623834 -0.20287018 -0.018034877
-0.07734086 -0.21865241 -0.18981649 0.008430419 0.0051827105 0.009682175 -0.0011908924 -0.0017326045
-0.013221659 -0.025470082 0.0026351744 -0.034102213 0.002580417 -0.23620832 -0.14897445 0.0007316642
-0.04636636 -0.12476109 -0.17211284 0.028205335 0.010514035 0.0111757 0.022419507 0.009036288
-0.05295318 0.09751772 0.011673381 0.019058386 0.053068403 -0.002811309 -0.061677765 -0.04055945
0.20801614 -0.002818983 -0.010748067 0.09472819 0.017779008 0.22613938 0.09894022 -0.029812165
-0.03768248 0.1357602 0.085071996 8.6071115e-05 0.052000806 -0.028426139 -0.07575668 0.03344504
0.12691481 -0.2605303 -0.10057584 0.085863605 -0.07885518 0.10531152 0.057652134 -0.0119729135
-0.07291049 0.14068446 0.069955744 0.0040211817 0.045758486 -0.16880661 -0.0916229 0.0213699
0.08186411 -0.46375206 -0.29237998 0.07019815 -0.033170633 -0.026355386 0.045720223 -0.016453536
0.036453027 0.09930304 0.12865075 -0.014996099 0.0024911067 0.029078394 0.15941082 0.01367551
0.053102758 -0.08282845 0.123457894 -0.13837966 0.08796661 -0.058128875 0.094377995 0.076161884
0.063589215 -0.018373244 0.11755071 -0.104187556 0.08130888 0.074417435 0.1426568 0.13497955
-0.025374463 0.0031432586 -0.054104585 -0.00010440535 0.10716188 -0.019461686 0.057624616 0.11228412
0.075527124 -0.008231733 0.15532947 0.10126868 -0.080332264 -0.013685275 0.013989139 0.070550226
0.04478993 0.085886784 0.06913786 -0.033916526 -0.00995442 0.09413341 -0.02173106 0.090259016
-0.008798832 0.058194786 0.00043932407 0.037807304 -0.08218629 -0.2716812 -0.08929334 0.011197605
0.009556197 -0.12571408 -0.03823861 0.040661845 0.0045888554 -0.040250678 -0.03398971 -0.0059155417
0.043011196 0.07095062 0.0074307523 0.044274062 0.04118764 -0.17671002 0.021339063 0.051774845
0.108618364 0.0005410805 0.03031429 0.053961392 0.054917417 -0.025832398 0.02583598 0.008609008
0.022725858 -0.02267469 -0.009095883 0.02985732 -0.061121594 -0.34897304 -0.12241478 0.03188906
0.04101545 -0.20286277 -0.03792191 -0.017836902 0.013221047 -0.019846767 0.008753916 0.0099138385
0.014919462 0.029353697 -0.08202663 -0.064535774 0.09680506 -0.07907099 -0.027036704 0.048852544
0.12527575 -0.05189856 0.11264693 0.046954084 0.11019624 -0.10718726 0.05080544 0.058376424
00000000: 1520 523c 8389 82bd 1bd6 a33b 3177 32bd
00000010: eb31 b13d 5000 833e 4893 fc3d 7353 35bd
00000020: beae c13b 3f0f 4e3e d0a2 883d 75eb fabc
00000030: 2d50 df3b ed1e 833d 3c0b 773d de68 d9bc
00000040: 405a 2cbd 1b67 87bd 5f16 e93a 7de7 7cbd
00000050: cd1c 0dbd ae63 183e 0dc2 203c e7b8 75bd
00000060: b5ab 14be 51bf 5abc cde6 7dbc d6a6 8cbd
00000070: 4686 70bd 378a 033d 51d1 1cbd ab15 6bbc
00000080: f5c1 26bd 3cf3 bf3d 575a 623c 469b e0bc
00000090: 218a f13d 8c68 6c3e 944c 293e 373d 47bd
000000a0: 16bd 2bbd b7dc 743e 445b 273d 6adf 3e3d
000000b0: a1e7 3b39 c25c 283c 7d7f eb3b 9512 dfbc
000000c0: 74f0 bebb 1111 1cbd a051 15bd 5b2a a8bc
000000d0: 21c2 8dbc c952 6fbe 5d28 f7bd cba3 6fbc
000000e0: db53 30bd 011c 09be e1e6 0fbe 83b5 003d
000000f0: 3058 2b3c 5a93 223d 104e 153d 11ad 843c
00000100: 1ded 82bc 8678 86bd 3e16 d9bc 4a44 cabc
00000110: 2894 92bd d58d 92be 33bd 4fbe e1bd 93bc
00000120: e364 9ebd 6be6 5fbe 415f 42be bd1f 0a3c
00000130: bad3 a93b fca1 1e3c b817 9cba 8f18 e3ba
00000140: a89f 58bc a2a6 d0bc e4b2 2c3b c3ae 0bbd
00000150: 371c 293b 98e0 71be c28c 18be 27cd 3f3a
00000160: a7ea 3dbd be82 ffbd 593e 30be e00e e73c
00000170: 0f43 2c3c 491a 373c 1da9 b73c f00c 143c
00000180: 6fe5 58bd 5fb7 c73d b541 3f3c 5520 9c3c
00000190: 415e 593d f03d 38bb d3a1 7cbd aa21 26bd
000001a0: 2f02 553e b0be 38bb a918 30bc da00 c23d
000001b0: 48a5 913c 1591 673e 2ca1 ca3d a438 f4bc
000001c0: f258 1abd b904 0b3e 3a3a ae3d 1481 b438
000001d0: ccfe 543d efdd e8bc 5126 9bbd abfd 083d
000001e0: f5f5 013e 3a64 85be b5fa cdbd 42d9 af3d
000001f0: d37e a1bd 91ad d73d a524 6c3d 0a2a 44bc
00000200: 1852 95bd 960f 103e f544 8f3d 1ec4 833b
00000210: 406d 3b3d a4db 2cbe c9a4 bbbd ee0f af3c
00000220: 5fa8 a73d e970 edbe d4b2 95be 0cc4 8f3d
00000230: eedd 07bd 40e7 d7bc 2145 3b3d 91c9 86bc
00000240: c54f 153d 645f cb3d 06bd 033e 33b2 75bc
00000250: d641 233b d035 ee3c 973c 233e 3f0f 603c
00000260: 4782 593d f6a1 a9bd 7ed7 fc3d 66b3 0dbe
00000270: d727 b43d 8b18 6ebd 4049 c13d c3fa 9b3d
00000280: 103b 823d 7c83 96bc 6dbe f03d 4960 d5bd
00000290: 4585 a63d 2b68 983d a014 123e 1438 0a3e
000002a0: 1bde cfbc 21ff 4d3b c59c 5dbd 32f4 dab8
000002b0: b077 db3d 1d6e 9fbc ca07 6c3d 37f5 e53d
000002c0: f7ad 9a3d 64de 06bc b00e 1f3e f465 cf3d
000002d0: 3e85 a4bd 3438 60bc b432 653c a37c 903d
000002e0: a575 373d 69e5 af3d 2698 8d3d 0eec 0abd
000002f0: dd17 23bc 04c9 c03d 5605 b2bc b8d9 b83d
00000300: fa28 10bc a85d 6e3d 1455 e639 d5db 1a3d
00000310: 4951 a8bd cc19 8bbe 6ddf b6bd 2976 373c
00000320: 9891 1c3c 31bb 00be 17a0 1cbd 098d 263d
00000330: 1c5e 963b e5dd 24bd cb38 0bbd 29d7 c1bb
00000340: 822c 303d 8f4e 913d ab7d f33b b858 353d
00000350: 5fb4 283d 79f3 34be 42cf ae3c dc11 543d
00000360: 4e73 de3d 4cd7 0d3a ad55 f83c 9f06 5d3d
00000370: 16f1 603d 779e d3bc faa5 d33c cc0c 0d3c
00000380: 942b ba3c 45c0 b9bc e606 15bc 5797 f43c
00000390: a35a 7abd 98ac b2be 9ab4 fabd 1a9e 023d
000003a0: d1ff 273d 42bb 4fbe 0154 1bbd b21e 92bc
000003b0: 179d 583c b095 a2bc 966c 0f3c a76d 223c
000003c0: c270 743c 2a77 f03c 94fd a7bd 552b 84bd
000003d0: bb41 c63d f9ef a1bd 147c ddbc 9b19 483d
000003e0: 4948 003e 9693 54bd 6fb3 e63d ed52 403d
000003f0: 91ae e13d ff84 dbbd 5d19 503d 1e1c 6f3d

t_conv3.bias f4 [3]
0.1023743 0.29793423 -0.23150916
00000000: 9ea9 d13d d68a 983e bd10 6dbe
