models/cae3.pth (torch, 208399 bytes, 12 tensors)

conv1.weight f4 [16, 3, 3, 3]
0	0x3a9fd1ad	0.0012193226
1	0xbba2c135	-0.0049668797
2	0x3d52f57d	0.051503647
3	0xbcf8f6bf	-0.030391095
4	0x3dc9b733	0.098493956
5	0xbde9fbd8	-0.114249885
6	0xbcc68b8a	-0.02423646
7	0xbe12f939	-0.14352883
8	0x3d5182a4	0.05114998
9	0xbd69f8a2	-0.05712188
10	0xbd2f2182	-0.042756565
11	0xbcf1d39a	-0.029519845
12	0xbd852721	-0.06501604
13	0xbdfdd19c	-0.123934954
14	0xbcbfdfee	-0.023422208
15	0xbd9f5438	-0.07779735
16	0x3e007db3	0.1254795
17	0x3d564b3e	0.05231785
18	0xbb897ce4	-0.0041957963
19	0x3d65e1d5	0.056123573
20	0xbb775e62	-0.0037745466
21	0x3d9a18cf	0.07524263
22	0xbe32c857	-0.17459236
23	0xbe2aae8e	-0.1666815
24	0x3d9451df	0.07242178
25	0xbc09ed96	-0.008418461
26	0xbda356f7	-0.079755716
27	0xbcbcf9dd	-0.023068363
28	0x3dd16a0b	0.10225304
29	0xbe5e0c70	-0.21684432
30	0xbe1d0d92	-0.15337208
31	0x3e884d9f	0.2662172
32	0xbd4ba0fe	-0.04971408
33	0xbbc58375	-0.006027634
34	0x3d8d572e	0.06901394
35	0xbef63241	-0.48085216
36	0xbde019ff	-0.10942458
37	0x3e066d6c	0.13127679
38	0xbe67f04b	-0.22650258
39	0x3caed696	0.021342557
40	0x3dccf59a	0.10007782
41	0x3e620d3d	0.22075363
42	0xbe810be8	-0.25204396
43	0x3de0f497	0.10984152
44	0xbf2ed9ee	-0.68301284
45	0xbda1f301	-0.079076774
46	0x3cf5856e	0.02997085
47	0xbf988a0b	-1.1917127
48	0x3de62901	0.112382896
49	0x3ea1fbe4	0.3163749
50	0x3eed27ad	0.46319333
51	0x3d9160d4	0.070985466
52	0x3d64e4f8	0.055882424
53	0xbe75c901	-0.24002458
54	0x3c858d1d	0.01630264
55	0xbe012ced	-0.12614794
56	0xbd50b39a	-0.05095253
57	0x3d395f08	0.045256644
58	0xbd97ba38	-0.07408565
59	0xbdad9882	-0.08476354
60	0xbda24201	-0.079227455
61	0xbdc5f568	-0.09665948
62	0xbd82f00d	-0.06393442
63	0x3e9a1d8b	0.30100664
64	0x3e5eb207	0.217476
65	0x3e1c64ad	0.1527278
66	0x3e5f7353	0.21821336
67	0xbe07e3d3	-0.13270502
68	0x3e32ee6e	0.17473766
69	0x3d2faecc	0.04289131
70	0x3e5d4efa	0.21612158
71	0x3e431f67	0.19054948
72	0x3c3c9f89	0.0115126455
73	0xbd74c7f6	-0.05976101
74	0x3d071035	0.03297444
75	0xbd908285	-0.070561446
76	0xbeb2b3e6	-0.34902877
77	0xbd9d9b48	-0.07695633
78	0xbcf0e232	-0.029404733
79	0xbdb8fefd	-0.0903301
80	0xbdf5c427	-0.12000304
81	0xbd0a8be2	-0.03382481
82	0xbca37c7c	-0.01995682
83	0x3d0c616b	0.034272593
84	0x3e698c39	0.22807397
85	0x3ecd0413	0.4004217
86	0x3d3f0bd3	0.046642136
87	0x3e73a7f0	0.23794532
88	0x3ebd7daf	0.3700995
89	0x3cb5958e	0.02216604
90	0x3c1a3674	0.009412397
91	0xbcdb4b7c	-0.026769392
92	0xbd5b1c5c	-0.053493842
93	0x3e0a34cd	0.13496704
94	0x3e6a43e3	0.22877459
95	0xbdc9696c	-0.09834561
96	0x3b33853a	0.0027392642
97	0xbd4d71ee	-0.05015748
98	0xbd24eb61	-0.040263537
99	0x3d24cc0d	0.04023366
100	0xbe08312c	-0.13300008
101	0x3db33adc	0.08751461
102	0x3c9d0f57	0.019172354
103	0xbd87369c	-0.06602213
104	0xbe1d61de	-0.15369365
105	0xbe129a19	-0.14316596
106	0xbd81c15a	-0.06335707
107	0xbd2a6b06	-0.04160597
108	0xbe2747b0	-0.1633594
109	0x3ddb41f8	0.10705942
110	0xbe546f04	-0.20745474
111	0xbd7f7a75	-0.062372644
112	0x3dd4e32f	0.10394894
113	0xbe78d17b	-0.2429866
114	0xbe2cc543	-0.16872124
115	0xbdaeff65	-0.085448064
116	0x3ddb8de5	0.107204236
117	0xbdcd830b	-0.1003476
118	0xbd61a48e	-0.055088572
119	0xbd5e81c2	-0.054322965
120	0x3d6b6976	0.057473622
121	0xbcd2fc33	-0.025755024
122	0xbe0c147d	-0.1367969
123	0xbe1958b5	-0.14975245
124	0xbbbe7667	-0.0058124545
125	0xbe456c96	-0.19279703
126	0x3dd901ac	0.10596022
127	0x3c855992	0.016278062
128	0xbd3d8c1c	-0.046276197
129	0xbdf332aa	-0.11874898
130	0xbdd6b681	-0.104840286
131	0xbe4cab87	-0.19987307
132	0xbc81fb0f	-0.015866784
133	0xbe61726b	-0.22016303
134	0x3d9631b4	0.07333699
135	0xbd84be3d	-0.064815976
136	0xbcf20bd1	-0.02954665
137	0x3d9d0238	0.07666439
138	0x3eba25f8	0.36357093
139	0x3e020902	0.12698749
140	0x3cd7fcd4	0.026365675
141	0xbcdd3466	-0.027002525
142	0xbdb88572	-0.09009828
143	0x3d0fdcd9	0.035122726
144	0xbe12ed57	-0.1434835
145	0xbe256476	-0.16151604
146	0xbe459a22	-0.19297078
147	0x3d95ac20	0.07308221
148	0xbe45137b	-0.19245712
149	0xbe1ae706	-0.15127191
150	0xbe9575c3	-0.29191408
151	0xbef02e15	-0.46910158
152	0xbef85b18	-0.48507
153	0x3dc53c15	0.096306
154	0x3e0ebe7a	0.13939849
155	0xbccb40ff	-0.024811266
156	0x3d1a8e67	0.03773346
157	0x3c5124f6	0.01276516
158	0x3e084d5a	0.13310757
159	0x3e505281	0.20343973
160	0x3cdc1f40	0.02687037
161	0x3e81c9a5	0.25349155
162	0xbe91fecc	-0.28514707
163	0xbe961c34	-0.29318392
164	0xbea992c6	-0.33119792
165	0xbea70378	-0.32619834
166	0x3cc5f592	0.024164949
167	0xbed3f8e1	-0.41400817
168	0xbe191a69	-0.14951481
169	0xbe754906	-0.23953637
170	0xbe834657	-0.25639603
171	0x3dfc9003	0.123321556
172	0xbd7d3875	-0.06182142
173	0x3b767f42	0.0037612473
174	0xbde00923	-0.10939243
175	0xbd015573	-0.03157563
176	0xbda4f3ac	-0.08054289
177	0x3d2830a5	0.041062016
178	0xbdedf50f	-0.11619007
179	0x3df6b0db	0.12045451
180	0x3c5b3310	0.0133788735
181	0xbddd7660	-0.10813594
182	0x3e6ee9b5	0.2333134
183	0x3c38e416	0.011284849
184	0x3d3faaa0	0.04679358
185	0xbd0a0756	-0.033698402
186	0x3d5e76de	0.05431258
187	0x3d9c9e0a	0.07647331
188	0x3db35885	0.08757118
189	0x3c2adc86	0.010428553
190	0xbe656d2a	-0.22404924
191	0xbdcbdece	-0.09954606
192	0x3be82bd1	0.0070853014
193	0xbd8df2c7	-0.06931072
194	0xbe42b0e0	-0.19012785
195	0xbd466ffd	-0.048446644
196	0x3d9c69bc	0.07637355
197	0x3b248f10	0.0025109686
198	0x3d374d30	0.044751346
199	0xbe166957	-0.14688621
200	0xbdbd0ec6	-0.092313334
201	0xbe03137e	-0.12800404
202	0xbdc29430	-0.09500921
203	0xbdd87316	-0.10568826
204	0x3d0146a6	0.031561516
205	0x3dae198b	0.08500966
206	0xbe5e2cf7	-0.2169684
207	0xbc8e05bd	-0.01733672
208	0xbdde7577	-0.108622484
209	0xbcacadcc	-0.021078967
210	0xbe5388c6	-0.20657644
211	0x3c2c8b9d	0.010531333
212	0xbe22bae7	-0.1589161
213	0x3d065088	0.032791644
214	0xbe0f3c48	-0.13987839
215	0xbe537aff	-0.20652388
216	0x3db7bfa5	0.089721
217	0xbdcfd0cd	-0.101472475
218	0x3d9a3280	0.07529163
219	0x3d98654c	0.07441196
220	0xbbe55db9	-0.006999698
221	0xbd31cc73	-0.04340787
222	0xbe2a3a6b	-0.16623847
223	0x3d4f15f7	0.050558057
224	0x3d44bb28	0.04803005
225	0xbd9c96af	-0.07645928
226	0xbe5e8f0c	-0.21734256
227	0x3dc52846	0.09626822
228	0xbe5608d7	-0.2090181
229	0x3d4c478a	0.049872912
230	0xbd34bd06	-0.04412558
231	0x3debead1	0.11519397
232	0xbdee19ca	-0.116260126
233	0x3d60baa4	0.054865494
234	0xbe28376d	-0.16427393
235	0x3d4864d3	0.04892428
236	0xbe464e71	-0.1936586
237	0xbbae5679	-0.005320367
238	0xbdd70789	-0.10499484
239	0xbe4eafe1	-0.2018428
240	0xbe2b4594	-0.1672576
241	0xbe106def	-0.14104436
242	0xbd46693b	-0.0484402
243	0xbde10081	-0.10986424
244	0xbe6325e4	-0.22182423
245	0xbdf9d0b1	-0.12198008
246	0x3b1ab058	0.0023603644
247	0xbdb91238	-0.09036678
248	0xbe524b63	-0.2053657
249	0xbe26a6d1	-0.16274573
250	0xbe8c29cc	-0.27375638
251	0xbdb7afc7	-0.08969074
252	0xbdcb5db9	-0.099299856
253	0xbda98d35	-0.08278886
254	0xbb49369e	-0.003070272
255	0x3df94a8f	0.12172424

conv1.bias f4 [16]
0	0x3f1a37a0	0.60241127
1	0xbd6168cd	-0.055031586
2	0x3d98734f	0.07443868
3	0xbd6c7407	-0.05772784
4	0xbe2a3bdc	-0.16624397
5	0x3dcce99f	0.10005497
6	0x3e720f7c	0.2363872
7	0xbd7ecf45	-0.062209386
8	0xbe268e22	-0.16265157
9	0xbe77498d	-0.24149151
10	0xbe446416	-0.19178805
11	0xbe6547d0	-0.22390676
12	0xbe32fb33	-0.17478637
13	0x3e84fe7b	0.25975403
14	0xbba3417a	-0.0049821706
15	0xbe0dd6b6	-0.13851437

conv2.weight f4 [32, 16, 3, 3]
0	0xbc2cc4eb	-0.010544996
1	0xbe0a2cd1	-0.13493659
2	0xbd4ed7c7	-0.05049875
3	0x3c452875	0.0120335715
4	0xbdb34149	-0.087526865
5	0xbd43be3a	-0.047788836
6	0x39e4600a	0.00043559104
7	0xbd7b14f8	-0.061299294
8	0xbe135cc8	-0.14390862
9	0x39c81f5c	0.00038170337
10	0xbcbb428c	-0.02285888
11	0xbc8f2d68	-0.017477706
12	0xba796eb8	-0.00095150946
13	0xbdaf69aa	-0.08565076
14	0xbdf38a48	-0.118916094
15	0xbd5a358f	-0.053273734
16	0xbda4ebc7	-0.080527835
17	0xbc8bff6a	-0.017089564
18	0xbc071fae	-0.008247299
19	0x3c660e31	0.014041469
20	0x3c35e504	0.011101965
21	0xbcaff571	-0.02147934
22	0xbd5a7580	-0.053334713
23	0xbe010124	-0.12598091
24	0x3c126293	0.008934635
25	0xbdef4e14	-0.11684814
26	0xbdf5d954	-0.12004343
27	0xbc491c37	-0.012274793
28	0xbcf9134d	-0.030404711
29	0xbd730d97	-0.059339132
30	0x399f4f4d	0.00030385927
31	0xbdd400f9	-0.10351748
32	0xbe0914a5	-0.13386782
33	0xbe08e705	-0.13369377
34	0xbd947e67	-0.07250672
35	0xbdbfdfed	-0.09368882
36	0xbdaa4039	-0.08313031
37	0xbdc6f269	-0.09714205
38	0xbdddc366	-0.10828285
39	0x3cbbe482	0.02293611
40	0xbc8eff9b	-0.017455867
41	0xbdd35f60	-0.10320926
42	0x3d18a14b	0.037263196
43	0xbd0c802f	-0.034301933
44	0xbdc880f4	-0.09790221
45	0xbd8e2cde	-0.069421515
46	0xbd65ab2f	-0.056071457
47	0xbdafc81e	-0.08583091
48	0xbde69b82	-0.112601295
49	0xbd861685	-0.06547264
50	0xbe00b379	-0.12568463
51	0xbdf78d72	-0.120875254
52	0xbc4c6611	-0.012475506
53	0xbdeecfa3	-0.11660697
54	0xbcf33874	-0.029690005
55	0xbddc7a4f	-0.10765516
56	0xbc9d4945	-0.019199977
57	0xbdec1a25	-0.11528424
58	0xbde7e421	-0.11322809
59	0x3c360a33	0.01111083
60	0xbdc0eb17	-0.0941984
61	0xbd6dcad3	-0.058054756
62	0xbd8afe86	-0.06786828
63	0xbcaa4326	-0.020783972
64	0x3bfa6572	0.0076414878
65	0xbd48c6b9	-0.04901764
66	0x3c777bc1	0.015105189
67	0xbbbdaf90	-0.005788751
68	0xbda06e6a	-0.0783356
69	0xbd4b09a9	-0.04956976
70	0xb8185ce1	-3.6326124e-05
71	0xbda18be4	-0.0788801
72	0xbd8abd9b	-0.067744456
73	0xbe20b273	-0.15693073
74	0xbcd7e2fa	-0.026353348
75	0xbe17bd12	-0.14818218
76	0xbc9b0927	-0.018925263
77	0xbdb76e71	-0.08956612
78	0xbceeb7b3	-0.029140329
79	0xbe12646e	-0.14296123
80	0xbcf175ec	-0.029475175
81	0x3da989db	0.08278247
82	0x3d198120	0.03747666
83	0x3d8e4de3	0.069484495
84	0x3cb16e74	0.021659113
85	0xbdaa0db8	-0.08303398
86	0xbc9612ec	-0.01831957
87	0x3d59a206	0.053133033
88	0xbc327ce8	-0.010894038
89	0xbda869ce	-0.08223306
90	0x3d047aeb	0.032343786
91	0xbd4b53e5	-0.049640555
92	0xbcad111b	-0.02112632
93	0x3c81ef58	0.015861198
94	0xbc82c7e8	-0.015964463
95	0xbd99461d	-0.07484076
96	0xbc5151ee	-0.012775881
97	0x3c2c434f	0.0105140945
98	0x3cea9b2c	0.028638445
99	0xbcf053e6	-0.02933688
100	0x3cca6e9b	0.024710944
101	0xbdd7f0b5	-0.10543958
102	0xbd9c6077	-0.07635587
103	0xbdc4b711	-0.0960523
104	0xbdc0b9eb	-0.09410461
105	0xbd531ec6	-0.05154302
106	0x3d28f360	0.041247725
107	0xbdf08076	-0.11743252
108	0x3be3f302	0.006956459
109	0xbda652d2	-0.081212655
110	0xbd56a66e	-0.052404813
111	0xbc0b49b3	-0.008501458
112	0x3db58d5d	0.088648535
113	0x3cf9b7cf	0.030483155
114	0x3da7fe0c	0.082027525
115	0x3dce9fd4	0.100890785
116	0x3dcf6e94	0.10128513
117	0xbe1608bf	-0.14651774
118	0xbcb69c18	-0.022291228
119	0x39c205cb	0.0003700688
120	0xbe02455d	-0.12721772
121	0xbd27321c	-0.040819272
122	0xbd29f7eb	-0.0414962
123	0xbdf4c24d	-0.119511224
124	0xbe071527	-0.13191663
125	0xbd9dd32a	-0.07706292
126	0x3cdd9823	0.027050084
127	0xbd6f8a7d	-0.058481682
128	0xbbfc3081	-0.007696212
129	0xbdb2941c	-0.08719656
130	0xbbecf5bb	-0.007231442
131	0xbdc93c75	-0.098259844
132	0x3be9dc72	0.007136875
133	0xbdb66a01	-0.089069374
134	0xbc3d35e4	-0.011548493
135	0xbc96b08e	-0.018394735
136	0xbd25f797	-0.040519323
137	0xbe059cc2	-0.1304808
138	0xbdf088a9	-0.11744816
139	0xbdf25d86	-0.118342444
140	0xbca37e85	-0.01995779
141	0xbdf57a9e	-0.11986278
142	0xbcfb87ba	-0.030704368
143	0xbc61cff4	-0.01378249
144	0xbd25b37f	-0.040454384
145	0xbedd13fb	-0.43179306
146	0xbf900e15	-1.1254297
147	0x3e31a73f	0.17348956
148	0x3e78b1e1	0.24286605
149	0xbdde71c2	-0.10861541
150	0xbe2a6f91	-0.16644122
151	0x3d249755	0.040183384
152	0xbd109149	-0.035294805
153	0xbeb372c7	-0.35048506
154	0x3ee4a94b	0.4466041
155	0xbe019e86	-0.12658128
156	0xbd1d6a8e	-0.038431697
157	0xbe041670	-0.12899184
158	0x3dac3de7	0.084102444
159	0xbeaea87f	-0.34112927
160	0x3e7bf3a1	0.24604656
161	0xbdadebba	-0.08492227
162	0xbe54fac3	-0.20798783
163	0x3dd0044b	0.10157069
164	0xbf01c898	-0.50696707
165	0xbd9d88b3	-0.07692089
166	0xbd7d0ca8	-0.061779648
167	0xbe9ee824	-0.31036484
168	0x3c813c0b	0.015775701
169	0xbdd046d0	-0.101697564
170	0x3ea9f42e	0.33194107
171	0x39f78279	0.0004720872
172	0xbe19e397	-0.15028225
173	0xbfbf8dde	-1.496517
174	0x3c4e5fb1	0.012596057
175	0xbea177fc	-0.31536853
176	0xbdd2cfaa	-0.10293515
177	0x3c8b6f07	0.017020715
178	0xbcb0cc1c	-0.021581702
179	0x3d5d3adf	0.054011222
180	0x3c8168a5	0.015796969
181	0xbc23ef7e	-0.01000583
182	0xbcec7190	-0.028862745
183	0xbd935cad	-0.07195411
184	0x3d65c39f	0.056094762
185	0x3c2d1f86	0.010566598
186	0xbd93262d	-0.07185016
187	0x3cb8d4c7	0.022562398
188	0x3db21339	0.08695073
189	0x3de4dfc0	0.111754894
190	0x3ead2da0	0.33823872
191	0xbef93513	-0.48673305
192	0x3c35a03d	0.011085567
193	0x3cd83558	0.026392624
194	0xbe88e594	-0.26737654
195	0x3d75ac06	0.059978507
196	0x3d530626	0.051519535
197	0x3e52dbb8	0.20591629
198	0x3e6d055b	0.23146574
199	0xbeb90921	-0.36139777
200	0x3f8c71f8	1.097228
201	0x3e86b22a	0.26307803
202	0x3e8c2ab4	0.2737633
203	0x3e819de2	0.25315768
204	0xbe43a319	-0.19105186
205	0x3d833bab	0.06407865
206	0x3ce8e8c2	0.0284313
207	0x3d628b50	0.05530864
208	0x3d61fc75	0.055172402
209	0x3da81986	0.08207993
210	0x3be6198a	0.0070220875
211	0xbd970141	-0.07373286
212	0xbd36af58	-0.044600815
213	0x3cccef8f	0.025016574
214	0x3da02ba9	0.078208275
215	0x3d4dd9a3	0.050256383
216	0xbd2de0ab	-0.04245059
217	0xbcef8f5c	-0.029243164
218	0xbde89940	-0.11357355
219	0xbde87cfb	-0.11351963
220	0x3c5db691	0.013532297
221	0xbdea371a	-0.11436291
222	0xbdc37ac6	-0.095449015
223	0x3d4c4b4f	0.049876507
224	0xbe061a94	-0.13096076
225	0x3e10695d	0.14102693
226	0x3de287c8	0.110610545
227	0x3de58b26	0.11208181
228	0x3e267b85	0.16258056
229	0x3d7941f5	0.060853917
230	0x3d26e7e0	0.040748477
231	0x3d74f3e0	0.05980289
232	0x3dd699b5	0.10478536
233	0x3cc624f8	0.02418755
234	0x3da05905	0.07829479
235	0x3d055d4f	0.03255969
236	0xbae90ba2	-0.0017779956
237	0x3d2350f6	0.039872132
238	0x3dd88674	0.1057252
239	0xbd284442	-0.04108072
240	0x3dda9b58	0.10674161
241	0x3d3a09ce	0.045419507
242	0xbd5430d4	-0.05180438
243	0xbcc69a92	-0.024243627
244	0x3ba919d8	0.0051605515
245	0xbf73185e	-0.94959056
246	0x3e1397eb	0.14413421
247	0xbeceb57c	-0.40372837
248	0xbda8ad1e	-0.082361445
249	0x3d2ea0b3	0.042633723
250	0xbd3038d6	-0.043022953
251	0x3e363c3e	0.17796418
252	0xbd1e9bbc	-0.03872274
253	0x3b53a0b3	0.003229183
254	0xbb2fd81f	-0.00268317
255	0x3db0447f	0.086068146

conv2.bias f4 [32]
0	0xbd2cee1f	-0.042219277
1	0x3f1530a2	0.5827733
2	0x3f4120fc	0.75440955
3	0xbdc41a74	-0.09575358
4	0xbd3e0c0f	-0.04639822
5	0xbc7a94cb	-0.015294264
6	0xbd0217ce	-0.031760983
7	0xbe015bc6	-0.12632665
8	0xbdf4d4db	-0.119546615
9	0xbe0ddff6	-0.13854966
10	0x3ecec026	0.40380973
11	0xbdde7a95	-0.108632244
12	0xbcf4141c	-0.029794745
13	0xbd520e11	-0.051282946
14	0xbe9fbbac	-0.3119787
15	0x3f09abc0	0.53777695
16	0x3f001c31	0.50043017
17	0xbdfafc4a	-0.122551516
18	0xbddade66	-0.106869504
19	0xbd345f79	-0.044036362
20	0xbdd4ed82	-0.103968635
21	0xbb1be7a4	-0.0023789192
22	0xbd94faba	-0.07274385
23	0xbd836ef3	-0.06417646
24	0xbdc578bf	-0.09642171
25	0xbd0d196b	-0.03444807
26	0xbdad5808	-0.08464056
27	0x3d181578	0.03712985
28	0xbc89f8c1	-0.016842248
29	0x3c972f3b	0.018455138
30	0xbdfa9d08	-0.122369826
31	0x3deb170b	0.114790045

conv3.weight f4 [64, 32, 3, 3]
0	0xbdaa5790	-0.083174825
1	0xbc6d6d14	-0.014491338
2	0xbcf484a1	-0.029848399
3	0xbd81bccb	-0.063348375
4	0xbc83be74	-0.016082026
5	0xbdaeb772	-0.08531083
6	0xbdf876e5	-0.12132052
7	0xbced9c89	-0.029005306
8	0xbd95aeef	-0.073087566
9	0xbc239f39	-0.009986692
10	0x3b3b0726	0.0028538196
11	0xbb9eed80	-0.0048500896
12	0xbb421ae3	-0.0029618077
13	0x3d04c722	0.03241647
14	0xbb7b50ca	-0.0038347715
15	0xbd18590b	-0.037194293
16	0xbd2991bb	-0.041398745
17	0xbcf39db3	-0.029738283
18	0xbdec89ca	-0.11549719
19	0xbd9e6b7a	-0.07735343
20	0xbd09bd5e	-0.03362786
21	0xbd32d672	-0.043661542
22	0xbd941d0f	-0.07232105
23	0xbc9fb4fa	-0.019495476
24	0xbd95e8e8	-0.07319814
25	0xbd8edb3e	-0.06975411
26	0xbd430600	-0.047613144
27	0xbd450072	-0.048096128
28	0xbd6ddd54	-0.058072403
29	0xbd4fb083	-0.050705444
30	0xbd9d08f6	-0.07667725
31	0xbdbb3d4d	-0.091425516
32	0xbdd269a4	-0.102740556
33	0xbdf54265	-0.119755544
34	0xbd507983	-0.050897133
35	0xbd558cac	-0.05213611
36	0x3bed2a88	0.007237736
37	0xbdcb9de5	-0.09942225
38	0xbd422a94	-0.047403887
39	0xbd83e4be	-0.064401135
40	0xbd41affa	-0.047286965
41	0xbda62e52	-0.08114304
42	0xbd8db146	-0.06918578
43	0xbd5e8131	-0.054322425
44	0xbd67f59a	-0.05663071
45	0xbd3b9584	-0.045796886
46	0x3ca113df	0.019662796
47	0x3ceb7731	0.028743358
48	0x3caa8ded	0.020819629
49	0x3cbe6d84	0.02324558
50	0xbda5f920	-0.081041574
51	0xbd112327	-0.035433915
52	0xbdae7484	-0.08518317
53	0x3b21b0f7	0.002467213
54	0xbd5e33cd	-0.05424862
55	0xbd516cba	-0.05112908
56	0xbdd8438b	-0.10559758
57	0xbd708d7d	-0.058728684
58	0xbd448d26	-0.047986172
59	0xbdd41887	-0.10356241
60	0xbc8cb810	-0.017177612
61	0xbca04a2d	-0.01956662
62	0xbd170c66	-0.03687706
63	0xbddef849	-0.108872004
64	0xbcc302de	-0.023805078
65	0xbd26c6bf	-0.040716883
66	0xbda11fa0	-0.0786736
67	0xbddb21ce	-0.10699807
68	0xbdac9787	-0.08427339
69	0xbd9eb4a7	-0.077493005
70	0xbce61037	-0.028083904
71	0xbdf69b8e	-0.120413885
72	0xbd41bd89	-0.047299895
73	0xbd3573a4	-0.044299737
74	0xbdb85b29	-0.090017624
75	0xbdb1a615	-0.08674256
76	0xbdd3ba85	-0.1033831
77	0xbdbb9f16	-0.091612026
78	0xbdb213cb	-0.086951815
79	0xbd624515	-0.055241663
80	0xbd42ab5d	-0.047526706
81	0xbb665ddd	-0.0035151162
82	0x3d4f89cd	0.050668526
83	0x3bb5a644	0.005543502
84	0xbdb32d71	-0.08748902
85	0x3c12e6e2	0.00896618
86	0x3b83a762	0.0040177563
87	0xbd34adba	-0.04411099
88	0xbc9a8259	-0.018860983
89	0xbd5b57dd	-0.05355059
90	0xbc830c96	-0.015997212
91	0xbc713af8	-0.014723532
92	0xbdbbfdb4	-0.091792494
93	0xbd8136a3	-0.06309249
94	0xbccd036e	-0.02502605
95	0xbc62cc71	-0.013842688
96	0xbcf7a232	-0.030228708
97	0xbcf463ae	-0.029832687
98	0xbc536a8f	-0.0129038235
99	0xbc7c5cd8	-0.015402995
100	0xbcae13e4	-0.021249719
101	0x3cf3770a	0.029719848
102	0xbcbcc618	-0.023043677
103	0x3d1fd2c3	0.039019357
104	0x3d640c3d	0.055675734
105	0x3cd8110a	0.026375312
106	0xbac266e0	-0.0014831685
107	0xbd1d3820	-0.038383603
108	0xbd65d969	-0.05611554
109	0xbcc25885	-0.02372385
110	0xbd7587d6	-0.059943996
111	0xbdb4bc49	-0.08824975
112	0xbcd1ccbd	-0.025610322
113	0xbd841613	-0.06449523
114	0xbcf1fdb8	-0.029539928
115	0xbe0a9b85	-0.13535888
116	0xbd9e698e	-0.07734977
117	0xbd138b54	-0.036021546
118	0xbda97b83	-0.08275511
119	0xbd79975b	-0.06093536
120	0xbd8b1afe	-0.06792258
121	0xbcf262f3	-0.029588198
122	0xbd1023e4	-0.035190478
123	0xbda5b31e	-0.080908045
124	0xbd753418	-0.059864134
125	0xbe018765	-0.12649305
126	0xbd33c51a	-0.043889143
127	0xbce3dabb	-0.02781426
128	0xbdc96eec	-0.0983561
129	0xbcd2cfad	-0.025733793
130	0xbdd5e3b9	-0.10443825
131	0xbddbf7f9	-0.107406564
132	0x3c10e3f9	0.008843415
133	0xbdca187a	-0.0986795
134	0xbd40ef16	-0.04710301
135	0xbd8c8efd	-0.0686321
136	0xbd10fc3d	-0.035396803
137	0x3c1bfa4a	0.009520123
138	0xbd083693	-0.03325517
139	0xbd41821f	-0.047243234
140	0xbb89d70b	-0.0042065433
141	0xbd945c0a	-0.072441176
142	0xbd9f0e77	-0.07766431
143	0x3bfeb248	0.0077727176
144	0xbd17cd52	-0.037061043
145	0xbc7fc84e	-0.015611721
146	0xbda011fb	-0.078159295
147	0xbd5e0017	-0.054199304
148	0xbd8d23eb	-0.068916164
149	0xbd9a3ed6	-0.07531516
150	0xbcd8e19c	-0.026474766
151	0xbc367519	-0.011136317
152	0xbdc35d6f	-0.095393054
153	0xb9059795	-0.00012740337
154	0xbc9a2ebf	-0.018821118
155	0xbd6e6b7c	-0.058207974
156	0xbd95af03	-0.073087715
157	0xbd6968fd	-0.05698489
158	0xbc46e1f8	-0.012138836
159	0xbbd8441d	-0.0065999166
160	0xbd0fb9fa	-0.03508947
161	0xbd22d4f9	-0.039753888
162	0xbce5376f	-0.027980534
163	0xbddf6847	-0.10908561
164	0xbd8f58f5	-0.06999389
165	0xbe059e36	-0.13048634
166	0xbd5150cc	-0.051102445
167	0xbddeae8b	-0.10873135
168	0xbdf06366	-0.11737709
169	0xbe074767	-0.13210832
170	0xbcbe0cee	-0.023199525
171	0xbd31095b	-0.043221813
172	0xbdbb194a	-0.09135683
173	0xbd86d7bc	-0.06584117
174	0xbdd49ac0	-0.10381079
175	0xbdc53269	-0.096287556
176	0xbd3ab9b7	-0.045587268
177	0xbdba5a5b	-0.09099265
178	0xbdbc729e	-0.09201549
179	0xbc81f977	-0.015866024
180	0xbc03d108	-0.008045442
181	0x3d152972	0.03641648
182	0x3d375fa5	0.044768948
183	0xbc26a916	-0.010172149
184	0xbc1a79cb	-0.009428452
185	0xbd1e8fd2	-0.038711376
186	0xbd1915f3	-0.037374448
187	0x3c5e0264	0.013550375
188	0xbd6cf88c	-0.05785422
189	0xbda87a55	-0.08226458
190	0x3b52281d	0.0032067366
191	0xbcf9f5d5	-0.03051273
192	0xbdba0724	-0.09083393
193	0xbca0219f	-0.019547282
194	0xbd0bbfa5	-0.034118313
195	0xbd2565d7	-0.040380325
196	0xbd81c9c6	-0.06337313
197	0xbd29c642	-0.04144884
198	0xbd7e97c4	-0.062156454
199	0xbbb889e0	-0.0056316704
200	0xbd9b5947	-0.07585388
201	0xbcae7f2f	-0.02130088
202	0xbdbce5dc	-0.0922353
203	0xbc8abf9f	-0.016937075
204	0xbc297519	-0.01034286
205	0xbdc6644e	-0.096871
206	0xbda65b21	-0.0812285
207	0xbd8d11c2	-0.06888153
208	0xbdfbd129	-0.122957535
209	0xbdc26277	-0.09491437
210	0xbdef4e6f	-0.11684882
211	0xbcf7c73e	-0.030246373
212	0xbd36f168	-0.044663817
213	0xbd0eb2fd	-0.034838665
214	0xbd6a44dd	-0.05719458
215	0xbdb0c8ef	-0.08632075
216	0x3dc72629	0.09724075
217	0x3dd0d1b3	0.10196247
218	0x3d25573b	0.040366393
219	0xbc2477b1	-0.010038302
220	0x3dd77d92	0.105219975
221	0x3da27b6b	0.07933696
222	0x3c8500f0	0.016235799
223	0x3cf77e1d	0.030211503
224	0x3d464b2e	0.04841154
225	0x3d52d94c	0.05147676
226	0x3cbac743	0.022800094
227	0x3c2e1fd2	0.010627704
228	0xbc0cda2b	-0.008596937
229	0x3cf3b20b	0.029747983
230	0xbc2b4328	-0.010453023
231	0xbcbcf3ff	-0.023065565
232	0x3d148589	0.03626016
233	0x3d086a58	0.033304542
234	0x3d0216b7	0.031759944
235	0x3c48811e	0.012237815
236	0x3c46b201	0.0121274
237	0x3c7dfda4	0.015502367
238	0xbc1dd366	-0.009632921
239	0x3d20758b	0.039174598
240	0x3db65740	0.0890336
241	0x3d8f13bd	0.06986187
242	0x3d50b058	0.050949425
243	0xbd26fb34	-0.04076691
244	0xbcab2594	-0.020891942
245	0xbdc92608	-0.09821707
246	0xbd50dd9d	-0.050992597
247	0xbdd1de39	-0.10247464
248	0xbcde0210	-0.027100593
249	0xbda423be	-0.0801463
250	0xbdd3574b	-0.10319384
251	0xbe03952b	-0.12849872
252	0x3ca35996	0.019940179
253	0xbcb7457f	-0.022372006
254	0xbbc7d29d	-0.006098105
255	0xbd7fe679	-0.062475655

conv3.bias f4 [64]
0	0xbd69d13e	-0.057084315
1	0xbd996fb1	-0.074920066
2	0xbd31100b	-0.04322819
3	0xbd4708a0	-0.04859221
4	0xbdd9ac2e	-0.10628544
5	0xbce45659	-0.027873205
6	0xbce4b374	-0.027917601
7	0xbe98aeae	-0.2982077
8	0x3cb85bea	0.022504766
9	0xbd2cb848	-0.04216793
10	0xbdad3040	-0.084564686
11	0xbe46cdb7	-0.19414411
12	0xbe527129	-0.2055098
13	0xbf1b846f	-0.6074895
14	0xbedb92d1	-0.4288545
15	0xbd57ba65	-0.052667994
16	0xbd43cd7b	-0.047803383
17	0xbf01b591	-0.50667673
18	0x3e2a4362	0.16627267
19	0xbce73889	-0.0282252
20	0xbf0cfd9d	-0.55074483
21	0xbe8e480f	-0.2778935
22	0xbe887bc8	-0.26656938
23	0xbe8d812b	-0.2763761
24	0xbd438025	-0.04772963
25	0xbd77faa4	-0.060541764
26	0xbdf2463f	-0.11829805
27	0x3e1dab4c	0.15397376
28	0xbdb61adb	-0.08891841
29	0xbddc6086	-0.10760598
30	0xbde17b7f	-0.11009883
31	0x3be99e1e	0.0071294447
32	0x3e1b35f9	0.15157308
33	0xbd0ff41e	-0.035144918
34	0x3dcfbac5	0.10143045
35	0xbd892651	-0.066967614
36	0xbe06aa52	-0.1315091
37	0xbd6f2452	-0.058384247
38	0xbd8aa6a2	-0.06770064
39	0xbe6d6187	-0.23181735
40	0x3b2c5d52	0.002630074
41	0xbcc39e11	-0.023879083
42	0xbeae649c	-0.34061134
43	0xbca0814a	-0.0195929
44	0xbd3f8f05	-0.046767253
45	0xbe5ace60	-0.21367788
46	0xbdab3986	-0.08360581
47	0xbe153fa4	-0.14575058
48	0xbf1f0204	-0.6211245
49	0x3c1042e4	0.0088050105
50	0xbcf4b14e	-0.029869702
51	0x3e9adecd	0.30248109
52	0xbdf565a4	-0.11982277
53	0xbcb908c2	-0.022587184
54	0xbf617301	-0.8806611
55	0xbce2637e	-0.027635332
56	0xbcff8649	-0.031191962
57	0xbdd7d8fe	-0.10539435
58	0xbd9cef2b	-0.07662805
59	0xbd723ce9	-0.05914012
60	0xbed1b636	-0.40959328
61	0xbd9c8a9e	-0.07643627
62	0xbd110564	-0.03540553
63	0x3d763089	0.06010488

t_conv1.weight f4 [64, 32, 3, 3]
0	0xbd771d53	-0.0603307
1	0xbd96c6cd	-0.07362137
2	0xba103e7c	-0.0005502475
3	0xbd959286	-0.07303338
4	0x3b8fa600	0.0043838024
5	0xbd2661f3	-0.040620755
6	0xbd7df78f	-0.06200367
7	0x3c91cdad	0.01779827
8	0xbd56c776	-0.052436315
9	0xbdc676ac	-0.096906036
10	0xbd81ff5c	-0.06347534
11	0xbd4a335a	-0.04936538
12	0xbcf14b83	-0.029454952
13	0xbdab14a0	-0.08353543
14	0xbdda2bca	-0.10652883
15	0xbdb29c61	-0.08721233
16	0xbdcf3636	-0.10117762
17	0xbd1fb9ee	-0.038995676
18	0xbd31d2e1	-0.043414
19	0x3bfafe4c	0.007659709
20	0xbd4ca8ab	-0.04996554
21	0xbd833075	-0.06405727
22	0xbd8d0663	-0.06885984
23	0xbceb21b0	-0.028702587
24	0x3d4c52d0	0.049883664
25	0xba14cc18	-0.00056761643
26	0xbc3522c4	-0.011055652
27	0xbc83e344	-0.01609958
28	0xbdf12630	-0.11774862
29	0xbd62531c	-0.05525504
30	0xbd4efdd6	-0.050535046
31	0xbd707f6d	-0.058715273
32	0xbc165be6	-0.009177184
33	0xbdd6ecd5	-0.10494391
34	0xbde37d51	-0.111078866
35	0xbd8a7fee	-0.06762682
36	0xbb9097b0	-0.004412614
37	0xbcd26bc0	-0.025686145
38	0x3d003229	0.031297836
39	0xbd6306e0	-0.05542648
40	0xba7e6b40	-0.00097053126
41	0x3cb66c12	0.022268329
42	0x3d0805cd	0.033208657
43	0xbc773920	-0.015089303
44	0xbc273e04	-0.010207657
45	0xbdf352a1	-0.118809946
46	0xbdaac105	-0.08337597
47	0xbde2e739	-0.110792585
48	0xbd9a92c9	-0.07547528
49	0xbde184f9	-0.11011691
50	0xbca6ad0e	-0.02034619
51	0xbddc2301	-0.10748864
52	0xbbaab300	-0.0052093267
53	0xbc31e378	-0.010857455
54	0xbda30c9d	-0.0796139
55	0xbd42b370	-0.047534406
56	0xbd87314f	-0.06601202
57	0xbda46869	-0.08027727
58	0xbd9fe970	-0.078081965
59	0xbdee0586	-0.11622147
60	0xbd5506e4	-0.052008525
61	0xbcb4d2d9	-0.022073196
62	0xbd7bf4e4	-0.061512843
63	0xbd7ba1b5	-0.061433513
64	0xbb1ebb63	-0.0024220578
65	0xbd81c87e	-0.06337069
66	0xbb5c3a62	-0.0033604135
67	0x3c09191e	0.008367805
68	0xbccf35f2	-0.025294278
69	0xbd8051b7	-0.06265586
70	0xbd17b0d4	-0.03703387
71	0x3c47cdb4	0.01219504
72	0xbd46d331	-0.04854125
73	0xbc710b99	-0.014712238
74	0xbd99ab95	-0.0750343
75	0xbda004a3	-0.078133844
76	0xbbbcd1d4	-0.005762318
77	0xbcb16b6b	-0.021657666
78	0xbbfc95c3	-0.0077082827
79	0xbbf4a0eb	-0.007465472
80	0x3c510cc4	0.012759391
81	0xbd9ba9ab	-0.07600721
82	0xbc3c59e9	-0.011496046
83	0xbc0d7c79	-0.008635634
84	0x3b082f7f	0.0020780263
85	0xbd41bb3b	-0.047297698
86	0x3a6905de	0.0008889119
87	0xbdc900ca	-0.098146036
88	0xba5db35c	-0.00084572076
89	0xbacb6a20	-0.0015519299
90	0xbc1a0bc3	-0.009402218
91	0xbd822931	-0.06355513
92	0xbd4c5c36	-0.049892627
93	0xbdc8fe44	-0.09814122
94	0xbd9dc440	-0.07703447
95	0xbc97346f	-0.01845762
96	0xbda293d7	-0.079383545
97	0xbd456d97	-0.048200216
98	0xbd9f64d2	-0.07782902
99	0xbd9675aa	-0.073466614
100	0xbd4c7f14	-0.04992588
101	0xbda80ef2	-0.082059756
102	0xbd7fd6ce	-0.062460713
103	0xbd59a584	-0.053136364
104	0xbd80fd19	-0.062982745
105	0xbc79e4a3	-0.015252265
106	0xbd122e1a	-0.035688497
107	0xbd46b953	-0.048516583
108	0xbd5c1530	-0.053731143
109	0xbdc84f59	-0.09780759
110	0xbbf4dcec	-0.007472625
111	0xbdade00b	-0.084899984
112	0xbdcc2cf1	-0.099695094
113	0xbc456891	-0.012048856
114	0xbc86f610	-0.016474754
115	0xbc29660e	-0.010339273
116	0xbd70f060	-0.05882299
117	0x3da40a53	0.08009782
118	0x3d23b8ef	0.03997129
119	0x3c1bee71	0.009517298
120	0x3df125c2	0.1177478
121	0x3c3e7169	0.011623719
122	0x3d01af5e	0.031661384
123	0x3dfe1c11	0.12407697
124	0x3d8e9f09	0.06963927
125	0x3df652bc	0.12027499
126	0xbdad326e	-0.08456884
127	0xbc95c998	-0.018284604
128	0xbcf92ad5	-0.030415932
129	0xbd1d214e	-0.03836184
130	0xbcf2a014	-0.029617347
131	0xbd33f75c	-0.043937072
132	0xbd5b8883	-0.053596985
133	0xbd38341e	-0.044971578
134	0xbdd07926	-0.10179357
135	0xbd9bf43d	-0.07614944
136	0xbd84ad04	-0.064783126
137	0xbc7c14cc	-0.015385818
138	0xbd0f4a3c	-0.034982905
139	0xbd98f711	-0.07468999
140	0x3d5297fb	0.05141447
141	0x3cda385e	0.026638206
142	0xbd507464	-0.05089225
143	0xbd540650	-0.051763833
144	0xbdb2dde7	-0.08733731
145	0xbd32da29	-0.043665085
146	0xbbbcfb47	-0.0057672593
147	0xbdb93406	-0.09043126
148	0xbd8d2653	-0.068920754
149	0xbdb5fc59	-0.08886022
150	0xbbda0011	-0.00665284
151	0xbd543057	-0.051803913
152	0xbdb64dee	-0.08901583
153	0xbc56daf6	-0.013113728
154	0xbbc9d99e	-0.006159975
155	0xbdc115bd	-0.094279744
156	0xbdd23754	-0.10264459
157	0xbd9db2a7	-0.07700091
158	0xbd7408d0	-0.059578717
159	0xbd6c9f5e	-0.057769172
160	0xbd9d5ba9	-0.076834984
161	0xbd46cc84	-0.048534885
162	0xbd7600a1	-0.060059194
163	0xbde7e9a9	-0.11323864
164	0xbd599618	-0.053121656
165	0xbd40b9c2	-0.047052152
166	0xbdcdae7d	-0.100430466
167	0xbd4ea116	-0.050446592
168	0xbd6877ac	-0.056754753
169	0xbc8f0505	-0.017458448
170	0xbb01886e	-0.0019765156
171	0xbdc7b015	-0.09750382
172	0xbd05198e	-0.032495074
173	0xbdacef1a	-0.084440425
174	0xbd6fc8a8	-0.05854097
175	0x3ad50a99	0.0016253769
176	0xbdb45a2d	-0.08806262
177	0xbca8fb28	-0.020627573
178	0xbd359f81	-0.044341568
179	0xbc631f20	-0.013862401
180	0xbdb0c315	-0.08630959
181	0xbdc7a5a9	-0.09748394
182	0x3b271c90	0.0025499202
183	0xbd951495	-0.07279316
184	0xbd4a3a4e	-0.04937201
185	0xbd910296	-0.07080571
186	0xbd953aca	-0.07286604
187	0xbdb7a29a	-0.08966561
188	0xbd858b02	-0.06520654
189	0xbd9b5af3	-0.075857066
190	0xbd477489	-0.04869512
191	0xbc7c2f87	-0.015392191
192	0xbdc7fabb	-0.0976462
193	0xbc5ccc87	-0.0134764975
194	0xbcb6e2bb	-0.02232491
195	0xbd273f3e	-0.040831797
196	0xbca9d663	-0.02073211
197	0xbdd00340	-0.1015687
198	0xbd9420a6	-0.0723279
199	0x3c24ee65	0.010066603
200	0xbc6a9653	-0.014318067
201	0xbdc4bfc1	-0.09606887
202	0xbd5bfd72	-0.0537085
203	0xbdc0b63c	-0.094097584
204	0xbdc07b49	-0.09398515
205	0xbdc227ac	-0.09480223
206	0xbd215463	-0.039387118
207	0xbd0effdf	-0.034911986
208	0x3af7b090	0.0018897224
209	0x3c3e237b	0.011605139
210	0xbc7524f2	-0.014962422
211	0xbdb89b3e	-0.09013985
212	0xbd9715bb	-0.07377192
213	0xbc634346	-0.01387102
214	0xbd9ba115	-0.07599083
215	0xbdaa740d	-0.08322916
216	0xbb4560f1	-0.0030117596
217	0xbda893c8	-0.08231312
218	0x3c83cebb	0.016089788
219	0xbb5023b3	-0.003175956
220	0xbd0209e4	-0.031747714
221	0xbbdafb13	-0.0066827624
222	0xbd0454e8	-0.032307535
223	0xbc85f2fc	-0.016351216
224	0xbdc1655c	-0.09443161
225	0xbd8d232c	-0.06891474
226	0xbdadf021	-0.084930666
227	0xbd852919	-0.065019794
228	0xbac1f0b2	-0.0014796464
229	0xbc5c4f06	-0.013446575
230	0xbd704467	-0.058658984
231	0xbd731132	-0.05934257
232	0xbd384eaf	-0.044996914
233	0xbdd2b3ff	-0.10288238
234	0xbd9ecb27	-0.07753592
235	0xbd8d41d5	-0.06897322
236	0xbdcb9614	-0.099407345
237	0xbd4671f4	-0.048448518
238	0xbd5d537f	-0.054034706
239	0xbc90952b	-0.017649254
240	0x3aa1fa1a	0.0012357861
241	0xbd9f9a62	-0.07793118
242	0xbd4d99c8	-0.050195485
243	0xbd903b8b	-0.07042607
244	0xbc4b2d1d	-0.012400893
245	0xbd44882e	-0.047981434
246	0xbceebdb6	-0.029143196
247	0xbd34130e	-0.043963484
248	0xbdc4b93d	-0.09605644
249	0xbdaace2b	-0.08340105
250	0xbdabb943	-0.08384945
251	0xbda45612	-0.08024229
252	0xbdb1ef3f	-0.08688211
253	0xbcd21228	-0.025643423
254	0xbd000713	-0.031256747
255	0xbd6c00c6	-0.057617925

t_conv1.bias f4 [32]
0	0xbe642669	-0.22280277
1	0xbcb6fb48	-0.022336617
2	0xbd0f9dab	-0.035062473
3	0xbd950611	-0.07276548
4	0x3e84fa3d	0.25972167
5	0xbce2c9c2	-0.027684096
6	0xbde617d2	-0.11235012
7	0xbe891961	-0.26777175
8	0xbd4ec637	-0.050482
9	0xbcb7a41b	-0.022417119
10	0xbe2c9195	-0.1685241
11	0xbd684b40	-0.05671239
12	0xbe0257c4	-0.12728792
13	0xbc2ce0cc	-0.010551643
14	0xbe713624	-0.2355581
15	0xbe5dd461	-0.21663047
16	0xbd165c5b	-0.03670917
17	0x3de1a58a	0.11017902
18	0x3ddd7316	0.108129665
19	0xbdbe40d6	-0.0928971
20	0xbc01d8cb	-0.007925223
21	0xbd278e07	-0.040906932
22	0xbdcb2e77	-0.09920972
23	0x3be56968	0.007001091
24	0xbdac112e	-0.08401714
25	0xbd1f52ec	-0.03889744
26	0x3cc61dca	0.024184126
27	0xbd6fefc3	-0.058578264
28	0xbc5f718d	-0.013637912
29	0xbeaa2bd4	-0.33236563
30	0xbda6a4fa	-0.081369355
31	0xbd608f93	-0.054824423

t_conv2.weight f4 [32, 16, 4, 4]
0	0xbde3ea69	-0.111286946
1	0xbdbd72bf	-0.09250402
2	0xbd1f0748	-0.038825303
3	0xbde09221	-0.10965372
4	0xbdf9e0fa	-0.12201114
5	0xbd0c0f8b	-0.03419451
6	0xbc4ed016	-0.012622854
7	0xbcb27229	-0.021782951
8	0xbcac17f3	-0.021007514
9	0xbd9acaeb	-0.07558235
10	0xbdcf57e8	-0.10124189
11	0xbda3a457	-0.0799033
12	0xbddc1c3f	-0.10747575
13	0xbd0f5b23	-0.034999024
14	0xbdc6d996	-0.0970947
15	0xbdf9521f	-0.121738665
16	0xbdd6e896	-0.10493581
17	0xbdcfa93c	-0.10139701
18	0xbda04617	-0.078258686
19	0xbd895dc9	-0.06707341
20	0xbd6ffea0	-0.05859244
21	0xbdd4feb4	-0.10400143
22	0xbd4e8d69	-0.050427828
23	0xbd9ac227	-0.07556563
24	0xbdbf9fbb	-0.09356638
25	0xb9534fe4	-0.0002015229
26	0xbdc6d0c1	-0.097077854
27	0xbd5a68d6	-0.053322636
28	0xbd359e2e	-0.044340305
29	0x36940e13	4.412382e-06
30	0xbd8483a8	-0.06470424
31	0xbddb3e0a	-0.107051924
32	0xbd7720a9	-0.06033388
33	0xbd924fcb	-0.071441256
34	0xbd086f70	-0.0333094
35	0x3d91f6fb	0.07127186
36	0xbe124226	-0.14283046
37	0xbd2b7c57	-0.041866627
38	0xbbecf896	-0.007231782
39	0x3d9103f0	0.07080829
40	0xbe1de6c0	-0.15420055
41	0xbcd6dfd4	-0.026229776
42	0x3e1f987f	0.15585516
43	0x3e19e5fe	0.15029141
44	0xbe27fa6b	-0.1640412
45	0xbc6f149a	-0.014592314
46	0x3dd27be8	0.102775395
47	0x3e0660f7	0.13122927
48	0xbdcdca2f	-0.10048329
49	0xbdcc51f2	-0.09976567
50	0xbd0139c4	-0.03154923
51	0xbdf98914	-0.12184349
52	0xbd9c5770	-0.07633865
53	0xbd9b8191	-0.07593072
54	0xbc19a80f	-0.009378447
55	0xbde2e66f	-0.11079108
56	0xbce7e9d8	-0.028309748
57	0xbc2da122	-0.010597499
58	0xbd0fb12a	-0.035081066
59	0xbafc14aa	-0.0019232233
60	0xbdf2ad10	-0.11849415
61	0xbd99610c	-0.07489213
62	0xbdf773ea	-0.12082656
63	0xbd39d4e9	-0.045369063
64	0xbd45734d	-0.048205663
65	0xbe5fdb50	-0.21861005
66	0xbe61347b	-0.21992676
67	0xbcb41a66	-0.021985244
68	0xbb691a83	-0.003556878
69	0xbe8aba87	-0.27095434
70	0xbe9ca038	-0.30590987
71	0xbdb5fc1c	-0.08885977
72	0xbe6f87d0	-0.23391652
73	0xbea203df	-0.31643578
74	0xbe8b7d48	-0.2724402
75	0xbd944f02	-0.07241632
76	0xbe6c82f5	-0.23096831
77	0xbeab5fc6	-0.33471507
78	0xbdbfea2c	-0.093708366
79	0xbcae0148	-0.021240845
80	0x3e8e449b	0.27786717
81	0x3e6c14bc	0.23054785
82	0x3e9058ed	0.28192845
83	0x3e7bec8b	0.24601953
84	0x3e8bacfa	0.27280408
85	0x3e8e8127	0.2783291
86	0x3e81db10	0.25362444
87	0x3e7dad45	0.24773128
88	0x3e891698	0.2677505
89	0x3e5cf161	0.21576454
90	0x3e9105c6	0.28324717
91	0x3e65af3d	0.2243013
92	0x3e5362fb	0.20643227
93	0x3e603774	0.21896154
94	0x3e3dbe5a	0.18529645
95	0x3e69439e	0.227797
96	0x3c332bdc	0.01093575
97	0xbdaa6305	-0.08319668
98	0xbc96bb99	-0.0184
99	0xbd254f06	-0.040358566
100	0xbbd8644b	-0.0066037527
101	0xbc25d4f8	-0.0101215765
102	0xbb6c771c	-0.0036081737
103	0x3c0c601c	0.008567836
104	0xbd687e06	-0.05676081
105	0xbba387d1	-0.004990556
106	0x3c3429af	0.010996266
107	0x3c854526	0.016268324
108	0xbd784845	-0.060615797
109	0xbd8dd56d	-0.06925473
110	0xbd20ad1c	-0.03922759
111	0xbd06897c	-0.03284596
112	0xbdda40d8	-0.10656899
113	0xbd0256ea	-0.03182117
114	0xbcbaf795	-0.022823134
115	0xbde6d0e6	-0.11270313
116	0xbdc7e4e1	-0.09760452
117	0x3c14465a	0.009049976
118	0x3df37a99	0.11888618
119	0x3d3fd8cb	0.04683761
120	0x3cbf3d1c	0.023344569
121	0x3af6120b	0.0018773688
122	0x3d16c2ae	0.036806755
123	0x3d9638cc	0.07335052
124	0xbd1db69b	-0.038504224
125	0xbde361db	-0.11102649
126	0xbd434f58	-0.04768309
127	0xbdf1ad30	-0.11800611
128	0xbd9edeb3	-0.0775732
129	0xbdd11078	-0.10208219
130	0xbe40f192	-0.18842152
131	0xbe422196	-0.18958125
132	0xbd9b98c0	-0.07597494
133	0xbde17cc8	-0.11010128
134	0xbdc27170	-0.09494293
135	0xbe0b67fc	-0.13613886
136	0xbe2c8684	-0.16848189
137	0xbdff4e23	-0.12466075
138	0xbe386974	-0.18008977
139	0xbe1bd32b	-0.15217273
140	0xbe2417d1	-0.1602471
141	0xbe3f7237	-0.18695913
142	0xbe496e2c	-0.19670933
143	0xbde9d642	-0.114178196
144	0xbbb639d9	-0.005561095
145	0x3c81d72d	0.015849674
146	0xbde05b18	-0.10954875
147	0xbd92aefe	-0.07162283
148	0xbe64e910	-0.22354531
149	0xbe5b8a5f	-0.21439503
150	0xbe2eb245	-0.17060192
151	0xbdf3d300	-0.119054794
152	0xbe1ee745	-0.1551791
153	0xbd99aa7d	-0.07503221
154	0xbd2deda2	-0.042462952
155	0xbc9c0b6b	-0.019048413
156	0xbddb9639	-0.10722012
157	0xbd8fc77c	-0.070204705
158	0xbdf2d24a	-0.11856516
159	0xbd385485	-0.04500248
160	0x3aef0db5	0.0018238338
161	0xbd422372	-0.047397085
162	0xbdda5ccb	-0.1066223
163	0xbdd6d95b	-0.10490676
164	0xbcc12066	-0.02357502
165	0x3b381f55	0.0028094847
166	0xbcd6dfc0	-0.02622974
167	0xbcf2f470	-0.029657573
168	0x3b259daa	0.0025270977
169	0xbc0f6c27	-0.008753813
170	0xbd943514	-0.07236686
171	0xbd8bce86	-0.068265006
172	0xbc6123a2	-0.013741406
173	0xbdc13fcc	-0.094359964
174	0xbd4ddc8c	-0.050259158
175	0xbda10a8a	-0.07863338
176	0x3e9b7d72	0.30369145
177	0xbe3c11b9	-0.18366136
178	0xbef2ef8a	-0.4744838
179	0xbd7b30c4	-0.061325803
180	0x3e13c268	0.14429629
181	0xbe664ef6	-0.22491059
182	0xbefe741c	-0.4969796
183	0xbd86d363	-0.065832876
184	0x3e6632d4	0.22480327
185	0xbd4ccf57	-0.050002422
186	0x3d246d96	0.04014357
187	0x3e0da4cf	0.138324
188	0x3df5955e	0.1199138
189	0x3d0f2ebd	0.034956682
190	0x3df6c318	0.1204893
191	0x3ca87a4d	0.02056613
192	0xbdc10c5e	-0.09426187
193	0xbd6fe17e	-0.058564655
194	0xbdc11044	-0.094269305
195	0xbcfdd7fa	-0.030986775
196	0xbdeb1dc5	-0.114802875
197	0xbcd97293	-0.026543891
198	0xbd8e3ef1	-0.06945599
199	0xbddc5b8c	-0.10759649
200	0xbd3af7e5	-0.045646567
201	0xbd4b6d74	-0.04966493
202	0x3d134a6c	0.035959646
203	0xbd088804	-0.03333284
204	0x3d3a43de	0.04547488
205	0xbd466103	-0.04843236
206	0x3d850d25	0.06496648
207	0xbcad57b0	-0.021159977
208	0x3df7fd23	0.12108829
209	0x3da120ab	0.07867559
210	0x3dd99bfc	0.10625455
211	0x3ce8de1a	0.028426219
212	0x3d9b412b	0.07580789
213	0x3cbd9f5c	0.023147278
214	0x3de04771	0.10951126
215	0x3d83d82f	0.06437718
216	0x3db2facb	0.08739241
217	0x3e0a6aa2	0.1351724
218	0x3e0c7519	0.13716544
219	0x3c974bb7	0.01846872
220	0x3dbf8aa6	0.09352617
221	0x3d84465d	0.06458733
222	0x3de73123	0.11288669
223	0x3cc28a6c	0.023747645
224	0xbd87a33a	-0.0662293
225	0xbc8aad80	-0.016928434
226	0x3bdef64c	0.006804263
227	0xbcc25af1	-0.023725005
228	0xbb76f331	-0.0037681574
229	0xbd12eb87	-0.035869148
230	0xbdc3206c	-0.09527668
231	0xbd86d697	-0.065838985
232	0xbbeaf97d	-0.0071708546
233	0xbd4f61ac	-0.050630257
234	0x3c53da34	0.012930442
235	0xbdd0affa	-0.10189815
236	0xbdd1fd18	-0.10253352
237	0xbb8ac7a9	-0.004235227
238	0xbdd34f73	-0.10317888
239	0xbdcbb21a	-0.099460796
240	0x3d9123d2	0.0708691
241	0x3b1afbb7	0.002364857
242	0x3d043c52	0.03228409
243	0x3c63e49d	0.013909486
244	0xbc0e8329	-0.008698263
245	0xbc778e5c	-0.015109625
246	0x3bcf822a	0.0063326554
247	0x3dbe359a	0.092875674
248	0xbd3f06dc	-0.0466374
249	0xbd1ef49e	-0.038807504
250	0x3ce15380	0.027505636
251	0xbc77c67d	-0.015123007
252	0xbd8167fe	-0.06318663
253	0xbbf49802	-0.00746441
254	0x3d6e2cd1	0.05814821
255	0x3cfd306b	0.030906877

t_conv2.bias f4 [16]
0	0xbd95e93c	-0.073198766
1	0x3dad860e	0.084728345
2	0x3f1f1a3e	0.6214942
3	0xbdcf98b5	-0.101365484
4	0x3ea3edc8	0.3201735
5	0x3e958967	0.29206392
6	0xbe74fb9f	-0.23924111
7	0xbd5f6c54	-0.05454667
8	0x3b8ebe15	0.0043561556
9	0x3d6ced8f	0.05784374
10	0xbe69bc8f	-0.22825836
11	0x3ef0d0e4	0.4703437
12	0xbd736aa5	-0.059427876
13	0x3ce84db2	0.02835736
14	0xbd4dc6aa	-0.05023829
15	0x3dadd41d	0.08487723

t_conv3.weight f4 [16, 3, 4, 4]
0	0x3dbf2a5d	0.09334252
1	0xbe0d0f0b	-0.1377527
2	0xbe164297	-0.1467384
3	0x3d9ebe74	0.0775117
4	0xbcaa57d6	-0.020793837
5	0xbde77e51	-0.1130339
6	0xbd4989a2	-0.049203523
7	0xbcf8b9a7	-0.030361963
8	0xbe02663e	-0.12734315
9	0xbc3f5ba3	-0.011679563
10	0xbe0c3edd	-0.13695855
11	0xbd522914	-0.051308706
12	0x3da8cd21	0.0824225
13	0xba1915ad	-0.0005839717
14	0xbdcb1edd	-0.09917996
15	0x3db5bce4	0.08873919
16	0x3dd94421	0.10608698
17	0x3dd76e0a	0.10519035
18	0x3d6cb0c6	0.05778577
19	0xbd998393	-0.07495799
20	0x39fcb04d	0.0004819654
21	0xbdfe52d1	-0.1241814
22	0xbdcb2b00	-0.09920311
23	0xbda91598	-0.08256072
24	0xbd9b9a9d	-0.075978495
25	0xbbc659cc	-0.006053185
26	0x3d851896	0.0649883
27	0xbc31128e	-0.010807646
28	0xbd343901	-0.043999676
29	0x3d944adc	0.07240841
30	0xbe303350	-0.17207074
31	0xbc6c4c30	-0.014422461
32	0xbab5fd9f	-0.0013884789
33	0x3dc48023	0.09594753
34	0x3a86bc49	0.0010279502
35	0x3b5c7be4	0.003364318
36	0x3cc86b8d	0.024465347
37	0xbdf4878a	-0.119399145
38	0xbc34ccdf	-0.011035173
39	0x3d727f67	0.05920353
40	0xbd3ce407	-0.0461159
41	0x3d6d810c	0.057984397
42	0xbe297b38	-0.1655091
43	0xbd6f4d22	-0.05842317
44	0xbdb5a4ea	-0.088693455
45	0xbd4736b8	-0.04863617
46	0x3db0def0	0.08636272
47	0xbd2e9acf	-0.042628106
48	0xbd731c5c	-0.059353217
49	0x3d17e839	0.0370867
50	0x3c837960	0.016049087
51	0x3ccb68bb	0.024830213
52	0xbe45b48c	-0.19307154
53	0x3da34e2b	0.07973894
54	0x3c38cfda	0.011280024
55	0x3d359de6	0.044340037
56	0x3dc6ae88	0.09701258
57	0x3ebb6b04	0.36605084
58	0x3ccf4fa9	0.02530654
59	0x3d87a478	0.06623167
60	0xbf084fac	-0.5324657
61	0xbea39698	-0.3195083
62	0xbe9da81e	-0.30792326
63	0xbd581f10	-0.052764
64	0xbc63775e	-0.01388344
65	0x3c7534b7	0.0149661815
66	0xbc532de2	-0.012889357
67	0x3cb3a1ce	0.02192774
68	0xbe142292	-0.14466313
69	0xbb14e619	-0.0022720157
70	0xbddb2e40	-0.10702181
71	0xbd1cffbe	-0.038329832
72	0x3e482eae	0.19549057
73	0x3ec60a75	0.38679853
74	0xbd49e7a5	-0.04929318
75	0x3cd8ca31	0.0264636
76	0xbe054b67	-0.13017045
77	0xbe7b8377	-0.24561869
78	0xbe92bb8a	-0.28658706
79	0x3a0c7dcc	0.00053593214
80	0xbdf6fd67	-0.120600514
81	0x3d735591	0.059407774
82	0x3c59e93b	0.013300235
83	0x3bf0a87b	0.007344303
84	0xbe647cde	-0.22313258
85	0x3dec31a8	0.11532909
86	0xbdbf92bd	-0.0935416
87	0xbd15ee10	-0.036603987
88	0x3e8cd71d	0.27507868
89	0x3f2f6294	0.68509793
90	0x3e21b431	0.15791394
91	0x3db74d81	0.089503296
92	0x3d2e34b3	0.042530727
93	0x3e4ec6d7	0.20193039
94	0x3d37a23d	0.044832457
95	0x3df62076	0.1201791
96	0x39425623	0.0001853337
97	0x3db1f3f4	0.086891085
98	0x3c95bc28	0.018278196
99	0x3d4a7a40	0.049432993
100	0xbd1e34eb	-0.038624685
101	0x3e54b5d0	0.20772481
102	0x3f49da4c	0.7884872
103	0x3edaa5e0	0.42704678
104	0x3c14d51c	0.009084012
105	0x3db951a1	0.090487726
106	0x3f02f6e4	0.51157975
107	0x3f8b5ed9	1.088832
108	0xbc8efdc7	-0.017454995
109	0xbc5f86e6	-0.013643002
110	0x3d74a3bc	0.05972646
111	0x3e9dbdd2	0.30808884
112	0xbd3e270d	-0.04642396
113	0xbc5094e0	-0.012730807
114	0xbd185032	-0.037185855
115	0xbbd8e15c	-0.006618662
116	0xbd4a7e6d	-0.049436975
117	0x3e173184	0.14764982
118	0x3f3a0bef	0.7267446
119	0x3ec80ea5	0.39073673
120	0xbbd09c74	-0.006366307
121	0x3d5fa76e	0.054603033
122	0x3f0106ff	0.504013
123	0x3f6790b3	0.9045517
124	0xbc99be32	-0.01876745
125	0x3c4bf87b	0.012449379
126	0x3d6f3f39	0.058409903
127	0x3f0302cb	0.51176137
128	0xbd4f3989	-0.05059198
129	0x3cc5c407	0.024141325
130	0xbbd81cea	-0.0065952437
131	0xbde0eff7	-0.1098327
132	0xbcef62b9	-0.02922188
133	0x3e08aa99	0.13346328
134	0x3f48e3cd	0.78472596
135	0x3ea29340	0.31752968
136	0xbc898436	-0.016786676
137	0x3d9e6619	0.07734317
138	0x3f1eb42b	0.61993665
139	0x3f8b19bc	1.0867229
140	0xbcfdf6aa	-0.031001408
141	0x3cf79d40	0.03022635
142	0x3d96eb89	0.073691435
143	0x3e5ac086	0.21362504
144	0x3db1b226	0.08676557
145	0x3d2a4aec	0.041575357
146	0x3d679548	0.05653885
147	0x3d365b2d	0.044520546
148	0x3c525216	0.012836954
149	0x3d5d4024	0.054016247
150	0x3ddb6422	0.10712458
151	0xbd9857f4	-0.07438651
152	0xbd836fbc	-0.06417796
153	0x3d04812b	0.032349747
154	0xbd83e801	-0.064407356
155	0x3e3c6411	0.18397547
156	0x3ce649ff	0.028111456
157	0xbd793b59	-0.060847614
158	0x3d9ba75f	0.07600283
159	0x3e231352	0.15925339
160	0x3e15f49a	0.1464409
161	0x3e009f3a	0.1256074
162	0x3dfcf416	0.12351243
163	0xbd406ddd	-0.046979774
164	0xbd0d8e44	-0.034559503
165	0x3e0bf3c2	0.13667205
166	0xbda0763d	-0.07835052
167	0x3d986a09	0.074420996
168	0x3df6ec9e	0.1205685
169	0x3d50a2df	0.050936576
170	0xbd505eea	-0.050871767
171	0xbd9f0b74	-0.077658564
172	0x3d9f0227	0.077640824
173	0x3d753224	0.05986227
174	0x3e30e292	0.1727393
175	0x3dabb47a	0.083840325
176	0x3e189d32	0.14903715
177	0x3db1dfc6	0.086852595
178	0xbc70ece0	-0.014704913
179	0x3e277f37	0.16357122
180	0x3de5f620	0.11228585
181	0xbd118fed	-0.03553765
182	0x3d762b58	0.06009993
183	0x3e3a4569	0.1819054
184	0x3df727be	0.12068127
185	0x3e440562	0.19142678
186	0x3e2cad67	0.16863023
187	0x3da8fdba	0.082515195
188	0x3d522ea5	0.051314015
189	0xbb13df2f	-0.0022563448
190	0xbd9da7d0	-0.07698023
191	0xbcfc1bca	-0.03077497
192	0x3d15cd4d	0.036572743
193	0xbd862424	-0.06549862
194	0x3c237e7f	0.0099788895
195	0xbc80aef0	-0.015708417
196	0x3daa552f	0.08317029
197	0x3ed5c5e9	0.41752556
198	0x3e90b7ab	0.28265128
199	0xbd18e0e7	-0.03732386
200	0xbcb4343b	-0.021997562
201	0x3de7f2ee	0.11325632
202	0x3e1b60ae	0.15173599
203	0xbded1af2	-0.11577405
204	0xbc965464	-0.018350787
205	0x3d4d7c0a	0.05016712
206	0x3c8b6933	0.017017936
207	0xbcfdc240	-0.030976415
208	0xbb436c90	-0.0029819347
209	0xbd68219b	-0.056672674
210	0xbd646ad7	-0.055765953
211	0xbcf3a957	-0.029743833
212	0x3dd9a570	0.10627258
213	0x3ece0db5	0.40244833
214	0x3e9a70df	0.3016424
215	0xbcb52b07	-0.022115244
216	0xbcd7da64	-0.026349254
217	0x3e4dbbf7	0.20091234
218	0x3e1a0e21	0.15044452
219	0xbdcdd3f5	-0.10050193
220	0x3d41a2b2	0.0472743
221	0x3ccb09b7	0.024784906
222	0xbcc930fc	-0.02455949
223	0x396259ac	0.00021586445
224	0x3c8df63a	0.017329324
225	0xbdac6592	-0.084178105
226	0xbd34aa5d	-0.044107784
227	0xbcfbde2f	-0.030745594
228	0x3ddcf75d	0.10789368
229	0x3f033e79	0.512672
230	0x3eb3d258	0.35121417
231	0xbd258d40	-0.04041791
232	0x3be1a31e	0.0068859
233	0x3e4d91d2	0.20075157
234	0x3e009199	0.12555541
235	0xbd894e62	-0.067044035
236	0x3d903203	0.07040789
237	0x3bfb86f9	0.007676002
238	0xbd5ad11e	-0.053422086
239	0x3b2465a0	0.0025084987
240	0xbdd018fd	-0.10161016
241	0x3e16d688	0.14730275
242	0xbd448ec3	-0.04798771
243	0xbc929986	-0.017895471
244	0x3e094d0d	0.13408299
245	0x3eb388a6	0.35065192
246	0x3dc8a907	0.097978644
247	0x3ca96873	0.020679688
248	0x3c72a576	0.014809957
249	0x3ddf4708	0.1090222
250	0x3d064f56	0.032790504
251	0xbc1fc85e	-0.009752361
252	0x3d194fa3	0.037429463
253	0x3d5c605c	0.053802833
254	0xbb8d160d	-0.004305607
255	0x3bf9384b	0.0076055876

t_conv3.bias f4 [3]
0	0x3eaf55c6	0.34245127
1	0x3ecf8e6e	0.40538353
2	0xbf07ac87	-0.5299763
