models/cae4.pth (torch, 150079 bytes, 18 tensors)

conv1.weight f4 [8, 1, 3, 3]
-0.030081397 0.13488528 -0.23108026 -0.076653756 -0.004848911 0.22798197 0.08188267 0.13282129
0.12107056 0.038839918 0.004088653 0.009168992 -0.14802387 -0.31275475 -0.048101738 0.16277924
0.26530686 0.27356523 0.085946314 -0.22386521 -0.29958454 -0.19314294 0.121161476 0.16647784
0.073287115 0.006691142 0.24051617 -0.11540079 -0.10124452 -0.055532373 0.28848103 -0.21959609
0.039896872 -0.32436156 -0.18031436 0.009953343 0.09276525 -0.19736616 -0.08002574 -0.23581807
-0.2579844 0.26528397 0.11996582 -0.16557746 -0.17701602 -0.29370663 0.20068459 0.14090995
0.29899952 -0.08779095 0.25751707 0.1903245 0.17311236 0.22106035 0.004554934 -0.23559797
0.2991416 -0.05417565 0.2459614 -0.020153694 0.20167002 0.07230617 0.28963506 -0.2578116
-0.265737 0.05639029 -0.23314117 0.24882954 0.09117431 0.31648162 0.31182563 0.1474127
00000000: 436d f6bc 5e1f 0a3e 4ea0 6cbe a5fc 9cbd
00000010: 9de3 9ebb 1b74 693e 1ab2 a73d 4e02 083e
00000020: d7f3 f73d 9b16 1f3d 1bfa 853b 8a39 163c
00000030: 9293 17be 6421 a0be 5406 45bd 9aaf 263e
00000040: 4dd6 873e be10 8c3e 9f04 b03d ec3c 65be
00000050: 2563 99be 43c7 45be 8223 f83d 2b79 2a3e
00000060: 8e17 963d 5e41 db3b df49 763e 4057 ecbd
00000070: 4959 cfbd ea75 63bd c9b3 933e ccdd 60be
00000080: e76a 233d b812 a6be 54a4 38be 5913 233c
00000090: b5fb bd3d 5b1a 4abe 89e4 a3bd 4b7a 71be
000000a0: 8816 84be 4dd3 873e a4b0 f53d 238d 29be
000000b0: b043 35be b760 96be 4380 4d3e b34a 103e
000000c0: 7716 993e becb b3bd 47d9 833e 6de4 423e
000000d0: 5e44 313e a55d 623e 8e41 953b 9840 71be
000000e0: 1629 993e 49e7 5dbd 4edd 7b3e 5c19 a5bc
000000f0: 9682 4e3e 4215 943d 0c4b 943e e2ff 83be
00000100: ae0e 88be 81f9 663d 8fbc 6ebe 2ccd 7e3e
00000110: 99b9 ba3d e109 a23e 9ca7 9f3e 5bf3 163e

conv1.bias f4 [8]
-0.20466906 0.07714943 0.01140481 0.18994983 0.33458978 0.08536499 -0.10565789 0.001485062
00000000: c494 51be 8500 9e3d 3ddb 3a3c 3582 423e
00000010: 5a4f ab3e d7d3 ae3d 2a63 d8bd 69a6 c23a

conv2.weight f4 [8, 8, 3, 3]
0.03232657 -0.11406359 0.012650059 0.12771 0.08551942 0.099701524 0.014401888 0.020597689
0.15225378 -0.12293066 -0.040374435 -0.06560807 -0.039625764 0.075781874 -0.00038441372 0.004107269
-0.011598419 0.0094652455 -0.041015908 -0.22626284 -0.10906993 -0.026751542 -0.011557681 0.085209236
-0.0016946043 0.0148892095 0.0033426783 -0.11114542 0.021034606 -0.041307837 -0.035015907 -0.14253637
-0.19857402 -0.015723813 -0.044876255 -0.19814213 -0.103014074 -0.027460404 0.022058727 -0.06784725
-0.12383765 -0.106172256 -0.09530653 -0.06238603 -0.039632052 -0.025215209 -0.011558202 -0.091333196
0.046924878 0.07044452 0.11553063 0.06579701 -0.02777398 0.082240984 -0.035884168 -0.04840796
0.039371286 -0.037740525 0.007070581 -0.052825507 0.12822816 0.13215634 0.15754415 -0.13214894
-0.041988697 -0.13359353 0.060028475 -0.027692303 0.12385552 -0.07296252 0.003060939 0.14505157
-0.037736215 -0.058729593 0.017057862 -0.09876638 0.0017031804 -0.022432603 -0.093001716 0.03411465
-0.09586124 0.015430561 -0.04031595 -0.0016110814 0.014309523 0.0070275147 0.042558793 -0.06674557
-0.11870494 0.036983874 -0.104664385 -0.09186948 -0.08323698 -0.06026793 -0.10748833 0.051487982
-0.035812587 0.06665973 -0.05789845 -0.027084015 0.05079531 0.07300771 -0.054100335 -0.027744053
-0.030727498 -0.027472941 -0.04224852 0.06502596 0.014776178 0.04048363 -0.021163858 0.005235333
-0.026409253 -0.0085445205 0.10245298 -0.03977373 0.033463947 0.08532885 -0.035430655 0.03097919
-0.008342325 -0.113725446 -0.10759678 -0.006416795 -0.0011107976 -0.07249089 -0.035078064 -0.0028062288
0.09477309 -0.04229819 -0.03500328 0.08173935 -0.05378406 -0.08914624 -0.013262299 0.054977853
0.020074474 -0.09817728 -0.019319234 -0.091420636 -0.112518914 0.095546566 -0.04856588 0.08691631
-0.005644803 0.040926136 -0.05421761 0.023147602 0.09521543 0.05122158 0.26243842 0.17636958
0.1171364 0.03890903 0.13945101 0.055384018 -0.12892872 0.07412326 -0.081033014 0.078846715
-0.025197636 -0.029900646 0.066131525 -0.062487368 -0.09940015 -0.004450902 -0.16262637 -0.18462576
0.021823816 0.11952643 0.2358498 -0.0029963555 -0.18755782 -0.051734366 0.111322224 -0.09191317
0.083345614 -0.025818342 0.02806987 0.07808049 0.027229195 -0.026281476 -0.078317516 0.015036504
0.042060096 -0.07429071 0.036228854 0.09721963 0.061023887 -0.04957994 -0.046280906 0.07001373
-0.095461 -0.064688176 -0.11529213 -0.072905265 0.08394053 0.09777637 0.08548928 0.15788804
0.12388221 0.101677515 -0.065971695 -0.108248696 -0.026867194 -0.027299771 -0.014081976 -0.030194728
0.121944234 0.026208093 -0.14351195 -0.18097998 -0.13917287 0.0918748 0.099679165 0.066307664
0.09014573 0.0078835515 0.16546343 0.047120914 0.12470032 0.110946566 0.020843565 0.09286504
-0.019642781 -0.08141581 -0.005438313 0.03390515 0.0069214064 -0.042742215 -0.05884187 -0.05672979
-0.039176222 0.090812646 0.06882292 0.00038522983 0.06634179 0.04029146 -0.034077458 -0.021090867
0.03945664 0.10921362 0.11351039 -0.07439731 0.098356485 0.027165966 -0.03436529 0.10464623
0.041056175 -0.005059302 0.06777668 -0.031813763 -0.005286968 0.12579551 0.15434368 0.13506386
00000000: de68 043d 2c9a e9bd 3142 4f3c 69c6 023e
00000010: ce24 af3d 5030 cc3d e5f5 6b3c 7cbc a83c
00000020: 6ae8 1b3e 12c3 fbbd aa5f 25bd 865d 86bd
00000030: a04e 22bd 8733 9b3d 238b c9b9 4596 863b
00000040: 4c07 3ebc 1e14 1b3c 4c00 28bd 72b1 67be
00000050: 0e60 dfbd 0d26 dbbc 6d5c 3dbc 2e82 ae3d
00000060: 7c1d deba dff1 733c d610 5b3b 36a0 e3bd
00000070: c450 ac3c 6832 29bd d76c 0fbd 0ef5 11be
00000080: fd56 4bbe 3acf 80bc 2ad0 37bd c5e5 4abe
00000090: 0bf9 d2bd a4f4 e0bc 81b4 b43c 80f3 8abd
000000a0: 989e fdbd d770 d9bd 1230 c3bd 7e88 7fbd
000000b0: 3855 22bd 2090 cebc 9d5e 3dbc e60c bbbd
000000c0: 4d34 403d 3745 903d 539b ec3d 95c0 863d
000000d0: 4286 e3bc f66d a83d 47fb 12bd 6d47 46bd
000000e0: c943 213d cf95 1abd 55b0 e73b 8f5f 58bd
000000f0: 3e4e 033e fe53 073e 4153 213e 0d52 07be
00000100: 57fc 2bbd becc 08be 6be0 753d f8da e2bc
00000110: f6a7 fd3d 606d 95bd 099a 483b 6688 143e
00000120: 4a91 1abd 718e 70bd eebc 8b3c 0746 cabd
00000130: 403d df3a 94c4 b7bc af77 bebd cebb 0b3d
00000140: e652 c4bd 77d0 7c3c 5622 25bd ec2a d3ba
00000150: 7d72 6a3c 1147 e63b 2152 2e3d e7b1 88bd
00000160: 931b f3bd 677c 173d 485a d6bd 1126 bcbd
00000170: 2678 aabd 81db 76bd d722 dcbd 10e5 523d
00000180: 38b0 12bd e684 883d ed26 6dbd 4cdf ddbc
00000190: be0e 503d 1185 953d 5098 5dbd 7f47 e3bc
000001a0: 3cb8 fbbc ef0e e1bc c90c 2dbd 552c 853d
000001b0: c817 723c 2ad2 253d d45f adbc 288d ab3b
000001c0: 3858 d8bc 51fe 0bbc ded2 d13d c7e9 22bd
000001d0: 7e11 093d e4c0 ae3d bc1f 11bd 12c8 fd3c
000001e0: 3fae 08bc e3e8 e8bd b35b dcbd fa43 d2bb
000001f0: 2f98 91ba 1b76 94bd 04ae 0fbd b5e8 37bb
00000200: 6518 c23d de40 2dbd 995f 0fbd f666 a73d
00000210: ad4c 5cbd 4e92 b6bd 1d4a 59bc 7530 613d
00000220: 3973 a43c 2b11 c9bd 5f43 9ebc be3a bbbd
00000230: 5170 e6bd ebad c33d 04ed 46bd 2e01 b23d
00000240: 0af8 b8bb 2aa2 273d 4913 5ebd 0aa0 bd3c
00000250: 4f00 c33d b8cd 513d 545e 863e 3a9a 343e
00000260: 35e5 ef3d 135f 1f3d 3fcc 0e3e 5ada 623d
00000270: e405 04be f0cd 973d a3f4 a5bd 637a a13d
00000280: 466b cebc 33f2 f4bc f76f 873d c1f2 7fbd
00000290: 4e92 cbbd dfd8 91bb 8787 26be 890e 3dbe
000002a0: dcc7 b23c 46ca f43d 9c82 713e 815e 44bb
000002b0: 280f 40be 6ae7 53bd e8fc e33d f93c bcbd
000002c0: 1bb1 aa3d fd80 d3bc c9f2 e53c aae8 9f3d
000002d0: c30f df3c 404c d7bc ef64 a0bd ab5b 763c
000002e0: 3547 2c3d ba25 98bd b564 143d 161b c73d
000002f0: 2ff4 793d 5614 4bbd 0c91 3dbd 5c63 8f3d
00000300: 0f81 c3bd 3c7b 84bd 481e ecbd 5b4f 95bd
00000310: 03e9 ab3d fa3e c83d 0115 af3d 67ad 213e
00000320: f5b5 fd3d 4d3c d03d 2b1c 87bd 7eb1 ddbd
00000330: 9718 dcbc c5a3 dfbc 17b8 66bc ef5a f7bc
00000340: e6bd f93d 5bb2 d63c ccf4 12be d152 39be
00000350: 5583 0ebe db28 bc3d 9724 cc3d 50cc 873d
00000360: 539e b83d 032a 013c 3f6f 293e dc01 413d
00000370: e262 ff3d f437 e33d 20c0 aa3c 0730 be3d
00000380: e6e9 a0bc 55bd a6bd e033 b2bb 20e0 0a3d
00000390: f7cc e23b 7612 2fbd 2c04 71bd 7f5d 68bd
000003a0: 3f77 20bd fbfb b93d 08f3 8c3d acf8 c939
000003b0: 34de 873d a808 253d ce94 0bbd c1c6 acbc
000003c0: 499d 213d 64ab df3d 2378 e83d 9e5d 98bd
000003d0: 206f c93d 298b de3c 9ec2 0cbd c350 d63d
000003e0: 852a 283d 80c8 a5bb 80ce 8a3d 264f 02bd
000003f0: 4d3e adbb 8ad0 003e 450c 1e3e 2e4e 0a3e

conv2.bias f4 [8]
-0.08719715 -0.11536893 -0.03449574 0.14295274 -0.088464834 0.073106624 -0.116769664 -0.08553178
00000000: 6b94 b2bd 8c46 ecbd 684b 0dbd 3462 123e
00000010: 0d2d b5bd edb8 953d ef24 efbd 492b afbd

conv3.weight f4 [16, 8, 3, 3]
0.09316053 -0.17882314 -0.10661387 -0.054365635 -0.10173267 -0.019886447 0.1590522 0.07617571
0.17756458 -0.03954531 0.032561224 -0.017358558 -0.03711305 0.03899693 -0.07952214 -0.010235693
0.08153632 0.0983048 0.14589328 0.06465283 -0.02927039 0.0024672437 0.1520616 0.17431578
-0.00980447 -0.072328575 -0.059985653 0.014088753 -0.12752543 -0.13016182 0.049633972 -0.004038244
-0.01672285 -0.04640724 -0.005635815 0.015897028 -0.048694406 0.011961423 -0.020388471 -0.01431407
-0.026906542 -0.10942829 -0.011071158 -0.0009234077 -0.0151980035 0.13695127 0.024918133 0.08715809
0.020403076 0.060649753 -0.07737507 -0.0799947 -0.0011302979 -0.030372348 0.060578875 0.046324242
0.014744224 -0.0628056 -0.114177816 -0.05228543 -0.016532611 -0.11033634 -0.10711177 0.020310722
-0.04490098 0.00076978444 0.037126057 0.057565194 -0.009540929 -0.07296987 0.05330342 -0.016404506
0.0503324 0.09070232 0.095482364 0.005385635 0.12879029 0.00046848835 0.013064155 -0.0025443656
0.009898345 -0.05054544 0.00016372651 -0.015408732 0.07584771 0.099059366 0.036861934 -0.10145295
-0.026944922 0.06347044 0.09595891 0.16061397 0.0741616 -0.12241856 0.07752029 0.025468413
-0.0041589583 0.13907334 0.18602285 -0.11976573 -0.04337413 0.014400597 -0.0009954759 -0.1314255
-0.14905986 0.09063753 -0.043424442 -0.00022632387 -0.0031136794 0.031123849 0.042499408 0.087145455
0.07577632 0.06469522 0.02057493 0.09885235 -0.06917779 -0.14267626 -0.044007663 0.08436118
-0.06262488 0.13546243 0.20253855 0.035729464 0.02653145 -0.06480289 -0.044183336 0.0942071
-0.028248765 0.11875888 -0.054562937 -0.031730555 0.0016984065 0.12190946 0.118674316 -0.050922878
0.08898906 -0.03638622 0.08979022 0.07018738 0.086527914 0.0461301 -0.10159398 0.0707533
-0.014861403 -0.005194749 -0.033911675 -0.15269773 -0.0066356803 -0.13370968 -0.1642269 -0.09036838
-0.022688596 0.0678832 0.059426162 0.021117877 -0.05383784 0.012108693 -0.11907055 0.08712463
-0.070915036 0.034291547 -0.06321301 -0.0758527 0.027347421 0.0057041133 -0.08943392 -0.0638592
-0.104075775 -0.13784924 -0.03952233 -0.021428473 0.008498275 0.12323504 -0.09706847 0.08333053
-0.011440995 0.100817725 0.036633216 -0.04315632 -0.0952407 0.11322624 -0.025017409 0.016795952
0.0050396444 0.092567906 -0.009583793 -0.061431482 0.037217483 -0.062643744 -0.11452743 -0.12799135
-0.107470386 -0.14309515 -0.06532035 -0.10264379 0.081425734 -0.008104039 -0.11572118 0.024575137
0.039372604 -0.09984723 -0.032922443 -0.07778766 0.0075095715 0.10324201 -0.011185877 0.09607429
-0.04908263 0.11569987 0.11354538 -0.021602817 -0.10481043 -0.0782133 0.09549759 0.0046155597
-0.1824384 -0.21330006 -0.09007064 -0.05383491 -0.019478276 -0.052072812 0.20352833 0.17916216
0.19871698 0.050435964 -0.06964089 -0.03524495 -0.09844371 0.038556088 0.10986206 -0.02775422
0.056742843 -0.056895774 0.113970205 0.068883695 0.19186603 0.078078136 0.13505471 0.07501721
0.07429387 0.0564474 -0.007475857 -0.057538364 0.04918159 0.03077429 -0.04606393 -0.075927034
0.09526569 -0.043831363 -0.06491045 0.05805903 0.050183244 -0.06038787 -0.117210485 -0.0023520645
00000000: f3ca be3d 6a1d 37be 5f58 dabd 80ae 5ebd
00000010: 3859 d0bd e7e8 a2bc 94de 223e 0302 9c3d
00000020: 7dd3 353e 43fa 21bd eb5e 053d 8933 8ebc
00000030: db03 18bd 3fbb 1f3d 81dc a2bd 9cb3 27bc
00000040: 84fc a63d 0754 c93d 0c65 153e b468 843d
00000050: 75c8 efbc 7bb1 213b 09b6 1b3e d67f 323e
00000060: eea2 20bc 0121 94bd 84b3 75bd 83d4 663c
00000070: 0796 02be 2449 05be fe4c 4b3d 3f53 84bb
00000080: 5cfe 88bc 8515 3ebd a5ac b8bb 7c3a 823c
00000090: c973 47bd d8f9 433c b905 a7bc 9085 6abc
000000a0: 1c6b dcbc f01b e0bd cd63 35bc d710 72ba
000000b0: 0c01 79bc f43c 0c3e 1d21 cc3c f17f b23d
000000c0: 5a24 a73c e06b 783d d276 9ebd 43d4 a3bd
000000d0: 8126 94ba 6ecf f8bc 8e21 783d 7dbe 3d3d
000000e0: c291 713c 39a0 80bd 0fd6 e9bd 3f29 56bd
000000f0: 666f 87bc 05f8 e1bd 6a5d dbbd ac62 a63c
00000100: 17ea 37bd 5ccb 493a 7e11 183d 7bc9 6b3d
00000110: 8f51 1cbc 3a71 95bd b054 5a3d be62 86bc
00000120: 5929 4e3d 23c2 b93d 428c c33d fb79 b03b
00000130: 9ae1 033e 719f f539 0a0b 563c 5fbf 26bb
00000140: ab2c 223c bc08 4fbd 00ae 2b39 e874 7cbc
00000150: 0b56 9b3d a3df ca3d 8afc 163d 90c6 cfbd
00000160: 99bb dcbc cafc 813d 1b86 c43d fd77 243e
00000170: 09e2 973d 95b6 fabd f5c2 9e3d 22a3 d03c
00000180: df47 88bb 3e69 0e3e c67c 3e3e bc47 f5bd
00000190: 12a9 31bd 7bf0 6b3c a17a 82ba 6894 06be
000001a0: 26a3 18be 2ba0 b93d d4dd 31bd 5a51 6db9
000001b0: df0e 4cbb 71f7 fe3c dc13 2e3d 5179 b23d
000001c0: 9e30 9b3d ed7e 843d c18c a83c 1a73 ca3d
000001d0: 16ad 8dbd ba19 12be 6141 34bd 8ec5 ac3d
000001e0: 7941 80bd aab6 0a3e 4466 4f3e 0f59 123d
000001f0: 7c58 d93c 61b7 84bd 96f9 34bd a7ef c03d
00000200: f469 e7bc db37 f33d 637d 5fbd e6f7 01bd
00000210: 119d de3a abab f93d 850b f33d 8294 50bd
00000220: e53f b63d b809 15bd efe3 b73d 67be 8f3d
00000230: 8c35 b13d eaf2 3c3d 8110 d0bd 1be7 903d
00000240: 3e7d 73bc b738 aabb f8e6 0abd cb5c 1cbe
00000250: 1f70 d9bb 31eb 08be 192b 28be 0f13 b9bd
00000260: 6fdd b9bc 5906 8b3d d968 733d 66ff ac3c
00000270: 1185 5cbd 8a63 463c 43db f3bd 666e b23d
00000280: e73b 91bd 4b75 0c3d d375 81bd a958 9bbd
00000290: b307 e03c 92e9 ba3b 2229 b7bd 9dc8 82bd
000002a0: ae25 d5bd 5a28 0dbe 2be2 21bd c48a afbc
000002b0: 593c 0b3c a762 fc3d d6cb c6bd 32a9 aa3d
000002c0: 0373 3bbc 8679 ce3d b60c 163d aec4 30bd
000002d0: 8e0d c3bd 29e3 e73d 4ff1 ccbc aa97 893c
000002e0: 9a23 a53b 3e94 bd3d 5705 1dbc 949f 7bbd
000002f0: 5c71 183d 5d4b 80bd 5b8d eabd 2a10 03be
00000300: 6f19 dcbd 8987 12be adc6 85bd e836 d2bd
00000310: 89c2 a63d cec6 04bc 3aff ecbd cc51 c93c
00000320: 2b45 213d b47c ccbd afd9 06bd 234f 9fbd
00000330: da12 f63b 8c70 d33d f844 37bc 99c2 c43d
00000340: de0a 49bd 0ef4 ec3d 7b8a e83d 64f8 b0bc
00000350: daa6 d6bd 4b2e a0bd 3e94 c33d 1f3e 973b
00000360: 22d1 3abe 556b 5abe f576 b8bd ff81 5cbd
00000370: e890 9fbc 4d4a 55bd bb69 503e 4976 373e
00000380: 777c 4b3e f195 4e3d e29f 8ebd 025d 10bd
00000390: db9c c9bd fdec 1d3d 5cff e03d d15c e3bc
000003a0: 2f6b 683d 8b0b 69bd 3669 e93d e512 8d3d
000003b0: 8778 443e 6ee7 9f3d c84b 0a3e 9fa2 993d
000003c0: 6227 983d 6435 673d 09f8 f4bb 59ad 6bbd
000003d0: a372 493d 5d1a fc3c 88ad 3cbd a27f 9bbd
000003e0: a81a c33d 8488 33bd c5ef 84bd 4ecf 6d3d
000003f0: f28c 4d3d 4559 77bd 0d0c f0bd 1825 1abb

conv3.bias f4 [16]
0.058570165 -0.09597169 0.08618503 0.023558544 -0.11439324 0.082367316 -0.10119164 -0.0018959242
-0.105219625 -0.098520845 0.06753217 -0.060509313 0.032732967 -0.07902064 -0.109613925 -0.09069851
00000000: 45e7 6f3d ce8c c4bd c781 b03d d9fd c03c
00000010: 0147 eabd 32b0 a83d 903d cfbd a980 f8ba
00000020: 637d d7bd 4cc5 c9bd 4e4e 8a3d 9dd8 77bd
00000030: 0113 063d 93d5 a1bd 447d e0bd 24c0 b9bd

conv4.weight f4 [16, 16, 3, 3]
0.010798984 0.058601312 0.0014421624 -0.021687169 0.029374756 0.025111724 0.03799819 -0.051899265
-0.03274281 0.08491917 0.024574913 -0.018008508 0.017594103 -0.013705344 -0.0027724083 -0.06670359
-0.12550142 -0.010770824 0.018108688 -0.01671251 0.052291606 -0.050352145 0.0615106 0.06461697
-0.06925454 0.07108995 0.07253786 0.087800026 -0.08988847 0.04852988 0.04100749 0.013472893
-0.01218396 0.028099336 -0.01921224 0.074077025 -0.038348496 0.0039690537 0.066729814 0.0014169443
0.048027333 0.030494839 0.0051028444 -0.011486425 -0.07663901 -0.08012821 0.07445721 0.01558028
0.06432301 0.004442362 0.035411663 0.023828696 0.032877415 -0.03317805 -0.019753024 -0.029512644
-0.09060446 -0.079828635 -0.01590006 -0.023186566 -0.06896402 0.031801235 -0.071200036 -0.08838655
-0.030876556 -0.030509766 -0.037832834 -0.016676756 -0.10342465 -0.010387539 0.015708024 -0.07789031
-0.023093242 -0.012476384 -0.0048136874 -0.03729283 -0.03332327 0.043162026 -0.077545695 -0.038630426
0.04070852 0.053430624 0.074504055 0.029022515 -0.0397022 -0.07386511 -0.033874374 -0.026915513
-0.047714174 0.03758374 -0.031951725 0.041484807 -0.03281964 0.028147798 -0.045665853 -0.03153491
-0.03768345 0.07059487 -0.012603792 0.032610297 0.03841136 -0.044059586 -0.07681443 0.06884927
-0.003015183 -0.04919561 -0.024543405 -0.055201046 0.01794506 -0.125923 -0.15671268 -0.06447484
-0.022955215 -0.058928683 -0.07071434 -0.086573884 -0.09417804 -0.04608293 0.03719469 -0.04129691
-0.083593495 0.022750959 0.060885675 0.022530127 0.022178847 0.011982066 -0.000745185 0.06476834
-0.019904532 -0.03191704 -0.054362856 0.00074235955 -0.050950725 0.01951154 0.032547057 0.11471551
0.014321417 -0.008498861 0.12556094 0.09236844 -0.024988221 -0.03934888 0.0076081525 0.013761699
0.1107955 0.10484898 0.038223185 0.0010282352 0.032411464 0.07022556 0.06313142 0.091910265
0.028949449 -0.030739067 0.108417235 0.12346657 0.075441785 -0.049281184 0.048976816 0.08458489
0.0899035 0.033568397 -0.100648604 -0.029930016 -0.13903715 -0.032817215 -0.09720498 -0.086593024
-0.013788886 0.06886492 0.018624974 0.15360409 0.073615916 0.039826166 0.12224345 0.101926245
0.056409653 0.04729768 0.037214845 0.07689145 -0.0036759223 -0.053447958 0.048849914 0.011587346
-0.03911996 0.006609348 0.07994785 -0.06471428 0.06970261 -0.06388522 -0.122583315 -0.04944009
-0.054126784 -0.020966973 -0.11132162 -0.126104 -0.048245143 -0.1009193 0.0014959036 0.09014175
0.06594276 -0.037122484 0.0135069555 0.07810357 0.08606012 0.052215677 0.046740342 -0.1292564
0.014150676 -0.0858131 -0.021329807 -0.06222305 -0.015588128 0.056054026 -0.010731041 0.009608884
-0.0047359904 0.058789965 0.08879901 0.071447566 -0.007806488 -0.042982157 0.059438787 -0.08026103
-0.041157134 0.02710206 -0.060201984 0.043760784 -0.009674281 0.06817923 0.032498248 0.0707543
-0.07205481 0.07571292 -0.008164737 0.07093377 -0.035964083 0.05337581 0.085018955 0.059965257
0.057011634 -0.026995914 0.07145525 0.048385926 -0.07671376 0.011217092 -0.055062637 0.059407193
0.03772458 -0.016021408 -0.052500214 -0.05752055 0.014920756 0.07719841 0.08182032 0.08412354
00000000: 39ee 303c ee07 703d f106 bd3a 4aa9 b1bc
00000010: 54a3 f03c 1ab7 cd3c fda3 1b3d 5394 54bd
00000020: 531d 06bd 1aea ad3d 5451 c93c 9486 93bc
00000030: 8221 903c 618c 60bc 4bb1 35bb e49b 88bd
00000040: 7283 00be 1c78 30bc ac58 943c ace8 88bc
00000050: b92f 563d 0d3e 4ebd 8af2 7b3d e755 843d
00000060: 53d5 8dbd 9c97 913d bb8e 943d 80d0 b33d
00000070: 7217 b8bd 44c7 463d 78f7 273d 69bd 5c3c
00000080: 3b9f 47bc 9430 e63c fd62 9dbc b2b5 973d
00000090: 5013 1dbd d60e 823b a4a9 883d c3b8 b93a
000000a0: 4fb8 443d 50d0 f93c c335 a73b 8f31 3cbc
000000b0: eaf4 9cbd 421a a4bd 067d 983d 6e44 7f3c
000000c0: c8bb 833d 3c91 913b d20b 113d 6634 c33c
000000d0: 78aa 063d b5e5 07bd 18d1 a1bc 80c4 f1bc
000000e0: d58e b9bd 327d a3bd d840 82bc c1f1 bdbc
000000f0: 023d 8dbd 0342 023d 53d1 91bd 0204 b5bd
00000100: d5f0 fcbc 9eef f9bc 9af6 1abd b19d 88bc
00000110: 4ed0 d3bd 7f30 2abc 1dae 803c f484 9fbd
00000120: 0a2e bdbc bf69 4cbc 23bc 9dbb 5ec0 18bd
00000130: fb7d 08bd aaca 303d 47d0 9ebd f03a 1ebd
00000140: fabd 263d 12da 5a3d 9595 983d a0c0 ed3c
00000150: c69e 22bd 9746 97bd dbbf 0abd ec7d dcbc
00000160: f06f 43bd 68f1 193d d0df 02bd f9eb 293d
00000170: e36d 06bd 3696 e63c 1e0c 3bbd c02a 01bd
00000180: f659 1abd 0b94 903d 2380 4ebc 6092 053d
00000190: 3b55 1d3d d377 34bd e250 9dbd d900 8d3d
000001a0: 609a 45bb 5681 49bd 400f c9bc 7e1a 62bd
000001b0: 8501 933c f5f1 00be 4a79 20be 630b 84bd
000001c0: 930c bcbc 345f 71bd aed2 90bd a64d b1bd
000001d0: 6be0 c0bd 74c1 3cbd 7659 183d f326 29bd
000001e0: 1133 abbd 3860 ba3c 4263 793d 1a91 b83c
000001f0: 6ab0 b53c 6d50 443c 8558 43ba 43a5 843d
00000200: d40e a3bc 71bb 02bd 96ab 5ebd e89a 423a
00000210: b5b1 50bd aad6 9f3c 1050 053d f7ef ea3d
00000220: 60a4 6a3c cf3e 0bbc 0c93 003e aa2b bd3d
00000230: 19b4 ccbc 4b2c 21bd cf4d f93b c078 613c
00000240: c0e8 e23d 10bb d63d ea8f 1c3d d9c5 863a
00000250: e2c1 043d 6bd2 8f3d 0c4b 813d 733b bc3d
00000260: 6527 ed3c 7fd0 fbbc db09 de3d 0bdc fc3d
00000270: 3981 9a3d 11db 49bd ea9b 483d d83a ad3d
00000280: 541f b83d 047f 093d db20 cebd cb2f f5bc
00000290: c15f 0ebe 586b 06bd 6813 c7bd af57 b1bd
000002a0: c8ea 61bc 0d09 8d3d 6793 983c 644a 1d3e
000002b0: f1c3 963d c320 233d c65a fa3d b5be d03d
000002c0: cf0d 673d 36bb 413d 986e 183d 4479 9d3d
000002d0: bee7 70bb 3fec 5abd d916 483d dad8 3d3c
000002e0: 403c 20bd 3b93 d83b b3bb a33d ec88 84bd
000002f0: 3ec0 8e3d 41d6 82bd f60c fbbd b181 4abd
00000300: 0cb4 5dbd eec2 abbc 97fc e3bd 6821 01be
00000310: b39c 45bd c7ae cebd 3212 c43a 3d9c b83d
00000320: ff0c 873d bf0d 18bd 474c 5d3c c4f4 9f3d
00000330: 4a40 b03d 1be0 553d cd72 3f3d ca5b 04be
00000340: 3dd8 673c c7be afbd d9bb aebc 99dd 7ebd
00000350: 5965 7fbc e898 653d 40d1 2fbc 956e 1d3c
00000360: 5e30 9bbb bfcd 703d 41dc b53d 1a53 923d
00000370: 91cd ffbb 0f0e 30bd 1676 733d e55f a4bd
00000380: 6294 28bd 2405 de3c 5b96 76bd 823e 333d
00000390: e080 1ebc 8da1 8b3d e21c 053d a1e7 903d
000003a0: 7991 93bd 600f 9b3d 64c5 05bc b945 913d
000003b0: 134f 13bd 98a0 5a3d 6b1e ae3d 219e 753d
000003c0: 0885 693d 8926 ddbc 2157 923d 5230 463d
000003d0: 1b1c 9dbd e5c7 373c 5c89 61bd f554 733d
000003e0: 1785 1a3d 543f 83bc 770a 57bd ab9a 6bbd
000003f0: 3076 743c 331a 9e3d 6991 a73d f648 ac3d

conv4.bias f4 [16]
0.06892105 -0.02940763 0.07136348 0.051483195 0.008528108 -0.008323219 -0.048219528 0.082376465
0.010923245 -0.0033173207 0.07940161 0.07851995 -0.029732144 -0.034375887 0.045778386 -0.073209725
00000000: 7b26 8d3d 45e8 f0bc 0427 923d 0be0 523d
00000010: 7ab9 0b3c 1c5e 08bc d781 45bd feb4 a83d
00000020: 69f7 323c 6867 59bb 509d a23d 11cf a03d
00000030: d390 f3bc bbcd 0cbd 1e82 3b3d fbee 95bd

conv5.weight f4 [32, 16, 3, 3]
0.0040570325 -0.06121824 0.0068425573 -0.028955564 -0.011150835 0.05719392 0.044531595 -0.124864705
0.042579103 -0.059353907 0.08767779 0.025182793 0.044558395 -0.066046365 0.03749921 0.029233571
0.032471754 0.0713616 -0.00956585 -0.05638263 0.05887974 0.11571535 0.017264519 0.08093623
0.032495394 -0.07626375 -0.04589593 0.12572353 0.02305717 0.040613092 0.12615028 -0.032789547
0.07318328 0.021034885 -0.011052462 0.06534859 0.0021716699 -0.043296248 0.0639458 -0.03590104
-0.0050665583 0.08093071 0.013141642 -0.015357507 0.14101316 -0.06506212 0.07947798 -0.04263853
-0.06550952 0.0053740125 -0.10454829 -0.07513184 -0.073290475 -0.061493464 -0.04088226 -0.0132354535
-0.048279032 0.079491034 -0.053844295 -0.029369079 0.087490745 0.11694129 0.06317605 0.010867605
-0.019945111 0.14525525 0.015602053 0.048657294 0.10901689 0.0062448313 -0.06758682 -0.018212631
-0.17281291 -0.1960293 -0.12930019 0.00385691 -0.0075481175 0.025523681 -0.028624168 -0.014879081
-0.036972616 -0.0010320508 0.16060553 0.033794206 0.03474378 0.09868038 0.04382095 -0.056665592
-0.016674217 0.043585997 0.04899818 0.10445559 0.09573946 0.04016352 0.09398428 0.07553553
-0.100644045 -0.120322704 -0.12129338 -0.01886641 0.09896085 0.08971224 0.033263408 0.04850187
0.026227947 -0.07904464 -0.123048894 -0.03376065 0.058835197 0.10756393 0.13217293 0.10514976
-0.020992026 0.059495796 0.07606204 -0.02186849 0.14515916 0.07467986 -0.02089433 -0.012878172
0.07441025 0.0151723875 -0.0110956915 -0.06842224 -0.01132533 -0.05343329 -0.035712603 0.05407068
0.088300824 0.042806573 0.0031341824 0.15523049 -0.00305695 -0.07278748 -0.0948338 0.02275256
0.02462297 -0.066425264 0.018945001 0.06203488 0.016390983 0.05218476 0.03601815 0.07613197
0.011332914 0.06225659 0.08222608 -0.033908118 -0.06462175 -0.04450546 -0.038940426 0.0029884698
0.062039997 0.009555038 0.033924703 0.011046201 0.0035525362 -0.056618415 -0.103270635 0.037697967
0.061281614 0.029239776 -0.045721643 -0.060732696 0.080293536 -0.051475644 0.01839042 0.030538803
-0.07056188 -0.14245047 -0.15313579 -0.001474758 0.14519878 -0.03174248 -0.031345956 0.12254836
-0.07057469 -0.078197315 0.100719735 -0.00016337237 -0.047561523 0.050138757 -0.051857535 -0.00048331887
0.069242634 -0.048637047 -0.07678496 -0.11584323 -0.025431378 0.03396398 -0.027405856 0.04837092
-0.05687659 0.004678426 -0.07335225 0.0012592295 -0.014876129 -0.05551167 -0.019769464 0.07153434
0.05554651 -0.07174511 -0.0681753 0.031453945 0.071197085 -0.044989295 0.05452812 0.09203826
0.08729689 0.03438807 0.09456937 -0.026680777 0.08127034 0.07972673 -0.033584293 0.032748792
-0.047103494 0.014557446 -0.09588742 0.066787906 0.027168846 -0.02221039 0.072321124 0.037708264
0.079281196 0.0044054384 0.0029952822 0.029689426 -0.0028972668 0.011326654 0.10854955 -0.06485634
-0.020678509 -0.0157441 0.033899482 0.06383288 -0.0023985156 0.06764981 -0.010700188 -0.021022378
0.011664121 0.0012292188 0.08794669 -0.0047508394 -0.0029063523 0.11560096 0.079693265 0.018805157
0.091714025 -0.05031084 0.10910524 -0.037576977 0.0113091925 0.08319795 -0.00046185142 0.04657306
00000000: dbf0 843b fabf 7abd 8837 e03b 3834 edbc
00000010: feb1 36bc 2c44 6a3d c366 363d 11b9 ffbd
00000020: 6d67 2e3d 151d 73bd 6a90 b33d 254c ce3c
00000030: dd82 363d 5143 87bd c698 193d 3e7b ef3c
00000040: 1a01 053d 0826 923d 15ba 1cbc 79f1 66bd
00000050: e22b 713d 2bfc ec3d 526e 8d3c e5c1 a53d
00000060: e419 053d 2b30 9cbd 5ffd 3bbd abbd 003e
00000070: 64e2 bc3c ea59 263d 8a2d 013e 554e 06bd
00000080: 1ee1 953d 5a51 ac3c 6315 35bc 7bd5 853d
00000090: 9352 0e3b 6857 31bd 04f6 823d f80c 13bd
000000a0: 5f05 a6bb 00bf a53d 0b50 573c 0e9e 7bbc
000000b0: c165 103e 4a3f 85bd 5ac5 a23d bda5 2ebd
000000c0: db29 86bd 7c18 b03b 6a1d d6bd b9de 99bd
000000d0: 5119 96bd 92e0 7bbd 2874 27bd 84d9 58bc
000000e0: 3cc0 45bd 32cc a23d d68b 5cbd 6c97 f0bc
000000f0: 592e b33d ea7e ef3d 7262 813d 0a0e 323c
00000100: ee63 a3bc cbbd 143e c19f 7f3c df4c 473d
00000110: 3f44 df3d 71a1 cc3b f56a 8abd a832 95bc
00000120: def5 30be e8bb 48be 4567 04be 36c4 7c3b
00000130: 3356 f7bb 0a17 d13c 3b7d eabc 64c7 73bc
00000140: 9970 17bd e145 87ba c775 243e cb6b 0a3d
00000150: 7e4f 0e3d f018 ca3d 997d 333d 2e1a 68bd
00000160: 5e98 88bc 3b87 323d 51b2 483d d0ec d53d
00000170: 0d13 c43d 8182 243d d57a c03d 5fb2 9a3d
00000180: 771e cebd c06b f6bd aa68 f8bd bb8d 9abc
00000190: fcab ca3d 0dbb b73d 363f 083d e6a9 463d
000001a0: fedb d63c 28e2 a1bd 0f01 fcbd 9b48 0abd
000001b0: 2dfd 703d 7a4a dc3d 5758 073e c258 d73d
000001c0: 78f7 abbc ddb1 733d 6ac6 9b3d 8c25 b3bc
000001d0: 9aa4 143e c1f1 983d 962a abbc f8fe 52bc
000001e0: 6764 983d 9b95 783c b4ca 35bc f620 8cbd
000001f0: e08d 39bc dedc 5abd 6147 12bd 3879 5d3d
00000200: 10d7 b43d f255 2f3d db66 4d3b bef4 1e3e
00000210: 1c57 48bb 9a11 95bd 3938 c2bd 9463 ba3c
00000220: 1cb6 c93c f809 88bd 8c32 9b3c 4918 7e3d
00000230: 6246 863c b0bf 553d c587 133d 14eb 9b3d
00000240: b0ad 393c c400 7f3d 2666 a83d 3de3 0abd
00000250: 6858 84bd 5b4b 36bd ff7f 1fbd 34da 433b
00000260: a71d 7e3d bc8c 1c3c a1f4 0a3d 20fb 343c
00000270: abd1 683b b6e8 67bd 8e7f d3bd 2f69 1a3d
00000280: 6e02 7b3d 4188 ef3c 9e46 3bbd d9c2 78bd
00000290: f070 a43d 20d8 52bd 82a7 963c 832c fa3c
000002a0: bf82 90bd 89de 11be a1cf 1cbe ab4c c1ba
000002b0: fdae 143e 6704 02bd 9e64 00bd a2fa fa3d
000002c0: 7789 90bd ea25 a0bd 2646 ce3d f04e 2bb9
000002d0: dfcf 42bd 4c5e 4d3d 9168 54bd f665 fdb9
000002e0: 15cf 8d3d a437 47bd 6f41 9dbd 373f edbd
000002f0: 7755 d0bc d01d 0b3d 3f82 e0bc 9620 463d
00000300: 6df7 68bd 7b4d 993b b439 96bd bb0c a53a
00000310: 02bb 73bc 3460 63bd 92f3 a1bc 9980 923d
00000320: bd84 633d 1aef 92bd 7e9f 8bbd dad5 003d
00000330: c7cf 913d b246 38bd e158 5f3d 8e7e bc3d
00000340: b6c8 b23d 81da 0c3d 96ad c13d a591 dabc
00000350: 1071 a63d c547 a33d af8f 09bd 9923 063d
00000360: 98ef 40bd 5b82 6e3c a060 c4bd 19c8 883d
00000370: 3391 de3c 90f2 b5bc 191d 943d fb73 1a3d
00000380: 2e5e a23d 7f5b 903b 7f4c 443b 3d37 f33c
00000390: 12e0 3dbb 6e93 393c 3a4f de3d 67d3 84bd
000003a0: fa65 a9bc c5f9 80bc 2fda 0a3d d0ba 823d
000003b0: 6a30 1dbb fc8b 8a3d d74f 2fbc 1f37 acbc
000003c0: df1a 3f3c bd1d a13a 651d b43d eeac 9bbb
000003d0: 8078 3ebb 32c0 ec3d 3936 a33d 460d 9a3c
000003e0: 90d4 bb3d bd12 4ebd 9172 df3d 51ea 19bd
000003f0: 314a 393c b063 aa3d a624 f2b9 65c3 3e3d

conv5.bias f4 [32]
-0.03979585 0.043242157 -0.071609885 0.08375717 -0.02765647 -0.0046436447 0.065074034 -0.05859224
-0.02596731 -0.056909695 -0.0476329 0.0076467376 -0.00981088 -0.055008683 0.025296343 0.032396518
0.053081293 0.006875447 -0.012356672 0.046730027 -0.052163273 0.022043765 0.06504296 0.0061951345
0.038197167 -0.031002233 0.0049105724 -0.07505166 0.053379476 0.07960536 0.07097126 0.0028244979
00000000: f900 23bd b01e 313d 34a8 92bd e188 ab3d
00000010: d28f e2bc b729 98bb 8945 853d 6bfe 6fbd
00000020: 65b9 d4bc 241a 69bd b71a 43bd 7c91 fa3b
00000030: d0bd 20bc c950 61bd 473a cf3c 36b2 043d
00000040: c56b 593d 6e4b e13b a473 4abc fc67 3f3d
00000050: 28a9 55bd 2095 b43c 3e35 853d 8e00 cb3b
00000060: a274 1c3d 65f8 fdbc dee8 a03b afb4 99bd
00000070: 70a4 5a3d 2308 a33d 6159 913d 361b 393b

conv6.weight f4 [32, 32, 3, 3]
-0.020839524 0.05219766 0.0036504082 -0.018780485 0.034255758 0.04301388 -0.026563035 0.0100590205
-0.058476366 -0.0046168715 0.002184879 -0.01564873 -0.031697202 -0.0052973344 0.033596925 -0.04230361
0.04689684 0.032159623 -0.04639072 -0.022002846 -0.045534477 0.055238683 0.05390629 0.008833923
0.04512008 -0.03574102 0.03590458 -0.046559405 0.02988438 -0.0011951849 -0.0005900711 -0.013580851
-0.019818839 0.03302223 -0.009923756 -0.032870695 -0.011058342 -0.026201691 -0.039674625 -0.008767359
-0.046303567 0.050207056 -0.030250048 0.023009276 -0.020060915 0.010156747 0.031641338 -0.052402735
-0.03900003 -0.02971973 -0.04136628 0.030561937 0.03887583 0.012779724 -0.020093832 0.007972311
-0.03200518 -0.012164047 0.042963695 -0.054006442 -0.046608295 -0.035840746 0.042731386 -0.029829672
-0.013520561 0.040391345 -0.0034144372 -0.03879586 0.047066275 -0.03213685 -0.00093571097 0.0028803796
-0.034655105 -0.053929344 0.040497955 0.022853915 -0.058546692 -0.015718829 0.009697776 -0.019315794
0.03296217 -0.0385428 0.04407071 -0.051848695 0.037847735 -0.029454429 0.049197346 0.01090088
0.010368805 -0.0068070027 -0.016683087 -0.04300172 0.030197535 -0.04836689 0.0041649826 -0.04488912
0.018024769 0.04462019 -0.0021175966 -0.050296307 0.0036936216 -0.035371274 0.01989333 -0.0038079396
0.007003411 -0.051921938 0.026941538 0.021965548 -0.051226094 -0.0527684 0.026783 0.028053395
-0.0119654415 -0.03252162 -0.034118794 -0.015638176 0.020089151 0.018616285 -0.02882267 0.052864928
0.044528168 -0.023442619 0.052006263 0.042996954 -0.049938347 0.058677714 0.01834808 -0.017864406
-0.032012753 -0.026256982 -0.0014450885 0.021866303 -0.030815275 -0.010275107 0.040232044 -0.011009902
-5.8829784e-05 -0.016614344 0.035801616 0.03155559 -0.03792207 -0.05772434 -0.04850688 0.031512205
0.0125554465 -0.029854264 -0.022505779 -0.01679632 -0.01202862 -0.0047129802 0.038667914 -0.011232745
0.0052814744 -0.030083198 0.015953634 -0.05605261 0.023191944 0.0553811 -0.050722443 0.031885646
-0.030570908 -0.036408726 0.021420527 -0.008592688 -0.051611394 -0.01784192 -0.012649603 -0.005120393
0.027176712 -0.031475063 -0.017340746 0.0043017454 0.014293056 0.05821811 -0.023888882 0.027374376
-0.03786918 0.013087105 -0.044476897 0.017595898 -0.0012588687 -0.016128194 0.008251395 0.045510422
0.02676795 0.011343043 -0.05575535 -0.01999072 0.041102845 0.006932717 0.045361694 -0.0060364194
0.03523097 -0.001772698 0.046177793 -0.042161904 0.016626824 -0.009381402 0.046869483 0.054420207
-0.037125446 0.054793987 0.051413935 0.0070373006 -0.040911898 -0.0046227165 0.0024201348 0.008103404
-0.022144426 0.007910553 -0.041784752 0.030289786 0.010448785 -0.05372068 0.041439842 0.008233796
0.025262993 0.003430888 -0.05441916 -0.006434202 -0.051818497 -0.0005148567 -0.015098322 0.040736604
0.015938591 -0.023494992 -0.039583564 -0.038564153 -0.04114095 0.036568727 -0.057271406 0.026614523
-0.025993023 -0.0019107499 -0.008337863 -0.049794387 -0.031027604 -0.006465081 0.039607797 0.022375803
0.043374266 0.0046137236 0.03503115 0.019943472 0.058890644 0.038767893 0.044792753 -0.038125366
-0.018703923 -0.030279307 -0.049081482 0.016290735 -0.019545026 -0.042208094 0.005225029 -0.0038223527
00000000: a6b7 aabc 37cd 553d b03b 6f3b 88d9 99bc
00000010: c44f 0c3d 522f 303d b99a d9bc 97ce 243c
00000020: ea84 6fbd 2049 97bb 3030 0f3b c431 80bc
00000030: edd4 01bd 4395 adbb ee9c 093d 8d46 2dbd
00000040: e716 403d cfb9 033d 3204 3ebd 503f b4bc
00000050: 5c82 3abd f541 623d d8cc 5c3d 29bc 103c
00000060: d5cf 383d 2d65 12bd ae10 133d 13b5 3ebd
00000070: 16d0 f43c c0a7 9cba 00af 1aba 3882 5ebc
00000080: 1e5b a2bc 5142 073d 4097 22bc 6ca3 06bd
00000090: 0c2e 35bc eea4 d6bc dc81 22bd f8a4 0fbc
000000a0: cfa8 3dbd eaa5 4d3d f3ce f7bc f37d bc3c
000000b0: ca56 a4bc 7c68 263c 599a 013d 40a4 56bd
000000c0: 7fbe 1fbd cb76 f3bc b06f 29bd 075d fa3c
000000d0: 433c 1f3d 0c62 513c d29b a4bc 4c9e 023c
000000e0: dd17 03bd b64b 47bc b3fa 2f3d dc35 5dbd
000000f0: 57e8 3ebd bfcd 12bd 1b07 2f3d 5b5d f4bc
00000100: 5885 5dbc 6571 253d c0c4 5fbb 68e8 1ebd
00000110: 91c8 403d eea1 03bd 804a 75ba c0c4 3c3b
00000120: 83f2 0dbd 04e5 5cbd 2fe1 253d 2238 bb3c
00000130: a8ce 6fbd c6c4 80bc 6ce3 1e3c 283c 9ebc
00000140: 5703 073d 0edf 1dbd 7d83 343d 4c5f 54bd
00000150: 3a06 1b3d 6a4a f1bc 2883 493d 9b99 323c
00000160: ece1 293c 470d dfbb f8aa 88bc 9222 30bd
00000170: d260 f73c 5c1c 46bd 687a 883b a7dd 37bd
00000180: aea8 933c a9c3 363d 60c7 0abb 8003 4ebd
00000190: b010 723b 78e1 10bd 56f7 a23c a08e 79bb
000001a0: df7c e53b 19ac 54bd 80b4 dc3c 18f1 b33c
000001b0: 74d2 51bd ae23 58bd 0668 db3c 3cd0 e53c
000001c0: b30a 44bc 6435 05bd 26c0 0bbd a21b 80bc
000001d0: 0192 a43c 2e81 983c 851d ecbc e588 583d
000001e0: 2b63 363d bc0a c0bc 8504 553d 931d 303d
000001f0: 278c 4cbd 0b58 703d b64e 963c 6058 92bc
00000200: ce1f 03bd e218 d7bc 2069 bdba f620 b33c
00000210: 5170 fcbc ec58 28bc 5bca 243d e062 34bc
00000220: 00c0 76b8 ce1a 88bc b7a4 123d 6f40 013d
00000230: 2c54 1bbd 5c70 6cbd 26af 46bd f112 013d
00000240: 5cb5 4d3c ee90 f4bc 0a5e b8bc 7098 89bc
00000250: b013 45bc 586f 9abb 3f62 1e3d 8c09 38bc
00000260: 3810 ad3b 0a71 f6bc 32b1 823c 6c97 65bd
00000270: 08fd bd3c 4bd7 623d 56c2 4fbd 869a 023d
00000280: d76f fabc 5121 15bd 1a7a af3c 58c8 0cbc
00000290: 7866 53bd 3829 92bc 4840 4fbc f8c8 a7bb
000002a0: b2a1 de3c ffeb 00bd 2e0e 8ebc a8f5 8c3b
000002b0: 6c2d 6a3c 1d76 6e3d 9eb2 c3bc 3a40 e03c
000002c0: b71c 1bbd 4c6b 563c 682d 36bd 4625 903c
000002d0: a000 a5ba 461f 84bc dc30 073c 2369 3a3d
000002e0: 7648 db3c 2cd8 393c b95f 64bd 94c3 a3bc
000002f0: 755b 283d d82b e33b 2fcd 393d 28cd c5bb
00000300: 594e 103d e059 e8ba ed24 3d3d f6b1 2cbd
00000310: fa34 883c 74b4 19bc 37fa 3f3d b9e7 5e3d
00000320: da10 18bd a96f 603d 6b97 523d 2899 e63b
00000330: 3c93 27bd 287a 97bb 209b 1e3b 24c4 043c
00000340: 3a68 b5bc 449b 013c 7d26 2bbd 4922 f83c
00000350: 6131 2b3c 370a 5cbd d3bc 293d 0be7 063c
00000360: 56f4 ce3c c0d8 603b a0e6 5ebd 00d6 d2bb
00000370: a23f 54bd 73f7 06ba f45e 77bc 6ddb 263d
00000380: a691 823c 9278 c0bc 6022 22bd 72f5 1dbd
00000390: 6a83 28bd 17c9 153d 6c95 6abd b306 da3c
000003a0: 52ef d4bc 2172 faba 889b 08bc 33f5 4bbd
000003b0: 9a2d febc 08d9 d3bb c93b 223d 764d b73c
000003c0: 37a9 313d b82e 973b d37c 0f3d 7e60 a33c
000003d0: 5137 713d 15cb 1e3d 9b78 373d 5829 1cbd
000003e0: f838 99bc 4f0c f8bc aa09 49bd 2674 853c
000003f0: e41c a0bc 65e2 2cbd b836 ab3b 7080 7abb

conv6.bias f4 [32]
-0.05215557 0.04470364 -0.044527747 0.006252433 0.058806278 0.019519595 0.08286847 -0.05140027
0.060955565 0.0240742 0.051460713 -0.05001693 -0.03152389 0.062577754 0.058034785 0.06860474
0.02517903 0.017461566 -0.017128557 -0.02777443 -0.051365044 0.03079294 0.035378646 -0.040250275
-0.0076861237 0.00177854 0.06776536 0.025416678 -0.013696182 -0.003069379 0.020105025 -0.009247274
00000000: 14a1 55bd 2a1b 373d ba62 36bd 36e1 cc3b
00000010: dade 703d 8fe7 9f3c f2b6 a93d 1789 52bd
00000020: 8bac 793d 4237 c53c 78c8 523d 8dde 4cbd
00000030: 321f 01bd c428 803d e2b5 6d3d a480 8c3d
00000040: 4144 ce3c 8f0b 8f3c 3051 8cbc 3487 e3bc
00000050: 2764 52bd 7a41 fc3c 33e9 103d 79dd 24bd
00000060: e1db fbbb e61d e93a 91c8 8a3d a336 d03c
00000070: f365 60bc a227 49bb 4bb3 a43c e181 17bc

t_conv1.weight f4 [32, 32, 3, 3]
-0.032667086 0.01796892 -0.011476461 0.024116438 0.022972975 0.007640537 0.029097874 -0.011044719
-0.054268196 0.058152128 -0.0010069311 -0.03322602 -0.012142535 -0.02574496 -0.036646158 -0.004855372
0.058798086 0.0072461106 0.008431419 -0.013603008 0.04723541 -0.018828478 0.0025772084 0.0539566
-0.04520156 -0.005689732 0.011377256 -0.02192736 0.04704838 0.0076160766 0.04492556 0.035231207
-0.02665342 -0.04765153 0.05146661 0.0035525635 -0.057736136 -0.0078084855 -0.018823614 0.054687668
-0.055765886 -0.0363188 0.0002436296 -0.044843715 0.044730704 0.046868917 0.010376755 0.022489097
0.035648268 -0.009534045 -0.04584079 0.012453806 -0.031087775 0.025821108 -0.01704495 -0.0028124861
-0.05522153 0.054423314 0.033156436 0.031037588 0.019788984 -0.04586189 -0.009613071 -0.03959706
0.0174454 0.04148089 0.016306605 -0.05493768 -0.018750492 0.025446516 -0.051487733 0.046178352
0.029040199 0.011228574 0.040715646 -0.026242757 0.030257564 -0.047914527 0.018568244 -0.040148314
0.025316808 -0.0077472664 0.020312969 0.01355027 -0.039272547 -0.05016406 0.031053606 -0.03928132
-0.053332757 -0.0526007 -0.020623766 -0.03791085 0.05350737 0.006091874 0.02505834 -0.0066029504
0.024072614 0.02272388 0.019755948 0.0038322113 0.016944561 0.012516165 -0.012221761 -0.02800862
0.024518559 0.018916072 -0.048956312 0.03986471 0.023979235 0.008119207 0.017638642 -0.006252505
0.01312593 -0.0044654645 0.05602626 -0.03544227 0.03468107 -0.0105012655 -0.04202571 0.020425875
0.025616039 -0.0024448 -0.05449688 -0.034770854 -0.037241694 0.03431722 0.036166836 0.048664965
-0.048657358 0.028511833 0.0084983595 -0.036759112 0.009030107 0.0033411162 -0.036914885 0.043477196
-0.018675135 0.0059514544 0.00669952 -0.0010087636 0.02958917 -0.024614016 -0.05643567 0.01848137
0.013003919 -0.03753662 0.019046184 -0.01161284 -0.048095793 -0.055152018 0.0033203214 0.054040838
-0.033282798 -0.03119105 0.053568047 0.05719969 0.008166108 -0.043735497 0.04274231 0.0057298206
0.0056649037 0.024017747 0.052305225 -0.030172529 -0.012425747 -0.0007283445 -0.019969033 0.028938726
-0.039033696 0.022243183 0.0041539147 -0.04680148 -0.04212794 0.024112057 0.03546838 -0.012328224
0.03663123 0.057270113 0.013808111 -0.036428533 0.05139693 0.011943679 0.01826891 0.03238296
-0.03840028 0.042622957 0.008188472 0.009913642 -0.038482413 0.025574373 0.010764343 -0.008541748
0.025629561 -0.053900845 0.04285976 -0.0076956414 0.011423578 0.019781679 0.007559497 -0.03799486
0.0472042 -0.05452078 -0.027284943 0.026374763 -0.0036717914 -0.042792954 -0.058383394 0.009549033
0.04759742 -0.008569423 0.008003741 -0.021466414 -0.022861471 0.057152074 0.010849427 -0.050238263
-0.018059209 0.0155684985 0.008785401 -0.011485804 0.025250513 -0.05076479 -0.039500527 -0.010473058
0.04057757 -0.055115618 -0.03247884 0.026505638 -0.03376235 0.028688377 0.006709192 -0.018433325
0.036811527 0.025050271 0.054814365 0.0025421835 -0.034855768 -0.007917251 0.022113796 0.014182169
0.017375719 -0.0057264674 0.009348694 0.030287104 0.04825662 -0.0016351696 0.058033954 0.023367004
-0.021357797 -0.028370637 -0.010800562 -0.018611673 -0.005847074 0.018728707 0.023549695 -0.045852203
00000000: eccd 05bd 8e33 933c c407 3cbc d68f c53c
00000010: d231 bc3c 785d fa3b aa5e ee3c e9f4 34bc
00000020: 5448 5ebd ed30 6e3d 00fb 83ba 0218 08bd
00000030: 7cf1 46bc 18e7 d2bc 481a 16bd d019 9fbb
00000040: 43d6 703d c870 ed3b ef23 0a3c 27df 5ebc
00000050: eb79 413d 2e3e 9abc 62e6 283b 9901 5d3d
00000060: 4525 39bd ee70 babb ac67 3a3c 02a1 b3bc
00000070: cdb5 403d 4890 f93b dd03 383d 994e 103d
00000080: 4658 dabc 402e 43bd a7ce 523d 20d2 683b
00000090: ba7c 6cbd 53de ffbb fb33 9abc 2d00 603d
000000a0: c56a 64bd 06c3 14bd d376 7f39 0bae 37bd
000000b0: 8b37 373d 9ff9 3f3d 4403 2a3c 0e3b b83c
000000c0: eb03 123d af34 1cbc 8dc3 3bbd 0c0b 4c3c
000000d0: caab febc ca86 d33c daa1 8bbc b051 38bb
000000e0: f92f 62bd fbea 5e3d 0bcf 073d 8a42 fe3c
000000f0: 821c a23c add9 3bbd 2480 1dbc 8730 22bd
00000100: a8e9 8e3c dee7 293d 6e95 853c 5506 61bd
00000110: a29a 99bc 3675 d03c cde4 52bd 8325 3d3d
00000120: b6e5 ed3c 0ef8 373c 73c5 263d 0dfb d6bc
00000130: b6de f73c 0642 44bd 6e1c 983c 8f72 24bd
00000140: 3265 cf3c c8dc fdbb 6267 a63c f401 5e3c
00000150: 40dc 20bd d478 4dbd 2264 fe3c 73e5 20bd
00000160: 7373 5abd d573 57bd 2cf3 a8bc 6848 1bbd
00000170: 8b2a 5b3d 589e c73b 2647 cd3c 905d d8bb
00000180: ee33 c53c 6e27 ba3c 3ad7 a13c d625 7b3b
00000190: 52cf 8a3c 9a10 4d3c c83d 48bc 5572 e5bc
000001a0: 25db c83c e1f5 9a3c 6a86 48bd 2e49 233d
000001b0: 1a70 c43c 6c06 053c ea7e 903c d0e1 ccbb
000001c0: 240e 573c 0853 92bb cb7b 653d ea2b 11bd
000001d0: bd0d 0e3d 800d 2cbc 2723 2cbd 2a54 a73c
000001e0: bad8 d13c f038 20bb 1f38 5fbd e26b 0ebd
000001f0: bf8a 18bd 3790 0c3d ad23 143d ea54 473d
00000200: f04c 47bd a691 e93c b43c 0b3c b990 16bd
00000210: 04f3 133c a1f6 5a3b 1034 17bd 2515 323d
00000220: 99fc 98bc 6b04 c33b a687 db3b 7d38 84ba
00000230: fd64 f23c 55a3 c9bc 1729 67bd 3e66 973c
00000240: 640e 553c 00c0 19bd be06 9c3c c843 3ebc
00000250: 1800 45bd 15e7 61bd c099 593b ed59 5d3d
00000260: 8b53 08bd 5f84 ffbc 2b6a 5b3d 394a 6a3d
00000270: 24cb 053c fe23 33bd 8f12 2f3d 38c1 bb3b
00000280: a8a0 b93b dec0 c43c 013e 563d 612c f7bc
00000290: 5c95 4bbc 5fee 3eba 1996 a3bc e810 ed3c
000002a0: cce1 1fbd 5637 b63c 901d 883b e9b2 3fbd
000002b0: 598e 2cbd a686 c53c 4b47 113d 52fc 49bc
000002c0: a10a 163d 1194 6a3d 6a3b 623c 1636 15bd
000002d0: 9685 523d 6caf 433c aea8 953c ffa3 043d
000002e0: 9d49 1dbd 6995 2e3d f128 063c d46c 223c
000002f0: bc9f 1dbd 5981 d13c ed5c 303c b0f2 0bbc
00000300: 16f5 d13c 22c7 5cbd b78d 2f3d b82b fcbb
00000310: f529 3b3c 300d a23c a8b5 f73b 80a0 1bbd
00000320: 3159 413d 2e51 5fbd ac84 dfbc e30f d83c
00000330: 70a2 70bb aa47 2fbd 6d23 6fbd 8c73 1c3c
00000340: 83f5 423d c466 0cbc 1f22 033c 55da afbc
00000350: fb47 bbbc 4b18 6a3d ccc1 313c a3c6 4dbd
00000360: e8f0 93bc 0413 7f3c a4f0 0f3c f42e 3cbc
00000370: 2ada ce3c beee 4fbd 4ecb 21bd 3097 2bbc
00000380: ab34 263d eac0 61bd 8808 05bd 5a22 d93c
00000390: 644a 0abd e303 eb3c c8d8 db3b 7c01 97bc
000003a0: afc7 163d 3a36 cd3c 0785 603d c39a 263b
000003b0: ecc4 0ebd 5cb7 01bc fe27 b53c 545c 683c
000003c0: 8657 8e3c 17a5 bbbb 442b 193c a91c f83c
000003d0: bca8 453d 3053 d6ba 03b5 6d3d 296c bf3c
000003e0: 8cf6 aebc 8a69 e8bc d7f4 30bc 8277 98bc
000003f0: d098 bfbb f26c 993c 4aeb c03c 85cf 3bbd

t_conv1.bias f4 [32]
-0.0020915566 -0.04241828 0.03268598 -0.046001703 -0.005561157 0.03828558 -0.030476715 0.0033457235
-0.016597465 -0.0120068425 -0.022841666 0.02340684 -0.054010525 -0.057707857 0.017392239 0.04547598
-0.06340105 -0.056912057 0.017750375 0.04652246 -0.024979528 0.015535162 -0.045914378 0.043488864
-0.03242241 0.030051956 0.04446069 -0.016080964 -0.0330867 -0.030066235 0.049701184 0.03948393
00000000: 7f12 09bb cabe 2dbd bce1 053d 486c 3cbd
00000010: 5e3a b6bb 57d1 1c3d 4eaa f9bc ed43 5b3b
00000020: 68f7 87bc 59b8 44bc 721e bbbc b4bf bf3c
00000030: 243a 5dbd 135f 6cbd 2b7a 8e3c 0545 3a3d
00000040: 69d8 81bd 9e1c 69bd 3c69 913c 568e 3e3d
00000050: dea1 ccbc 3187 7e3c b710 3cbd 6121 323d
00000060: 5ccd 04bd 852f f63c 6a1c 363d 3abc 83bc
00000070: eb85 07bd 774d f6bc 7893 4b3d e7b9 213d

t_conv2.weight f4 [32, 16, 4, 4]
0.015862858 -0.05833864 0.023258794 0.003246867 -0.056553915 -0.0910063 -0.04323457 0.039050635
-0.035229977 0.026707573 0.019350573 -0.024424799 0.00020019418 0.058650322 0.009888154 -0.01845683
-0.004711648 0.039055277 0.005764163 0.0424804 -0.016600098 -0.02060179 0.031581383 0.037053283
0.0019848656 -0.06693207 0.019137703 -0.07501983 -0.0514379 -0.0060760537 0.03781274 -0.004092571
-0.001887322 -0.024949852 -0.017133415 -0.040499363 0.031027606 -0.040923715 0.024749301 -0.040795796
-0.012885772 -0.05821692 -0.032118045 -0.0671354 0.03481619 -0.004436017 -0.027912622 -0.018529123
0.03394235 0.012408346 -0.037212603 -0.05429554 -0.009845733 -0.010589533 -0.041774876 -0.04385264
0.022392603 -0.043148085 0.06278103 0.0018655222 -0.015851319 0.014091551 -0.013389997 -0.043115176
-0.04142782 0.0529799 -0.025545124 0.022840993 -0.06829653 0.003032571 -0.037154857 -0.029297724
-0.020150015 0.007689474 0.075944096 0.052100975 -0.013239091 -0.034372896 -0.013685465 -0.046653498
0.020840377 0.014241464 0.057664033 -0.010104066 -0.04269409 0.02938699 -0.03171079 -0.01596345
0.0537422 -0.030986778 0.0051157475 0.060183614 -0.06247337 0.045537673 0.028946605 0.030337973
-0.12785944 -0.027155569 -0.023791853 -0.01572888 -0.11026579 -0.02832754 0.034703318 -0.04769334
-0.014406287 -0.103462994 0.03442007 -0.002978051 0.0028212417 0.021034842 -0.08315365 -0.055331383
0.019225627 -0.11398158 0.042280767 0.031848792 -0.07882623 -0.084623404 -0.009895871 -0.08200929
0.026748966 -0.110935114 -0.017418874 0.0024789504 0.043237854 -0.055011068 0.03208124 0.05463095
0.030040158 -0.065846816 -0.03984802 0.026982024 -0.106585294 0.012935883 0.019615872 0.037132654
-0.020680502 -0.032597676 0.033184063 -0.013319565 -0.028396806 -0.005495739 -0.00039898296 0.117595576
0.08612692 -0.0017147268 -0.037746705 0.11913667 0.026701773 -0.013745776 -0.07801238 -0.013254848
0.06706286 -0.026069334 -0.016444528 -0.019049225 -0.07405036 0.004106628 -0.0052450765 -0.077120155
0.02255299 0.037869673 -0.09224441 0.0065157646 0.012359934 0.07252445 0.019597432 -0.03138391
0.09656049 0.053383596 0.050579958 -0.07590023 0.08201908 0.01768104 0.09954876 -0.031078203
-0.0037339395 -0.05021067 0.004020666 -0.024389738 -0.043725386 0.046981446 0.0108798565 0.04618576
-0.035011206 -0.08315185 0.009301188 0.0039916947 -0.011988456 -0.075383775 0.03304224 0.057644837
0.025596198 -0.10883044 -0.07148291 -0.014731371 -0.055231035 -0.06369768 -0.032711115 0.094896995
-0.05602786 -0.02009753 -0.07204619 0.072951555 -0.07052411 -0.09228931 0.041122116 -0.018759863
0.001710631 0.05040218 0.024934031 0.033497624 0.021202944 0.01900205 -0.009458572 -0.030427046
-0.0399912 0.061904512 0.0035147443 0.028286658 0.049907014 -0.01625058 0.049027227 -0.06191553
-0.011162563 -0.08019176 0.07573272 0.1152401 -0.005441069 -0.031594522 0.017418902 -0.044467255
-0.014528722 0.024978783 -0.020209927 0.010193747 -0.0009810037 0.022258695 0.03492792 0.042605877
-0.09264508 0.051404227 0.037534565 0.027479434 -0.003417226 -0.022633838 0.034370545 -0.0048095575
0.012731383 0.063955866 0.0056347465 -0.077863365 -0.06733331 -0.053894896 -0.03422537 0.07013509
00000000: d3f2 813c 7ff4 6ebd 3a89 be3c 64c9 543b
00000010: 14a5 67bd 8361 babd bc16 31bd 8ff3 1f3d
00000020: 4f4d 10bd d7c9 da3c 1885 9e3c 8416 c8bc
00000030: 37eb 5139 523b 703d ed01 223c c732 97bc
00000040: 2b64 9abb 6df8 1f3d 4ee1 bc3b eeff 2d3d
00000050: eefc 87bc 16c5 a8bc 7b5b 013d 2fc5 173d
00000060: 8514 023b ae13 89bd acc6 9c3c ffa3 99bd
00000070: 8cb0 52bd a219 c7bb 88e1 1a3d f91a 86bb
00000080: 0560 f7ba a263 ccbc 605b 8cbc a9e2 25bd
00000090: 9b2d fe3c a09f 27bd 0cbf ca3c 7e19 27bd
000000a0: d81e 53bc dd74 6ebd 368e 03bd 497e 89bd
000000b0: 6c9b 0e3d 025c 91bb 03a9 e4bc 63ca 97bc
000000c0: 2207 0b3d 604c 4b3c 3e6c 18bd 0065 5ebd
000000d0: ff4f 21bc b87f 2dbc 221c 2bbd d39e 33bd
000000e0: b170 b73c 0cbc 30bd 5793 803d 8a84 f43a
000000f0: a0da 81bc 40e0 663c b861 5bbc 8a99 30bd
00000100: 38b0 29bd 7401 593d 0244 d1bc 091d bb3c
00000110: 0ddf 8bbd 19be 463b b12f 18bd c801 f0bc
00000120: a511 a5bc fcf7 fb3b 9488 9b3d d567 553d
00000130: c6e8 58bc 98ca 0cbd 0039 60bc bd17 3fbd
00000140: 70b9 aa3c 0855 693c 1f31 6c3d 868b 25bc
00000150: 00e0 2ebd fcbc f03c 2ce3 01bd c8c5 82bc
00000160: c820 5c3d fcd7 fdbc 00a2 a73b 1883 763d
00000170: 14e4 7fbd b685 3a3d 6e21 ed3c 5787 f83c
00000180: 96ed 02be 5b75 debc 22e7 c2bc dad9 80bc
00000190: 08d3 e1bd 280f e8bc 1125 0e3d 175a 43bd
000001a0: 5908 6cbc 68e4 d3bd 0ffc 0c3d 682b 43bb
000001b0: 95e4 383b 4351 ac3c 764c aabd 29a3 62bd
000001c0: 107f 9d3c 2d6f e9bd 992e 2d3d e173 023d
000001d0: a56f a1bd 094f adbd 4b22 22bc 7df4 a7bd
000001e0: a620 db3c f331 e3bd 07b2 8ebc e375 223b
000001f0: 2d1a 313d 4953 61bd 9e67 033d b4c4 5f3d
00000200: c716 f63c b2da 86bd ad37 23bd 6809 dd3c
00000210: 6449 dabd 07f1 533c 77b1 a03c 6918 183d
00000220: 286a a9bc 2485 05bd 03ec 073d 4e3a 5abc
00000230: 6ba0 e8bc 9a15 b4bb 962e d1b9 f3d5 f03d
00000240: 5063 b03d afc0 e0ba 4a9c 1abd edfd f33d
00000250: adbd da3c f735 61bc f4c4 9fbd dd2a 59bc
00000260: 4158 893d 5b8f d5bc adb6 86bc 1f0d 9cbc
00000270: b7a7 97bd e490 863b e4de abbb 2cf1 9dbd
00000280: 0cc1 b83c 3b1d 1b3d a3ea bcbd 3282 d53b
00000290: 5281 4a3c b387 943d cb8a a03c 6a8c 00bd
000002a0: 82c1 c53d c2a8 5a3d ee2c 4f3d 9471 9bbd
000002b0: 9ff9 a73d d4d7 903c 38e0 cb3d b797 febc
000002c0: 1cb5 74bb b4a9 4dbd cabf 833b fdcc c7bc
000002d0: 6419 33bd 9e6f 403d 6d41 323c 482d 3d3d
000002e0: e967 0fbd 844b aabd 0364 183c c3cc 823b
000002f0: 3b6b 44bc cf62 9abd 4d57 073d fe1c 6c3d
00000300: 1eaf d13c 7ee2 debd a265 92bd d95b 71bc
00000310: f039 62bd ee73 82bd 17fc 05bd 5b59 c23d
00000320: 787d 65bd 93a3 a4bc f48c 93bd a067 953d
00000330: f26e 90bd 2e02 bdbd aa6f 283d 49ae 99bc
00000340: 4037 e03a 8472 4e3d 7442 cc3c ce34 093d
00000350: ccb1 ad3c 30aa 9b3c 20f8 1abc 2442 f9bc
00000360: d0cd 23bd 968f 7d3d a057 663b 6cb9 e73c
00000370: 4c6b 4c3d f01f 85bc c6d0 483d 249b 7dbd
00000380: 2fe3 36bc 943b a4bd c219 9b3d 0003 ec3d
00000390: ff4a b2bb 4269 01bd 16b2 8e3c 4c23 36bd
000003a0: e009 6ebc 4ea0 cc3c 4a8f a5bc ac03 273c
000003b0: 0695 80ba de57 b63c 9410 0f3d 8083 2e3d
000003c0: b4bc bdbd 3d8d 523d d8bd 193d 8d1c e13c
000003d0: 8af3 5fbb 996a b9bc 21c8 0c3d 7e99 9dbb
000003e0: 4a97 503c 4bfb 823d aea3 b83b d476 9fbd
000003f0: 0ce6 89bd e5c0 5cbd e72f 0cbd fca2 8f3d

t_conv2.bias f4 [16]
0.06545813 0.017181108 0.056196608 -0.047637545 0.07326797 -0.05718928 0.008796563 0.031106478
0.09088114 0.05174792 -0.06237954 -0.044526517 -0.0057016616 -0.052502844 0.060642652 0.009080139
00000000: e90e 863d 65bf 8c3c 6a2e 663d 961f 43bd
00000010: 840d 963d 4e3f 6abd 761f 103c 03d3 fe3c
00000020: e41f ba3d a1f5 533d b081 7fbd 7061 36bd
00000030: 01d5 babb 390d 57bd 6e64 783d ddc4 143c
