models/cae4.pth (torch, 206223 bytes, 12 tensors)

conv1.weight f4 [16, 1, 3, 3]
0	0xbd80459c	-0.06263277
1	0x3e5623e6	0.20912132
2	0xbe8929fb	-0.2678984
3	0xbe6263ae	-0.22108337
4	0x3d563928	0.052300602
5	0xbdbf26a6	-0.093335435
6	0xbca3c100	-0.01998949
7	0xbe3b7eb0	-0.18310046
8	0x3dab4f9c	0.08364794
9	0xbe81946c	-0.2530855
10	0xbda17e37	-0.07885402
11	0xbe17cdea	-0.14824644
12	0x3e80024f	0.2500176
13	0x3d5cf1c0	0.05394149
14	0x3e0d1f15	0.13781388
15	0xbc057acc	-0.008146953
16	0xbe68ff5b	-0.2275366
17	0x3e442bca	0.19157329
18	0xbd3f9452	-0.04677231
19	0x3e5ba3b1	0.21449162
20	0xbe9e0f66	-0.30871123
21	0x3dca9bae	0.09892975
22	0x3e059b75	0.13047583
23	0x3e11179d	0.14169164
24	0x3e9245d6	0.28568906
25	0xbe4ceb02	-0.20011523
26	0xbdb08aa4	-0.086201936
27	0x3d8c9557	0.06864422
28	0xbe9e4636	-0.30912942
29	0x3e55546f	0.2083299
30	0xbec10aec	-0.37703645
31	0xbeb555f5	-0.35417143
32	0xbec09957	-0.3761699
33	0x3e909977	0.28242084
34	0x3e91d3f6	0.28482026
35	0xbe89879f	-0.26861283
36	0xbe64fb6d	-0.22361536
37	0xbe987b67	-0.2978165
38	0xbe88e029	-0.2673352
39	0xbda8d494	-0.08243671
40	0x3d8ee2cc	0.06976852
41	0x3e857826	0.26068228
42	0x3daa50d0	0.08316195
43	0xbdd98aad	-0.106221534
44	0x3e797763	0.24361949
45	0x3d9119fa	0.07085033
46	0xbde87ba5	-0.11351708
47	0x3df33ae1	0.11876465
48	0x3d1e9ae0	0.03872192
49	0x3d920a4e	0.07130872
50	0xbe0f51e9	-0.1399609
51	0xbe67271f	-0.22573517
52	0x3e09fa8a	0.1347448
53	0xbde9c0c7	-0.114137225
54	0x3e6fbf13	0.23412733
55	0xbebe5dbf	-0.37180898
56	0x3e89cea1	0.26915458
57	0x3e5cc93c	0.2156114
58	0xbe11a9bd	-0.14224906
59	0x3e4d8c18	0.20072973
60	0x3dcd47c9	0.100234576
61	0xbe924a4e	-0.28572315
62	0x3d666f60	0.05625856
63	0x3dff58b9	0.124680944
64	0xbe59e463	-0.21278529
65	0xbdbca54c	-0.092112154
66	0xbc7081c1	-0.014679373
67	0xbe849627	-0.25895807
68	0xbd0f6d62	-0.035016425
69	0x3e849b0d	0.25899544
70	0xbd87883d	-0.06617782
71	0xbd746af9	-0.05967233
72	0x3df553e7	0.11978894
73	0xbe935cd9	-0.28781775
74	0xbe310eab	-0.17290752
75	0x3e2d55b3	0.16927223
76	0x3e67de17	0.22643314
77	0x3e92ab43	0.28646287
78	0x3e5e3c64	0.21702725
79	0x3e33847e	0.1753101
80	0xbd8d3bad	-0.06896148
81	0xbe44410e	-0.19165441
82	0x3e429102	0.19000629
83	0x3dd0c4f5	0.101938166
84	0x3dd5221d	0.10406897
85	0xbe6a85d9	-0.22902621
86	0xbe8402cb	-0.2578338
87	0x3e8194a9	0.2530873
88	0xbbe71497	-0.007052015
89	0x3e540e07	0.20708476
90	0xbe896ec0	-0.26842308
91	0x3e3d28de	0.18472621
92	0xbbb731dc	-0.0055906605
93	0x3dd31560	0.10306811
94	0xbe7fcba9	-0.24980034
95	0x3e3238e3	0.17404513
96	0xbebcf490	-0.36905336
97	0xbe918ccc	-0.28427732
98	0xbeb2b258	-0.3490169
99	0x3c6d4f78	0.014484279
100	0xbb9c1296	-0.004762958
101	0xbe8b7436	-0.272371
102	0xbb001447	-0.0019543336
103	0xbe74e5ea	-0.2391583
104	0xbe1181d8	-0.14209688
105	0x3e8641e7	0.26222154
106	0x3d84850e	0.06470691
107	0xbe988523	-0.29789075
108	0x3e0205e0	0.12697554
109	0xbe75bcd5	-0.23997815
110	0x3d5fb19a	0.054612733
111	0xbe78e6f8	-0.24306858
112	0xbdf15878	-0.11784452
113	0x3cc8edcb	0.024527451
114	0xbda9c51a	-0.08289547
115	0x3e129910	0.14316201
116	0xbcb3a2c8	-0.021928206
117	0x3e052454	0.1300214
118	0xbeb9a1e2	-0.3625632
119	0x3e630df9	0.22173299
120	0x3d6a79db	0.057245117
121	0x3dcc6910	0.099809766
122	0x3e652ad9	0.22379626
123	0x3e2dd308	0.16975033
124	0xbd9b5541	-0.0758462
125	0xbe6670c3	-0.22503953
126	0xbec0ae79	-0.37633112
127	0xbdfbf1c6	-0.12301974
128	0x3da17f9d	0.078856684
129	0x3e5017bc	0.20321554
130	0x3de69031	0.11257971
131	0x3dc98ce0	0.09841323
132	0x3e86a3b8	0.26296782
133	0xbe9464ae	-0.28983063
134	0x3e769b72	0.24082735
135	0x3df7c082	0.12097265
136	0xbeb89a67	-0.360553
137	0xbcfc5a88	-0.030804887
138	0xbe810fb5	-0.25207296
139	0x3d228309	0.039675746
140	0xbe53780c	-0.20651263
141	0xbddc6a67	-0.10762482
142	0x3dd09bf3	0.10185995
143	0xbe92322f	-0.28553912

conv1.bias f4 [16]
0	0xbe05ed2e	-0.13078758
1	0xbe659e48	-0.22423661
2	0xbd6b9538	-0.057515353
3	0xbd135e4f	-0.03597861
4	0xbd167785	-0.036735076
5	0x3da9ecbd	0.08297107
6	0x3d1c2315	0.038119394
7	0xbe03c263	-0.12867121
8	0x3e8c9d60	0.27463818
9	0xbeb91664	-0.36149895
10	0x3cb04591	0.021517547
11	0xbe153538	-0.14571083
12	0x3e0dabaa	0.13835016
13	0xbe98b263	-0.29823598
14	0x3e72d2d4	0.23713237
15	0x3e8c1f1a	0.2736748

conv2.weight f4 [32, 16, 3, 3]
0	0x3d8380d5	0.06421057
1	0x3c9f4b50	0.019445091
2	0xbd650a0b	-0.05591778
3	0x3d5a2cda	0.05326543
4	0xbc8bfbb4	-0.017087795
5	0x3d49240e	0.04910665
6	0x3d960e3d	0.073269345
7	0xbc96ef04	-0.018424518
8	0xbcbaab90	-0.022786885
9	0x3cf31f4e	0.029678013
10	0xbdb9f5da	-0.090800956
11	0xbdf1a1dd	-0.11798451
12	0x3d0ebbb3	0.034846973
13	0xbc8c1ba8	-0.017103031
14	0xbdcf0fff	-0.10110473
15	0xbcfba9db	-0.030720642
16	0xbd69c2d3	-0.057070564
17	0xbdad0522	-0.08448245
18	0xbba383e3	-0.0049900874
19	0xbe008a82	-0.12552837
20	0xbda59d0e	-0.080865964
21	0x3c955921	0.018230977
22	0xbda37cea	-0.0798281
23	0xbe0104fc	-0.12599558
24	0xbe04f829	-0.1298529
25	0xbddef280	-0.10886097
26	0x3b3fd097	0.0029268616
27	0xbd3e6416	-0.04648217
28	0x3cb32ad8	0.021871015
29	0xbc3d7fd6	-0.011566123
30	0xbe04d0c5	-0.12970264
31	0xbd6969da	-0.056985714
32	0xba79862c	-0.00095185894
33	0xbdb3a6e5	-0.08772067
34	0xbcdbbb59	-0.026822733
35	0x3b468373	0.0030290752
36	0xbc3ef56f	-0.011655196
37	0xbd715ac4	-0.05892445
38	0xbc96f188	-0.018425718
39	0xbd6fe036	-0.058563434
40	0xbe02cb73	-0.12772922
41	0xbd098a84	-0.033579364
42	0xbdc1abf9	-0.09456629
43	0x3c0dd7fc	0.008657452
44	0xbbbe9774	-0.0058163945
45	0x3c8c4388	0.017122045
46	0x3c9c4a03	0.01907826
47	0xbda56d05	-0.080774345
48	0xbd98d5d6	-0.07462661
49	0x3a3a592d	0.0007108625
50	0x3ced9728	0.029002741
51	0xbd7ada4b	-0.061243337
52	0xbcb19591	-0.021677764
53	0xbd196fb5	-0.037460048
54	0x3ce7b079	0.02828239
55	0x3d00d840	0.031456232
56	0xbe0029f7	-0.12516008
57	0x3ccc57e3	0.024944251
58	0x3c1331ba	0.008984024
59	0x3bb83808	0.005621914
60	0xbdaad2bf	-0.08340978
61	0xbae97fa6	-0.0017814531
62	0x3cc969ab	0.02458652
63	0xbddc857f	-0.1076765
64	0x3cf180f0	0.029480428
65	0xbda71193	-0.08157649
66	0xbd6c3e03	-0.057676326
67	0xbd9a61e7	-0.07538205
68	0xbce6b7b4	-0.028163768
69	0xbd1c18a1	-0.038109425
70	0xba9e2c59	-0.001206766
71	0xbdb93289	-0.09042842
72	0xbdd42233	-0.103580855
73	0xbc0dd917	-0.008657715
74	0x3d09e383	0.033664238
75	0xbda40814	-0.08009353
76	0xbd6becc1	-0.057598833
77	0xbc9edfd6	-0.019393843
78	0xbc65d9d8	-0.014028989
79	0xbd2c209c	-0.042023286
80	0xbd5bdcab	-0.053677242
81	0xbd8fc957	-0.070208244
82	0xbdc1e114	-0.09466758
83	0xbde89a66	-0.11357574
84	0xbcc361ed	-0.023850406
85	0xbde8ac18	-0.11360949
86	0xbc965578	-0.018351302
87	0xbde30d67	-0.11086541
88	0xbdcb3b83	-0.0992346
89	0xbdb602c6	-0.08887248
90	0xbbd034c1	-0.006353945
91	0xbd719fb0	-0.05899018
92	0xbd2bfeaa	-0.041990913
93	0xbddfa283	-0.109196685
94	0xbcd0bc12	-0.025480304
95	0x3c1dff14	0.009643335
96	0xbd948c5e	-0.072533354
97	0xbca552b4	-0.020181037
98	0xbdfce2aa	-0.1234792
99	0xbdc91cc6	-0.09819941
100	0xbd8337df	-0.06407141
101	0xbdae7c9c	-0.08519861
102	0xbc97480e	-0.018466976
103	0x3ca1e3c7	0.019761933
104	0xbd2f4ad8	-0.042795986
105	0xbd48c8af	-0.04901951
106	0xbdabfb30	-0.083975196
107	0xbdc77b1f	-0.0974028
108	0xbd94514b	-0.07242068
109	0xbd680a81	-0.056650642
110	0xbdce92c1	-0.10086585
111	0xbe024355	-0.12720998
112	0xbd3669c1	-0.04453445
113	0xbd551dac	-0.05203025
114	0x3c3fac3a	0.011698777
115	0xbdf836d0	-0.1211983
116	0x3ca86f3f	0.020560859
117	0xbd13d67b	-0.036093216
118	0x3b681549	0.0035413078
119	0xbd9b7170	-0.07589996
120	0xbb80801e	-0.0039215228
121	0xbd7b92e6	-0.06141939
122	0xbe028900	-0.12747574
123	0xbdd2a6c4	-0.10285714
124	0xbd7b8f74	-0.061416104
125	0xbc0c7b9d	-0.008574394
126	0x3d114b22	0.035472043
127	0xbd0f50a0	-0.034989
128	0xbd0d163f	-0.034445044
129	0x3ce44440	0.027864575
130	0x3d1250d4	0.035721615
131	0xbda18245	-0.07886175
132	0x3ce4352f	0.027857391
133	0x3baaa820	0.0052080303
134	0xbdc11a71	-0.094288714
135	0x3d01fdf4	0.03173633
136	0xbc975331	-0.018472286
137	0xbd90db7b	-0.070731126
138	0xbd8637c7	-0.065536074
139	0xbc9661a5	-0.018357107
140	0xbdb3e3f9	-0.08783717
141	0x3ce0908d	0.027412677
142	0xbcddbbf6	-0.027067166
143	0xbd996605	-0.07490162
144	0xbd5a25e0	-0.053258777
145	0xbd630118	-0.055420965
146	0xbd13a10b	-0.036042254
147	0xbd3878d0	-0.04503709
148	0xbcce7390	-0.025201589
149	0xbd7dbcfe	-0.061947815
150	0xbc24c5e8	-0.01005695
151	0x3d2acb2a	0.04169766
152	0x3d7d5b3a	0.06185458
153	0xbd3b82be	-0.045778982
154	0xbbf90c6c	-0.0076003578
155	0xbddfa831	-0.10920752
156	0xbbd6f840	-0.0065603554
157	0xbb7f8eb4	-0.003899497
158	0xbcb1c171	-0.021698685
159	0xbd37f89c	-0.044914827
160	0xbdef85fd	-0.11695478
161	0xbd81dfd1	-0.06341518
162	0xbd3d8d4e	-0.046277337
163	0xbdbaa68e	-0.09113799
164	0xbe051a06	-0.12998208
165	0xbde10e9a	-0.10989113
166	0x3c5cb42b	0.01347069
167	0x3bb21542	0.005434663
168	0xbdd8a04a	-0.10577448
169	0xbc968c06	-0.018377315
170	0xbdfc23c0	-0.12311506
171	0xbd50bd6e	-0.050961904
172	0xbdbb6fd5	-0.0915219
173	0xbe0405ec	-0.12892884
174	0xbcfba6ba	-0.03071915
175	0xbda7586e	-0.081711635
176	0x3b5a597b	0.0033317495
177	0xbd1ad890	-0.037804186
178	0xbe0ace2d	-0.13555212
179	0x3bc3bed3	0.0059736758
180	0xbd057389	-0.032580886
181	0x3cb6fe60	0.022338092
182	0xbdfd4b16	-0.12367837
183	0xbc9d4ce3	-0.019201702
184	0x3bd125f5	0.0063826987
185	0xbd785403	-0.060626995
186	0xbcbc9b90	-0.023023397
187	0xbd66ba85	-0.056330223
188	0xbd1589b3	-0.036508273
189	0xbc6336ed	-0.013868076
190	0xbbda6f2f	-0.006666086
191	0xbd8951b9	-0.067050405
192	0xbd568e2b	-0.052381676
193	0xbe0cbe77	-0.13744532
194	0xbc7a267a	-0.015267963
195	0xbd793cee	-0.060849123
196	0xbd21b08b	-0.039475005
197	0x3b469500	0.0030301213
198	0xbd8c6b77	-0.06856435
199	0xbda0aed5	-0.078458466
200	0xbda7af18	-0.08187693
201	0xbda09d1c	-0.07842466
202	0xbe0d7dce	-0.13817522
203	0xbd437830	-0.04772204
204	0xbd8a30c3	-0.06747582
205	0xbe11c922	-0.14236882
206	0xbcc0564a	-0.023478646
207	0xbd8ee703	-0.06977656
208	0xbdcf5e54	-0.101254135
209	0xbbbd23b9	-0.0057720807
210	0x3b87f908	0.00414956
211	0xbbcb6846	-0.0062074987
212	0xbe088e65	-0.13335569
213	0xbdd07ec7	-0.10180431
214	0xbd923288	-0.07138544
215	0xbe027cc3	-0.12742905
216	0xbdb5d6f5	-0.088788904
217	0xbd853249	-0.06503732
218	0xbded17de	-0.11576818
219	0xbdd40572	-0.10352601
220	0xbc5f64d4	-0.013634879
221	0xbbbfe5c4	-0.0058562476
222	0xbd9c84dc	-0.076425284
223	0xbc7eda77	-0.015555016
224	0x3c3fadab	0.0116991205
225	0xbdca364b	-0.09873637
226	0xbe047212	-0.1293414
227	0xbd075fc1	-0.033050302
228	0x3cbb41e4	0.022858568
229	0xbcf8be0b	-0.030364057
230	0xbdc7e450	-0.09760344
231	0xbd2fe53f	-0.042943235
232	0xbda80526	-0.08204107
233	0xbd8db796	-0.06919782
234	0xbde5c385	-0.11218933
235	0xbd1f4156	-0.03888067
236	0xbcf13052	-0.029441986
237	0xbdcfb699	-0.101422496
238	0xbb9b1582	-0.0047327885
239	0xbdba803c	-0.0910649
240	0xbe0a82b3	-0.1352642
241	0xbc1f3bc2	-0.009718837
242	0xbdaa49e8	-0.08314878
243	0xbe05565f	-0.13021229
244	0xbdabde4c	-0.08392009
245	0xbd58df8d	-0.05294757
246	0xbe00c390	-0.12574601
247	0xbe045413	-0.12922697
248	0xbdefbd85	-0.1170607
249	0xbd8c1995	-0.06840817
250	0xbd23a3fa	-0.039951302
251	0xbdb2d01e	-0.087311015
252	0x3bb30dcc	0.005464291
253	0xbe0f8be2	-0.14018205
254	0x3c7f2bf3	0.015574443
255	0xbd7444e0	-0.059635997

conv2.bias f4 [32]
0	0xbd6a6908	-0.05722907
1	0xbdb7b48d	-0.08969984
2	0xbca5ab3a	-0.020223249
3	0xbd9f7ee5	-0.07787875
4	0xbde42f94	-0.11141887
5	0xbc542ea3	-0.012950572
6	0xbd3a85fc	-0.045537934
7	0x3bd1cb5a	0.006402415
8	0xbd5e953f	-0.05434155
9	0xbd729aad	-0.05922954
10	0xbdcba0f5	-0.099428095
11	0xbdd9e1fa	-0.10638805
12	0xbdcd9d10	-0.10039723
13	0xbdb682ab	-0.08911642
14	0xbb81f8a7	-0.0039664092
15	0xbdf656b4	-0.12028256
16	0xbda0b5b5	-0.07847158
17	0xbd80f381	-0.06296445
18	0xbd3b6a62	-0.04575575
19	0x3d09106f	0.033462938
20	0xbd5d8917	-0.054085817
21	0x3b9bb55c	0.0047518443
22	0xbe0f8a76	-0.14017662
23	0x39e4dc49	0.00043651674
24	0xbd7d9e05	-0.061918277
25	0xbb4ffced	-0.003173645
26	0xbc21fcce	-0.0098869335
27	0xbdeea1f4	-0.11651984
28	0xbc810dd1	-0.015753658
29	0x3c334e65	0.010943984
30	0x3d1a5485	0.03767826
31	0x3c5329c3	0.012888375

conv3.weight f4 [64, 32, 3, 3]
0	0x3dd0fbfb	0.102043115
1	0x3d7cbca5	0.061703343
2	0x3ddcad8c	0.10775289
3	0x3c104f32	0.008807944
4	0x3d866f3a	0.065641835
5	0x3c6ea186	0.014564877
6	0x3d4a5325	0.0493957
7	0x3d766590	0.06015545
8	0x3d1721c1	0.036897425
9	0xbd0563c2	-0.03256584
10	0xbd21ac6b	-0.03947107
11	0xbc91c842	-0.017795686
12	0xbd34e167	-0.044160273
13	0xbcd11812	-0.025524173
14	0xbd071cb8	-0.032986373
15	0x3cd846be	0.02640092
16	0x3c8c5962	0.017132465
17	0xbc86ceb8	-0.016455993
18	0xbd251cbd	-0.04031061
19	0xbbf9b85b	-0.007620854
20	0x3dac8eed	0.084256984
21	0x3d410be2	0.047130473
22	0x3d49f529	0.04930607
23	0x3cd09ce7	0.025465442
24	0x3d1f41eb	0.038881224
25	0x3ccf6df9	0.025320994
26	0x3d2d4f67	0.042312052
27	0x3c1d3abe	0.009596525
28	0x3c865dbc	0.016402118
29	0x3cc22868	0.023700908
30	0x3cfc629a	0.030808736
31	0x3dafedd3	0.08590283
32	0x3d019adc	0.031641826
33	0x3d09877d	0.033576477
34	0x3ccf6b47	0.025319709
35	0x3cc3c26a	0.023896415
36	0xbd09e7d8	-0.03366837
37	0x3c3771cc	0.011196565
38	0xbd6a78da	-0.05724416
39	0xbcef9d5a	-0.029249836
40	0xbd0ce502	-0.034398086
41	0x3b2c1fa0	0.0026263967
42	0xbd640c87	-0.05567601
43	0xbc90e55a	-0.017687488
44	0xbb9183f8	-0.0044407807
45	0x3d9668ba	0.07344194
46	0x3de10f57	0.10989254
47	0x3d594772	0.05304665
48	0x3cb40e2f	0.02197942
49	0x3cef1fa6	0.029189896
50	0xbb94d0bb	-0.004541484
51	0x3d1aca97	0.03779086
52	0x3d9eba24	0.07750347
53	0x3dbeaf1b	0.093107425
54	0x3d5096d7	0.050925102
55	0xbc19afc8	-0.009380288
56	0xbbabb6f0	-0.0052403137
57	0xbcd5447e	-0.026033636
58	0xbbfaae50	-0.007650174
59	0x3b4c4540	0.0031169206
60	0xbd1b304d	-0.03788786
61	0x3beb62c8	0.0071834065
62	0x3c2a6724	0.010400567
63	0x3c30fd5c	0.010802593
64	0x3d5b2367	0.05350056
65	0x3d01a37f	0.031650063
66	0xbcf2b9a4	-0.029629536
67	0x3d13da4f	0.036096867
68	0x3c68abc4	0.014201108
69	0x3d4616e5	0.048361678
70	0x3d46fe9b	0.048582654
71	0x3d463dc7	0.04839876
72	0x3c0b2494	0.008492608
73	0xbd040818	-0.03223428
74	0x3d06cd7b	0.032910805
75	0xbaa73300	-0.0012756288
76	0xbd3bd0de	-0.04585349
77	0x3d47dc01	0.048793796
78	0x3d5b9873	0.053612184
79	0x3d13d079	0.036087487
80	0xbd704141	-0.05865598
81	0x3c19251e	0.009347228
82	0xbd6584de	-0.056034915
83	0x3caa273c	0.020770662
84	0x3d60cbd6	0.054881893
85	0xbc35e444	-0.011101786
86	0xbc66acf9	-0.014079326
87	0xbd55277b	-0.052039605
88	0x3d094edf	0.033522483
89	0x3c563e84	0.013076428
90	0xbc5dbf78	-0.013534419
91	0xbd3daf9a	-0.046310045
92	0xbd15b06a	-0.036545195
93	0xba990011	-0.0011672993
94	0x3d598a90	0.05311066
95	0xbc6b8458	-0.014374815
96	0xbd0fba93	-0.03509004
97	0x3d6d1921	0.057885293
98	0x3d5c8d01	0.05384541
99	0x3ca4552a	0.02006014
100	0xbd00b758	-0.03142485
101	0xbc6d1864	-0.014471147
102	0xbc989778	-0.018626913
103	0x3b09c5c0	0.002102241
104	0xbc3923dc	-0.011300053
105	0x3bedff68	0.007263113
106	0xbd5ca0f3	-0.05386443
107	0xbd09a2ba	-0.033602454
108	0x3da2032c	0.07910761
109	0x3cbdb284	0.023156412
110	0x3df314f4	0.11869231
111	0x3d97d23c	0.07413146
112	0x3dac2dd9	0.08407182
113	0x3dcee836	0.101028845
114	0x3da72596	0.08161466
115	0x3c98a3d7	0.018632812
116	0x3cfbbf10	0.030730754
117	0xbd5c9d2a	-0.05386082
118	0xbd4eb29d	-0.050463308
119	0xbdd20e2a	-0.10256608
120	0xbc3e6495	-0.01162066
121	0xbd731979	-0.059350464
122	0x3d56389c	0.05230008
123	0xbc78c7d9	-0.015184366
124	0xbb88458a	-0.0041586803
125	0xbd312212	-0.043245383
126	0xbd2bd128	-0.041947514
127	0xbc4439b0	-0.011976644
128	0x3ac21a40	0.0014808849
129	0xbc526150	-0.012840584
130	0xba030e40	-0.0004999377
131	0x3a8eace0	0.0010885261
132	0xbd66b854	-0.056328133
133	0xbd3ddb75	-0.04635187
134	0x3cbb039a	0.022828866
135	0x3c8fd382	0.01755691
136	0x3d5ef75d	0.054435123
137	0x3ca0c08b	0.019623062
138	0x3d13bbbe	0.036067717
139	0xbba297b5	-0.0049619325
140	0x3ccc8c21	0.024969162
141	0x3d9af347	0.07565933
142	0x3d22ed57	0.039777126
143	0x3d305575	0.04305025
144	0xbd4807dd	-0.048835624
145	0xbc779f00	-0.015113592
146	0xbd044e56	-0.03230127
147	0xbce24bd0	-0.02762404
148	0xbd3f70e1	-0.04673851
149	0x3d4c7425	0.04991545
150	0x3baf99c8	0.0053589083
151	0x3d340c35	0.043956954
152	0x3d69b8a5	0.057060856
153	0x3d86aa10	0.065754056
154	0xbc0681c9	-0.008209654
155	0xbc8f5d96	-0.01750068
156	0x3cc519bb	0.02406012
157	0xbc0e7ed8	-0.008697234
158	0x3d400177	0.046876397
159	0x3d018e00	0.031629562
160	0x3db3cf3f	0.087797634
161	0x3d76f8a0	0.0602957
162	0x3d177591	0.036977354
163	0x3bd4ba38	0.0064919256
164	0xbc113c3c	-0.008864459
165	0x3ce8b6ee	0.02840754
166	0x3cb1d3ea	0.021707494
167	0x3c88435e	0.016633686
168	0xbd5c90b0	-0.053848922
169	0xbd506baa	-0.050883926
170	0xbc100f6c	-0.008792739
171	0x3de149a7	0.11000376
172	0x3e1f3eab	0.1555125
173	0x3e01a6cb	0.12661283
174	0x3d9574bf	0.07297658
175	0x3dd5fb03	0.10448267
176	0x3db6af27	0.089201264
177	0x3dba598a	0.090991095
178	0x3d71453b	0.058903914
179	0x3e103ef4	0.14086515
180	0xbcc239a1	-0.02370912
181	0x3bb08b98	0.0053877346
182	0x3d088620	0.033331037
183	0x3cb14b32	0.021642301
184	0x3b676701	0.0035309198
185	0xbd2d6f19	-0.04234228
186	0x3d787af8	0.060664147
187	0xbda09d8e	-0.07842551
188	0x3d2fd8c8	0.042931348
189	0xbd4dab32	-0.050212093
190	0xbb19d7e0	-0.0023474619
191	0x3d09feb1	0.03369016
192	0xbd0de788	-0.034644634
193	0xbd5679ae	-0.052362137
194	0xbcff0fbe	-0.031135436
195	0xbc8a602e	-0.016891565
196	0xbd1bd5ba	-0.038045622
197	0x3d13d75f	0.036094066
198	0x3ce3eb9e	0.027822312
199	0xbd6f295d	-0.058389056
200	0x3d3476b5	0.04405852
201	0xbc8fee38	-0.017569646
202	0xbd3d81d8	-0.046266407
203	0x3d6ffca3	0.058590543
204	0x3d157b41	0.036494497
205	0x3a501dc0	0.00079390034
206	0x3c34ae9c	0.011027958
207	0x3d157103	0.03648473
208	0x3d3775b0	0.04478997
209	0x3d6cd2a9	0.05781809
210	0x3dff761e	0.12473701
211	0x3dccfe65	0.100094594
212	0x3ddccd8c	0.107813925
213	0x3d8e339f	0.0694344
214	0xbcdec7e7	-0.02719493
215	0x3d7d287e	0.061806194
216	0x3d1e5a02	0.038660057
217	0x3c3c393b	0.011488254
218	0xbd4cb20f	-0.049974497
219	0x3d686b9a	0.05674324
220	0x3dadfc88	0.08495432
221	0x3da02553	0.07819619
222	0x3d549b35	0.05190583
223	0xbcee8301	-0.029115202
224	0x3c4a9fb1	0.012367175
225	0x3dbc5fdb	0.091979705
226	0x3cc36e98	0.023856446
227	0x3d200ce2	0.039074786
228	0x3df37fdf	0.11889624
229	0x3d8bdafa	0.06828876
230	0x3de437a8	0.11143428
231	0x3df3ef90	0.11910927
232	0x3d4745c8	0.048650533
233	0x3ba8a2bd	0.005146353
234	0x3dabf4e5	0.08396319
235	0x3d1b8655	0.037969906
236	0x3cb47b8b	0.022031566
237	0x3d395625	0.04524817
238	0x3df90de0	0.121608496
239	0x3dc8b2a7	0.097997
240	0x3d363936	0.044488154
241	0x3bc4d80e	0.006007201
242	0x3ddb2857	0.107010536
243	0xbd7db678	-0.061941594
244	0x3d2578c4	0.040398374
245	0x3db5aca3	0.088708185
246	0xbd5d7c0e	-0.054073386
247	0x3d6ecd95	0.058301527
248	0x3d79a4cb	0.060948174
249	0x3aa29a74	0.001240565
250	0x3d072714	0.032996252
251	0x3c98d1bd	0.018654699
252	0x3cc8b576	0.02450059
253	0x3bd699c3	0.0065490915
254	0xbd2762cf	-0.040865716
255	0xb844e9b2	-4.6947687e-05

conv3.bias f4 [64]
0	0x3e525455	0.20539983
1	0xbc6dd39e	-0.0145157855
2	0xbcaa67eb	-0.020801505
3	0xbd07a591	-0.03311688
4	0xbdc2e2b5	-0.09515897
5	0xbd9e401a	-0.0772707
6	0xbd854cc3	-0.06508782
7	0xbdc3cb58	-0.09560269
8	0xbd416123	-0.047211777
9	0xbd148f95	-0.036269743
10	0xbd1aedd2	-0.03782446
11	0xbd9098cc	-0.07060394
12	0xbd7a3a9e	-0.061091058
13	0xbdabe74d	-0.083937265
14	0xbcd7c8ca	-0.02634086
15	0xbd1eb9b0	-0.038751304
16	0xbd18d66e	-0.03731387
17	0xbcd35210	-0.025795966
18	0xbdd7cbc0	-0.10536909
19	0xbd524c38	-0.05134222
20	0xbd75daee	-0.06002324
21	0xbd3e248a	-0.046421565
22	0xbd69b4f3	-0.057057332
23	0xbd6770d2	-0.05650408
24	0xbd54e966	-0.0519804
25	0xbdae94db	-0.08524486
26	0xbd158975	-0.036508042
27	0xbdd65827	-0.104660325
28	0xbd71f629	-0.059072647
29	0xbc712cad	-0.014720124
30	0xbb8d9e87	-0.0043218764
31	0xbd0f56c5	-0.03499486
32	0xbdbb2b61	-0.09139133
33	0xbd1e5fde	-0.038665645
34	0xbddb5e13	-0.107113026
35	0xbd322cdb	-0.04349981
36	0xbde39e05	-0.11114124
37	0xbcf1eaec	-0.029530965
38	0xbbbb5db2	-0.0057179565
39	0xbd89a86d	-0.06721578
40	0xbdbbc960	-0.091692686
41	0xbc082b09	-0.008311042
42	0xbc967bcf	-0.018369583
43	0xbd7b2cfd	-0.0613222
44	0xbd1f3444	-0.038868204
45	0xbcae0657	-0.021243257
46	0xbd9ad90d	-0.075609304
47	0xbd72372c	-0.059134647
48	0xbdbe43ac	-0.09290251
49	0xbd7493af	-0.059711155
50	0xbd46c88d	-0.048531104
51	0xbc81ae5f	-0.015830217
52	0xbd2d4cd5	-0.0423096
53	0xbc5452be	-0.01295918
54	0xbd1ab9c7	-0.037774827
55	0xbd26b32c	-0.040698215
56	0xbd89b825	-0.06724576
57	0xbd90c3ac	-0.070685714
58	0xbcfe63bd	-0.031053418
59	0xbd83c78a	-0.064345434
60	0xbbd8f04d	-0.006620443
61	0xbdc24868	-0.09486467
62	0xbd4f8ce6	-0.05067148
63	0xbc0af52b	-0.008481304

t_conv1.weight f4 [64, 32, 3, 3]
0	0x3d461ed5	0.048369247
1	0xba8c56a0	-0.0010706969
2	0xbd2523ed	-0.040317465
3	0x3d0f0df7	0.034925427
4	0xbcfa8323	-0.030580109
5	0xbc638f60	-0.013889164
6	0x3c0911c4	0.008366052
7	0x3d01f76d	0.031730104
8	0xbc753160	-0.014965385
9	0xbdc111fd	-0.09427259
10	0xbd102b3b	-0.035197478
11	0xbdaa822f	-0.08325612
12	0xbd9c06d4	-0.0761849
13	0xbdc08576	-0.09400456
14	0xbca9142c	-0.020639502
15	0xbda594ff	-0.080850594
16	0xbd8ad311	-0.06778539
17	0xbcd7b3fe	-0.026330944
18	0xbd493cff	-0.049130436
19	0xbca410ef	-0.020027606
20	0xbd98d375	-0.07462207
21	0xbd7d6f0d	-0.061873484
22	0xbd5fa26f	-0.054598268
23	0x3b13d8ed	0.0022559718
24	0xbd0c2571	-0.034215394
25	0xbd6c2040	-0.057647943
26	0xbd6ef6c4	-0.058340803
27	0xbc52a9de	-0.012857882
28	0xbc110ed3	-0.008853632
29	0xbd8e9a12	-0.0696298
30	0xbdbaa9ac	-0.091143936
31	0xbc05020b	-0.008118163
32	0xbd4928c8	-0.049111158
33	0x3a91239a	0.0011073232
34	0xbc263b74	-0.010146011
35	0xbc7798fa	-0.015112156
36	0x3cac9fe2	0.021072332
37	0x3b8a1298	0.0042136423
38	0x3cc84ec2	0.024451617
39	0xbc3fb7b0	-0.011701509
40	0xbb732f50	-0.0037107058
41	0xbcfd844b	-0.030946871
42	0xbbfd8958	-0.00773732
43	0xbc77e950	-0.01513131
44	0xbd6d0c1e	-0.057872884
45	0xbd26674c	-0.040625855
46	0xbced82fe	-0.028993126
47	0xbd35fd0b	-0.044430774
48	0x3d106d4f	0.035260495
49	0x3c84d78a	0.016216058
50	0xbba2cc48	-0.0049682
51	0xbd23e262	-0.040010817
52	0x3c4e7aa4	0.012602482
53	0x3af387c0	0.0018579885
54	0xbe1b54b9	-0.15169038
55	0xbe5f50b9	-0.21808137
56	0xbe3aac0e	-0.18229696
57	0xbe110d4d	-0.1416523
58	0xbdff8843	-0.12477162
59	0xbe5f4ca1	-0.21806575
60	0xbe8ca82a	-0.2747205
61	0xbe813d9a	-0.2524231
62	0xbe86132c	-0.26186502
63	0x3bd7d73e	0.006586938
64	0xbc38f613	-0.011289137
65	0xbd9ef9ef	-0.07762515
66	0xbd88f443	-0.06687214
67	0xbcfa5fb0	-0.030563205
68	0xbd4bf628	-0.0497953
69	0xbc42de9b	-0.011893894
70	0xbdcda9dd	-0.100421645
71	0xbdadc5ae	-0.0848497
72	0xbd88f031	-0.06686438
73	0xbdca3b06	-0.09874539
74	0xbdbab318	-0.09116191
75	0xbd9ad37e	-0.0755987
76	0xbd5d99c2	-0.054101713
77	0x3c426de5	0.011867021
78	0xbd7e93b5	-0.062152583
79	0x3c4c98ab	0.012487571
80	0xbd70f5fb	-0.058828335
81	0xbe2926c2	-0.16518691
82	0xbdf01fbb	-0.11724802
83	0xbe1087cd	-0.14114304
84	0xbda57e55	-0.080807365
85	0xbe2127ea	-0.15737882
86	0xbe3fbeab	-0.18725078
87	0xbe3ebfbf	-0.18627833
88	0xbe43cc49	-0.19120897
89	0xbdb2ad18	-0.08724421
90	0xbd8b051c	-0.06788084
91	0xbd6ce062	-0.057831176
92	0xbd9854d3	-0.07438054
93	0xbdb06cb2	-0.08614482
94	0xbc5d63c7	-0.013512558
95	0xbcc5d8ff	-0.024151323
96	0xbd08da22	-0.033411153
97	0xbc8d2099	-0.017227458
98	0xbdbfc3b3	-0.093634985
99	0x3cea0a35	0.02856932
100	0x3c27780c	0.0102214925
101	0x3d659a87	0.056055572
102	0x3d3ddd3d	0.046353567
103	0x3c1bed7c	0.00951707
104	0xbd1a003f	-0.03759789
105	0xbc8b3466	-0.016992759
106	0xbd52d328	-0.051470906
107	0xbbcc8ca0	-0.0062423497
108	0x3c0ccbda	0.008593524
109	0xbd1c4d79	-0.03815982
110	0x3c982c4e	0.018575814
111	0x3b7a7f5d	0.0038222887
112	0x3c7cf8bc	0.015440162
113	0xbbc5fd10	-0.0060421303
114	0x3b16a305	0.002298535
115	0xbd50fe76	-0.051023923
116	0xbdc26782	-0.09492399
117	0xbd9e84d6	-0.0774018
118	0xbd7fb3b0	-0.062427223
119	0xbbbb3953	-0.0057136207
120	0xbd8fdfc4	-0.07025102
121	0xbd5fa1f6	-0.054597817
122	0x3b42741f	0.0029671264
123	0xbd8a816c	-0.067629665
124	0xbce091e9	-0.027413325
125	0xbdaa4746	-0.083143756
126	0xbd0f85ba	-0.03503964
127	0xbd1891e8	-0.037248522
128	0xbcfa6817	-0.030567212
129	0x3d235789	0.039878402
130	0xbc6242a8	-0.013809837
131	0xbc781188	-0.0151408985
132	0x3ce127d2	0.027484808
133	0xbd1712f8	-0.036883324
134	0x3d338b4d	0.04383402
135	0x3d58976c	0.052878782
136	0x3d224777	0.039618935
137	0xbc84fd74	-0.016234137
138	0x3d4e4e6b	0.050367754
139	0x3d070069	0.032959376
140	0xbcf40464	-0.02978725
141	0xbd07dcd6	-0.03316959
142	0x3d0315d9	0.032003257
143	0x3b3bd250	0.0028659292
144	0xbb5003a0	-0.0031740442
145	0xbcdd46ae	-0.027011242
146	0x3be7bbe8	0.0070719607
147	0x3bef9298	0.0073111765
148	0x3c1c0cac	0.009524506
149	0x3ca4fd26	0.020140242
150	0xbc7db508	-0.015485056
151	0x3a54ffc0	0.0008125268
152	0xbd5f2810	-0.054481566
153	0xbd39736c	-0.04527609
154	0x3d2517af	0.04030579
155	0xbcdb7e60	-0.026793659
156	0xbcd57dd0	-0.026060969
157	0x3cc507ee	0.024051633
158	0x3c54b8ec	0.012983542
159	0x3c570e24	0.01312593
160	0xbc91cf3a	-0.017799009
161	0x3c8f62ce	0.017503168
162	0xbdc5b042	-0.09652759
163	0xbd494a84	-0.04914333
164	0xbd87b65e	-0.06626581
165	0xbdca5c76	-0.09880917
166	0xbd9fc270	-0.07800758
167	0xbd8bb74b	-0.0682207
168	0xbd2a3695	-0.04155596
169	0xbd07d5bd	-0.03316282
170	0xbd386a06	-0.045022987
171	0xbe3e2cf1	-0.18571831
172	0xbe0520f8	-0.13000858
173	0xbdda1720	-0.10648942
174	0xbe134c88	-0.14384663
175	0xbdc9b82c	-0.09849581
176	0xbe167758	-0.14693964
177	0xbdb65c60	-0.08904338
178	0xbde80dea	-0.11330779
179	0xbde4255a	-0.11139937
180	0xbe07a7ad	-0.13247557
181	0xbe0b1c5c	-0.13585037
182	0xbdb81a0d	-0.08989344
183	0xbdaa1587	-0.08304887
184	0xbd172a63	-0.036905658
185	0xbdcccc8d	-0.099999525
186	0xbdf24985	-0.11830429
187	0xbda38aa9	-0.07985432
188	0xbdc44f1b	-0.09585401
189	0xbf2dc910	-0.6788492
190	0x3e2c9116	0.16852221
191	0xbe694a2c	-0.227822
192	0xbd124c3e	-0.03571724
193	0x3f07a0f9	0.5298
194	0x3d199ce8	0.037503153
195	0xbda49ba2	-0.08037497
196	0x3dbd74b5	0.09250776
197	0xbf03ea00	-0.5152893
198	0x3c8df692	0.017329488
199	0x3d09eb1f	0.033671495
200	0xbb58a790	-0.003305886
201	0xbd5fb671	-0.05461735
202	0xbc9d89de	-0.01923078
203	0x3d6b6263	0.057466876
204	0xbd5d024a	-0.05395726
205	0xbd15e5e0	-0.03659618
206	0x3ce30486	0.027712118
207	0xbd70e344	-0.058810487
208	0xbd92defc	-0.07171437
209	0xbcdb5cd2	-0.026777659
210	0xbd9e132c	-0.077185005
211	0xbc9d2962	-0.019184772
212	0xbd35fe06	-0.04443171
213	0xbd63c053	-0.055603337
214	0xbdafd75f	-0.08586001
215	0xbd32c381	-0.04364348
216	0xbdd7b3f7	-0.105323724
217	0xbe00e16c	-0.12585992
218	0xbe1f6dda	-0.15569249
219	0xbd4f16bd	-0.050558794
220	0xbe12eb1a	-0.14347497
221	0xbd5deefa	-0.054182984
222	0xbd9e3f6f	-0.07726943
223	0xbdda8419	-0.10669727
224	0xbd5c0507	-0.053715732
225	0xbe188b1e	-0.14896819
226	0xbe15df7c	-0.14636034
227	0xbb8d3413	-0.0043091862
228	0xbe5e0e4c	-0.21685141
229	0xbe12698a	-0.14298072
230	0xbd1c4b92	-0.038158007
231	0xbe28cda1	-0.16484691
232	0xbe1f9011	-0.155823
233	0xbc41bd1b	-0.011824871
234	0xbc137b8c	-0.009001624
235	0xbccb5aac	-0.02482351
236	0x3d494985	0.04914238
237	0xbd6b704b	-0.057480138
238	0x3c34b48c	0.011029374
239	0xbd16e734	-0.036841586
240	0xbd422183	-0.04739524
241	0xbcd03550	-0.025416046
242	0xbc19fa0c	-0.009397995
243	0xbd54a7e6	-0.051917933
244	0xbd5eb7a8	-0.054374367
245	0xbcdebafd	-0.027188772
246	0xbdcede9e	-0.101010546
247	0xbd4380b8	-0.047730178
248	0xbd937870	-0.07200706
249	0xbd681ab2	-0.056666084
250	0xbd824846	-0.06361441
251	0xbcb5dd36	-0.022200208
252	0xbc2638b7	-0.010145358
253	0xbde04a88	-0.10951716
254	0xbd854a84	-0.06508353
255	0xbd407843	-0.04698969

t_conv1.bias f4 [32]
0	0xbdb53ea3	-0.08849838
1	0x3b51b8e7	0.003200108
2	0xbd9b6881	-0.07588292
3	0xbbdf6d8c	-0.006818479
4	0xbdbb6043	-0.0914922
5	0xbd395e83	-0.04525615
6	0xbe42e85e	-0.19033954
7	0xbd9270d6	-0.07150428
8	0xbd859563	-0.06522634
9	0xbc1793c2	-0.009251537
10	0xbd0a8796	-0.03382071
11	0xbdbf945d	-0.0935447
12	0xbb238fe5	-0.0024957594
13	0xbdaeb297	-0.08530157
14	0xbddca06b	-0.10772785
15	0xbdc6d870	-0.09709251
16	0xbda18408	-0.07886511
17	0xbde1e78c	-0.11030492
18	0xbc8f5544	-0.017496713
19	0xbd41b645	-0.047292966
20	0xbbda96a5	-0.0066707903
21	0x3e0101e0	0.12598372
22	0xbdc9b507	-0.09848981
23	0xbc88d909	-0.016705053
24	0x3c5fe3b8	0.013665132
25	0xbe80bb9a	-0.2514313
26	0xbd9a6962	-0.075396314
27	0xbcaa19ea	-0.02076431
28	0xbc367d3c	-0.011138257
29	0xbd437482	-0.047718532
30	0x3d4e838e	0.05041843
31	0xbd506271	-0.05087513

t_conv2.weight f4 [32, 16, 4, 4]
0	0xbc91bd98	-0.0177906
1	0x3cfa5884	0.030559786
2	0x3ca63d38	0.020292863
3	0x3d0bb1bc	0.034105048
4	0x3d0ebcc8	0.034848005
5	0xbc817658	-0.015803501
6	0x3d5b71ea	0.053575434
7	0xbcd34cec	-0.025793515
8	0x3d47e890	0.048805773
9	0x3d308abe	0.043101065
10	0xbd4dce0c	-0.05024533
11	0xbd5f8016	-0.05456551
12	0x3d587d30	0.052853763
13	0x3d024bb2	0.03181047
14	0x3be89860	0.0070982426
15	0x3cbfd6a0	0.02341777
16	0xbd09537a	-0.033526875
17	0x3cb09ef8	0.021560177
18	0x3d75b7c6	0.059989713
19	0x3d5b5094	0.053543642
20	0xbca02f98	-0.019553944
21	0xbcd31d30	-0.025770754
22	0x3a53e280	0.00080827624
23	0xbcf57a8c	-0.029965661
24	0xbd6dd7f6	-0.058067285
25	0xbcef4b00	-0.029210567
26	0x3ca9ea84	0.020741709
27	0xbc327c30	-0.010893866
28	0xbbafdca0	-0.0053668767
29	0xbcf417bc	-0.029796474
30	0x3bf572d0	0.0074904934
31	0xbd29ce4a	-0.0414565
32	0xbd7c4b0a	-0.061595
33	0x3bba53b0	0.005686246
34	0xbd0486da	-0.032355167
35	0x3ba2f620	0.004973188
36	0x3d330c88	0.043713123
37	0x3c37cdd0	0.011218503
38	0xbb36fd60	-0.002792202
39	0xbd523bf0	-0.051326692
40	0x3ccd1cfc	0.025038235
41	0x3d4837f1	0.048881475
42	0xbcb89148	-0.022530213
43	0xbd505eb4	-0.050871566
44	0xbd65579c	-0.055991754
45	0xbc161708	-0.0091607645
46	0x3cbc1c78	0.022962794
47	0xbcdf7008	-0.0272751
48	0x3d14b906	0.036309265
49	0x3cf21c10	0.029554397
50	0xbc9178d8	-0.017757818
51	0xbb211800	-0.0024580956
52	0xbc8e9898	-0.017406747
53	0xbd20b552	-0.03923542
54	0x3d779552	0.060445137
55	0x3d256bce	0.040386014
56	0xbc72a3b0	-0.014809534
57	0x3d725224	0.059160367
58	0xbd460a2e	-0.04834955
59	0xbd07f422	-0.033191808
60	0x3d44ffe4	0.0480956
61	0x3cb5e5b8	0.022204265
62	0xbc44fc48	-0.012023039
63	0xbd46f908	-0.04857734
64	0x3b72ad40	0.0037029535
65	0x3cdd1ef8	0.026992306
66	0xbbf1cec0	-0.007379383
67	0x3c0db0b0	0.008648083
68	0xbc8a9510	-0.016916782
69	0x3d687d4c	0.056760117
70	0xbbb9f1f0	-0.005674593
71	0x3c9e2fd0	0.019309908
72	0x3c044da8	0.008075155
73	0x3c22dfa0	0.009941012
74	0xbcde9d64	-0.02717466
75	0xbbdf0960	-0.0068065375
76	0x3cfcd364	0.030862518
77	0x3bc82e80	0.006109059
78	0x3d150a18	0.03638658
79	0xbca972b8	-0.020684585
80	0xbd594262	-0.053041823
81	0xbda0f45b	-0.07859107
82	0xbde35630	-0.11100423
83	0xbd439ba1	-0.04775584
84	0xbcb0e2b4	-0.021592475
85	0xbd24dc50	-0.04024917
86	0xbd3f8c73	-0.046764802
87	0xbda16e67	-0.07882386
88	0xbc538ba8	-0.012911715
89	0xbda44054	-0.08020082
90	0xbc4fa68f	-0.012673988
91	0xbd7af825	-0.061271805
92	0x3d0ce9b0	0.03440255
93	0xbd2ec180	-0.042665005
94	0xbd41e0f8	-0.047333688
95	0x3d46cc46	0.048534654
96	0x3d72949c	0.059223756
97	0x3c8026c8	0.015643492
98	0xbce0e1b0	-0.027451366
99	0xba295000	-0.00064587593
100	0xbd6f28e8	-0.05838862
101	0xbd2c3252	-0.042040177
102	0x3d390ec0	0.045180082
103	0xbd2fa728	-0.042884022
104	0x3d38d0aa	0.045120873
105	0x3ccf8b9c	0.025335126
106	0x3d33630e	0.043795638
107	0xbb92edc0	-0.0044839084
108	0xb9f9c300	-0.00047638267
109	0xbd000cc0	-0.03126216
110	0xbcdfc124	-0.027313776
111	0x3cd887c8	0.026431933
112	0x3bf36bd0	0.0074286237
113	0x39855690	0.0002543223
114	0xba61f4f8	-0.0008619572
115	0xbd196d96	-0.037458025
116	0xbd7b3f38	-0.061339587
117	0xbd3306b4	-0.043707564
118	0xbd935463	-0.0719383
119	0x3bc17da7	0.0059048715
120	0xbd13128a	-0.035906352
121	0xbd0ae754	-0.033912018
122	0xbd6d3cab	-0.057919186
123	0xbd9b9fcd	-0.07598839
124	0x3d315b36	0.043299876
125	0x3bbf1960	0.0058318824
126	0x3d3e50f6	0.04646393
127	0x3d3fb6f0	0.046805322
128	0xbcd5cec0	-0.026099563
129	0xbcaf9ec4	-0.02143801
130	0xbd665154	-0.056229904
131	0xba59ea80	-0.0008312836
132	0xbbecc790	-0.007225938
133	0x3cc0acb4	0.023519851
134	0x3c2d1218	0.010563396
135	0x3d5b5cb8	0.05355522
136	0xbd61ce46	-0.05512836
137	0xbc938c50	-0.018011242
138	0xbd611b26	-0.05495753
139	0x3d0391f8	0.03212163
140	0xbd2f1bb4	-0.04275103
141	0x3d2114e2	0.039326556
142	0x3cd7ea0c	0.02635672
143	0xbc2ca0d8	-0.010536395
144	0xbc375b18	-0.011191152
145	0x3d5705bc	0.052495703
146	0x3d16df54	0.036834076
147	0x3c436a90	0.011927262
148	0xbd4677cc	-0.04845409
149	0x3d55daa8	0.05221048
150	0xbd62ac6c	-0.055340216
151	0x3d1d4e72	0.03840489
152	0xbcd8ce1c	-0.026465468
153	0xbc0d46b0	-0.00862281
154	0xbc911208	-0.017708793
155	0x3d113080	0.035446644
156	0x3cad06b4	0.02112136
157	0x3cb35ab0	0.02189383
158	0x3d5a07ec	0.05323021
159	0x3d29f540	0.041493654
160	0xbc7af9f8	-0.015318386
161	0x3d4280da	0.047486164
162	0xbd0cfda8	-0.034421593
163	0x3d774a2a	0.060373463
164	0x3ca2bd18	0.019865558
165	0x3bc12580	0.005894363
166	0x3d6d73fa	0.057971932
167	0xbcc670e8	-0.02422376
168	0xbd1f9072	-0.038956113
169	0x3c71abe0	0.014750451
170	0x3d5d9b5a	0.054103233
171	0xbd42795a	-0.04747901
172	0xbccc8dc8	-0.02496995
173	0xbc9ee8a8	-0.019398049
174	0x3c9d5584	0.019205816
175	0x3d36aa4a	0.044595994
176	0xbd4b5720	-0.049643636
177	0xbcb3ed08	-0.021963611
178	0xbac9d300	-0.0015397966
179	0x3de28edf	0.11062407
180	0x3c218630	0.009858653
181	0xbd351952	-0.0442136
182	0x3d9039a2	0.070422426
183	0x3ca5b4cf	0.020227818
184	0xbd73b0e4	-0.059494868
185	0x39e80bc9	0.0004425927
186	0x3d0766b3	0.033056926
187	0x3bc4c82d	0.006005308
188	0xbd081568	-0.03322354
189	0x3b8ff480	0.0043931603
190	0xbd5f2f32	-0.05448837
191	0x3cb68f04	0.022284992
192	0xbd43341a	-0.04765711
193	0xbd77f7e6	-0.06053915
194	0x3d051016	0.032486044
195	0x3d01a9d2	0.031656094
196	0x3d59151c	0.052998647
197	0x3d6f7e12	0.05846984
198	0x3c182860	0.00928697
199	0xbb32e700	-0.0027298331
200	0x3d641dec	0.0556926
201	0x3cf123e8	0.029436067
202	0x3d40cb78	0.047069043
203	0x3c8598e4	0.016308255
204	0xbd2543b2	-0.040347762
205	0x3d57bde0	0.052671313
206	0x3c05c730	0.008165166
207	0xbc6e78c8	-0.014555164
208	0xbd386fea	-0.045028605
209	0x3ca35410	0.019937545
210	0xbc3ab2d8	-0.011395179
211	0xbcf68714	-0.030093707
212	0xbc7e9fc8	-0.0155410245
213	0xbc97fd24	-0.018553324
214	0x3c8a8f78	0.016914114
215	0x3d091dae	0.03347557
216	0xbd713ee6	-0.058897875
217	0xbaa14040	-0.0012302473
218	0xbcbf3ce4	-0.023344465
219	0x3bfbc090	0.0076828673
220	0xbd177702	-0.03697873
221	0xbcfc9740	-0.03083384
222	0xbcc4c64c	-0.024020337
223	0xbd5e6886	-0.0542989
224	0x3cb12554	0.021624245
225	0xbc8e4fec	-0.017372094
226	0x3cfc4310	0.030793697
227	0xbbf2d910	-0.00741113
228	0xbd557384	-0.052112117
229	0xbd4d4b54	-0.050120667
230	0x3c9d6598	0.019213483
231	0x3d61f36a	0.05516378
232	0x3d4da0a6	0.050202034
233	0x3d016dec	0.03159897
234	0x3cef1024	0.029182501
235	0x3d2afc38	0.04174444
236	0x3d36c2fc	0.044619545
237	0x3d0713ac	0.032977745
238	0xbd3e2042	-0.046417482
239	0x3d3eade8	0.04655257
240	0x3d25da02	0.04049111
241	0xbd3a94f6	-0.045552216
242	0x3cba9894	0.022777833
243	0xbcb8f894	-0.022579469
244	0x3d3322d2	0.04373438
245	0xbd564824	-0.052314892
246	0xbc5711c0	-0.0131267905
247	0x3cd37554	0.025812782
248	0xbc939638	-0.018015966
249	0xbaee20c0	-0.0018167719
250	0xbd269256	-0.0406669
251	0x3ca9326c	0.020653926
252	0x3d5bb4be	0.053639166
253	0x3c948f44	0.01813472
254	0x3b84a000	0.004047394
255	0xbd41577a	-0.047202565

t_conv2.bias f4 [16]
0	0xbd99f567	-0.0751751
1	0x3d2b3d88	0.041806728
2	0xbd8a6b92	-0.06758799
3	0xbd10425e	-0.035219543
4	0xbde414d7	-0.111367874
5	0xbc6d41f0	-0.014481053
6	0xbdc9332c	-0.098242134
7	0xbdf136f4	-0.117780596
8	0xbdb0d46f	-0.086342685
9	0xbd270433	-0.04077549
10	0xbc8e715b	-0.017388036
11	0xbdcc2c53	-0.09969392
12	0xbd9baea1	-0.07601667
13	0xbc9e6547	-0.019335402
14	0xbd1e610f	-0.03866678
15	0xbd9b3642	-0.07578708

t_conv3.weight f4 [16, 2, 4, 4]
0	0x3db319e9	0.08745176
1	0xbda64a70	-0.081196666
2	0x3c95d410	0.018289596
3	0x3de5f4f0	0.11228359
4	0x3e25c535	0.1618851
5	0xbde69775	-0.11259357
6	0x3c9a290b	0.018818399
7	0x3df78113	0.12085166
8	0x3cf2eb78	0.029653296
9	0x392e5c19	0.00016628242
10	0x3e1d6f8d	0.15374584
11	0x3e04adbe	0.12956902
12	0x3e6dd62b	0.2322623
13	0xbde12f58	-0.10995358
14	0x3e4b0ff9	0.19830312
15	0x3d16fc13	0.03686149
16	0xbe207232	-0.15668562
17	0xbc18361c	-0.009290244
18	0x3be0eeea	0.0068644183
19	0xbd09337e	-0.033496372
20	0xbcdb925b	-0.026803186
21	0xbe1389b3	-0.14407997
22	0xbdab33cd	-0.083594896
23	0x3d90990c	0.070604414
24	0xbe5b87aa	-0.2143847
25	0x3dc24ece	0.09487687
26	0xbe0f704e	-0.14007685
27	0x3dd2082c	0.10255465
28	0xbdc9d45d	-0.09854958
29	0x3db8fc61	0.090325125
30	0x3cc2aeaf	0.023764936
31	0xbe4a356b	-0.1974694
32	0x3e8ce15d	0.2751569
33	0x3ee1cf79	0.44103602
34	0x3cac9fce	0.021072295
35	0x3ecd9b18	0.4015739
36	0x3ca5482f	0.020176021
37	0x3e99dc98	0.30051112
38	0xbe0ee1a9	-0.1395327
39	0x3e013668	0.1261841
40	0x3e126dff	0.14299773
41	0xbe827cd0	-0.2548585
42	0xbe850de8	-0.25987172
43	0xbe1445b9	-0.14479722
44	0xbdf852dd	-0.1212518
45	0xbe953444	-0.29141438
46	0xbe3aba55	-0.18235143
47	0xbe6696b3	-0.22518425
48	0xbe73a4fa	-0.23793402
49	0xbbe749d6	-0.0070583625
50	0xbebd0a96	-0.3692214
51	0xbeb9ef08	-0.3631518
52	0xbad424dc	-0.0016185301
53	0xbe25065d	-0.16115709
54	0xbe8da8c3	-0.27667817
55	0x3d42da2b	0.047571342
56	0x3d209efd	0.039214123
57	0x3ebb1a7d	0.36543646
58	0xbe560d22	-0.20903447
59	0x3e4c03e2	0.19923356
60	0x3e97064f	0.29497
61	0x3e52349b	0.2052788
62	0x3dd6c873	0.104874514
63	0x3dd7c8aa	0.105363205
64	0x3d12378b	0.0356975
65	0xbd13ada0	-0.036054254
66	0x3dbc84f5	0.09205047
67	0xbe07816d	-0.13232966
68	0x3d990ce1	0.074731596
69	0x3df1aa46	0.11800055
70	0xbe4678aa	-0.19381967
71	0x3d715395	0.0589176
72	0x3d46f329	0.04857174
73	0x3d873c72	0.06603326
74	0x3c44be7a	0.012008304
75	0xbe0f8421	-0.14015247
76	0xbe4900c0	-0.19629192
77	0x3d037541	0.032094244
78	0x3e0b93e9	0.13630642
79	0xbdde205c	-0.10846016
80	0x3ddbf243	0.10739567
81	0x3da35931	0.07975996
82	0x3ddbfa42	0.10741092
83	0xbdcd1f8d	-0.100157835
84	0xbe076055	-0.13220342
85	0xbe138c6e	-0.14409038
86	0xbcbc992e	-0.02302226
87	0xbe2d3167	-0.16913377
88	0xbe4dcd5f	-0.20097874
89	0x3db933f9	0.09043116
90	0x3c8a8ed4	0.016913809
91	0xbcdb8cca	-0.026800532
92	0xbe1d7f3e	-0.1538057
93	0xbc52040d	-0.012818349
94	0xbda2974d	-0.079390146
95	0xbe3e9fec	-0.18615693
96	0x3d236d8f	0.039899405
97	0x3e4240d8	0.18970048
98	0x3e474524	0.19459969
99	0x3e66ebc0	0.22550869
100	0x3e62ea26	0.22159633
101	0x3e42277c	0.18960375
102	0xbd5ff7c0	-0.054679632
103	0xbde1defb	-0.11028858
104	0x3e32a2b7	0.17444883
105	0xbdb880c5	-0.09008936
106	0x3c4c7c0f	0.01248075
107	0xbd4f05c4	-0.050542608
108	0xbdd68295	-0.10474125
109	0x3d5fe943	0.054665815
110	0x3db180ee	0.086671695
111	0x3ccc996a	0.024975497
112	0xb9c6314d	-0.00037802235
113	0x3dc7e3e6	0.09760265
114	0xbe6d8a7e	-0.23197362
115	0x3c77828b	0.015106807
116	0x3db7318c	0.08944997
117	0xbd13e306	-0.03610518
118	0x3c4f9aa2	0.012671145
119	0x3dddeb6a	0.10835917
120	0x3d0b406d	0.033996988
121	0x3d2c8a7a	0.04212425
122	0x3d14ddfd	0.036344517
123	0x3d4b0030	0.049560726
124	0xbe46a900	-0.19400406
125	0x3c8fd2c3	0.017556554
126	0xbddb0226	-0.10693769
127	0xbe2cf543	-0.16890435
128	0x3ed73b34	0.42037356
129	0xbdfb3862	-0.122666135
130	0xbe89f91f	-0.26947877
131	0x3ecebfc1	0.40380672
132	0xbe438ee4	-0.19097477
133	0x3f1f0b59	0.6212669
134	0xbe5d3458	-0.21601999
135	0xbead88bc	-0.33893383
136	0xbede0605	-0.43363968
137	0xbe31ceb8	-0.17364013
138	0x3f312034	0.69189763
139	0xbedff56d	-0.43741933
140	0x3e9c706d	0.30554524
141	0xbe913f0b	-0.2836841
142	0xbe1ef50f	-0.1552317
143	0x3ef0de13	0.4704443
144	0xbea9a66e	-0.33134788
145	0xbed2d548	-0.41178346
146	0x3eff1ee7	0.49828264
147	0xbe36a0a5	-0.17834719
148	0x3f29cb06	0.66325414
149	0xbe150bd4	-0.14555293
150	0xbf0a001b	-0.5390641
151	0x3f129e39	0.5727268
152	0x3e0d973f	0.13827227
153	0x3f4501d4	0.76955914
154	0xbf042d99	-0.51632077
155	0x3d78f21b	0.060777765
156	0xbecbbbdc	-0.39791763
157	0xbe250fbe	-0.16119286
158	0x3f2a971d	0.6663683
159	0xbebb9b13	-0.3664175
160	0x3e063c4f	0.13108943
161	0x3e0269c0	0.12735653
162	0x3beb63a3	0.0071835085
163	0x3c6eca0e	0.014574541
164	0xbd29f66d	-0.041494776
165	0xbd0feaec	-0.03513615
166	0xbdd82a76	-0.10554974
167	0xbd41b57a	-0.04729221
168	0x3dcfa24b	0.10138377
169	0xbd1af7c4	-0.037833944
170	0xbd03931f	-0.032122727
171	0xbb759428	-0.0037472341
172	0xbdd5f3f1	-0.10446919
173	0x3e5c4ec1	0.21514417
174	0x3d3aca75	0.045603234
175	0xbd087d32	-0.03332252
176	0x3e34b142	0.17645743
177	0x3d95f07d	0.0732126
178	0xbdab53ce	-0.08365594
179	0x3d4aa5a5	0.049474377
180	0xbccb2be4	-0.024801202
181	0x3ddd69ee	0.1081122
182	0x3cb5fdec	0.022215806
183	0xbbe2855d	-0.006912871
184	0x3d3dc94e	0.046334557
185	0xbd7a0b01	-0.06104565
186	0x3d16ffcb	0.036865037
187	0x3d5ff8c4	0.0546806
188	0xbc57ead4	-0.013178546
189	0x3d8ea236	0.06964533
190	0x3ddcf468	0.10788804
191	0xbd0619bc	-0.032739386
192	0xbe1d3696	-0.15352854
193	0x3dd7004e	0.10498105
194	0xbd767510	-0.060170233
195	0xbde8b392	-0.11362375
196	0xbdb6bed8	-0.08923119
197	0x3cd97392	0.026544366
198	0xbc091b48	-0.008368321
199	0xbdb47c5a	-0.08812781
200	0xbdd7eaad	-0.10542808
201	0xbcc2ec47	-0.023794306
202	0x3cee2d56	0.029074352
203	0xbd28a485	-0.041172523
204	0x3d547d98	0.051877588
205	0x3babf6b5	0.0052479156
206	0x3e32b583	0.17452054
207	0x3db57ae7	0.088613324
208	0xbcf43c36	-0.029813867
209	0xbe0bcd71	-0.13652588
210	0x3bfc788a	0.007704799
211	0xbd25d1e3	-0.040483367
212	0xbcbef30c	-0.023309253
213	0xbe3cfe60	-0.18456411
214	0x3d56f114	0.052476004
215	0x3d7ab43e	0.06120705
216	0xbdca7a75	-0.09886638
217	0xbdae5a01	-0.08513261
218	0x3e5ba216	0.2144855
219	0xbddeb0f9	-0.108735986
220	0x3da3db92	0.08000864
221	0xbdb00c98	-0.08596152
222	0x3cd61ca5	0.026136706
223	0x3dbbe143	0.09173825
224	0x3d0c85ec	0.034307405
225	0xbdd715c2	-0.10502197
226	0xb9314f46	-0.00016909567
227	0x3da40388	0.08008486
228	0x3e5063d9	0.20350589
229	0x3d396950	0.04526645
230	0xbcc577b2	-0.024104927
231	0xbba4e880	-0.005032599
232	0x3e023035	0.12713702
233	0xbd8e4176	-0.069460794
234	0x3e2beaa5	0.16788729
235	0xbd6b624e	-0.057466798
236	0x3d9dfb27	0.07713919
237	0x3e3a2228	0.18177092
238	0xbd9de65d	-0.07709954
239	0x3dc00bf6	0.09377281
240	0xbd01cc51	-0.031688992
241	0x3c39247a	0.011300201
242	0x3d9d8f3d	0.07693336
243	0xbd809f81	-0.06280423
244	0x3e1bff96	0.15234217
245	0xbcc85d12	-0.024458442
246	0x3ddd4a1e	0.10805152
247	0x3e4983a5	0.19679125
248	0x3d86b6e3	0.065778516
249	0xbd67fc6f	-0.056637224
250	0xbdbae2df	-0.091253035
251	0xbd002eae	-0.031294517
252	0x3e687141	0.22699453
253	0x3e3b9ec8	0.18322289
254	0x3e5a23d4	0.2130273
255	0xbdb99ee5	-0.0906351

t_conv3.bias f4 [2]
0	0xbd8be211	-0.06830228
1	0xbda157df	-0.07878088
