models/cae4.pth (torch, 825583 bytes, 16 tensors)

conv1.weight f4 [8, 1, 3, 3]
-0.11768377 -0.16312687 -0.12194078 -0.21267681 -0.023631094 -0.09340739 0.20199983 0.18759714
0.041286472 -0.45509416 -0.49515736 -0.039039373 -0.26944706 -0.18728015 -0.4649393 0.06470694
-0.33966964 -0.25293067 0.18968327 -0.032755118 -0.12525862 -0.06523941 -0.25429925 0.116973184
0.16475427 -0.14380296 -0.1581947 -0.29865643 -0.20322403 0.037023146 0.26532635 -0.16431597
-0.05920162 -0.18168485 -0.3046545 0.07228612 -0.26836753 0.1483598 -0.17754206 -0.1261957
0.1916211 -0.064414926 -0.021053568 -0.24324211 -0.27571243 0.20720874 -0.16495955 -0.014644469
0.2750151 0.04315288 0.066429645 -0.31863314 0.025479337 -0.1655404 0.20714149 0.2820564
-0.36844137 -0.34909293 -0.26994476 -0.06332609 -0.046533324 -0.15981776 -0.31679553 0.19516024
0.013882854 -0.2489013 0.00082676334 -0.302359 0.017638594 0.22103074 -0.08015318 -0.12803161
00000000: 3004 f1bd bb0a 27be 16bc f9bd f3c7 59be
00000010: ff95 c1bc 604c bfbd 0bd9 4e3e 7719 403e
00000020: 011c 293d 1a02 e9be 4485 fdbe c0e7 1fbd
00000030: f7f4 89be 5ec6 3fbe 860c eebe 1285 843d
00000040: 2ee9 adbe 2180 81be 553c 423e 3b2a 06bd
00000050: cc43 00be 3d9c 85bd 8333 82be a38f ef3d
00000060: 58b5 283e 1541 13be cbfd 21be 7fe9 98be
00000070: f619 50be 95a5 173d dbd8 873e 7242 28be
00000080: 667d 72bd 980b 3abe adfb 9bbe bf0a 943d
00000090: 7867 89be a2eb 173e 96cd 35be 7239 01be
000000a0: 5238 443e f9eb 83bd 8878 acbc 7614 79be
000000b0: 2e2a 8dbe 872e 543e 28eb 28be 5bef 6fbc
000000c0: c7ce 8c3e 13c1 303d 440c 883d e223 a3be
000000d0: 0bba d03c 6c83 29be e61c 543e b269 903e
000000e0: 59a4 bcbe 4fbc b2be 3336 8abe 1cb1 81bd
000000f0: ba99 3ebd 44a7 23be 0633 a2be 16d8 473e
00000100: e974 633c fbdf 7ebe 26bb 583a cdce 9abe
00000110: d07e 903c e255 623e 5a27 a4bd b81a 03be

conv1.bias f4 [8]
-0.38029727 -0.088669345 -0.18358584 0.12925279 0.12309264 -0.3283518 -0.095620245 -0.30205414
00000000: 53b6 c2be 4698 b5bd edfd 3bbe d85a 043e
00000010: fe17 fc3d ba1d a8be 8cd4 c3bd d7a6 9abe

conv2.weight f4 [16, 8, 3, 3]
-0.153673 -0.092713326 0.037734568 0.07124276 0.11782806 0.031329118 0.056093045 0.053041764
-0.053568125 0.058271196 -0.109706655 -0.08939788 -0.0891228 -0.034225784 -0.10121836 -0.04301592
0.005215615 0.08513547 0.0023261544 0.046994925 -0.05342712 0.05046903 -0.039160993 0.045611493
0.029118879 -0.015795397 -0.0051612803 -0.08339266 0.067587785 -0.014610809 0.027001876 -0.15999812
-0.12740175 -0.0009912302 -0.055684436 -0.13800412 -0.14072207 0.008188389 -0.08660211 -0.058981624
-0.053782552 -0.14861792 -0.07849851 -0.0050005773 -0.09438151 -0.043530557 -0.027805023 -0.17911506
0.033837646 -0.07832702 -0.153759 -0.031870123 0.017063629 -0.16590253 -0.055003926 -0.12403448
0.02521677 -0.028102592 0.02246593 -0.07782332 -0.04093206 0.06431785 0.032574274 0.07410086
-0.09923459 0.03813804 -0.03309831 -0.01973071 0.08185541 -0.11194751 0.04774285 0.08717597
-0.1443908 0.022155352 -0.12394549 -0.1104371 -0.062978305 -0.04351119 0.0342445 0.035966538
0.027652673 0.07565114 -0.11954406 0.049122475 -0.282659 -0.21308586 0.04214938 0.100393094
-0.1334853 0.09809214 0.012603663 -0.03706511 0.044774946 -0.043674152 -0.08654599 0.047282625
-0.0021879263 -0.11237945 -0.12812734 -0.029308306 -0.14800367 0.035241093 -0.12294291 -0.1251314
-0.122142956 0.04826384 0.037613038 -0.024649832 0.0065577184 -0.13342686 -0.11671689 0.05166286
-0.047873933 -0.08661635 -0.14805703 -0.14436689 -0.106371194 0.044275574 -0.12052189 0.043277986
-0.08628719 0.0474275 -0.07547501 0.050238382 0.07207154 -0.07613071 -0.025885165 -0.0047680293
-0.13883664 0.13457043 -0.12796132 -0.11656844 -0.12771112 0.014674675 -0.12879735 0.04003682
-0.0038335249 0.00017002935 0.11661186 0.020832919 0.086877644 0.008133478 0.04464587 0.009970146
-0.06361119 -0.021429641 0.12973672 -0.021552637 -0.06303327 0.09256877 -0.07005516 0.053939216
0.11616873 -0.0067986497 -0.058405403 -0.032739423 0.029678915 -0.094907634 0.08686753 -0.113585725
0.0014985278 -0.004750833 -0.058779433 0.016585635 -0.12765846 0.019975172 -0.11505563 -0.1657143
0.049681503 -0.13281667 -0.006215909 0.037561063 -0.029409956 -0.14673242 -0.0029127079 -0.016743144
-0.1234024 -0.039686143 0.039040655 -0.1685627 -0.06871642 -0.0029998987 -0.01513221 -0.09003262
0.027357044 0.016175408 -0.057204828 -0.052127395 -0.09078796 0.050761204 0.05209842 -0.110783845
-0.1293786 -0.075751275 0.04741327 -0.011672368 -0.10076868 -0.075137354 0.081773825 -0.028349288
-0.105991475 -0.01321786 0.033002976 0.05227998 0.0050720694 -0.04214026 -0.040633652 -0.064223275
0.06759799 -0.0046066195 -0.05831098 0.07735068 -0.047572806 -0.08529513 0.030542336 -0.011965603
0.032559115 -0.01091661 -0.01426679 -0.06973398 -0.04132355 -0.051997624 -0.041233346 0.057943888
0.10976454 -0.105467826 -0.06985388 0.033837754 0.025093086 -0.088657945 0.0342245 0.0463522
0.08285382 0.075740255 -0.05386679 -0.12142021 -0.04283632 -0.089561366 -0.055926 -0.09487649
-0.04782085 -0.12755942 -0.13629393 -0.06208859 0.0021099725 -0.02253561 0.037239097 -0.0105211055
-0.14984037 -0.011833155 -0.044661134 -0.16851082 -0.045602895 0.0006665996 -0.06752757 -0.052746404
00000000: 745c 1dbe 7ce0 bdbd 908f 1a3d b9e7 913d
00000010: d74f f13d f652 003d d2c1 653d 5242 593d
00000020: 406a 5bbd c7ad 6e3d e2ad e0bd 3c16 b7bd
00000030: 0486 b6bd 5630 0cbd 924b cfbd 7631 30bd
00000040: c0e7 aa3b 815b ae3d 6572 183b c07d 403d
00000050: 65d6 5abd 9db8 4e3d 4767 20bd 1ed3 3a3d
00000060: b78a ee3c 5965 81bc f51f a9bb c5c9 aabd
00000070: 776b 8a3d 2d62 6fbc 0a33 dd3c 8cd6 23be
00000080: 9b75 02be 2bec 81ba 5d15 64bd f450 0dbe
00000090: 7219 10be 9828 063c 725c b1bd b796 71bd
000000a0: 184b 5cbd 4c2f 18be d4c3 a0bd e2db a3bb
000000b0: 184b c1bd 194d 32bd 5cc7 e3bc f069 37be
000000c0: 5899 0a3d eb69 a0bd 0073 1dbe 3f8a 02bd
000000d0: 06c9 8b3c 5ae2 29be cc4b 61bd ca05 febd
000000e0: 6693 ce3c 6837 e6bc 780a b83c d561 9fbd
000000f0: 60a8 27bd 14b9 833d 9a6c 053d 31c2 973d
00000100: 813b cbbd a236 1c3d 1892 07bd 4ca2 a1bc
00000110: cfa3 a73d bc44 e5bd 028e 433d 5189 b23d
00000120: 2fdb 13be 247f b53c 22d7 fdbd d92c e2bd
00000130: c5fa 80bd ca38 32bd f643 0c3d a651 133d
00000140: dc87 e23c fcee 9a3d 84d3 f4bd a634 493d
00000150: aeb8 90be 2e33 5abe d4a4 2c3d e59a cd3d
00000160: 5fb0 08be 88e4 c83d 987f 4e3c 96d1 17bd
00000170: ef65 373d abe3 32bd 063f b1bd 6dab 413d
00000180: 5063 0fbb 3227 e6bd d033 03be f917 f0bc
00000190: 468e 17be f758 103d 7ec9 fbbd 7222 00be
000001a0: 1626 fabd 4eb0 453d 2110 1a3d 72ee c9bc
000001b0: 21e2 d63b 0da1 08be 4409 efbd 6f9c 533d
000001c0: 7517 44bd ea63 b1bd 439c 17be ead4 13be
000001d0: 24d9 d9bd 4e5a 353d 2ed4 f6bd 4244 313d
000001e0: 57b7 b0bd 5743 423d a492 9abd c3c6 4d3d
000001f0: 3e9a 933d 6bea 9bbd 200d d4bc 213d 9cbb
00000200: 312b 0ebe d5cc 093e 4b08 03be 6fbb eebd
00000210: b4c6 02be 0c6e 703c 74e3 03be a6fd 233d
00000220: e03b 7bbb e849 3239 33d2 ee3d cca9 aa3c
00000230: e8ec b13d 4842 053c 96de 363d d359 233c
00000240: 9546 82bd 378d afbc b4d9 043e 288f b0bc
00000250: 9617 81bd b294 bd3d 1479 8fbd 5eef 5c3d
00000260: dfe9 ed3d 35c7 debb 813a 6fbd c619 06bd
00000270: 3221 f33c ef5e c2bd 9be7 b13d a29f e8bd
00000280: 406a c43a e0ac 9bbb b4c2 70bd 99de 873c
00000290: e6b8 02be f9a2 a33c 49a2 ebbd 02b1 29be
000002a0: d57e 4b3d 1801 08be d3ae cbbb a1d9 193d
000002b0: 26ed f0bc 0641 16be 21e3 3ebb eb28 89bc
000002c0: 66ba fcbd f08d 22bd 18e9 1f3d b39b 2cbe
000002d0: 32bb 8cbd f399 44bb 17ed 77bc 0663 b8bd
000002e0: e11b e03c 4a82 843c 9c4f 6abd 8983 55bd
000002f0: 0aef b9bd fbea 4f3d 2765 553d a4e2 e2bd
00000300: d37b 04be 7c23 9bbd 6b34 423d 763d 3fbc
00000310: cf5f cebd 9de1 99bd 0979 a73d c43c e8bc
00000320: 0f12 d9bd b98f 58bc 212e 073d 8823 563d
00000330: 9a33 a63b 449b 2cbd 796f 26bd 7e87 83bd
00000340: d170 8a3d 20f3 96bb 7fd7 6ebd 096a 9e3d
00000350: b4db 42bd 37af aebd ec33 fa3c 600b 44bc
00000360: b55c 053d 95db 32bc 41bf 69bc b0d0 8ebd
00000370: e242 29bd 76fb 54bd 4ce4 28bd 9256 6d3d
00000380: 3bcc e03d 84ff d7bd 8d0f 8fbd 7599 0a3d
00000390: 0490 cd3c 4c92 b5bd fd2e 0c3d cedb 3d3d
000003a0: 43af a93d b51d 9b3d 6ca3 5cbd 29ab f8bd
000003b0: 2375 2fbd f36b b7bd a912 65bd 9b4e c2bd
000003c0: ccdf 43bd f09e 02be a390 0bbe 9b50 7ebd
000003d0: 7747 0a3b 999c b8bc 0688 183d b760 2cbc
000003e0: c16f 19be d9df 41bc 98ee 36bd 1a8e 2cbe
000003f0: 1aca 3abd bebe 2e3a e54b 8abd 9d0c 58bd

conv2.bias f4 [16]
-0.065760404 0.013776804 -0.09121237 -0.03901761 -0.01667178 -0.002985092 -0.006427482 0.00018604273
-0.013347708 -0.07942416 -0.021706874 -0.011563135 -0.10330581 -0.11086518 -0.008191917 -0.113973975
00000000: 64ad 86bd 1bb8 613c 8dcd babd eed0 1fbd
00000010: 4293 88bc 89a1 43bb a09d d2bb 7714 4339
00000020: 58b0 5abc 22a9 a2bd 9dd2 b1bc 4e73 3dbc
00000030: ff91 d3bd 490d e3bd 6437 06bc 306b e9bd

conv3.weight f4 [32, 16, 3, 3]
-0.03601612 -0.06849221 -0.066625014 -0.1278742 -0.004122263 -0.042435117 -0.025399674 0.016543249
-0.108132444 -0.069915675 0.021740004 -0.05111107 -0.08584605 0.03596583 0.03261472 -0.12103325
-0.050900284 0.016482366 0.004948287 -0.09920642 -0.12557957 0.0016439747 -0.07337965 -0.1084248
0.026215412 -0.026896566 -0.036994163 -0.04728987 0.027577454 0.037304357 -0.09035795 0.0039704414
-0.008775541 -0.056062274 -0.07365799 -0.10421081 -0.12529296 -0.114116 -0.050756563 -0.032912973
-0.12218184 -0.057012644 -0.04074802 -0.01504047 -0.055538114 0.015475507 -0.003944502 -0.0351597
-0.0054577026 -0.033768147 -0.0055785025 -0.039142553 -0.07302093 -0.035954267 0.018523019 -0.098113984
-0.06683259 -0.026104854 0.029790157 -0.09804502 0.001501188 -0.03683154 0.0067268033 -0.09649758
-0.116461046 -0.0027045936 -0.04547761 -0.03181273 -0.12310644 -0.00024483373 -0.06959336 0.00277358
-0.010967378 -0.009226826 -0.053444475 -0.104922 0.028845267 -0.026803179 0.01918605 -0.06548319
-0.02537164 -0.09011606 -0.010718748 0.023119923 -0.046064842 0.019651182 -0.01948104 0.009719373
0.03607079 -0.050490968 -0.05860558 -0.08449423 -0.036782984 -0.07548898 0.020685498 0.033379294
-0.08077697 -0.020551091 -0.07175609 0.025347965 -0.016317798 -0.060937393 -0.084400505 0.020180214
0.016338352 -0.0009358109 -0.077741705 -0.027508082 0.055173896 0.048135843 -0.0036919983 -0.026590139
0.04685296 0.018864578 -0.018614732 -0.026707567 0.014649662 -0.09234981 0.015875043 0.027880546
-0.06087271 -0.080494985 -0.102784194 0.0102798 0.013338832 -0.022480324 -0.026181763 -0.0708549
-0.09504416 -0.052259885 -0.11760446 -0.10042074 -0.07405726 -0.027345492 -0.118520714 -0.047958475
-0.05174431 -0.10582039 -0.022608096 0.02360764 -0.032747377 -0.08830181 -0.025850063 -0.089091845
-0.05503973 -0.06110102 -0.04173429 -0.07734325 -0.12832083 -0.05616289 -0.026119428 -0.0038462512
-0.001125508 -0.0011294796 -0.06435965 -0.078891724 -0.013084757 -0.12144726 -0.08516051 -0.113494284
-0.016160678 -0.024967454 -0.084160976 -0.06464586 -0.10425316 -0.017776888 -0.06954789 -0.0274492
-0.119724095 -0.0089721205 -0.060134597 -0.028907042 -0.11631311 -0.0965053 -0.0075728763 -0.1401606
-0.05861403 0.012555751 -0.014683018 -0.12566559 -0.054880403 -0.10096538 -0.05754954 -0.013823998
-0.034804393 0.002322206 -0.010364313 -0.109809145 -0.020908471 -0.012051204 -0.11574792 -0.09167851
-0.043483667 -0.0033678054 -0.10775564 0.0114212455 -0.08685024 -0.09859625 -0.052598134 -0.020303382
-0.12068649 -0.0935824 -0.037923086 -0.021354737 -0.09462156 -0.07611373 -0.03836453 -0.10849188
-0.12753785 -0.037113134 -0.007914046 -0.12019235 -0.03938548 -0.12140991 -0.10591072 0.0035503388
-0.023729483 -0.013239331 -0.044145398 -0.018017095 -0.07970879 -0.09676949 -0.10156951 -0.14103955
-0.04565292 0.0069669145 -0.12639204 -0.015619826 -0.018294567 -0.13735692 -0.045419447 -0.07062844
-0.1021526 -0.13347736 -0.07579942 -0.07652903 0.0022999851 -0.018767765 -0.07591571 -0.10623468
0.01316334 0.00138732 -0.07047545 -0.082853936 -0.039677322 -0.119031966 -0.078008965 -0.08222697
-0.13429862 -0.049520873 -0.076439574 0.0064631337 0.0076708496 -0.026056867 0.041573152 -0.013137102
00000000: a485 13bd a545 8cbd b272 88bd 74f1 02be
00000010: 0c14 87bb 72d0 2dbd fa12 d0bc b585 873c
00000020: 8b74 ddbd f32f 8fbd 1818 b23c d759 51bd
00000030: 0ed0 afbd e850 133d 0397 053d 48e0 f7bd
00000040: d17c 50bd 0706 873c 3d25 a23b bc2c cbbd
00000050: ee97 00be a37a d73a 1248 96bd d20d debd
00000060: b4c1 d63c 3056 dcbc 3187 17bd 06b3 41bd
00000070: 1dea e13c 74cc 183d 970d b9bd 7a1a 823b
00000080: 49c7 0fbc 8ea1 65bd 00da 96bd 7a6c d5bd
00000090: cc4c 00be a6b5 e9bd 1de6 4fbd c1cf 06bd
000000a0: 793a fabd 1786 69bd 65e7 26bd 4e6c 76bc
000000b0: ef7b 63bd fb8c 7d3c e240 81bb 9e03 10bd
000000c0: 87d6 b2bb 7850 0abd dfcb b6bb f153 20bd
000000d0: ff8b 95bd c844 13bd 96bd 973c fcef c8bd
000000e0: 86df 88bd d9d9 d5bc 7d0a f43c d4cb c8bd
000000f0: 83c3 c43a abdc 16bd 846c dc3b 86a0 c5bd
00000100: 2183 eebd 8d3f 31bb bb46 3abd 114e 02bd
00000110: 3b1f fcbd 075d 80b9 f786 8ebd f3c4 353b
00000120: 84b0 33bc 1d2c 17bc 98e8 5abd 58e1 d6bd
00000130: e94c ec3c 5792 dbbc 102c 9d3c 0d1c 86bd
00000140: 30d8 cfbc c58e b8bd b09d 2fbc fe65 bd3c
00000150: 7dae 3cbd 84fb a03c b496 9fbc 013e 1f3c
00000160: f7be 133d 9ecf 4ebd 680c 70bd 500b adbd
00000170: c1a9 16bd f799 9abd a274 a93c bab8 083d
00000180: 656e a5bd c35a a8bc dbf4 92bd 89a6 cf3c
00000190: e7ac 85bc 7d99 79bd 2cda acbd fa50 a53c
000001a0: 02d8 853c 3551 75ba 0b37 9fbd a158 e1bc
000001b0: 06fe 613d 172a 453d 74f5 71bb 90d3 d9bc
000001c0: e4e8 3f3d e389 9a3c ec7d 98bc d4c9 dabc
000001d0: 2305 703c e621 bdbd 610c 823c be65 e43c
000001e0: aa55 79bd 8eda a4bd 8580 d2bd 9b6c 283c
000001f0: 1e8b 5a3c a828 b8bc 237b d6bc 601c 91bd
00000200: 83a6 c2bd 760e 56bd 9bda f0bd 64a9 cdbd
00000210: 55ab 97bd a703 e0bc fdba f2bd 1b70 44bd
00000220: d7f1 53bd 5cb8 d8bd 9d34 b9bc cf64 c13c
00000230: 1d22 06bd 94d7 b4bd 83c3 d3bc c975 b6bd
00000240: 5771 61bd 1045 7abd 93f1 2abd 2366 9ebd
00000250: 8966 03be 0f0b 66bd 69f8 d5bc 6311 7cbb
00000260: c885 93ba 0c0b 94ba fece 83bd fc91 a1bd
00000270: 7361 56bc 57b9 f8bd a268 aebd b16f e8bd
00000280: 6663 84bc 8c88 ccbc 975c acbd 0c65 84bd
00000290: ae82 d5bd d6a0 91bc 206f 8ebd 25dd e0bc
000002a0: e831 f5bd cdff 12bc b24f 76bd 76ce ecbc
000002b0: 9135 eebd 92a4 c5bd e425 f8bb 4386 0fbe
000002c0: 4415 70bd a3b6 4d3c 0b91 70bc 7bae 00be
000002d0: 46ca 60bd f0c6 cebd 11b9 6bbd 0d7e 62bc
000002e0: 0d8f 0ebd 2730 183b 14cf 29bc 9ee3 e0bd
000002f0: 3e48 abbc 6a72 45bc 3f0d edbd f1c1 bbbd
00000300: ee1b 32bd 66b6 5cbb fdae dcbd 2d20 3b3c
00000310: 8ade b1bd d5ec c9bd 2471 57bd 4753 a6bc
00000320: 7a2a f7bd 21a8 bfbd 3d55 1bbd 21f0 aebc
00000330: f3c8 c1bd 84e1 9bbd 2024 1dbd fe30 debd
00000340: 4899 02be f103 18bd eaa9 01bc 6827 f6bd
00000350: ab52 21bd c2a5 f8bd b8e7 d8bd cdac 683b
00000360: 5564 c2bc c7e9 58bc ced1 34bd 9698 93bc
00000370: 5d3e a3bd 152f c6bd ad03 d0bd ac6c 10be
00000380: 8efe 3abd b74a e43b ea6c 01be 4cea 7fbc
00000390: 7dde 95bc 4ba7 0cbe be09 3abd a5a5 90bd
000003a0: 6235 d1bd 4aae 08be ba3c 9bbd 41bb 9cbd
000003b0: 59bb 163b dbbe 99bc b279 9bbd 9191 d9bd
000003c0: 0dab 573c bcd6 b53a 6f55 90bd 53af a9bd
000003d0: b084 22bd 08c7 f3bd 2ac3 9fbd 9d66 a8bd
000003e0: 9485 09be 66d6 4abd 5a8c 9cbd b2c8 d33b
000003f0: c05b fb3b 3675 d5bc 9c48 2a3d 003d 57bc

conv3.bias f4 [32]
0.0292239 -0.023218572 -0.007434137 -0.028189555 -0.054794442 -0.04245933 0.031041866 -0.060304586
0.002846071 -0.013477343 -0.12686814 -0.03406314 -0.02887276 -0.018291362 -0.020929057 -0.03314488
0.0021574043 -0.0093893185 -0.020425469 -0.016507538 -0.06610295 -0.07712673 -0.06281905 -0.009934583
-0.025977615 -0.014653865 -0.11685298 0.005245391 0.0009150548 -0.057761718 -0.055659674 -0.069316715
00000000: f666 ef3c e034 bebc 109a f3bb c8ed e6bc
00000010: 2370 60bd d6e9 2dbd 834b fe3c f101 77bd
00000020: 2685 3a3b 13d0 5cbc b9e9 01be cb85 0bbd
00000030: 9186 ecbc c4d7 95bc 6a73 abbc edc2 07bd
00000040: 3d63 0d3b a8d5 19bc 5053 a7bc d13a 87bc
00000050: fc60 87bd 9ef4 9dbd 46a7 80bd a9c4 22bc
00000060: 02cf d4bc c416 70bc 9d50 efbd 87e1 ab3b
00000070: 4ae0 6f3a 8d97 6cbd 66fb 63bd ecf5 8dbd

conv4.weight f4 [64, 32, 3, 3]
-0.11882745 -0.06684502 -0.042760786 -0.11344906 -0.08327822 -0.08188928 -0.06377141 -0.05490894
-0.07341083 -0.020604005 -0.089489326 -0.10237993 -0.022058701 -0.074016996 -0.028441614 -0.06746173
-0.10853683 -0.02911448 0.02841195 -0.053830497 -0.023856685 -0.005691558 -0.030925784 0.0217877
-0.0062449127 0.055552017 0.017689753 -0.060935527 -0.043517943 -0.09871882 -0.015588062 -0.0743341
-0.06660873 -0.030741418 -0.03290032 -0.009908175 0.03175028 -0.058290187 0.0035157986 0.0053157397
0.0083477385 -0.020430803 -0.021567829 0.04900902 -0.02503274 -0.09262865 0.034718312 -0.010507969
-0.025770664 0.027689844 -0.049112007 -0.011831338 -0.081928104 -0.09387035 -0.09676199 -0.0642682
-0.060092654 -0.09525299 -0.113414735 -0.090998515 -0.11295811 -0.03085937 -0.015288299 0.028583381
0.04093341 0.057460282 0.020335902 -0.01439305 0.0010194965 -0.049013436 -0.03381737 -0.031432595
-0.057506956 -0.022438906 -0.108846076 -0.03135138 -0.040400073 -0.052957088 -0.027035508 -0.017130654
-0.11130734 -0.03126898 -0.012016515 -0.025436979 -0.043284196 -0.0669077 -0.018674022 -0.0831034
-0.114142604 -0.10856385 -0.026865961 -0.04679077 -0.032608718 -0.0642915 -0.06372831 -0.033102915
0.0011435903 -0.03531608 -0.04285716 -0.036803532 0.047371462 0.006942125 -0.013706529 -0.04905566
-0.042538423 -0.0033645544 0.026106503 -0.015363078 -0.10231034 0.046990372 -0.025230372 -0.06372042
0.04989292 -0.049064904 -0.040706623 -0.049001146 0.026628142 -0.021943055 0.0059811138 -0.058919173
0.041103873 -0.054486737 -0.035125297 0.029390078 0.05401667 -0.024155505 -0.04997255 -0.10129897
-0.09113942 -0.07805803 -0.022812802 -0.063011564 -0.10115701 -0.03959998 -0.045189217 -0.035432566
-0.028621932 -0.09348649 -0.09391317 -0.035923302 -0.052776564 -0.032848712 -0.10730527 -0.11416133
-0.020954803 -0.0199657 -0.05208532 -0.022712262 -0.092428654 -0.096923485 -0.036913104 -0.09847376
-0.054378178 -0.07894921 -0.07349555 -0.04737216 -0.058206193 -0.0034702485 -0.023777746 -0.083974235
-0.036155265 -0.022401867 -0.08877842 -0.11292935 -0.016585082 -0.032959193 -0.08811677 -0.06349629
-0.010819902 -0.030182099 -0.002533247 -0.055133045 -0.06999178 -0.021893455 -0.030803131 -0.011104717
-0.0052510425 -0.008202751 -0.019557143 -0.061696127 -0.03520339 0.0026618615 0.006831128 -0.057612833
-0.015432328 0.052198578 -0.00265117 -0.045057356 0.0144492425 0.039569013 0.041032434 -0.042806573
-0.025270937 0.01028405 -0.1024025 -0.0105654895 -0.019897962 -0.022622991 -0.050189815 0.041986283
-0.048970375 0.04673172 -0.047984384 0.027614791 -0.015259378 0.010680851 0.03137896 -0.07916686
-0.017554987 -0.044934116 -0.013851065 -0.026296286 -0.08872597 -0.046441972 -0.008537991 -0.08642028
-0.11297605 -0.08724022 -0.055515647 -0.059714936 -0.044300497 -0.034255203 -0.010670045 -0.05783485
-0.058080092 -0.07014739 -0.011709311 -0.002899109 -0.08457654 -0.04483765 -0.106726535 -0.1018479
-0.029002754 -0.10526601 -0.031230524 -0.0507687 0.054934688 -0.008633834 -0.008807791 -0.0007985822
-0.045565743 0.039899588 0.043098815 -0.0880209 -0.06302329 -0.017611919 -0.038259987 -0.074771225
-0.05725992 -0.07875929 -0.018901419 -0.041147456 -0.09513898 -0.08805617 -0.07280165 -0.032456852
00000000: ce5b f3bd 0be6 88bd ef25 2fbd fb57 e8bd
00000010: c58d aabd 91b5 a7bd 969a 82bd 32e8 60bd
00000020: 6b58 96bd bbc9 a8bc 2e46 b7bd 92ac d1bd
00000030: 73b4 b4bc 3996 97bd 63fe e8bc 6029 8abd
00000040: 8f48 debd 7d81 eebc 2ec0 e83c 5e7d 5cbd
00000050: 186f c3bc 4080 babb 1258 fdbc 1e7c b23c
00000060: 20a2 ccbb 838a 633d 1aea 903c 8897 79bd
00000070: df3f 32bd 182d cabd 1265 7fbc 7a3c 98bd
00000080: 286a 88bd 6dd5 fbbc 7cc2 06bd e655 22bc
00000090: 950c 023d b1c1 6ebd 5069 663b a82f ae3b
000000a0: f4c4 083c 805e a7bc 04af b0bc afbd 483d
000000b0: 7611 cdbc 17b4 bdbd ca34 0e3d 9e29 2cbc
000000c0: 001d d3bc d0d5 e23c ac29 49bd 3ad8 41bc
000000d0: ecc9 a7bd 193f c0bd 262b c6bd 0c9f 83bd
000000e0: b723 76bd 0014 c3bd fc45 e8bd 6e5d babd
000000f0: 9556 e7bd cacc fcbc c67b 7abc b227 ea3c
00000100: cba9 273d 795b 6b3d 7a97 a63c d4d0 6bbc
00000110: a0a0 853a 50c2 48bd 1584 0abd 77bf 00bd
00000120: 6a8c 6bbd ccd1 b7bc b1ea debd 4e6a 00bd
00000130: 8c7a 25bd 88e9 58bd 9279 ddbc 9655 8cbc
00000140: 1af5 e3bd e713 00bd ebe0 44bc 3661 d0bc
00000150: c54a 31bd e706 89bd 43fa 98bc 1e32 aabd
00000160: 99c3 e9bd b956 debd 0116 dcbc aea7 3fbd
00000170: b890 05bd 43ab 83bd fd83 82bd ec96 07bd
00000180: 86e4 953a 98a7 10bd fd8a 2fbd 4dbf 16bd
00000190: 9408 423d c47a e33b 5991 60bc 96ee 48bd
000001a0: c53c 2ebd db7f 5cbb 4edd d53c 6bb5 7bbc
000001b0: 1588 d1bd fa78 403d edaf cebc da7f 82bd
000001c0: 855c 4c3d 48f8 48bd fdbb 26bd 6db5 48bd
000001d0: 4323 da3c ecc1 b3bc 38fd c33b 3b55 71bd
000001e0: 895c 283d 7c2d 5fbd 8bdf 0fbd 76c3 f03c
000001f0: 9540 5d3d c4e1 c5bc 04b0 4cbd d675 cfbd
00000200: 4ea7 babd e3dc 9fbd eae1 babc 350c 81bd
00000210: 682b cfbd 9733 22bd 5418 39bd bd21 11bd
00000220: 8b78 eabc d875 bfbd 8c55 c0bd 5024 13bd
00000230: 3d2c 58bd 5f8c 06bd dec2 dbbd 6acd e9bd
00000240: 68a9 abbc 1c8f a3bc 6b57 55bd 110f babc
00000250: 3c4b bdbd d27f c6bd 3232 17bd 9cac c9bd
00000260: a7bb 5ebd 20b0 a1bd d684 96bd 4f09 42bd
00000270: 9e69 6ebd 1c6d 63bb 8cc9 c2bc affa abbd
00000280: 8b17 14bd 1f84 b7bc 76d1 b5bd 8147 e7bd
00000290: 70dd 87bc 3800 07bd 9176 b4bd 580a 82bd
000002a0: f545 31bc 7340 f7bc d504 26bb 30d3 61bd
000002b0: da57 8fbd e759 b3bc d956 fcbc 8ff0 35bc
000002c0: f010 acbb d564 06bc 4d36 a0bc 14b5 7cbd
000002d0: 6e31 10bd a072 2e3b a8d7 df3b 6ffb 6bbd
000002e0: e0d7 7cbc 2dce 553d 40bf 2dbb 108e 38bd
000002f0: 84bc 6c3c 1e13 223d a011 283d f255 2fbd
00000300: ff04 cfbc 6f7e 283c 67b8 d1bd e01a 2dbc
00000310: 0d01 a3bc da53 b9bc d693 4dbd cff9 2b3d
00000320: 2995 48bd c369 3f3d 468b 44bd 6a38 e23c
00000330: 7802 7abc bcfe 2e3c 3987 003d 3c22 a2bd
00000340: 7acf 8fbc d60c 38bd 94ef 62bc 4f6b d7bc
00000350: f6b5 b5bd f039 3ebd eee2 0bbc 1efd b0bd
00000360: fd5f e7bd 00ab b2bd 6064 63bd a697 74bd
00000370: 7074 35bd 2f4f 0cbd 6ad1 2ebc 3ce4 6cbd
00000380: 64e5 6dbd 6fa9 8fbd 69d8 3fbc fafe 3dbb
00000390: 7736 adbd afa7 37bd 7193 dabd a295 d0bd
000003a0: 2f97 edbc b595 d7bd 28d7 ffbc d7f2 4fbd
000003b0: 3203 613d ed74 0dbc 8e4e 10bc f257 51ba
000003c0: 25a3 3abd c06d 233d 6288 303d 4d44 b4bd
000003d0: 5b12 81bd df46 90bc 81b6 1cbd a821 99bd
000003e0: 6189 6abd 8d4c a1bd 26d7 9abc 3c8a 28bd
000003f0: 3ad8 c2bd cb56 b4bd 0819 95bd 7af1 04bd

conv4.bias f4 [64]
-0.06328398 -0.06319304 -0.07032819 -0.09623656 -0.09562146 -0.05780503 0.033594668 -0.04950103
-0.018257353 -0.030730477 -0.06641714 -0.059782065 -0.053666174 -0.057364937 -0.046115424 -0.04482147
-0.058740392 -0.0117764305 0.058197577 -0.051462904 -0.0517978 -0.026102703 0.008076014 -0.036298547
-0.055329897 -0.034198277 -0.079531066 -0.0107254805 -0.01969673 -0.045853026 -0.020597968 -0.048360188
-0.031687487 -0.07528485 -0.015188939 -0.009548828 -0.0560191 -0.04041569 -0.08237164 0.011960899
-0.05170414 -0.073712066 -0.057767976 -0.026830975 -0.049941912 -0.035661697 -0.08306889 -0.057172243
-0.03080044 -0.10184794 0.008633687 0.0047544963 -0.054045144 -0.08532019 0.0045216824 0.008172873
-0.057518385 -0.00111697 -0.04469159 -8.227197e-05 -0.2821899 -0.042290397 -0.10958278 -0.060785834
00000000: 089b 81bd 5a6b 81bd 3a08 90bd ac17 c5bd
00000010: 2fd5 c3bd f8c4 6cbd 909a 093d 98c1 4abd
00000020: 7290 95bc 7bbe fbbc b605 88bd 0ade 74bd
00000030: 10d1 5bbd 7ff7 6abd 87e3 3cbd b896 37bd
00000040: c499 70bd eef1 40bc 9560 6e3d c4ca 52bd
00000050: ee29 54bd 56d5 d5bc 4251 043c c9ad 14bd
00000060: 9aa1 62bd 7e13 0cbd 2fe1 a2bd edb9 2fbc
00000070: 095b a1bc 62d0 3bbd 12bd a8bc 5515 46bd
00000080: bdca 01bd f22e 9abd 07db 78bc b072 1cbc
00000090: 4974 65bd ec8a 25bd 76b2 a8bd a6f7 433c
000000a0: b8c7 53bd 5af6 96bd 1d9e 6cbd a2cc dbbc
000000b0: e48f 4cbd 0012 12bd 0620 aabd 712d 6abd
000000c0: 3451 fcbc a795 d0bd 4f74 0d3c 9bcb 9b3b
000000d0: 715e 5dbd 5abc aebd 9f2a 943b 84e7 053c
000000e0: 6698 6bbd 4b67 92ba 870e 37bd 6d89 acb8
000000f0: 327b 90be b238 2dbd f06c e0bd 91fa 78bd

conv5.weight f4 [128, 64, 3, 3]
-0.040087067 -0.062414743 -0.091338515 -0.040548097 -0.06319682 -0.019114962 -0.09433236 -0.066863075
-0.09882733 -0.06452163 -0.03856838 -0.06271838 -0.034286782 -0.031194832 -0.031888194 -0.029124666
-0.0702415 -0.024063665 -0.09417739 -0.087927915 -0.074028775 -0.05989409 -0.019036923 -0.03516769
-0.065134145 -0.07774109 -0.09323225 -0.07299929 -0.08422123 -0.09851053 -0.07401881 -0.09694876
-0.05909869 -0.044864975 -0.10087082 -0.059092015 -0.06908062 -0.087409675 -0.07931214 -0.048663564
-0.0061592925 0.008670698 -0.06772323 -0.034825105 -0.069669366 -0.028315486 0.02112861 -0.0011924542
0.009849801 0.0461252 0.0329793 -0.05886837 -0.09198325 -0.06877556 0.014154807 -0.01568602
-0.025746167 -0.040113598 -0.041564055 0.01392268 0.02196959 0.03940658 0.040013585 -0.02336615
0.007836863 0.0021617897 0.016510416 0.030745361 -0.02429251 0.007852215 0.033116434 0.008594263
-0.042458992 -0.06541255 -0.022082487 -0.041663308 -0.035674676 -0.086386584 -0.096763365 -0.09712846
-0.07077764 -0.056403447 -0.0241328 -0.057103064 0.023521814 -0.092381805 -0.02324816 0.0008393643
-0.016903687 -0.034073457 -0.06813743 -0.065462634 -0.075364985 -0.09818868 -0.029142348 -0.04394445
-0.078270204 -0.021205159 -0.04676658 -0.034497365 -0.05362671 -0.042208705 -0.08664504 -0.061878245
-0.041598607 -0.026010204 -0.049682714 -0.057058737 -0.08234458 0.01119673 -0.026954435 -0.05300519
0.009811578 -0.023038914 -0.03724889 0.012335351 0.004902568 0.025838386 0.007343184 -0.009534564
0.023030724 -0.03264893 -0.012659799 0.031028267 -0.024826756 0.035016518 -0.051194947 -0.06648995
-0.025514932 -0.090108134 -0.08127751 -0.09403838 -0.077546604 -0.08446384 -0.07981568 -0.050096788
-0.08914883 -0.02360194 -0.040327612 -0.07768144 -0.06944269 -0.038289554 -0.036910404 -0.036468107
-0.06510683 -0.052985795 -0.06333832 -0.09096314 -0.09691412 -0.047448225 -0.0668183 -0.08005119
-0.049224578 -0.029223066 -0.039723102 -0.03540217 -0.05752447 -0.09880833 -0.05863418 -0.08801609
-0.028457183 -0.023001924 0.024280008 -0.016223442 -0.01738662 0.023325402 0.012154881 0.033770736
0.025039006 0.02476469 0.037516642 -0.09430584 -0.055372927 -0.08682257 -0.05499703 -0.06936585
-0.010804588 -0.078401595 -0.07061712 -0.0077581145 -0.015745632 -0.00934154 0.014509194 0.03134486
0.013558352 -0.009977696 0.026324322 -0.026192857 0.003910685 -0.029418241 0.025647212 -0.0006774403
0.01047748 -0.03225398 -0.008844364 -0.009093925 0.0026777983 -0.03512819 -0.032218095 -0.018582493
0.017612051 -0.013687149 -0.035504695 -0.020213585 -0.0256004 0.020020675 -0.027842581 -0.0770078
-0.10137377 -0.09913586 -0.08542693 -0.075588554 -0.07812349 -0.018635888 -0.021485211 -0.055580106
0.035395253 -0.00044454634 0.004790496 -0.040868726 -0.019680208 -0.015053943 -0.020483386 0.018874597
-0.036909785 -0.024858074 -0.0069756904 -0.030690446 0.041190226 0.085656874 0.022776011 -0.08497405
-0.040704943 -0.03034843 -0.08939761 -0.024668537 -0.09492488 -0.038578648 -0.055166405 -0.057520512
-0.025729245 -0.06738351 -0.06859803 -0.10128505 -0.07618486 -0.070624985 -0.04329231 -0.03958908
-0.08588335 -0.047987573 -0.034677066 -0.083625294 -0.021988226 -0.042922318 -0.019850267 -0.07097283
00000000: 5632 24bd 9aa6 7fbd b00f bbbd c315 26bd
00000010: 566d 81bd fb96 9cbc 5331 c1bd 82ef 88bd
00000020: fc65 cabd eb23 84bd e1f9 1dbd 7e72 80bd
00000030: 4c70 0cbd 4e8c ffbc 329d 02bd da96 eebc
00000040: c7da 8fbd 2a21 c5bc 13e0 c0bd 8d13 b4bd
00000050: 669c 97bd 8153 75bd 52f3 9bbc ff0b 10bd
00000060: 0d65 85bd b836 9fbd 8df0 bebd a780 95bd
00000070: 2e7c acbd e4bf c9bd 2d97 97bd 128d c6bd
00000080: 7811 72bd 56c4 37bd 5c95 cebd 780a 72bd
00000090: 247a 8dbd d803 b3bd 676e a2bd 7253 47bd
000000a0: e4d3 c9bb 8b0f 0e3c 7ab2 8abd c5a4 0ebd
000000b0: d0ae 8ebd e1f5 e7bc e815 ad3c 204c 9cba
000000c0: 0f61 213c c7ed 3c3d 4d15 073d f61f 71bd
000000d0: b761 bcbd 33da 8cbd 90e9 673c f87f 80bc
000000e0: a0e9 d2bc 284e 24bd 123f 2abd f41b 643c
000000f0: 92f9 b33c cb68 213d 49e5 233d 5e6a bfbc
00000100: 3066 003c d0ac 0d3b da40 873c b2dd fb3c
00000110: 1601 c7bc 94a6 003c 19a5 073d f4ce 0c3c
00000120: 7be9 2dbd 04f7 85bd 55e6 b4bc 25a7 2abd
00000130: 9c1f 12bd 73eb b0bd df2b c6bd 49eb c6bd
00000140: def3 90bd 4d07 67bd 26b2 c5bc e7e4 69bd
00000150: d2b0 c03c ac32 bdbd ed72 bebc c908 5c3a
00000160: 9a79 8abc 9c90 0bbd a38b 8bbd 4611 86bd
00000170: f558 9abd 2617 c9bd efbb eebc 18ff 33bd
00000180: 214c a0bd 71b6 adbc 508e 3fbd 1c4d 0dbd
00000190: aea7 5bbd 09e3 2cbd f472 b1bd 0b74 7dbd
000001a0: 4d63 2abd 5a13 d5bc 1a80 4bbd 6cb6 69bd
000001b0: 46a4 a8bd 7d72 373c 8ccf dcbc f81b 59bd
000001c0: bec0 203c 1bbc bcbc 4b92 18bd 361a 4a3c
000001d0: b9a5 a03b 06ab d33c 189f f03b dc36 1cbc
000001e0: eeaa bc3c e2ba 05bd 0c6b 4fbc fe2e fe3c
000001f0: 7b61 cbbc 7b6d 0f3d cbb1 51bd e22b 88bd
00000200: b104 d1bc 9d8a b8bd d374 a6bd 3297 c0bd
00000210: c1d0 9ebd 61fb acbd 6776 a3bd 4a32 4dbd
00000220: a993 b6bd db58 c1bc 912e 25bd 7217 9fbd
00000230: f837 8ebd 82d5 1cbd 5d2f 17bd 955f 15bd
00000240: bb56 85bd a207 59bd 85b7 81bd e24a babd
00000250: e97a c6bd 1259 42bd 08d8 88bd e1f1 a3bd
00000260: b69f 49bd 3665 efbc b1b4 22bd de01 11bd
00000270: c79e 6bbd 065c cabd 652a 70bd c841 b4bd
00000280: 0a1f e9bc 886e bcbc dee6 c63c 06e7 84bc
00000290: 636e 8ebc ea14 bf3c 4425 473c 2f53 0a3d
000002a0: 9a1e cd3c 52df ca3c 0dab 193d 6c23 c1bd
000002b0: b9ce 62bd 08d0 b1bd 9144 61bd af0f 8ebd
000002c0: ba05 31bc 0491 a0bd b59f 90bd c837 febb
000002d0: fcfc 80bc 420d 19bc f8b7 6d3c 7863 003d
000002e0: da23 5e3c 7e79 23bc 1ba6 d73c 6792 d6bc
000002f0: 3425 803b 86fe f0bc 1a1a d23c 4096 31ba
00000300: bca9 2b3c c01c 04bd f4e7 10bc b0fe 14bc
00000310: 007e 2f3b 94e2 0fbd 1ff7 03bd 503a 98bc
00000320: 2647 903c 1040 60bc 5f6d 11bd f696 a5bc
00000330: eeb7 d1bc 6602 a43c 2016 e4bc 44b6 9dbd
00000340: 0d9d cfbd be07 cbbd 50f4 aebd 2cce 9abd
00000350: 35ff 9fbd 4aaa 98bc c101 b0bc f7a7 63bd
00000360: 9dfa 103d 0012 e9b9 98f9 9c3b f765 27bd
00000370: 6338 a1bc d0a4 76bc c6cc a7bc e69e 9a3c
00000380: b72e 17bd 29a3 cbbc 5594 e4bb 886a fbbc
00000390: 15b7 283d df6c af3d c294 ba3c e006 aebd
000003a0: 3aba 26bd 459d f8bc 1816 b7bd ac15 cabc
000003b0: fa67 c2bd a504 1ebd 2bf6 61bd a19a 6bbd
000003c0: 23c6 d2bc 5e00 8abd 207d 8cbd 896e cfbd
000003d0: cf06 9cbd d5a3 90bd 4753 31bd 2928 22bd
000003e0: 9ce3 afbd 9e8e 44bd 8a09 0ebd bd43 abbd
000003f0: a720 b4bc 50cf 2fbd 079d a2bc 345a 91bd

conv5.bias f4 [128]
-0.030962273 -0.02878 -0.065645 -0.03652533 -0.03719193 -0.043379612 -0.052219816 -0.037089888
-0.050002735 -0.037155163 -0.019888144 -0.05521997 -0.0964539 -0.06102613 -0.095331416 -0.2727728
-0.055315763 -0.08845359 -0.02250503 -0.057908446 -0.061956502 -0.057666335 -0.08101568 -0.071576126
-0.034986738 -0.02277474 -0.01439548 -0.026993664 -0.06771507 -0.015704723 -0.047848046 -0.023525393
-0.052685387 -0.18611243 -0.071862824 -0.01728009 -0.031144913 -0.025288822 -0.06152526 -0.08866198
-0.08189622 -0.34527397 -0.069387145 -0.051012024 -0.010548981 -0.05502572 -0.08734812 0.1266206
-0.03165 -0.02745247 -0.028784718 -0.03204708 -0.06502718 -0.07148139 -0.05572757 -0.06626561
-0.032445673 -0.0813999 -0.2822051 -0.03492213 -0.03605252 -0.06777578 -0.06419266 -0.023243632
-0.096170165 -0.04272053 -0.046127193 -0.02875559 -0.010283996 -0.060453832 -0.080628894 -0.09113338
-0.071154095 -0.03314642 -0.051931325 -0.0109397145 -0.04474621 -0.035267197 -0.14089803 -0.042457033
-0.05159356 -0.048766922 -0.024999006 -0.008383443 -0.00973326 -0.06820937 -0.04432878 -0.025916832
-0.28521135 -0.032425642 -0.038410358 -0.26879042 -0.05467468 -0.096771196 -0.0351298 -0.031408694
-0.04698894 -0.021067617 -0.049304914 -0.035515424 -0.010555491 -0.04562896 -0.0370629 -0.0590948
-0.037954353 -0.30804548 -0.07390288 -0.039349906 0.23501362 -0.02289967 -0.08340555 -0.030143034
-0.037632376 -0.06957187 -0.04774715 -0.026306018 -0.026310515 -0.025455179 -0.042296916 -0.057211466
-0.08904048 -0.012354558 -0.1662959 -0.06158342 -0.15491147 -0.056792695 -0.017639665 -0.027018454
00000000: 98a4 fdbc 09c4 ebbc e370 86bd 969b 15bd
00000010: 9156 18bd d2ae 31bd 72e4 55bd 91eb 17bd
00000020: abcf 4cbd 0330 18bd 76ec a2bc 562e 62bd
00000030: 9f89 c5bd 89f6 79bd 1e3d c3bd e0a8 8bbe
00000040: c892 62bd 2827 b5bd 785c b8bc 6831 6dbd
00000050: 1ac6 7dbd 8933 6cbd 8deb a5bd 8196 92bd
00000060: 414e 0fbd 1792 babc 05db 6bbc d121 ddbc
00000070: 33ae 8abd 31a7 80bc 50fc 43bd 53b8 c0bc
00000080: a2cc 57bd 4294 3ebe d12c 93bd fa8e 8dbc
00000090: 9e23 ffbc 812a cfbc e901 7cbd 6a94 b5bd
000000a0: 35b9 a7bd c0c7 b0be d91a 8ebd fcf1 50bd
000000b0: a2d5 2cbc a662 61bd 92e3 b2bd d5a8 013e
000000c0: 6ea3 01bd 01e4 e0bc eecd ebbc cd43 03bd
000000d0: f82c 85bd d664 92bd 9842 64bd 44b6 87bd
000000e0: c1e5 04bd feb4 a6bd 307d 90be 820a 0fbd
000000f0: cfab 13bd 07ce 8abd 7177 83bd 6e69 bebc
00000100: ddf4 c4bd b9fb 2ebd deef 3cbd d890 ebbc
00000110: 357e 28bc 709e 77bd c320 a5bd 23a4 babd
00000120: 3db9 91bd 8ac4 07bd f1b5 54bd 7d3c 33bc
00000130: cd47 37bd 5674 10bd 9347 10be 6de7 2dbd
00000140: c553 53bd d3bf 47bd b7ca ccbc b55a 09bc
00000150: 4078 1fbc 5bb1 8bbd 1892 35bd 894f d4bc
00000160: 3907 92be c0d0 04bd 2e54 1dbd e69e 89be
00000170: 8ff2 5fbd fa2f c6bd 44e4 0fbd 67a6 00bd
00000180: 7a77 40bd ff95 acbc f3f3 49bd 9f78 11bd
00000190: f0f0 2cbc 6fe5 3abd 44cf 17bd 640d 72bd
000001a0: 0676 1bbd 23b8 9dbe 655a 97bd 5e2d 21bd
000001b0: 69a7 703e 1798 bbbc 87d0 aabd 86ee f6bc
000001c0: 6824 1abd b27b 8ebd 8492 43bd b87f d7bc
000001d0: 2689 d7bc 6187 d0bc 883f 2dbd 9256 6abd
000001e0: db5a b6bd c66a 4abc 7949 2abe e53e 7cbd
000001f0: 1da1 1ebe 759f 68bd 0f81 90bc ce55 ddbc

t_conv1.weight f4 [128, 32, 5, 5]
0.07988926 0.031553425 0.026264858 0.06714955 0.03702036 0.070124514 0.056122605 0.036021583
0.061247814 0.060916644 0.029608388 0.073439226 0.07200994 0.02568195 0.04983031 0.090163395
0.030277569 0.08255456 0.081131496 0.041241523 0.05008054 0.03724695 0.038629893 0.028071232
0.026623715 -0.058695983 -0.027464772 -0.036507916 -0.08466044 -0.07309595 -0.05704689 -0.039851904
-0.038930785 -0.08259415 -0.079525925 -0.065176256 -0.04700195 0.051674526 0.059531417 0.06506271
-0.017484007 0.037640784 0.06291961 0.04481312 0.061238673 0.048080385 0.04968825 0.05644859
0.060442965 0.0702374 -0.0654765 -0.08269962 -0.042314455 -0.06900534 -0.07269721 -0.05928827
-0.08177024 -0.036106247 -0.09050883 -0.051017683 -0.07981312 -0.03325749 -0.05913134 -0.046537466
-0.060206488 -0.025467735 -0.027293524 -0.08337163 -0.05020726 -0.049803443 -0.053569566 -0.08115864
-0.03837762 -0.058244556 -0.030558927 0.0901044 0.056704227 0.08950196 0.031228956 0.06282714
0.08351888 0.09032744 0.060464613 0.059772998 0.054642104 0.065538295 0.08258243 0.07346271
0.0714348 0.061375424 0.03686564 0.09510466 0.042551573 0.03014278 0.07116326 0.074430585
0.075098746 0.08527344 0.028968673 0.0645769 0.032033443 0.07535178 0.051044304 0.030812606
0.08845592 0.069914825 0.050595637 0.061793257 0.04428288 0.030958798 0.049103122 0.06903739
0.07292198 0.03815241 0.08207255 0.028282987 0.08378442 0.065760635 0.029999463 0.047071077
0.059768338 0.05500282 0.03962674 0.07623792 0.03564548 0.08567736 0.07612752 0.07498425
0.038761664 0.038491674 0.08821616 0.07535316 0.0599303 0.029846726 0.07557353 0.040227022
0.0778342 0.035839204 0.06294097 0.09293262 0.030571736 0.058561068 0.074439526 0.02462511
0.057364065 0.08526686 0.044171624 0.052150026 0.028741496 0.081980444 -0.032538153 -0.08333997
-0.07181189 -0.024790103 -0.04599331 -0.07907827 -0.095172815 -0.06806781 -0.041802786 -0.058976226
-0.06800245 -0.03876478 -0.041850448 -0.094931655 -0.078036554 -0.056559525 -0.047286723 -0.085461035
-0.058047634 -0.02983925 -0.093830794 -0.04552624 -0.038106516 -0.034342952 -0.069202475 0.05400333
0.030862806 0.027578857 0.03231788 0.084533684 0.028450701 0.07447158 0.06961718 0.06604139
0.065403074 0.041821484 0.050390895 0.08661426 0.06446016 0.03350075 0.06604708 0.06980068
0.032282162 0.09384924 0.052611113 0.082713 0.03786295 0.043048352 0.052853554 0.059362516
0.019756597 -0.013082007 -0.0052598882 0.013005912 0.027639639 -0.0046848617 -0.02536349 -7.150695e-05
-0.009715674 -0.013383143 -0.015144674 -0.01959413 1.4007092e-06 -0.0083536655 -0.032690816 -0.031814497
-0.027151696 -0.033472378 0.022236269 0.035206776 -0.0023242012 0.033304203 -0.03533451 -0.03142189
0.016747471 -0.054013006 -0.09039011 -0.07733632 -0.04286087 -0.045142636 -0.039363977 -0.072106875
-0.03152219 -0.035174794 -0.05598096 -0.07828185 -0.04701642 -0.08668716 -0.05590163 -0.026766608
-0.08547652 -0.09365623 -0.09224642 -0.084001146 -0.044731036 -0.06677892 -0.04255952 -0.043748345
-0.040328722 -0.04746225 -0.035947505 -0.00073011516 -0.0617774 -0.019719638 -0.02432535 0.08248756
00000000: fb9c a33d 2a3e 013d 6629 d73c b485 893d
00000010: a9a2 173d 719d 8f3d d1e0 653d 5e8b 133d
00000020: fdde 7a3d bb83 793d 4a8d f23c 4e67 963d
00000030: f379 933d f462 d23c de1a 4c3d 96a7 b83d
00000040: aa08 f83c 5d12 a93d 4528 a63d dfec 283d
00000050: 4121 4d3d 4290 183d 613a 1e3d a4f5 e53c
00000060: fa19 da3c 336b 70bd cdfd e0bc 5389 15bd
00000070: 7462 adbd 54b3 95bd 00aa 69bd c03b 23bd
00000080: e375 1fbd 1f27 a9bd 7dde a2bd 217b 85bd
00000090: 1e85 40bd aba8 533d 37d7 733d 993f 853d
000000a0: 9f3a 8fbc 392d 1a3d ffdb 803d f68d 373d
000000b0: 67d5 7a3d f0ef 443d e885 4b3d a336 673d
000000c0: 0b93 773d a0d8 8f3d 8b18 86bd 6b5e a9bd
000000d0: ec51 2dbd ac52 8dbd 46e2 94bd 42d8 72bd
000000e0: 2877 a7bd 25e4 13bd b25c b9bd ebf7 50bd
000000f0: 1075 a3bd 0139 08bd b433 72bd 129e 3ebd
00000100: 149b 76bd b6a1 d0bc ab96 dfbc bfbe aabd
00000110: 21a6 4dbd b2fe 4bbd c36b 5bbd 8036 a6bd
00000120: da31 1dbd d891 6ebd b756 fabc a888 b83d
00000130: b142 683d ce4c b73d ded3 ff3c 84ab 803d
00000140: f20b ab3d 98fd b83d bea9 773d 88d4 743d
00000150: 66d0 5f3d f138 863d fa20 a93d 9e73 963d
00000160: 694c 923d cc64 7b3d 6d00 173d 3bc6 c23d
00000170: 8f4a 2e3d feed f63c 0bbe 913d 106f 983d
00000180: 5fcd 993d d7a3 ae3d b64f ed3c e540 843d
00000190: 8035 033d 0952 9a3d d513 513d b86a fc3c
000001a0: 6128 b53d 812f 8f3d 5f3d 4f3d ed1a 7d3d
000001b0: f761 353d 4e9d fd3c 5b20 493d 7a63 8d3d
000001c0: 1e58 953d b445 1c3d a715 a83d b9b1 e73c
000001d0: 2a97 ab3d 83ad 863d 6fc1 f53c 9acd 403d
000001e0: a5cf 743d a34a 613d a64f 223d a022 9c3d
000001f0: ff00 123d 9d77 af3d bfe8 9b3d 5891 993d
00000200: 8dc4 1e3d 72a9 1d3d adaa b43d c252 9a3d
00000210: 7979 753d 1f81 f43c 4bc6 9a3d 17c5 243d
00000220: 8967 9f3d 21cc 123d 32e7 803d 7553 be3d
00000230: 9471 fa3c bbdd 6f3d c073 983d 99ba c93c
00000240: 95f6 6a3d 64a0 ae3d 4eed 343d 449b 553d
00000250: 4973 eb3c 5de5 a73d ba46 05bd 25ae aabd
00000260: 1d12 93bd 9d14 cbbc 7b63 3cbd caf3 a1bd
00000270: f7e9 c2bd 2367 8bbd 6639 2bbd 0e91 71bd
00000280: de44 8bbd d1c7 1ebd 606b 2bbd 876b c2bd
00000290: a1d1 9fbd f6aa 67bd b9af 41bd 3206 afbd
000002a0: 5bc3 6dbd 7171 f4bc 5c2a c0bd b979 3abd
000002b0: 9415 1cbd 32ab 0cbd 07ba 8dbd 9932 5d3d
000002c0: ffd3 fc3c 0eed e13c c15f 043d ff1f ad3d
000002d0: 7211 e93c 8e84 983d 7493 8e3d b540 873d
000002e0: 0cf2 853d 014d 2b3d af66 4e3d d162 b13d
000002f0: b003 843d 1538 093d b143 873d a9f3 8e3d
00000300: 4d3a 043d 0834 c03d c07e 573d 6f65 a93d
00000310: 2e16 1b3d 7853 303d f87c 583d 1c26 733d
00000320: 96d8 a13c ea55 56bc 245b acbb c016 553c
00000330: 866c e23c 7883 99bb 18c7 cfbc 00f6 95b8
00000340: 7e2e 1fbc f844 5bbc 5e21 78bc de83 a0bc
00000350: 0000 bc35 d0dd 08bc cee6 05bd eb4f 02bd
00000360: 3c6d debc 551a 09bd d628 b63c fb34 103d
00000370: a051 18bb fd69 083d ebba 10bd 3db4 00bd
00000380: fe31 893c be3c 5dbd 731e b9bd 8162 9ebd
00000390: e18e 2fbd 7ce7 38bd 1f3c 21bd c5ac 93bd
000003a0: 691d 01bd 7213 10bd 4b4c 65bd 3c52 a0bd
000003b0: 4a94 40bd 0a89 b1bd 1cf9 64bd a545 dbbc
000003c0: 500e afbd d6ce bfbd b1eb bcbd cb08 acbd
000003d0: e437 37bd 63c3 88bd e452 2ebd 7731 33bd
000003e0: bb2f 25bd c767 42bd b13d 13bd 3365 3fba
000003f0: 4d0a 7dbd 148b a1bc f545 c7bc 3def a83d

t_conv1.bias f4 [32]
-0.01226711 -0.032348946 -0.30089468 -0.072547555 -0.04830428 -0.016681764 -0.026436508 -0.010234305
-0.06273085 -0.08015547 -0.06358444 -0.07589023 -0.07001289 0.17827655 -0.16325842 -0.07818825
0.113595515 0.0608935 -0.09105165 -0.07542088 -0.043574765 -0.1214549 0.14788993 -0.13771658
-0.062235255 0.049663834 -0.060502157 -0.011592476 -0.0740501 -0.06891408 -0.06644153 -0.051894616
00000000: fdfb 48bc 5480 04bd de0e 9abe d093 94bd
00000010: b5da 45bd 32a8 88bc 6091 d8bc c9ad 27bc
00000020: 0879 80bd 8d28 a4bd 8f38 82bd 566c 9bbd
00000030: eb62 8fbd 218e 363e 372d 27be 2921 a0bd
00000040: c4a4 e83d 766b 793d 4a79 babd 4376 9abd
00000050: 747b 32bd 59bd f8bd 7570 173e 9305 0dbe
00000060: 65ea 7ebd 4e6c 4b3d 1cd1 77bd 5eee 3dbc
00000070: 94a7 97bd d322 8dbd 7f12 88bd 738f 54bd

t_conv2.weight f4 [32, 8, 4, 4]
-0.121383555 -0.100797065 -0.010505947 -0.0056136516 -0.0021118047 -0.045390625 -0.13165863 -0.110100314
-0.084165566 0.010359578 -0.039600983 -0.08213613 0.025573684 -0.03141827 0.07396744 0.055912733
0.13119039 0.02011792 0.063476175 0.10088197 -0.024737386 0.101820275 0.046075393 -0.107408345
-0.086532116 -0.11193133 -0.108925365 -0.124376975 -0.07509767 0.031242933 0.00076255953 0.0003018544
-0.030740425 -0.028695967 -0.042015266 -0.05450478 -0.02771189 0.030498177 -0.069045536 0.041163884
0.05676312 0.04422597 -0.08533384 -0.028155096 -0.086817 -0.008362047 0.00473579 0.014599159
0.018762775 -0.05166388 -0.014593422 -0.033329137 0.005548857 -0.05395982 0.04363825 0.06537027
0.07998683 0.009760633 0.08337369 -0.02973003 0.05080668 -0.08042973 0.05462583 -0.08026727
-0.042877838 -0.032102495 0.03640423 -0.032180402 -0.021417653 -0.03622593 -0.12649512 0.017708959
-0.06131093 0.038325924 -0.038190447 -0.07196306 -0.1159603 -0.023026092 -0.0056082616 -0.012830762
-0.074193165 -0.08686105 -0.013556215 -0.12706357 -0.06992084 0.0351922 -0.06753285 -0.03829024
-0.06111476 -0.12330202 0.008851528 0.0061384467 -0.0614963 -0.14984214 -0.07909306 0.011771489
-0.13231733 0.013486681 -0.0065057576 -0.10290193 0.008172817 -0.06469 -0.11881824 -0.015816258
-0.036574353 0.029619813 0.014954369 -0.14143763 -0.09629449 -0.036425207 -0.027573694 -0.06471354
-0.071144424 -0.06417587 0.023895293 -0.07971405 0.08624054 0.08588558 -0.06088323 0.011568584
0.037898295 -0.026842412 -0.025396228 0.005749114 -0.060874704 0.037535705 0.022254966 0.06919912
-0.042276926 -0.105673 -0.12706679 -0.0992789 -0.08982941 -0.0931922 -0.08382416 0.013312172
-0.023640487 -0.0635598 -0.06374969 -0.1176251 -0.13394387 -0.070111126 -0.06991442 -0.042635575
-0.04318182 0.0190844 -0.12371937 -0.013219219 -0.0037011786 0.024630612 -0.016733197 -0.024224784
0.004746645 0.007765366 -0.038647667 0.03398994 -0.029220862 0.037610915 -0.06150691 -0.042536024
-0.025849082 0.0812858 -0.07795149 -0.07209455 -0.0859967 0.0069260895 0.021375835 -0.018294722
-0.028304357 0.036479764 0.03651589 -0.024619333 -0.07140502 0.07481044 0.07347939 -0.013543755
0.039231174 0.07651139 -0.07624021 -0.06448626 -0.087061405 -0.06951095 0.0084086135 0.003448896
-0.067591995 0.055853702 0.024802461 -0.025081925 0.08770905 -0.036307443 0.0649642 -0.06731095
-0.03505428 0.00044877964 -0.096803084 0.02080488 0.013528164 -0.079266824 -0.047250155 -0.021761408
-0.12106963 -0.05522644 -0.0019114942 -0.11666906 0.03979891 -0.124363855 -0.04911674 -0.116882056
-0.106501274 -0.04753428 0.032418817 -0.11622526 -0.10992233 -0.019976646 -0.070706874 -0.1314519
-0.035977412 -0.021640208 0.006766206 -0.078889966 -0.015242908 0.013792894 -0.06454849 -0.05699022
0.026798442 -0.09205965 0.02280253 0.012949574 -0.03355755 -0.085297406 0.0067451852 -0.0042791623
0.003774223 -0.09295849 -0.08477262 -0.07216044 -0.032852434 -0.13032418 -0.14032502 -0.09972893
-0.07320816 0.047949143 0.04578457 0.062389158 0.03064704 -0.033060018 0.06546263 -0.014502689
-0.0694215 -0.05717101 -0.024202764 0.0031271502 0.03248711 -0.027888875 -0.026257254 0.015207164
00000000: f197 f8bd b16e cebd 2321 2cbc b9f2 b7bb
00000010: 3466 0abb 85eb 39bd 85d1 06be 467c e1bd
00000020: ff5e acbd 38bb 293c a434 22bd fd36 a8bd
00000030: e77f d13c 72b0 00bd 3e7c 973d c004 653d
00000040: c656 063e 56ce a43c ccff 813d 359b ce3d
00000050: 0fa6 cabc 2687 d03d 8db9 3c3d e8f8 dbbd
00000060: c037 b1bd 413c e5bd 4314 dfbd 5bb9 febd
00000070: cfcc 99bd 2ef1 ff3c 81e6 473a 3642 9e39
00000080: 58d3 fbbc ce13 ebbc 3318 2cbd 6740 5fbd
00000090: 0c04 e3bc 50d7 f93c bf67 8dbd 769b 283d
000000a0: 7280 683d 4a26 353d 82c3 aebd 84a5 e6bc
000000b0: 1ccd b1bd f800 09bc b02e 9b3b 5031 6f3c
000000c0: 64b4 993c 819d 53bd 4019 6fbc 2284 08bd
000000d0: 30d3 b53b f904 5dbd 06be 323d d9e0 853d
000000e0: 23d0 a33d 10eb 1f3c d3bf aa3d 648c f3bc
000000f0: aa1a 503d 58b8 a4bd 56bf 5f3d 2b63 a4bd
00000100: aca0 2fbd e87d 03bd 9a1c 153d 99cf 03bd
00000110: 1374 afbc a461 14bd f087 01be 6112 913c
00000120: 2b21 7bbd a5fb 1c3d 966d 1cbd 5e61 93bd
00000130: 987c edbd 37a1 bcbc 82c5 b7bb 1e38 52bc
00000140: 96f2 97bd 35e4 b1bd e31a 5ebc f41c 02be
00000150: a832 8fbd b225 103d aa4e 8abd 3ad6 1cbd
00000160: 7853 7abd c585 fcbd 0006 113c 0625 c93b
00000170: 8be3 7bbd 3870 19be 8bfb a1bd 34dd 403c
00000180: 327e 07be 3df7 5c3c 402e d5bb 3fbe d2bd
00000190: 47e7 053c 317c 84bd fa56 f3bd 1991 81bc
000001a0: fdce 15bd 40a5 f23c 2b03 753c 07d5 10be
000001b0: 0c36 c5bd 9932 15bd 3ae2 e1bc 8888 84bd
000001c0: 2bb4 91bd a36e 83bd 10c0 c33c 1f41 a3bd
000001d0: e19e b03d c7e4 af3d b260 79bd 288a 3d3c
000001e0: 3e3b 1b3d 9ee4 dbbc c00b d0bc 1063 bc3b
000001f0: c157 79bd 0abf 193d 0c50 b63c 45b8 8d3d
00000200: 922a 2dbd 166b d8bd cc1d 02be bc52 cbbd
00000210: 7bf8 b7bd 8ddb bebd 00ac abbd 4c1b 5a3c
00000220: b2a9 c1bc a42b 82bd 338f 82bd 6ee5 f0bd
00000230: 9528 09be 6c96 8fbd 4b2f 8fbd a4a2 2ebd
00000240: 6cdf 30bd e356 9c3c 9560 fdbd 6c95 58bc
00000250: 798f 72bb 23c6 c93c 0f14 89bc 0e73 c6bc
00000260: bf89 9b3b 9d74 fe3b 044d 1ebd 0939 0b3d
00000270: 9760 efbc e70d 1a3d abee 7bbd 413a 2ebd
00000280: 74c1 d3bc 2b79 a63d 08a5 9fbd 4fa6 93bd
00000290: 0a1f b0bd 40f4 e23b 601c af3c d0de 95bc
000002a0: 8ade e7bc ce6b 153d b091 153d 7cae c9bc
000002b0: cc3c 92bd 3736 993d 5d7c 963d a0e6 5dbc
000002c0: deb0 203d 01b2 9c3d d423 9cbd 5f11 84bd
000002d0: 404d b2bd c25b 8ebd 48c4 093c e006 623b
000002e0: ac6d 8abd dac6 643d 882e cb3c 9c78 cdbc
000002f0: cda0 b33d 1db7 14bd f30b 853d 53da 89bd
00000300: 1495 0fbd 2f4a eb39 b240 c6bd ff6e aa3c
00000310: 3ba5 5d3c a556 a2bd 6189 41bd fb44 b2bc
00000320: 5bf3 f7bd 1f35 62bd 1a8b faba 30f0 eebd
00000330: 2f04 233d 7ab2 febd a22e 49bd dc5f efbd
00000340: 571d dabd 4eb3 42bd 98c9 043d 8207 eebd
00000350: f51e e1bd 10a6 a3bc c4ce 90bd 549b 06be
00000360: 0d5d 13bd ce46 b1bc 0db7 dd3b 1091 a1bd
00000370: 64bd 79bc 97fb 613c 0032 84bd 946e 69bd
00000380: 6888 db3c c589 bcbd 5fcc ba3c 732a 543c
00000390: a473 09bd 68b0 aebd b706 dd3b 3738 8cbb
000003a0: f458 773b 0561 bebd 449d adbd dac8 93bd
000003b0: 4690 06bd b473 05be 5db1 0fbe ae3e ccbd
000003c0: 29ee 95bd 5266 443d 9a88 3b3d c68b 7f3d
000003d0: 800f fb3c f169 07bd 4511 863d b09c 6dbc
000003e0: dc2c 8ebd 262c 6abd e044 c6bc e0f0 4c3b
000003f0: 3411 053d 3677 e4bc 7419 d7bc 7827 793c

t_conv2.bias f4 [8]
0.029376704 0.09522356 -0.34778768 -0.3303608 -0.03688816 -0.03201291 -0.12901331 -0.32820648
00000000: 6aa7 f03c 9204 c33d 3a11 b2be 0d25 a9be
00000010: 0a18 17bd f81f 03bd 111c 04be ae0a a8be
