models/cae4.pth (torch, 150079 bytes, 18 tensors)

conv1.weight f4 [8, 1, 3, 3]
0	0x3b427fe0	0.002967827
1	0xbeab66d4	-0.3347689
2	0x3dcfce9d	0.1014683
3	0xbeaefd00	-0.341774
4	0x3e09ba21	0.13449909
5	0x3ebc6b0f	0.3680043
6	0xbeccad80	-0.3997612
7	0x3e126935	0.14297946
8	0x3ea2cce8	0.31796956
9	0x3e7f6fa3	0.2494493
10	0x3e34165c	0.17586654
11	0xbe7da63c	-0.24770445
12	0x3edd88ea	0.4326852
13	0x3e31d1d9	0.17365207
14	0xbe2b0a98	-0.1670326
15	0xbcb03e65	-0.021514127
16	0x3e3f52e4	0.18683964
17	0xbe91625a	-0.2839535
18	0xbc8b7700	-0.017024517
19	0xbe1c8398	-0.15284574
20	0x3dbf848c	0.09351453
21	0xbe115d68	-0.14195788
22	0xbdb33750	-0.087507844
23	0x3e88648d	0.26639214
24	0xbe073398	-0.13203275
25	0xbe84efee	-0.25964302
26	0x3c8f5fc0	0.017501712
27	0x3e1fa59b	0.15590517
28	0x3e76bf1b	0.24096338
29	0xbe982228	-0.2971356
30	0xbdf591fd	-0.11990736
31	0x3e481f3f	0.1954317
32	0xbe24c23a	-0.16089717
33	0xbe89a8ba	-0.2688654
34	0x3c2ccf24	0.010547433
35	0xbe2f6af8	-0.17130649
36	0xbd99760d	-0.074932195
37	0x3d29a462	0.041416533
38	0x3e755aa3	0.23960356
39	0xbd678519	-0.056523416
40	0x3ea39d6c	0.3195604
41	0x3ec7d85b	0.39032254
42	0xbe784e24	-0.24248558
43	0x3ea4c696	0.3218276
44	0xbcd8a7cc	-0.0264472
45	0xbe70c4b7	-0.23512541
46	0x3ea252fe	0.31703943
47	0xbdfd5894	-0.123704106
48	0x3e3b58fe	0.18295667
49	0x3d6ad92a	0.05733601
50	0x3ed5f512	0.41788536
51	0x3e020c60	0.12700033
52	0xbe9c7f87	-0.30566046
53	0xbba12b57	-0.0049184966
54	0xbdbe66db	-0.09296962
55	0x3e8a17e9	0.26971367
56	0xbe7ea6c4	-0.24868304
57	0x3ea71770	0.3263507
58	0xbb0e94d7	-0.0021756196
59	0xbdafe38c	-0.08588323
60	0x3e93483a	0.28766042
61	0xbe2127a4	-0.15737778
62	0x3e7adb56	0.24497733
63	0xbdd11b36	-0.10210268
64	0xbe5817f8	-0.21102893
65	0xbccccfc0	-0.025001407
66	0x3e1d4d18	0.1536144
67	0xbe830800	-0.2559204
68	0xbd8baa5c	-0.06819603
69	0xbe4f9ff3	-0.2027586
70	0x3e4c30e2	0.19940522
71	0xbd5b9b80	-0.053615093

conv1.bias f4 [8]
0	0x3d153d3d	0.036435355
1	0xbe284f7b	-0.1643657
2	0xbe9d029e	-0.3066606
3	0xbeac3823	-0.3363658
4	0xbe42a081	-0.1900654
5	0xbe10a38f	-0.14124893
6	0x3c96d772	0.01841328
7	0xbe1b5480	-0.15168953

conv2.weight f4 [8, 8, 3, 3]
0	0xbd3462b6	-0.04403945
1	0xbe5634e5	-0.20918615
2	0x3e169f9e	0.14709327
3	0x3c3b7615	0.011441727
4	0xbe46b3f5	-0.19404586
5	0x3cbd7495	0.02312688
6	0x3d26484a	0.040596284
7	0x3dec7853	0.115463875
8	0xbd961bee	-0.07329546
9	0x3dd9db8b	0.106375776
10	0x3e9f46be	0.3110866
11	0xbed0ddad	-0.40794125
12	0xbd6860b0	-0.056732833
13	0x3e4c5af3	0.1995657
14	0xbeba9af2	-0.3644634
15	0x3b958af5	0.004563684
16	0xbd599ab8	-0.053126067
17	0x3e0f6655	0.1400388
18	0xbd48655a	-0.04892478
19	0x3d161276	0.0366387
20	0xbcf7bfb4	-0.030242778
21	0x3d16fbf6	0.036861382
22	0xbd397f68	-0.04528752
23	0xbde7cee0	-0.11318755
24	0xbd085598	-0.033284754
25	0x3de01e21	0.10943247
26	0xbd7fc839	-0.062446807
27	0x3d9c5fa9	0.07635433
28	0x3cac1728	0.021007136
29	0xbd2abba0	-0.04168284
30	0xbda5fc51	-0.08104766
31	0x3dc680d0	0.09692538
32	0xbd2ad296	-0.041704737
33	0x3b9e9684	0.00483972
34	0x3d879ed7	0.06622093
35	0xbd914e41	-0.07095004
36	0x3e4193d3	0.18904047
37	0xbe82fec7	-0.25585005
38	0x39f7a954	0.0004723767
39	0x3df555a0	0.11979222
40	0xbe1a09db	-0.15042822
41	0xbd0f84ed	-0.035038877
42	0xbceda046	-0.029007088
43	0xbcbd0cfe	-0.023077484
44	0x3e0a2d1e	0.13493773
45	0x3e8fe0ce	0.281012
46	0xbda5ba2d	-0.08092151
47	0x3d11699c	0.035501108
48	0x3d91d9d2	0.07121624
49	0xbdbd3627	-0.09238844
50	0xbdb9975d	-0.090620734
51	0xbce1e8fc	-0.027576916
52	0x3e2cafce	0.16863939
53	0x3dccac64	0.099938184
54	0x3dbf77a7	0.09348994
55	0x3cd0cee5	0.02548928
56	0xbdd41b3e	-0.103567585
57	0x3dc102ae	0.09424339
58	0xbd63154f	-0.055440243
59	0xbd88e06f	-0.06683432
60	0xbd7f0801	-0.062263492
61	0x3d511c17	0.05105218
62	0xbd8bcf51	-0.06826652
63	0xbb1f8fa0	-0.0024347082
64	0xbd867bda	-0.065665916
65	0xbd7a3999	-0.061090086
66	0xbd8f98cc	-0.070115656
67	0xbdc47bc8	-0.09593922
68	0x3da4e633	0.080517195
69	0xbdc83876	-0.09776394
70	0xbd5c5bb6	-0.0537984
71	0xbd2f861e	-0.042852513
72	0xbdd2bb76	-0.102896616
73	0x3d3a12f6	0.04542824
74	0xbeb74bb8	-0.35799956
75	0x3dc70ff1	0.097198375
76	0xbd231c2b	-0.039821785
77	0xbde12a9a	-0.10994454
78	0x3b589df9	0.0033053143
79	0xbccad19e	-0.024758156
80	0x3e3d4cda	0.18486348
81	0xbe3ed7c4	-0.18636996
82	0xbd84adac	-0.06478438
83	0xbd2b3560	-0.04179895
84	0xbe8531a7	-0.26014444
85	0xbe46f353	-0.19428758
86	0x3e0009ce	0.1250374
87	0xbc55eca9	-0.013056912
88	0xbd550f44	-0.05201651
89	0x3d8e07f4	0.06935111
90	0xbdb8c57b	-0.090220414
91	0xbd90e158	-0.07074231
92	0xbdd470db	-0.10373088
93	0x3d8d85c7	0.06910282
94	0xbdaa5984	-0.08317855
95	0xbdd95987	-0.10612779
96	0xbd5aa4c0	-0.053379774
97	0x3d29c8c2	0.041451223
98	0x3dde8d43	0.10866787
99	0x3d77a5b0	0.060460746
100	0x3d81ed0a	0.0634404
101	0x3c444c0b	0.011981021
102	0x3c322e95	0.010875364
103	0x3da0c035	0.078491606
104	0xbd244e7a	-0.040113904
105	0xbdb0a151	-0.08624519
106	0x3d84dcd3	0.064874314
107	0x3da82a53	0.08211198
108	0x3dbf223b	0.09332701
109	0x3e662855	0.22476323
110	0x3c7a8ad7	0.015291891
111	0x3db9ef07	0.09078794
112	0x3e579486	0.21052751
113	0xbbb80721	-0.005616084
114	0x3d745ca8	0.059658676
115	0x3db68c23	0.08913448
116	0x3e3d2a45	0.18473156
117	0x3d88bd4e	0.06676732
118	0x3e4795cd	0.19490738
119	0xbb08807f	-0.0020828543
120	0x3ca9d7c9	0.020732777
121	0x3dcfc359	0.101446815
122	0x3dee83c7	0.11646228
123	0x3dff49d3	0.12465253
124	0x3e12bbc9	0.14329447
125	0xbba37f4f	-0.0049895416
126	0x3c9b28c7	0.018940343
127	0x3e0ced5a	0.13762417
128	0xbbdf8071	-0.0068207313
129	0x3db39ded	0.08770356
130	0xbdbda7bd	-0.09260509
131	0xbdbf226a	-0.09332736
132	0x3dad2d70	0.08455932
133	0xbc0c3a51	-0.008558826
134	0x3d370e63	0.044691455
135	0x3ded593f	0.11589288
136	0xb9cfb100	-0.00039613992
137	0x3c9da0bc	0.019241683
138	0x3d7d9be6	0.061916254
139	0x3da1ac13	0.07894149
140	0x3db2c18b	0.08728322
141	0x3dd8eeeb	0.10592445
142	0x3b9c3ef0	0.004768245
143	0x3d6f032e	0.05835264
144	0xbd6fdc1a	-0.058559515
145	0xbe7a4533	-0.2444046
146	0x3e577a1b	0.21042673
147	0xbda56763	-0.0807636
148	0xbe963945	-0.29340568
149	0x3ea00f91	0.31261876
150	0xbe135be2	-0.1439052
151	0xbc899cb4	-0.016798355
152	0xbce75614	-0.028239287
153	0x3dcd0d80	0.100123405
154	0x3e950b47	0.29110166
155	0x3cb13696	0.021632474
156	0x3e066405	0.13124092
157	0x3e00429a	0.12525406
158	0xbe5b3d5a	-0.21410123
159	0x3e2d90e6	0.16949806
160	0x3dfdcfe4	0.123931676
161	0x3dc576ff	0.09641837
162	0xbd3d76fc	-0.04625605
163	0xbde9999b	-0.11406251
164	0x3dcd6d15	0.10030571
165	0xbc9072c4	-0.01763285
166	0xbc2f0d50	-0.010684326
167	0xbce79078	-0.02826713
168	0x3d7e0ee6	0.062025927
169	0xbdc611e2	-0.096713796
170	0x3de950a1	0.11392332
171	0x3d9ac32b	0.075567566
172	0xbcd8f554	-0.026484169
173	0x3dec9a45	0.11552862
174	0xbda9e6c6	-0.0829597
175	0x3ddb2eb1	0.10702265
176	0x3deeffa6	0.11669855
177	0xbde0e69a	-0.10981484
178	0xbc2de6f0	-0.010614142
179	0x3dd9b858	0.10630864
180	0x3c085ce4	0.008322928
181	0xbe883b49	-0.2660773
182	0xbce10615	-0.02746872
183	0x3d11cf86	0.0355983
184	0xbe3cba1c	-0.1843037
185	0xbde2a721	-0.110670336
186	0x3ce809a2	0.028324906
187	0xbe23d060	-0.15997458
188	0xbdf5becf	-0.119992845
189	0x3e5ada43	0.21372323
190	0x3d030e2f	0.03199595
191	0xbd13a82b	-0.03604905
192	0x3d9a95bf	0.07548093
193	0xbdfd97ac	-0.12382445
194	0x3d3d6ce7	0.046246435
195	0x3d3ec6d2	0.04657633
196	0xbd99ed71	-0.075159915
197	0xbc75b936	-0.014997771
198	0x3d6d4002	0.05792237
199	0x3dc3a223	0.095524095
200	0xbcd012b7	-0.025399549
201	0x3e10574d	0.14095803
202	0x3d9fbec0	0.078000546
203	0xbdce62a9	-0.10077412
204	0xbd6e8558	-0.058232635
205	0x3e05955b	0.13045256
206	0x3d040a68	0.032236487
207	0xbde37365	-0.11105994
208	0x3d59f45a	0.053211547
209	0x3d42a3a2	0.047519334
210	0x3db4edb1	0.088343985
211	0x3d15eace	0.03660088
212	0x3dc30111	0.09521688
213	0x3cedd334	0.029031374
214	0xbdd38d7a	-0.10329719
215	0xbd391810	-0.045188963
216	0xbd1c116b	-0.03810255
217	0x3e984891	0.29742864
218	0xbea904fe	-0.3301162
219	0x3e22c9c8	0.15897286
220	0x3e540d2f	0.20708154
221	0xbecf73ef	-0.40518138
222	0x3c19e0b9	0.009391957
223	0xbe0cbaf0	-0.13743186
224	0x3d36ae18	0.044599622
225	0xbdb688d4	-0.08912817
226	0xbe041cbc	-0.12901586
227	0x3bdc74dc	0.006727798
228	0x3d1628d6	0.036660038
229	0x3e25000d	0.161133
230	0x3ed3cee0	0.4136877
231	0xbcb3defc	-0.021956913
232	0xbd8ea988	-0.06965929
233	0xbdd1991a	-0.1023428
234	0xbd98e0c9	-0.07464749
235	0x3d9dc36d	0.0770329
236	0x3d7075ce	0.058706097
237	0x3c89a294	0.016801156
238	0x3dede78b	0.11616429
239	0x3c8df82c	0.017330252
240	0x3de0a093	0.10968127
241	0xbd2f80fe	-0.042847626
242	0x3da36929	0.07979042
243	0x3d66a156	0.056306206
244	0xbd9c6c75	-0.07637874
245	0x3db0ef3c	0.0863938
246	0x3cb42c2e	0.021993723
247	0xbcc909b3	-0.024540758
248	0xbda0e80c	-0.078567594
249	0xbd552f1d	-0.052046884
250	0xbd551e48	-0.05203083
251	0x3d192996	0.037393175
252	0xbcae02e3	-0.02124161
253	0x3e34f37c	0.17671007
254	0xbe24b84d	-0.1608593
255	0x3d716f7a	0.058944203

conv2.bias f4 [8]
0	0x3cd68a62	0.026189033
1	0xbe0b614b	-0.13611333
2	0x3db16332	0.08661498
3	0xbce068bd	-0.027393693
4	0xbe2ee762	-0.17080453
5	0x3df9033c	0.1215882
6	0x3d15eeb6	0.036604606
7	0xbcb86ef6	-0.022513848

conv3.weight f4 [16, 8, 3, 3]
0	0x3e10f225	0.14154871
1	0x3da1f8c3	0.07908776
2	0x3dc0b194	0.0940887
3	0x3e4a4a4d	0.19754906
4	0x3dc0fde5	0.094234265
5	0x3e293558	0.16524255
6	0x3cb794ff	0.022409914
7	0x3d98ce5c	0.07461235
8	0x3e4c0db3	0.19927101
9	0xbebbd4cd	-0.36685792
10	0xbca6ee1e	-0.020377215
11	0xbe1aadc7	-0.15105353
12	0xbe525d4b	-0.20543401
13	0xbe7827fc	-0.24234003
14	0xbe06f74b	-0.13180272
15	0xbe815f86	-0.2526819
16	0xbe755703	-0.23958974
17	0xbdf617ad	-0.120162345
18	0x3d15f04b	0.036606114
19	0x3d67e906	0.056618713
20	0x3dd0dc8c	0.10198316
21	0xbcf9cb9e	-0.0304926
22	0x3dc76389	0.09735782
23	0x3db1b491	0.086770184
24	0xbd7c1d03	-0.061551105
25	0x3dc843e7	0.09778576
26	0x3d770368	0.060305983
27	0xbe1df531	-0.15425564
28	0xbe06dc96	-0.13170084
29	0xbe29dd41	-0.16588308
30	0xbdd65179	-0.104647584
31	0x3c9672ca	0.018365283
32	0xbd88b8a2	-0.06675841
33	0x3d4aaed1	0.049483124
34	0xbdcf3185	-0.10116867
35	0x3df51eca	0.11968763
36	0xbd5c42c3	-0.053774606
37	0xbd9cedae	-0.07662521
38	0xbd898311	-0.06714452
39	0xbc9c36e3	-0.01906914
40	0xbd9b0c07	-0.075706534
41	0xbce996e7	-0.028514339
42	0xbeaf2dda	-0.3421467
43	0xbe50f717	-0.20406757
44	0xbe8ebcdc	-0.27878463
45	0x3dc73b34	0.09728089
46	0x3dd8741c	0.10569021
47	0x3db7574a	0.08952196
48	0x3e4d5298	0.20051038
49	0x3e759acd	0.23984833
50	0x3e8fcda8	0.2808659
51	0x3e0b3db0	0.1359775
52	0x3e3347f9	0.17507924
53	0x3d8ec7de	0.069717154
54	0x3da2f43c	0.0795674
55	0x3e8a57ed	0.27020207
56	0x3dd6198d	0.10454092
57	0xbe06eed1	-0.13177039
58	0x3dca1d8f	0.09868919
59	0x3cf70a80	0.030156374
60	0x3d646266	0.055757903
61	0xbc6e9b4e	-0.014563395
62	0x3e05750c	0.13032931
63	0xbe463c26	-0.19358882
64	0xbcf282d4	-0.0296034
65	0x3d83bb32	0.06432189
66	0x3d8fb760	0.07017398
67	0xbddfccd1	-0.109277375
68	0x3de7b8f5	0.11314575
69	0xbdd8a010	-0.105774045
70	0xbda9b72a	-0.08286889
71	0x3d89b84c	0.06724605
72	0x3cf8f92a	0.030392248
73	0xbc0d9162	-0.008640619
74	0xbd9833f1	-0.07431782
75	0xbed7db62	-0.42159563
76	0xbeb43cd1	-0.3520265
77	0xbe8ffefe	-0.2812423
78	0xbe96b66b	-0.2943605
79	0xbdffb0f3	-0.12484922
80	0xbe90d42e	-0.2828688
81	0xbdd1c27a	-0.102421716
82	0x383ee85b	4.5515928e-05
83	0xbda1d972	-0.079028025
84	0x3e3af5c3	0.18257813
85	0x3de10dc4	0.10988954
86	0x3d90d62e	0.070721015
87	0x3db4c4cb	0.08826598
88	0x3ca149b8	0.019688472
89	0x3ddfef37	0.109342985
90	0xbd9252f6	-0.0714473
91	0xbdcd8c08	-0.100364745
92	0x3cf310ed	0.029671157
93	0xbdc7c3c0	-0.09754133
94	0xbddfa382	-0.109198585
95	0xbdd7a9c2	-0.105304256
96	0x3db7c909	0.08973891
97	0x3c099e03	0.008399489
98	0xbdd2816c	-0.102785915
99	0xbdec603d	-0.115417935
100	0xbc851056	-0.016243141
101	0xbe6c7ba1	-0.23094036
102	0x3d929464	0.071572095
103	0x3e9d6dd1	0.30747846
104	0x3df6a717	0.120435886
105	0x3cff3a7d	0.03115582
106	0x3e26a257	0.16272865
107	0xbdbce7ea	-0.092239216
108	0xbe6f1cde	-0.23350856
109	0xbeb9277a	-0.3616293
110	0xbeb9a663	-0.36259755
111	0x3e3dea7c	0.1854648
112	0x3e769f54	0.24084216
113	0x3e2c8acb	0.1684982
114	0x3e3bd312	0.18342236
115	0x3dbf08ca	0.09327848
116	0x3e6c5829	0.23080505
117	0x3cbd588d	0.023113513
118	0x3de30ff5	0.11087028
119	0x3de969a1	0.113971
120	0x3ca74eab	0.020423254
121	0xbea7b2c3	-0.32753572
122	0xbdcb3bd4	-0.09923521
123	0xbdb2a998	-0.08723754
124	0xbd5ab728	-0.053397328
125	0xbcf14c1a	-0.029455233
126	0xbdfc30c0	-0.12313986
127	0xbec20d79	-0.37900904
128	0xbec06d71	-0.37583497
129	0xbb0f4a00	-0.0021864176
130	0x3e678c51	0.2261212
131	0x3e4d452d	0.2004592
132	0xbe2e7106	-0.17035303
133	0xbea279b1	-0.31733468
134	0xbe5839b0	-0.21115756
135	0xbe8faf68	-0.28063512
136	0xbe857db1	-0.26072457
137	0xbe817eb9	-0.25291994
138	0xbb6c6072	-0.0036068228
139	0xba9ccba4	-0.0011962545
140	0xbe08c6b5	-0.1335705
141	0x3e26c19a	0.1628479
142	0x3e684e92	0.22686222
143	0xbd303d89	-0.043027434
144	0xbc2bf4ea	-0.010495404
145	0x3d9e1ba9	0.077201195
146	0x3e313e5d	0.17308946
147	0xbbfee96c	-0.007779291
148	0xbd8c9524	-0.06864384
149	0x3dc0b62d	0.09409747
150	0xbdbfe32d	-0.09369502
151	0xbe2de374	-0.16981298
152	0xbdcd26b2	-0.10017146
153	0xbd21fb23	-0.039546143
154	0xbd635a51	-0.055506054
155	0xbde7e22e	-0.11322437
156	0x3d1578c9	0.036492143
157	0xbd760cb2	-0.0600707
158	0x3daa55a5	0.08317117
159	0xbe2dc634	-0.1697014
160	0xbb9aa44b	-0.0047192923
161	0xbc7e89d9	-0.015535795
162	0xbd42896f	-0.04749435
163	0x3d5c0a8d	0.053721
164	0xbdfef0dd	-0.12448285
165	0xbdb9dc3a	-0.09075208
166	0x3d9071df	0.07052969
167	0xbe55b8ad	-0.2087123
168	0xbe08edad	-0.13371916
169	0xbdd1b73d	-0.10240028
170	0xbce85ee1	-0.028365554
171	0x3df42a31	0.1192211
172	0x3dd8c383	0.10584166
173	0xbdc90f44	-0.09817365
174	0xbdde8e06	-0.108669326
175	0xbe04355a	-0.12910977
176	0xbe424260	-0.18970633
177	0xbdb0cf91	-0.0863334
178	0xbccc051c	-0.02490478
179	0x3dbab6ef	0.09116923
180	0x3dc3c99d	0.09559939
181	0x3dd7a170	0.10528839
182	0x3e3caceb	0.18425338
183	0xbe2b0a60	-0.16703176
184	0xbe821df7	-0.25413486
185	0xbdf03f27	-0.11730795
186	0xbe06fdd9	-0.13182773
187	0xbdc5636a	-0.09638102
188	0xbd98ee3d	-0.07467315
189	0x3e100c00	0.14067078
190	0x3e8c82c8	0.27443528
191	0x3e5f9310	0.21833444
192	0x3e029a7b	0.12754242
193	0x3ebabbd5	0.3647143
194	0x3dc3e082	0.09564306
195	0x3db874ff	0.0900669
196	0x3e1cbc61	0.15306236
197	0x3e857353	0.26064548
198	0x3e95b2bc	0.29237926
199	0x3e745408	0.2386018
200	0x3e89e519	0.269326
201	0xbd885af4	-0.06657973
202	0xbd6d4838	-0.0579302
203	0x3bcc3402	0.0062317858
204	0x3cbdd31e	0.023171958
205	0xbdca9af3	-0.098928355
206	0xbdf2d9fe	-0.11857985
207	0x3d02ad4b	0.031903546
208	0x3d647333	0.055773925
209	0x3da3d2e3	0.07999208
210	0x3d322473	0.043491792
211	0x3ccf8149	0.025330203
212	0x3c92160b	0.017832777
213	0xbe18ff6b	-0.14941184
214	0xbc0fd665	-0.008779143
215	0x3d9c28d1	0.076249726
216	0x3dcc68bf	0.09980916
217	0x3dd0ab66	0.10188942
218	0x3e5cb96a	0.21555105
219	0x3de01ce7	0.10943013
220	0x3d6ede61	0.058317546
221	0x3d0c4050	0.03424102
222	0x3c558d0a	0.013034115
223	0x3dcb8fd1	0.0993954
224	0xbdf5b22a	-0.11996873
225	0x3c8221a5	0.015885184
226	0xbe1b4fd6	-0.15167174
227	0xbe1f65ff	-0.15566252
228	0x3e04a0a5	0.12951906
229	0xbca28a42	-0.019841317
230	0xbdcd6873	-0.10029688
231	0x3dc3c14d	0.095583536
232	0xbd46f2fb	-0.048571568
233	0x3d4bfec2	0.049803503
234	0x3d66ab37	0.056315627
235	0x3e1376e2	0.14400819
236	0x3dfb2f29	0.122648545
237	0xbc7b26ad	-0.015329045
238	0xbd1cf02c	-0.038314983
239	0xbe073ab3	-0.13205986
240	0x3cbeb346	0.023278844
241	0xbc8259a7	-0.01591189
242	0x3ce24c3b	0.02762424
243	0x3dacc6ef	0.08436381
244	0xbd4cb2e8	-0.049975306
245	0xbe6ca312	-0.23109081
246	0x3de60d96	0.1123306
247	0xbe20093c	-0.15628523
248	0xbda2412e	-0.07922588
249	0x3db29a06	0.08720784
250	0xbdc2aa71	-0.09505165
251	0xbcba250e	-0.022722747
252	0xbc3b54ef	-0.011433824
253	0xbe9b89f6	-0.30378693
254	0xbebcf7a6	-0.3690769
255	0xbd83eb7a	-0.06441398

conv3.bias f4 [16]
0	0x3d05508f	0.03254753
1	0x3d3997b1	0.04531068
2	0x3d80dad3	0.062917374
3	0x3bd523d3	0.0065045147
4	0xbc316610	-0.010827556
5	0x3dc6e5f0	0.09711826
6	0xbdc3a0ff	-0.09552192
7	0x3ca79006	0.020454418
8	0x3c9dc3e5	0.019258449
9	0x3b40b56c	0.002940501
10	0x3d3b1c1b	0.0456811
11	0x3d5e5497	0.05427989
12	0xbdbfbd45	-0.09362272
13	0xbcf98982	-0.030461077
14	0x3d10bb6b	0.035334986
15	0xbe146b91	-0.14494158

conv4.weight f4 [16, 16, 3, 3]
0	0x3e091d69	0.13390125
1	0x3d99f774	0.07517901
2	0x3d24dd06	0.040249847
3	0xbbf10737	-0.0073555964
4	0x3deaf7e8	0.114730656
5	0x3ba8f0c2	0.0051556537
6	0x3cc616da	0.024180818
7	0xbaafff44	-0.0013427516
8	0xbd9b754b	-0.07590731
9	0x3dca6cb6	0.09884016
10	0x3e4637c8	0.19357216
11	0x3e5b388f	0.21408294
12	0xbe60eeb5	-0.2196606
13	0xbde10d82	-0.109889045
14	0xbe2f2664	-0.17104489
15	0xbd2385ed	-0.039922643
16	0x3dd4845c	0.10376808
17	0xbc4f024c	-0.012634825
18	0xbaa5f99e	-0.0012662893
19	0x3c42a860	0.011880964
20	0x3d20cd76	0.039258443
21	0x3d555bd1	0.052089516
22	0x3df49c28	0.11943847
23	0x3dc79b84	0.09746459
24	0x3d39a2eb	0.045321386
25	0xb97b0e0e	-0.00023942461
26	0x3d8576c2	0.06516792
27	0xbd80f96e	-0.06297575
28	0xbd06f0df	-0.032944556
29	0xbd976515	-0.07392327
30	0xbdc4438e	-0.095831975
31	0xbb85063c	-0.004059581
32	0x3d8f2b3d	0.06990669
33	0x3da0d16a	0.078524426
34	0x3c9dbccb	0.019255063
35	0x3d9f29a1	0.07771612
36	0x3bac2540	0.005253464
37	0xbdb4bd73	-0.08825197
38	0xbdb08b4c	-0.08620319
39	0xbd9ba090	-0.07598984
40	0xbdffe610	-0.12495053
41	0xbe09b582	-0.13448146
42	0x3c04c3ee	0.008103354
43	0x3c270072	0.010192977
44	0xbc1744ad	-0.009232682
45	0xbc72fb1e	-0.014830379
46	0xbd114ebe	-0.035475485
47	0x3c935233	0.017983532
48	0xbe0babb7	-0.13639723
49	0xbe1c56f6	-0.15267548
50	0xbe22b9a2	-0.15891126
51	0xbe148633	-0.14504318
52	0xbe355eed	-0.17711993
53	0xbe15851a	-0.14601555
54	0xbd484314	-0.048892096
55	0x3c4dc78e	0.012559785
56	0xbc08a00c	-0.008338939
57	0xbe3f60d4	-0.18689281
58	0xbe305099	-0.17218246
59	0x3c28a075	0.010292162
60	0xbcd58189	-0.026062744
61	0x3d54d495	0.051960547
62	0x3d93a25f	0.07208704
63	0x3d57e5f4	0.052709535
64	0xbd113574	-0.035451367
65	0xbbe0aa1a	-0.006856215
66	0x3db89d12	0.09014334
67	0x3e11857f	0.14211081
68	0x3d6212f5	0.05519386
69	0x3d61ce72	0.055128522
70	0x3de977e3	0.1139982
71	0x3d97c78f	0.0741111
72	0x3e92cecf	0.28673407
73	0x3e37e07f	0.17956732
74	0x3e3eeebb	0.18645756
75	0xbd70a73e	-0.058753245
76	0xbd1af155	-0.03782781
77	0x3d940de6	0.072292134
78	0xbde3c16d	-0.111208774
79	0xbdf4574b	-0.11930712
80	0x3dc9caa2	0.09853102
81	0xbbae48ec	-0.0053187516
82	0xbe2d04e8	-0.16896403
83	0xbd313932	-0.043267436
84	0xbe233922	-0.15939763
85	0xbda2954a	-0.07938631
86	0xbd26658d	-0.04062419
87	0xbd2875a1	-0.041127805
88	0x3d7163d3	0.05893309
89	0x3ce1e8f3	0.0275769
90	0x3d67f033	0.056625556
91	0x3a7c58a5	0.0009626246
92	0xbd8dc2f7	-0.06921952
93	0xbe9133f2	-0.28359944
94	0xbe68c8d0	-0.22732854
95	0xbe19de21	-0.15026142
96	0xbe93afe1	-0.28845122
97	0xbd8d2388	-0.06891543
98	0xbd66cfb7	-0.056350436
99	0x3a3d9b7b	0.0007232946
100	0x3bb7b2a1	0.005606011
101	0xbe23714a	-0.15961185
102	0xbd40f6d8	-0.04711041
103	0xbd3c58a6	-0.04598298
104	0xbdba65f2	-0.09101476
105	0x3c4727f3	0.012155521
106	0xbd071834	-0.032982066
107	0xbdadbbbd	-0.08483074
108	0xbd9de0fa	-0.077089265
109	0x3d521ab5	0.051295
110	0xbc9e7c71	-0.019346448
111	0xbe49d59d	-0.19710393
112	0xbdbe0c66	-0.092797086
113	0xbdfbd205	-0.122959174
114	0xbdeb42c6	-0.114873454
115	0xbc04e22f	-0.008110567
116	0x3d057f6a	0.032592215
117	0x3d2ae321	0.041720513
118	0x3d41e472	0.047337003
119	0x3d95203e	0.0728154
120	0xbdabce0c	-0.0838891
121	0x3dc521ce	0.09625588
122	0x3d7de1e7	0.061983015
123	0x3da14ee3	0.078763746
124	0x3d8ced09	0.06881148
125	0x3e2e82b8	0.17042053
126	0x3bb6eb0b	0.0055822185
127	0xbc8f23ee	-0.017473187
128	0x3d0b61c1	0.034028772
129	0xbd1f60e3	-0.038910758
130	0xbd4d7d44	-0.05016829
131	0xbcaaf1d4	-0.020867266
132	0x3db5961c	0.08866522
133	0xbda73523	-0.08164432
134	0xbe037830	-0.12838817
135	0xbda18b66	-0.07887916
136	0xbcfd2375	-0.030900696
137	0x3dfbe9bb	0.1230044
138	0xbcef6626	-0.029223513
139	0x3dab3634	0.08359948
140	0x3e6cb956	0.23117575
141	0xbe1350b8	-0.1438626
142	0xbe9d1d07	-0.3068621
143	0xbe29c15d	-0.16577668
144	0x3e6a0529	0.22853531
145	0x3e4a9703	0.19784169
146	0x3e42f2fb	0.19038002
147	0xbd6b9cdb	-0.057522636
148	0x3dc0dd51	0.09417213
149	0x3cf1a361	0.02949685
150	0x3d1174bd	0.03551172
151	0xbcd0b747	-0.025478018
152	0xbc57f7df	-0.013181656
153	0x3e02d248	0.12775528
154	0x3da10531	0.07862318
155	0xbd4c4051	-0.049866024
156	0xbdf9d28d	-0.121983625
157	0x3c8eb2b3	0.017419195
158	0xbe52632d	-0.20545645
159	0x3d596e32	0.053083606
160	0x3e1a2bd0	0.15055776
161	0x3dfa06de	0.12208341
162	0x3cb98829	0.022647934
163	0x3da669a4	0.08125618
164	0x3de8f4e6	0.11374836
165	0x3d548531	0.051884834
166	0xbc42fee8	-0.011901595
167	0xbd2958af	-0.04134434
168	0xbca5d9e4	-0.0202455
169	0x3d276150	0.04086429
170	0x3d7d0c08	0.061779052
171	0x3e42317a	0.18964186
172	0xbd60e495	-0.054905493
173	0xbbc411ae	-0.005983553
174	0x39a32eec	0.00031124742
175	0xbdb00127	-0.0859397
176	0x3d8ee67d	0.06977556
177	0x3cbcc1de	0.023041662
178	0xbb8d1f86	-0.0043067364
179	0x3d9a4bc5	0.07533983
180	0x3d48df9d	0.04904138
181	0x3d9436c8	0.07237011
182	0x3d9fe476	0.07807247
183	0xbcf0f054	-0.029411472
184	0x39d3dbeb	0.00040408908
185	0x3d203781	0.039115433
186	0xbdb6ef3e	-0.089323506
187	0x3cc8aa5a	0.024495292
188	0xbd94fecb	-0.072751604
189	0x3d015474	0.03157468
190	0xbdaa79a6	-0.08323984
191	0xbe1e486a	-0.15457311
192	0xbdec1ea6	-0.11529283
193	0xbde6d73a	-0.1127152
194	0xbdafa06e	-0.085755214
195	0xbd02db0e	-0.031947188
196	0xbd591c7e	-0.053005688
197	0xbe07f656	-0.13277563
198	0x3d3547d6	0.04425796
199	0xbdab7722	-0.08372332
200	0xbb9c81bb	-0.0047762073
201	0x3d321965	0.04348125
202	0xbd02f161	-0.031968478
203	0xbd00fa5d	-0.031488765
204	0x3de66158	0.112490356
205	0x3d459567	0.048238184
206	0x3d3c171d	0.04592048
207	0x3d829209	0.0637551
208	0x3e0dd487	0.13850604
209	0x3c66d044	0.01408774
210	0x3e11077e	0.14163014
211	0x3ceb5d76	0.02873109
212	0x3de16193	0.11004939
213	0x3df97004	0.121795684
214	0x3d2bb154	0.04191716
215	0x3c1fa075	0.009742846
216	0x3e50088a	0.20315757
217	0xbdc0fbcb	-0.09423026
218	0xbddbd23d	-0.10733459
219	0x3e0ca5a3	0.1373506
220	0xbdbcda52	-0.09221329
221	0xbd8b67b3	-0.068068884
222	0x3d4ab8af	0.049492534
223	0x3d7842dd	0.06061064
224	0x3d0e05c4	0.034673467
225	0x3dbb1c5c	0.091362685
226	0xbdf1c38d	-0.118048765
227	0xbc0596ce	-0.00815363
228	0x3d77766f	0.06041568
229	0xbddcc815	-0.1078035
230	0xbd8a7aa6	-0.067616746
231	0x3ce3a5fd	0.02778911
232	0x3d85a48d	0.06525526
233	0x3e00b732	0.12569883
234	0xbcab7131	-0.020927997
235	0x3d4b90dd	0.0496987
236	0xbd94c282	-0.07263662
237	0x3b47fd84	0.0030516097
238	0xbdad216d	-0.08453641
239	0xbe47c153	-0.19507341
240	0x3d4bf9e8	0.049798876
241	0x3d45b236	0.04826566
242	0x3ccd6818	0.02507405
243	0x3e2fe667	0.17177735
244	0x3d9233b3	0.07138767
245	0x3bf1acf4	0.007375354
246	0x3b4615e9	0.0030225462
247	0x3d86beed	0.06579385
248	0x3d51410d	0.051087428
249	0x3cce83de	0.025209364
250	0xbd38ad82	-0.045087345
251	0xbd844b74	-0.06459704
252	0xbcc47ce5	-0.023985336
253	0xbd1efdd5	-0.03881629
254	0xbda5560b	-0.08073052
255	0xbd112fcf	-0.035445984

conv4.bias f4 [16]
0	0x3d2d2f25	0.04228129
1	0x3c32a0a8	0.010902561
2	0xbc0bb350	-0.008526638
3	0xbc8a79d7	-0.0169038
4	0xbc87e6ae	-0.016589489
5	0x3cac4ec6	0.021033656
6	0xbdd68922	-0.10475375
7	0x3c73e83f	0.014886915
8	0xbc957486	-0.01824404
9	0x3c9e5d20	0.019331515
10	0x3dbb21fe	0.09137343
11	0xbc2d93c4	-0.010594312
12	0x3c325e23	0.010886702
13	0x3c9c614d	0.019089365
14	0x3d70c3e0	0.05878055
15	0x3cd5224f	0.026017336

conv5.weight f4 [32, 16, 3, 3]
0	0x3c71f7e2	0.0147685725
1	0x3d30de8d	0.04318099
2	0xbc727cc5	-0.014800255
3	0xbcc8141c	-0.024423651
4	0x3d8e547d	0.069497086
5	0xbdba5241	-0.0909772
6	0x3d350d0a	0.04420189
7	0xbd903195	-0.07040707
8	0xbdcf534c	-0.101233095
9	0x3df579c2	0.11986114
10	0xbc892aba	-0.016744006
11	0xbdb1d34d	-0.086828806
12	0xbd9e91e0	-0.07742667
13	0x3bb9a790	0.005665727
14	0xbdd27598	-0.102763355
15	0x3e16f0eb	0.1474034
16	0xbd846dad	-0.064662315
17	0xbdfe8487	-0.12427621
18	0xbdf7c40c	-0.1209794
19	0x3c010d68	0.007876731
20	0xbdb0ca58	-0.08632344
21	0xbe5b8251	-0.2143643
22	0xbe3746bd	-0.17898078
23	0x3b93bb5b	0.0045084185
24	0xbe6a6988	-0.2289182
25	0x3c9c6ee5	0.019095847
26	0x3dd071ee	0.1017798
27	0xbcb44ac8	-0.022008315
28	0xbc1c60ae	-0.009544535
29	0x3dad81b9	0.08472008
30	0xbcd90b0f	-0.026494531
31	0xbc8f0856	-0.01746003
32	0x3e051fcf	0.13000415
33	0x3d7a47ce	0.061103635
34	0x3d6341b2	0.055482574
35	0x3d104a60	0.03522718
36	0x3dcf5918	0.10124415
37	0xbd12de45	-0.035856504
38	0x3d640f6e	0.055678777
39	0xba35537d	-0.0006917043
40	0x3d3ec4e7	0.0465745
41	0x3d796372	0.060885854
42	0x3d97959c	0.074015826
43	0x3e069009	0.13140883
44	0x3dbe4aa9	0.09291584
45	0x3c67e523	0.014153752
46	0x3d48dbda	0.04903779
47	0xbdca74af	-0.09885537
48	0xbe15b23e	-0.14618775
49	0xbd839a67	-0.06425934
50	0xbd0bd872	-0.034141965
51	0x3c4268da	0.011865819
52	0x3da4d9ba	0.080493405
53	0x3dace823	0.08442714
54	0xbc864eac	-0.016394936
55	0x3d7f4c80	0.062328815
56	0xb8b24b85	-8.501768e-05
57	0xbcd6ed74	-0.026236273
58	0x3ced126f	0.028939454
59	0x3d816088	0.0631724
60	0x3cb93206	0.02260686
61	0x3d00dfa3	0.031463277
62	0xbd60cb66	-0.054881476
63	0x3d87bfa0	0.066283464
64	0xbdfef811	-0.12449659
65	0xbce7fd2b	-0.028318962
66	0xbd6c4c89	-0.057690177
67	0xbd98103b	-0.07424971
68	0x3d08c670	0.03339237
69	0xbcd468c6	-0.025928866
70	0xbd32ca70	-0.04365009
71	0xbc591958	-0.013250671
72	0xbb7fe26a	-0.0039044865
73	0xbdc3566d	-0.09537969
74	0xbe02ebd9	-0.12785281
75	0xbabb766c	-0.001430226
76	0xbc0451ee	-0.008076174
77	0x3e00611c	0.12537044
78	0xbd261155	-0.040543873
79	0xbe053c4f	-0.13011287
80	0xbc152d52	-0.0091050435
81	0x3e8b73fd	0.2723693
82	0x3dc88199	0.09790344
83	0x3dacfe7d	0.08446977
84	0x3da1efda	0.07907076
85	0x3d81e4ea	0.0634249
86	0xbde2b578	-0.11069769
87	0x3da9d4b8	0.08292526
88	0x3c2d80bc	0.010589775
89	0xbdb34b75	-0.08754627
90	0x3a026eaa	0.00049755967
91	0xbdd2b7d8	-0.10288972
92	0xbd438bc3	-0.04774071
93	0x3c359cb3	0.011084723
94	0xbd0e2d43	-0.034711134
95	0x3d19fa29	0.037592087
96	0xbd8ead37	-0.06966632
97	0xbe245b8c	-0.16050547
98	0x3e3c0acd	0.18363495
99	0x3e265123	0.16241889
100	0xbb591adc	-0.0033127582
101	0xbdbf9ec3	-0.09356453
102	0x3d3cbb22	0.0460769
103	0xbc85d9f2	-0.016339276
104	0x3d0a5760	0.033774734
105	0xbc46e25d	-0.01213893
106	0x3c411824	0.011785541
107	0xbc42d754	-0.011892159
108	0x3cb596ce	0.022166636
109	0x3da56e71	0.08077706
110	0xbb10d6f7	-0.0022100785
111	0x3d4a5bf0	0.049404085
112	0x3cd52abb	0.026021352
113	0x3e192a2b	0.14957492
114	0x3cf56b1d	0.029958302
115	0xbd63eba3	-0.055644643
116	0x3e236e95	0.15960152
117	0x3df4828e	0.11938964
118	0x3c35de15	0.011100312
119	0x3c9dc479	0.019258725
120	0xbe27de33	-0.16393356
121	0xbd8c15e7	-0.06840115
122	0xbe2241c8	-0.15845406
123	0xbae9b0c4	-0.001782917
124	0xbd433cb0	-0.047665298
125	0xbce05457	-0.027383966
126	0xbdcb7d42	-0.099360004
127	0xbe843f47	-0.25829527
128	0x3bc407bb	0.005982367
129	0xbe6c79b1	-0.23093297
130	0x3c4a74d3	0.012356955
131	0x3e31aa54	0.17350131
132	0xbd1b438b	-0.03790621
133	0x3c52bd7b	0.0128625585
134	0xbdbf1f17	-0.09332102
135	0x3c2f9399	0.010716342
136	0xbe5d9dd2	-0.21642235
137	0x3d8e0c45	0.06935934
138	0xbe254ea9	-0.16143288
139	0x3d2cc301	0.042178158
140	0x3d4c3bd5	0.049861748
141	0xbebd1984	-0.3693353
142	0xbd0d838c	-0.03454928
143	0x3d65d94d	0.056115437
144	0xbc9e0c2a	-0.01929291
145	0x3dd0c79b	0.10194322
146	0xbd1c9048	-0.038223535
147	0x3c93c644	0.018038876
148	0xbcbf4335	-0.023347476
149	0x3c9f3140	0.019432664
150	0xbd8f3a42	-0.06993534
151	0xbdb45cd0	-0.08806765
152	0xbd1b00fc	-0.037842736
153	0x3db02b1e	0.08601974
154	0xbe19d6b7	-0.15023313
155	0xbe55bfa1	-0.20873882
156	0xbdb62a87	-0.0889483
157	0xbd01dac0	-0.031702757
158	0xbe6497af	-0.22323488
159	0xbcda2479	-0.02662872
160	0x3dcb9483	0.09940436
161	0x3c2d103c	0.010562953
162	0x3bf54671	0.007485204
163	0xbe0ba820	-0.13638353
164	0xbe1f661a	-0.15566292
165	0x3d9a49ed	0.075336315
166	0xbcc914b8	-0.024546012
167	0xbe10d638	-0.14144218
168	0x3d8796ea	0.066205814
169	0xbd0898f9	-0.03334901
170	0xbc875dea	-0.016524274
171	0x3dd4491b	0.10365506
172	0x3d8b44fc	0.06800267
173	0x3dc5c795	0.09657208
174	0x3cb853fc	0.022500984
175	0xbccc124f	-0.024911074
176	0x3dbb2319	0.09137554
177	0xbd33d0b7	-0.043900218
178	0xbde2a8a8	-0.11067325
179	0xbd964187	-0.07336717
180	0x3e298ed1	0.16558386
181	0x3d86bd02	0.06579019
182	0x3d944109	0.07238967
183	0xbd187d4b	-0.037228864
184	0x3e77186d	0.24130411
185	0xba7c3214	-0.00096204993
186	0x3d035834	0.03206654
187	0x3e0f7b57	0.14011894
188	0x3e1e9797	0.15487514
189	0xbbb0bad9	-0.0053933677
190	0x3ccc8d13	0.024969613
191	0xbd82e48d	-0.06391249
192	0x3d1d3aec	0.03838627
193	0x3d563a9d	0.05230199
194	0xbd3e352d	-0.04643743
195	0x3ce1da4d	0.027569914
196	0x3d3e04a8	0.04639116
197	0xbddf6436	-0.109077856
198	0xbc1ae05f	-0.009452908
199	0x3d899122	0.06717135
200	0x3d777225	0.06041159
201	0xbd8ae04a	-0.06781061
202	0xbd1bf446	-0.038074754
203	0xbd1dce55	-0.03852685
204	0xbcb59854	-0.022167362
205	0x3da7d981	0.081957825
206	0xbd10ca8e	-0.03534942
207	0xbd1f05e7	-0.03882399
208	0xbc754fe4	-0.014972661
209	0x3dbff551	0.09372962
210	0xbd904da0	-0.07046056
211	0xbc251922	-0.010076793
212	0x3e045030	0.12921214
213	0xbe88e015	-0.2673346
214	0xbe81b5a9	-0.25333908
215	0xbe8adfba	-0.27123815
216	0x3dac33ea	0.08408339
217	0xbe420e3b	-0.18950741
218	0x3d0ec4de	0.034855716
219	0xbd9772f1	-0.0739497
220	0xbdc93dde	-0.09826253
221	0xbe9ea417	-0.30984566
222	0xbe15b2d8	-0.14619005
223	0xbdc139db	-0.09434863
224	0xbdd4e258	-0.10394734
225	0x3d89035d	0.066900946
226	0x3db6c02e	0.08923374
227	0x3e00eb9a	0.12589875
228	0x3dcef57d	0.10105417
229	0x3aed68d4	0.0018112906
230	0xbddf3f53	-0.1090075
231	0xbd132afb	-0.03592966
232	0x3e10d215	0.1414264
233	0x3e426a13	0.18985777
234	0x3d995ea7	0.074887566
235	0x3cad2b0a	0.021138687
236	0xbe00a26c	-0.12561959
237	0x3afadb9b	0.0019138934
238	0x3dbf42a1	0.0933888
239	0x3cf4bb32	0.029874418
240	0xbd114e06	-0.0354748
241	0x3d5053e6	0.05086126
242	0x3cc9e576	0.024645548
243	0x3d83611e	0.06415008
244	0x3ddceb5c	0.10787079
245	0xbe4a69d8	-0.19766939
246	0x3e4c3b79	0.19944562
247	0x3dd47714	0.10374275
248	0x3d9ca409	0.07648475
249	0x3d17d748	0.037070543
250	0xbc659f36	-0.01401501
251	0x3d86481d	0.06556723
252	0x3dfe0479	0.12403197
253	0xbc4bd7c4	-0.012441579
254	0xbd3aafc6	-0.045577787
255	0x3be6a5a7	0.0070387903

conv5.bias f4 [32]
0	0x3d02cd66	0.031934164
1	0xbd7d9f0b	-0.061919253
2	0xbd8d42d2	-0.068975106
3	0x3dcdba35	0.10045282
4	0xbdb3a422	-0.0877154
5	0x3b72ef26	0.0037068813
6	0xbd7a8249	-0.061159406
7	0xbd9dc723	-0.07703998
8	0x3c0819d8	0.008306943
9	0x3ca2f512	0.01989225
10	0xbd22dc86	-0.03976109
11	0x3d89e73c	0.067335576
12	0x3d69b1a0	0.057054162
13	0x3c2ca552	0.010537462
14	0xbe155a37	-0.14585195
15	0x3c016b1e	0.007899074
16	0x3c70321a	0.014660383
17	0x3dc19acc	0.09453353
18	0xbda2a781	-0.07942105
19	0xbd94f2e7	-0.072728924
20	0xbc0d7b59	-0.008635365
21	0x3db715cc	0.08939704
22	0xbc870de2	-0.016486112
23	0x3d14258a	0.036168613
24	0x3c49064e	0.01226957
25	0xbd6c1882	-0.05764056
26	0xbd438c94	-0.047741488
27	0x3d00c059	0.031433437
28	0xbd3006fe	-0.04297542
29	0x3be29063	0.006914185
30	0x3d54d0dc	0.051956996
31	0xbb52ae90	-0.0032147504

conv6.weight f4 [32, 32, 3, 3]
0	0x3c6644a6	0.014054453
1	0xbc50b256	-0.012737831
2	0x3d4dc302	0.050234802
3	0xbcd0a36b	-0.025468549
4	0xbc9c43f1	-0.019075366
5	0x3b91406b	0.004432728
6	0xbdad7572	-0.084696665
7	0xbd91fecd	-0.071286775
8	0x3d19e92c	0.037575886
9	0xbc86ad15	-0.016439954
10	0x3dcf9e5f	0.10137629
11	0x3bcb98a7	0.006213266
12	0xbd1bdc26	-0.038051747
13	0x3d79eef0	0.061018884
14	0xbd97ea37	-0.0741772
15	0xbd7264c1	-0.059178118
16	0x3de36bf7	0.11104577
17	0xbdfe5f59	-0.1242053
18	0xbd596318	-0.05307302
19	0xbc401334	-0.011723328
20	0xbcd1eddb	-0.025626114
21	0xbd6df545	-0.058095235
22	0x3c80780b	0.015682241
23	0xbdb2a675	-0.087231554
24	0x3d3b8333	0.04577942
25	0x3ab13623	0.0013520162
26	0xbe25b6cb	-0.16183011
27	0xbdf1ec2e	-0.11812626
28	0xbc5ca895	-0.013467927
29	0xbdd19313	-0.1023313
30	0x3ce5fb93	0.028074061
31	0xbd9ddff0	-0.07708728
32	0xbe044cf2	-0.12919977
33	0xbd0b1466	-0.033955
34	0xbe12e031	-0.14343335
35	0xbbda850c	-0.0066686925
36	0x3d39c3e2	0.045352824
37	0x3e0950a8	0.13409674
38	0x3da0a746	0.07844405
39	0x3c2162df	0.009850233
40	0x3bfed8f6	0.0077773286
41	0x3d549b71	0.051906053
42	0xbda2c604	-0.07947925
43	0x3de603f1	0.112312205
44	0x3dce4af5	0.10072891
45	0x3daabb4d	0.08336506
46	0x3c8faa9a	0.017537404
47	0x3cda3aa8	0.026639298
48	0x3dd7c707	0.10536008
49	0xbb9981d8	-0.004684668
50	0xbc23800e	-0.009979261
51	0xbd588043	-0.052856695
52	0xbde0b746	-0.10972457
53	0x3d22072f	0.039557632
54	0xbda3df82	-0.08001615
55	0xbd860fb6	-0.065459654
56	0x3d14fb49	0.036372457
57	0x3df846ab	0.12122854
58	0x3cef9c5f	0.029249368
59	0x3d43029f	0.04760992
60	0x3e160aeb	0.14652602
61	0x3d437f70	0.047728956
62	0x3dfbcc13	0.122947834
63	0xbc419883	-0.011816147
64	0x3d51320a	0.05107311
65	0xbbf606ed	-0.00750815
66	0xbd545876	-0.051842175
67	0x3c3c6098	0.011497639
68	0x3d27e139	0.040986273
69	0x3cd07557	0.025446577
70	0x3cd145b2	0.025545929
71	0x3e131102	0.14361957
72	0x3d56d397	0.05244788
73	0x3befb1eb	0.0073149106
74	0x3d0a861b	0.0338193
75	0x3d96c7cf	0.07362329
76	0x3d0852e2	0.03328217
77	0xbd45beba	-0.048277594
78	0xbd57bc0d	-0.052669574
79	0xbe2787e5	-0.16360433
80	0xbdcd436e	-0.10022627
81	0x3d4b2d4a	0.049603738
82	0x3d89706d	0.06710897
83	0xbd0c2ddc	-0.034223422
84	0xbd211678	-0.03932807
85	0x3d88ad8f	0.06673729
86	0x3cda71a5	0.026665518
87	0x3d1345c6	0.035955213
88	0xbdcf4def	-0.101222865
89	0x3ba49303	0.005022408
90	0x3e2f488b	0.17117517
91	0xbc226e24	-0.009913955
92	0xbd932a56	-0.07185809
93	0x3cc389f4	0.023869492
94	0x3cc77aa1	0.024350466
95	0xbe128fc6	-0.14312658
96	0xbd3a2577	-0.045445886
97	0x38fc10a8	0.00012019399
98	0x3c6119fa	0.013739103
99	0x3e4d1018	0.2002567
100	0x3c5b9e01	0.01340437
101	0x3d1e0a67	0.03858414
102	0x3e831930	0.25605154
103	0x3db5d3c7	0.08878284
104	0xbe1e7b74	-0.15476781
105	0x3ed0813a	0.40723592
106	0x3e1d6582	0.15370753
107	0x3d6c3535	0.05766793
108	0x3c03f345	0.008053605
109	0x3c27dabd	0.010245022
110	0xbe2de1f3	-0.16980724
111	0xbe518b9e	-0.20463416
112	0xbd043675	-0.032278497
113	0xbd97c58b	-0.07410725
114	0xbdaeee94	-0.08541599
115	0x3d7418dc	0.05959402
116	0x3d5c598e	0.053796344
117	0xbd2ac6ef	-0.041693624
118	0x3c9e2076	0.019302588
119	0x3d7a8520	0.061162114
120	0x3d2f62c5	0.042818803
121	0xbd1d709d	-0.038437475
122	0xbcb1f6f1	-0.021724196
123	0x3de91c76	0.113823816
124	0xbdd7c5b7	-0.10535758
125	0xbe0e48c0	-0.1389494
126	0x3d6b9e13	0.0575238
127	0xbc523f78	-0.012832515
128	0x3bbe9cb8	0.005817022
129	0x385724fe	5.1294446e-05
130	0x3ca03ad9	0.01955931
131	0xbc5af232	-0.013363408
132	0x3b6d2305	0.0036184203
133	0x3c1c8f7a	0.009555692
134	0xbba16437	-0.0049252766
135	0xbd1eeb59	-0.038798664
136	0x3d19dafb	0.03756235
137	0x3d870614	0.06592956
138	0xbc88f093	-0.016716277
139	0x3d6f62ee	0.058443956
140	0x3d13959f	0.03603136
141	0x3d8a1af9	0.06743426
142	0x3dba0990	0.09083855
143	0x3df310c0	0.11868429
144	0x3dc89e1c	0.09795782
145	0xbe03aaca	-0.1285812
146	0xbdc5cafd	-0.096578576
147	0xbc162fd8	-0.00916668
148	0x3d7ec95d	0.062203754
149	0xba445ce3	-0.0007490648
150	0x3e6b6679	0.22988309
151	0x3bc32f2f	0.0059565525
152	0xbdc9644c	-0.09833583
153	0xbd31adbd	-0.04337858
154	0xbb963048	-0.0045833923
155	0xbdbe77ed	-0.09300218
156	0xbd79953d	-0.06093334
157	0xbd53cccf	-0.051708993
158	0xbd270c3f	-0.040783163
159	0x3baeb98b	0.005332177
160	0xbc224418	-0.00990393
161	0x3d833d1d	0.06408141
162	0xbda24c76	-0.0792474
163	0xbd7d9dba	-0.061917998
164	0xbc64c0ae	-0.013961954
165	0xbda021a5	-0.07818917
166	0xbcce39a7	-0.025173975
167	0x3d40a752	0.04703457
168	0x3ddf6459	0.10907812
169	0xbc5d7c27	-0.01351837
170	0x3d430239	0.04760954
171	0x3d856739	0.06513829
172	0xbd0d516e	-0.034501486
173	0xbcc2742a	-0.023737032
174	0x3d8a1a4d	0.06743298
175	0xbd247f3f	-0.040160414
176	0x3df8353d	0.121195294
177	0x3d54b015	0.051925737
178	0x3d96c1e6	0.07361202
179	0x3d155a27	0.03646293
180	0x3d1f09b1	0.0388276
181	0xbc91a74a	-0.017779965
182	0x3cd7e95a	0.026356388
183	0xbc475185	-0.012165432
184	0x3c0aade2	0.008464308
185	0xbca91cb0	-0.020643562
186	0xbcade4cc	-0.021227263
187	0xbdd79e7a	-0.10528274
188	0xbc9791c9	-0.018502133
189	0x3d82de1d	0.06390021
190	0x3db4b5c9	0.08823735
191	0x3e214d6b	0.15752189
192	0x3d69ea7a	0.05710838
193	0xbc4125f7	-0.011788837
194	0xbdb1bdc5	-0.08678774
195	0x3e6b8bdd	0.23002572
196	0x3df96d4e	0.12179051
197	0x3dad8330	0.08472288
198	0x3dcff2aa	0.10153706
199	0x3e094cb4	0.13408166
200	0x3b5ab585	0.0033372354
201	0xbd161d64	-0.036649123
202	0x3cea58ec	0.028606854
203	0x3dd37369	0.10324747
204	0x3da2be98	0.07946509
205	0xbd2a691a	-0.04160414
206	0xbd217ae4	-0.03942384
207	0xbe13867b	-0.14406769
208	0xbcaca1b1	-0.021073194
209	0xbda67ca8	-0.08129245
210	0xbbb72fe4	-0.005590426
211	0xbdc9f654	-0.098614365
212	0xbd2fdaaf	-0.042933162
213	0xbe6a401d	-0.2287602
214	0xbe0b568e	-0.13607237
215	0xbd12575e	-0.03572785
216	0x3bcfbaf4	0.006339425
217	0xbdac42c1	-0.0841117
218	0x3e0f307f	0.13983344
219	0xbd156e24	-0.03648199
220	0xbe1b1a26	-0.15146694
221	0xbd990e9e	-0.07473491
222	0xbdfbf48b	-0.12302502
223	0x3d6b18d9	0.057396743
224	0xbdb9fc23	-0.090812944
225	0xbc3cf66d	-0.011533362
226	0x3d2f579c	0.04280816
227	0xbce08974	-0.027409293
228	0x3e150d41	0.14555837
229	0xbc99e23a	-0.018784631
230	0xbcb05e49	-0.021529334
231	0x3e14ff25	0.14550455
232	0xbce7793d	-0.028256053
233	0x3d461d25	0.04836764
234	0x3d623114	0.055222586
235	0x3d1b17b2	0.037864394
236	0x3cd36439	0.025804626
237	0x3d411cd5	0.047146637
238	0x3d08ed44	0.0334294
239	0xbc0f9fbe	-0.008766113
240	0x3d69836d	0.057010103
241	0xbbffaf34	-0.0078028683
242	0x3d083d58	0.033261627
243	0xbd269ada	-0.04067502
244	0xbc6ea8ea	-0.014566639
245	0xbd2dc812	-0.04242713
246	0x3dad9ea0	0.08477521
247	0xbe2d8261	-0.16944267
248	0xbe3a2945	-0.18179806
249	0x3d35a50f	0.044346865
250	0xbc5e9b1d	-0.013586787
251	0xbd95fed7	-0.073239975
252	0x3d042126	0.032258175
253	0xbda914db	-0.08255931
254	0xbd1b27cc	-0.03787975
255	0xbd2f5cbe	-0.042813055

conv6.bias f4 [32]
0	0xbc048c5f	-0.008090108
1	0x3de357bb	0.11100718
2	0x3d94e711	0.07270635
3	0x3b1b9cba	0.002374454
4	0x3d2bdfc0	0.04196143
5	0xbb470f39	-0.0030374064
6	0x3ae498d2	0.0017440564
7	0x3d6c134a	0.057635583
8	0x3d6072e7	0.05479708
9	0x3d7b729d	0.0613886
10	0xbc130eca	-0.008975694
11	0x3d83ae62	0.06429745
12	0x3d62c90c	0.055367514
13	0xbda41b65	-0.080130376
14	0x3d94ee92	0.07272066
15	0xbc39e4a8	-0.01134602
16	0xbdbeeeca	-0.09322889
17	0x3c845267	0.016152574
18	0xbdbb6380	-0.091498375
19	0x3d40e73b	0.04709552
20	0xbe018444	-0.12648112
21	0xbda1c90d	-0.078996755
22	0x3d6e4e86	0.058180355
23	0x3d5bc5a8	0.053655297
24	0xbd0a4850	-0.03376037
25	0xbd0f5c8c	-0.03500037
26	0x3d583b18	0.05279073
27	0x3c93ca2e	0.018040743
28	0xbd12fbad	-0.035884548
29	0x3d114f03	0.035475742
30	0x3d8979f4	0.06712714
31	0xbc7ceb2c	-0.015436929

t_conv1.weight f4 [32, 32, 3, 3]
0	0xbda2e763	-0.0795429
1	0xbe51158f	-0.2041838
2	0xbdfa4000	-0.12219238
3	0xbccb8f15	-0.0248485
4	0x3ccfdc05	0.025373468
5	0xbddbc057	-0.10730045
6	0x3b3a80cd	0.002845812
7	0xbcea3489	-0.028589504
8	0x3d045e44	0.03231646
9	0x3e070efb	0.13189308
10	0x3dbafff2	0.09130849
11	0x3cd97b52	0.026548062
12	0xbd2d64d0	-0.04233247
13	0x3c0ccacf	0.008593275
14	0xbd6b67db	-0.05747209
15	0x3d85c6b4	0.0653204
16	0xbe1709b8	-0.14749801
17	0x3a9e3fc8	0.0012073452
18	0xbe3ef203	-0.18647008
19	0xbd36f9cb	-0.044671815
20	0xbe024003	-0.12719731
21	0x3b4cc404	0.0031244764
22	0xbe8bf19a	-0.27332765
23	0xbd5ef53d	-0.054433096
24	0xbdc093f3	-0.09403219
25	0xbe2386e1	-0.15969421
26	0xbdc93bae	-0.09825836
27	0xbded4e71	-0.11587227
28	0xbdc808a3	-0.09767272
29	0xbdf4e4b5	-0.11957685
30	0xbe5e2f73	-0.21697788
31	0xbe287097	-0.164492
32	0xbdb0185e	-0.08598398
33	0x3d9436d5	0.07237021
34	0x3babc8e3	0.0052424534
35	0x3d0444cb	0.03229217
36	0x3e19d0f3	0.15021114
37	0x3d5736c5	0.052542467
38	0x3c981c27	0.018568112
39	0xbc24a019	-0.010047936
40	0xbc2768ca	-0.010217855
41	0xbe380c55	-0.17973454
42	0x3cd7c927	0.026341034
43	0x3d906bd1	0.07051814
44	0xbcd1cfa3	-0.025611704
45	0xbe09e507	-0.13466273
46	0xbe2f84a6	-0.17140445
47	0xbd3f93cf	-0.04677182
48	0xbddbd1bd	-0.10733364
49	0x3cee59e9	0.029095607
50	0x3d01fc81	0.031734947
51	0xbdb7f8e6	-0.089830205
52	0x3dac328f	0.08408081
53	0x3dc8020d	0.09766016
54	0x3db39d97	0.08770292
55	0xbda20c85	-0.07912544
56	0x3d31d201	0.043413166
57	0x3d2f6cc4	0.042828336
58	0xbd813fd2	-0.06311001
59	0x3c91648f	0.017748145
60	0xbcb6440f	-0.02224925
61	0xbdf95f21	-0.121763475
62	0xbda9087f	-0.082535736
63	0xbd4e7752	-0.05040676
64	0xbe07b353	-0.13252
65	0xbca13f4a	-0.019683499
66	0x3d523ad0	0.05132562
67	0xbd8a6ac2	-0.06758644
68	0xbd386dcf	-0.045026597
69	0x3c954a0c	0.018223785
70	0xbe62ef79	-0.22161664
71	0x3ca030dd	0.01955455
72	0xbd790d5e	-0.060803764
73	0xbe29f78c	-0.16598338
74	0xbda882d2	-0.08228077
75	0xbc037cc3	-0.008025351
76	0x3c9748c0	0.018467307
77	0x3ba3f54d	0.0050036074
78	0x3bc37bdb	0.0059656925
79	0x3b8adadf	0.0042375172
80	0xbb89adf6	-0.004201646
81	0xbcfb6a0f	-0.030690221
82	0x3cf98c14	0.030462302
83	0xbcbcfd57	-0.02307002
84	0xbd887296	-0.066624805
85	0xbb96509d	-0.0045872466
86	0x3cf6d82a	0.030132372
87	0xbc307278	-0.010769479
88	0xbca2d6fc	-0.019877903
89	0x3d3a18c3	0.04543377
90	0xbe03b138	-0.12860572
91	0xbd06e8ff	-0.032937046
92	0xbe59e463	-0.21278529
93	0xbe2c1614	-0.16805297
94	0xbdef9594	-0.11698452
95	0x3ddcfe2c	0.10790667
96	0x3d1d6733	0.038428497
97	0x3bc122e1	0.0058940505
98	0x3c78cd32	0.015185641
99	0x3c94a24f	0.018143801
100	0xbd3fac36	-0.046795093
101	0xbc44b910	-0.012007013
102	0xbce67ce6	-0.028135728
103	0xbc9a48de	-0.018833574
104	0x3c553c6f	0.013014897
105	0x3c65af61	0.014018864
106	0xbd48a07f	-0.048981186
107	0xbd8a4756	-0.067518875
108	0xbd53cb43	-0.051707517
109	0x3d2437a9	0.040092144
110	0x3ae8a24b	0.0017748562
111	0xbd39f89e	-0.045403115
112	0x3d3e73b1	0.04649705
113	0xbcb81113	-0.02246908
114	0x3d93c6ab	0.07215627
115	0x3d949447	0.07254844
116	0x3b025657	0.0019887888
117	0x3d68dec8	0.056853086
118	0x3d65206b	0.05593912
119	0x3dcb709b	0.09933587
120	0x395f3710	0.0002128745
121	0x3d84289d	0.06453059
122	0xbded696a	-0.11592372
123	0xbdaed967	-0.0853756
124	0xbdc19552	-0.09452309
125	0xbd067403	-0.03282548
126	0xbde0fd35	-0.109857954
127	0xbe156d92	-0.14592579
128	0x3cac4ee0	0.021033704
129	0xba44c242	-0.00075057533
130	0xbd84f339	-0.064917035
131	0x3cda05ac	0.026614033
132	0x3de08b5a	0.10964079
133	0xbd3aab9c	-0.045573816
134	0xbc8b3741	-0.01699412
135	0x3cb75df3	0.022383666
136	0xbda94eb1	-0.08266962
137	0xbd361078	-0.0444493
138	0xbcf85b23	-0.030316895
139	0x3d4cd628	0.050008923
140	0x3c978721	0.018497052
141	0x3dc7e51b	0.09760495
142	0x3d81fc68	0.06346971
143	0x3da9ba0d	0.082874395
144	0xbcea4e91	-0.028601917
145	0xbdce2c9b	-0.100671016
146	0x3d136ad5	0.035990555
147	0xbdaba7e4	-0.08381632
148	0xbdf1a270	-0.117985606
149	0xbcfc1c94	-0.030775346
150	0x3d2c2c22	0.042034276
151	0xba153b17	-0.0005692704
152	0xbc2848ac	-0.010271233
153	0xbcbe0dba	-0.023199905
154	0xbc03c478	-0.008042447
155	0x3d2de256	0.04245218
156	0x3cc2f2d6	0.023797434
157	0xbc5498ae	-0.012975855
158	0xbc02d985	-0.007986431
159	0x3d93c094	0.07214466
160	0xbc6ebc0d	-0.014571202
161	0x3dc7da26	0.097584054
162	0xbc6aeb04	-0.014338259
163	0x3dcbd289	0.09952266
164	0xbd7ad30b	-0.061236423
165	0x3cb27068	0.021782115
166	0xbde82e9d	-0.11337016
167	0x3c36f2a5	0.011166249
168	0x3caba1e1	0.020951213
169	0x3d15ed69	0.036603365
170	0xbcae9d90	-0.021315366
171	0x3c84283b	0.016132465
172	0xbdd6984d	-0.10478268
173	0xbd516428	-0.051120907
174	0xbc9d9fe0	-0.019241273
175	0x3dd5fd74	0.10448733
176	0xbe23b621	-0.15987445
177	0x3a2b288f	0.0006529176
178	0x3da4e900	0.08052254
179	0x3a479251	0.00076130504
180	0xbd6c73c1	-0.05772758
181	0xbde8a004	-0.113586456
182	0xbdc705ff	-0.097179405
183	0xbccd4a54	-0.025059856
184	0xbd8bcdcf	-0.06826364
185	0xbe0e0a2c	-0.13871068
186	0x3ca467b2	0.020068977
187	0xbd9d5c32	-0.076836005
188	0xbe0d748a	-0.13813987
189	0xbdbf07d2	-0.093276635
190	0x3d49e386	0.04928925
191	0xbd972180	-0.073794365
192	0xbd358381	-0.044314865
193	0xbbaa405b	-0.00519566
194	0xbd18b3c3	-0.03728081
195	0x3d766f17	0.060164537
196	0x3d0eb00f	0.03483587
197	0xbcb7e0ad	-0.022446001
198	0x3dce6b89	0.100791045
199	0xbcc5c1bc	-0.024140231
200	0xbd36decc	-0.04464607
201	0xbce7cd3f	-0.028296111
202	0xbdbc851e	-0.092050776
203	0x3c547616	0.012967607
204	0xbdb1d756	-0.0868365
205	0x3d6d9c63	0.05801047
206	0xbe1a3b51	-0.1506169
207	0x3cd3720a	0.025811214
208	0x3cc4e166	0.02403326
209	0x3d284cf8	0.041089028
210	0x3ca3050d	0.01989987
211	0x3d854242	0.06506778
212	0x3c82e9b5	0.01598058
213	0xbdf5108b	-0.11966046
214	0xbe1a0384	-0.15040404
215	0xbd9606d5	-0.07325522
216	0xbd321b81	-0.04348326
217	0xbca93a8c	-0.0206578
218	0x3ddd4c20	0.10805535
219	0xbdb4c9b8	-0.08827537
220	0xbd336a8c	-0.043802783
221	0xbcdbf80a	-0.026851673
222	0xbd9acf9c	-0.075591296
223	0xbc9141e6	-0.017731618
224	0xbd098c18	-0.03358087
225	0xbab4c862	-0.0013792629
226	0xbe41b02f	-0.18914865
227	0xbe1c83fb	-0.15284722
228	0xbe24a2f7	-0.16077791
229	0xbc8eb129	-0.01741846
230	0xbdfce2e7	-0.12347966
231	0x3dc487ca	0.09596212
232	0x3d3ce18a	0.04611353
233	0xbaec39fa	-0.001802265
234	0x3ce072f6	0.027398568
235	0xbce8d6f3	-0.028422808
236	0x3c2dfc8b	0.010619293
237	0x3bdddd18	0.006770741
238	0x3d3a844f	0.045536336
239	0xbcbe7f0c	-0.02325394
240	0x3c778242	0.0151067395
241	0x3c8f5e55	0.017501036
242	0x3d779d83	0.06045295
243	0x3cf4a858	0.029865429
244	0xbd012acc	-0.031534955
245	0xbde7ee78	-0.11324781
246	0x3cc61e55	0.024184385
247	0x3ba03399	0.0048889634
248	0xbceebf47	-0.029143943
249	0x3cdd6c32	0.02702913
250	0x3d032b0b	0.03202347
251	0xbde36389	-0.11102969
252	0xbb72f9ea	-0.003707523
253	0x3a8ada29	0.0010593581
254	0x3d5f0cc3	0.05445553
255	0x39636fbe	0.00021690034

t_conv1.bias f4 [32]
0	0x3c30b183	0.01078451
1	0xbcad4b25	-0.021153996
2	0x3d1d2ea6	0.038374566
3	0x3ccc3c7f	0.02493119
4	0x3cc60cff	0.024176119
5	0x3c3a9690	0.011388436
6	0xbcbee6b4	-0.023303367
7	0x3cc557a2	0.024089638
8	0x3d037f6f	0.032103952
9	0xbcc328f2	-0.023823235
10	0x3c4688a6	0.01211754
11	0xbd8e4383	-0.069464706
12	0xbcafe02b	-0.021469196
13	0x3c733f50	0.014846638
14	0x3cf6dfb9	0.030135976
15	0xbd111188	-0.03541711
16	0xbbe1f86d	-0.0068960697
17	0x3ce30ca7	0.027715994
18	0x3c03e062	0.0080491025
19	0xbb221787	-0.0024733262
20	0x3d8dd8df	0.069261305
21	0xbcdb736d	-0.026788438
22	0x3a739b9a	0.0009292901
23	0x3bc1a086	0.0059090285
24	0x3d0a7631	0.033804122
25	0x3bbd625a	0.0057795467
26	0xbdead8c3	-0.11467125
27	0x3cd67fd7	0.026184006
28	0xbdf7fb61	-0.121084936
29	0xbd955b74	-0.07292834
30	0xbb860aaa	-0.0040906267
31	0xbce3594e	-0.027752545
